// -----// IR Dump After mlir::iree_compiler::IREE::HAL::AssignTargetDevicesPass (iree-hal-assign-target-devices) //----- //
#executable_target_cuda_nvptx_fb = #hal.executable.target<"cuda", "cuda-nvptx-fb", {target_arch = "sm_75"}>
#device_target_cuda = #hal.device.target<"cuda", {executable_targets = [#executable_target_cuda_nvptx_fb], legacy_sync}>
module @LinearModule attributes {hal.device.targets = [#device_target_cuda]} {
  util.global private @_params.weight {noinline} = dense<[[1.54099607, -0.293428898, -2.17878938], [0.568431258, -1.08452237, -1.39859545], [0.403346837, 0.838026344, -0.719257593], [-0.403343529, -0.596635341, 0.182036489]]> : tensor<4x3xf32>
  util.global private @_params.bias {noinline} = dense<[-0.856674611, 1.10060418, -1.07118738]> : tensor<3xf32>
  func.func @main(%arg0: tensor<4xf32>) -> tensor<3xf32> attributes {torch.args_schema = "[1, {\22type\22: \22builtins.tuple\22, \22context\22: \22null\22, \22children_spec\22: [{\22type\22: \22builtins.list\22, \22context\22: \22null\22, \22children_spec\22: [{\22type\22: null, \22context\22: null, \22children_spec\22: []}]}, {\22type\22: \22builtins.dict\22, \22context\22: \22[]\22, \22children_spec\22: []}]}]", torch.return_schema = "[1, {\22type\22: null, \22context\22: null, \22children_spec\22: []}]"} {
    %0 = torch_c.from_builtin_tensor %arg0 : tensor<4xf32> -> !torch.vtensor<[4],f32>
    %1 = call @forward(%0) : (!torch.vtensor<[4],f32>) -> !torch.vtensor<[3],f32>
    %2 = torch_c.to_builtin_tensor %1 : !torch.vtensor<[3],f32> -> tensor<3xf32>
    return %2 : tensor<3xf32>
  }
  func.func private @forward(%arg0: !torch.vtensor<[4],f32>) -> !torch.vtensor<[3],f32> {
    %int0 = torch.constant.int 0
    %0 = torch.aten.unsqueeze %arg0, %int0 : !torch.vtensor<[4],f32>, !torch.int -> !torch.vtensor<[1,4],f32>
    %_params.weight = util.global.load @_params.weight : tensor<4x3xf32>
    %1 = torch_c.from_builtin_tensor %_params.weight : tensor<4x3xf32> -> !torch.vtensor<[4,3],f32>
    %2 = torch.aten.mm %0, %1 : !torch.vtensor<[1,4],f32>, !torch.vtensor<[4,3],f32> -> !torch.vtensor<[1,3],f32>
    %int0_0 = torch.constant.int 0
    %3 = torch.aten.squeeze.dim %2, %int0_0 : !torch.vtensor<[1,3],f32>, !torch.int -> !torch.vtensor<[3],f32>
    %_params.bias = util.global.load @_params.bias : tensor<3xf32>
    %4 = torch_c.from_builtin_tensor %_params.bias : tensor<3xf32> -> !torch.vtensor<[3],f32>
    %int1 = torch.constant.int 1
    %5 = torch.aten.add.Tensor %3, %4, %int1 : !torch.vtensor<[3],f32>, !torch.vtensor<[3],f32>, !torch.int -> !torch.vtensor<[3],f32>
    return %5 : !torch.vtensor<[3],f32>
  }
}


// -----// IR Dump After SetStrictSymbolicShapesPass (torch-iree-set-strict-symbolic-shapes) //----- //
func.func @main(%arg0: tensor<4xf32>) -> tensor<3xf32> attributes {torch.args_schema = "[1, {\22type\22: \22builtins.tuple\22, \22context\22: \22null\22, \22children_spec\22: [{\22type\22: \22builtins.list\22, \22context\22: \22null\22, \22children_spec\22: [{\22type\22: null, \22context\22: null, \22children_spec\22: []}]}, {\22type\22: \22builtins.dict\22, \22context\22: \22[]\22, \22children_spec\22: []}]}]", torch.assume_strict_symbolic_shapes, torch.return_schema = "[1, {\22type\22: null, \22context\22: null, \22children_spec\22: []}]"} {
  %0 = torch_c.from_builtin_tensor %arg0 : tensor<4xf32> -> !torch.vtensor<[4],f32>
  %1 = call @forward(%0) : (!torch.vtensor<[4],f32>) -> !torch.vtensor<[3],f32>
  %2 = torch_c.to_builtin_tensor %1 : !torch.vtensor<[3],f32> -> tensor<3xf32>
  return %2 : tensor<3xf32>
}

// -----// IR Dump After SetStrictSymbolicShapesPass (torch-iree-set-strict-symbolic-shapes) //----- //
func.func private @forward(%arg0: !torch.vtensor<[4],f32>) -> !torch.vtensor<[3],f32> attributes {torch.assume_strict_symbolic_shapes} {
  %int0 = torch.constant.int 0
  %0 = torch.aten.unsqueeze %arg0, %int0 : !torch.vtensor<[4],f32>, !torch.int -> !torch.vtensor<[1,4],f32>
  %_params.weight = util.global.load @_params.weight : tensor<4x3xf32>
  %1 = torch_c.from_builtin_tensor %_params.weight : tensor<4x3xf32> -> !torch.vtensor<[4,3],f32>
  %2 = torch.aten.mm %0, %1 : !torch.vtensor<[1,4],f32>, !torch.vtensor<[4,3],f32> -> !torch.vtensor<[1,3],f32>
  %int0_0 = torch.constant.int 0
  %3 = torch.aten.squeeze.dim %2, %int0_0 : !torch.vtensor<[1,3],f32>, !torch.int -> !torch.vtensor<[3],f32>
  %_params.bias = util.global.load @_params.bias : tensor<3xf32>
  %4 = torch_c.from_builtin_tensor %_params.bias : tensor<3xf32> -> !torch.vtensor<[3],f32>
  %int1 = torch.constant.int 1
  %5 = torch.aten.add.Tensor %3, %4, %int1 : !torch.vtensor<[3],f32>, !torch.vtensor<[3],f32>, !torch.int -> !torch.vtensor<[3],f32>
  return %5 : !torch.vtensor<[3],f32>
}

// -----// IR Dump After Canonicalizer (canonicalize) //----- //
func.func @main(%arg0: tensor<4xf32>) -> tensor<3xf32> attributes {torch.args_schema = "[1, {\22type\22: \22builtins.tuple\22, \22context\22: \22null\22, \22children_spec\22: [{\22type\22: \22builtins.list\22, \22context\22: \22null\22, \22children_spec\22: [{\22type\22: null, \22context\22: null, \22children_spec\22: []}]}, {\22type\22: \22builtins.dict\22, \22context\22: \22[]\22, \22children_spec\22: []}]}]", torch.assume_strict_symbolic_shapes, torch.return_schema = "[1, {\22type\22: null, \22context\22: null, \22children_spec\22: []}]"} {
  %0 = torch_c.from_builtin_tensor %arg0 : tensor<4xf32> -> !torch.vtensor<[4],f32>
  %1 = call @forward(%0) : (!torch.vtensor<[4],f32>) -> !torch.vtensor<[3],f32>
  %2 = torch_c.to_builtin_tensor %1 : !torch.vtensor<[3],f32> -> tensor<3xf32>
  return %2 : tensor<3xf32>
}

// -----// IR Dump After Canonicalizer (canonicalize) //----- //
func.func private @forward(%arg0: !torch.vtensor<[4],f32>) -> !torch.vtensor<[3],f32> attributes {torch.assume_strict_symbolic_shapes} {
  %int1 = torch.constant.int 1
  %int0 = torch.constant.int 0
  %0 = torch.aten.unsqueeze %arg0, %int0 : !torch.vtensor<[4],f32>, !torch.int -> !torch.vtensor<[1,4],f32>
  %_params.weight = util.global.load @_params.weight : tensor<4x3xf32>
  %1 = torch_c.from_builtin_tensor %_params.weight : tensor<4x3xf32> -> !torch.vtensor<[4,3],f32>
  %2 = torch.aten.mm %0, %1 : !torch.vtensor<[1,4],f32>, !torch.vtensor<[4,3],f32> -> !torch.vtensor<[1,3],f32>
  %3 = torch.aten.squeeze.dim %2, %int0 : !torch.vtensor<[1,3],f32>, !torch.int -> !torch.vtensor<[3],f32>
  %_params.bias = util.global.load @_params.bias : tensor<3xf32>
  %4 = torch_c.from_builtin_tensor %_params.bias : tensor<3xf32> -> !torch.vtensor<[3],f32>
  %5 = torch.aten.add.Tensor %3, %4, %int1 : !torch.vtensor<[3],f32>, !torch.vtensor<[3],f32>, !torch.int -> !torch.vtensor<[3],f32>
  return %5 : !torch.vtensor<[3],f32>
}

// -----// IR Dump After BitCastQuantTensorPass (torch-iree-bitcast-quant-tensor) //----- //
func.func @main(%arg0: tensor<4xf32>) -> tensor<3xf32> attributes {torch.args_schema = "[1, {\22type\22: \22builtins.tuple\22, \22context\22: \22null\22, \22children_spec\22: [{\22type\22: \22builtins.list\22, \22context\22: \22null\22, \22children_spec\22: [{\22type\22: null, \22context\22: null, \22children_spec\22: []}]}, {\22type\22: \22builtins.dict\22, \22context\22: \22[]\22, \22children_spec\22: []}]}]", torch.assume_strict_symbolic_shapes, torch.return_schema = "[1, {\22type\22: null, \22context\22: null, \22children_spec\22: []}]"} {
  %0 = torch_c.from_builtin_tensor %arg0 : tensor<4xf32> -> !torch.vtensor<[4],f32>
  %1 = call @forward(%0) : (!torch.vtensor<[4],f32>) -> !torch.vtensor<[3],f32>
  %2 = torch_c.to_builtin_tensor %1 : !torch.vtensor<[3],f32> -> tensor<3xf32>
  return %2 : tensor<3xf32>
}

// -----// IR Dump After BitCastQuantTensorPass (torch-iree-bitcast-quant-tensor) //----- //
func.func private @forward(%arg0: !torch.vtensor<[4],f32>) -> !torch.vtensor<[3],f32> attributes {torch.assume_strict_symbolic_shapes} {
  %int1 = torch.constant.int 1
  %int0 = torch.constant.int 0
  %0 = torch.aten.unsqueeze %arg0, %int0 : !torch.vtensor<[4],f32>, !torch.int -> !torch.vtensor<[1,4],f32>
  %_params.weight = util.global.load @_params.weight : tensor<4x3xf32>
  %1 = torch_c.from_builtin_tensor %_params.weight : tensor<4x3xf32> -> !torch.vtensor<[4,3],f32>
  %2 = torch.aten.mm %0, %1 : !torch.vtensor<[1,4],f32>, !torch.vtensor<[4,3],f32> -> !torch.vtensor<[1,3],f32>
  %3 = torch.aten.squeeze.dim %2, %int0 : !torch.vtensor<[1,3],f32>, !torch.int -> !torch.vtensor<[3],f32>
  %_params.bias = util.global.load @_params.bias : tensor<3xf32>
  %4 = torch_c.from_builtin_tensor %_params.bias : tensor<3xf32> -> !torch.vtensor<[3],f32>
  %5 = torch.aten.add.Tensor %3, %4, %int1 : !torch.vtensor<[3],f32>, !torch.vtensor<[3],f32>, !torch.int -> !torch.vtensor<[3],f32>
  return %5 : !torch.vtensor<[3],f32>
}

// -----// IR Dump After ConvertCustomQuantOp (torch-convert-custom-quant-op) //----- //
func.func @main(%arg0: tensor<4xf32>) -> tensor<3xf32> attributes {torch.args_schema = "[1, {\22type\22: \22builtins.tuple\22, \22context\22: \22null\22, \22children_spec\22: [{\22type\22: \22builtins.list\22, \22context\22: \22null\22, \22children_spec\22: [{\22type\22: null, \22context\22: null, \22children_spec\22: []}]}, {\22type\22: \22builtins.dict\22, \22context\22: \22[]\22, \22children_spec\22: []}]}]", torch.assume_strict_symbolic_shapes, torch.return_schema = "[1, {\22type\22: null, \22context\22: null, \22children_spec\22: []}]"} {
  %0 = torch_c.from_builtin_tensor %arg0 : tensor<4xf32> -> !torch.vtensor<[4],f32>
  %1 = call @forward(%0) : (!torch.vtensor<[4],f32>) -> !torch.vtensor<[3],f32>
  %2 = torch_c.to_builtin_tensor %1 : !torch.vtensor<[3],f32> -> tensor<3xf32>
  return %2 : tensor<3xf32>
}

// -----// IR Dump After ConvertCustomQuantOp (torch-convert-custom-quant-op) //----- //
func.func private @forward(%arg0: !torch.vtensor<[4],f32>) -> !torch.vtensor<[3],f32> attributes {torch.assume_strict_symbolic_shapes} {
  %int1 = torch.constant.int 1
  %int0 = torch.constant.int 0
  %0 = torch.aten.unsqueeze %arg0, %int0 : !torch.vtensor<[4],f32>, !torch.int -> !torch.vtensor<[1,4],f32>
  %_params.weight = util.global.load @_params.weight : tensor<4x3xf32>
  %1 = torch_c.from_builtin_tensor %_params.weight : tensor<4x3xf32> -> !torch.vtensor<[4,3],f32>
  %2 = torch.aten.mm %0, %1 : !torch.vtensor<[1,4],f32>, !torch.vtensor<[4,3],f32> -> !torch.vtensor<[1,3],f32>
  %3 = torch.aten.squeeze.dim %2, %int0 : !torch.vtensor<[1,3],f32>, !torch.int -> !torch.vtensor<[3],f32>
  %_params.bias = util.global.load @_params.bias : tensor<3xf32>
  %4 = torch_c.from_builtin_tensor %_params.bias : tensor<3xf32> -> !torch.vtensor<[3],f32>
  %5 = torch.aten.add.Tensor %3, %4, %int1 : !torch.vtensor<[3],f32>, !torch.vtensor<[3],f32>, !torch.int -> !torch.vtensor<[3],f32>
  return %5 : !torch.vtensor<[3],f32>
}

// -----// IR Dump After DecomposeComplexOps (torch-decompose-complex-ops) //----- //
func.func @main(%arg0: tensor<4xf32>) -> tensor<3xf32> attributes {torch.args_schema = "[1, {\22type\22: \22builtins.tuple\22, \22context\22: \22null\22, \22children_spec\22: [{\22type\22: \22builtins.list\22, \22context\22: \22null\22, \22children_spec\22: [{\22type\22: null, \22context\22: null, \22children_spec\22: []}]}, {\22type\22: \22builtins.dict\22, \22context\22: \22[]\22, \22children_spec\22: []}]}]", torch.assume_strict_symbolic_shapes, torch.return_schema = "[1, {\22type\22: null, \22context\22: null, \22children_spec\22: []}]"} {
  %0 = torch_c.from_builtin_tensor %arg0 : tensor<4xf32> -> !torch.vtensor<[4],f32>
  %1 = call @forward(%0) : (!torch.vtensor<[4],f32>) -> !torch.vtensor<[3],f32>
  %2 = torch_c.to_builtin_tensor %1 : !torch.vtensor<[3],f32> -> tensor<3xf32>
  return %2 : tensor<3xf32>
}

// -----// IR Dump After DecomposeComplexOps (torch-decompose-complex-ops) //----- //
func.func private @forward(%arg0: !torch.vtensor<[4],f32>) -> !torch.vtensor<[3],f32> attributes {torch.assume_strict_symbolic_shapes} {
  %int1 = torch.constant.int 1
  %int0 = torch.constant.int 0
  %0 = torch.aten.unsqueeze %arg0, %int0 : !torch.vtensor<[4],f32>, !torch.int -> !torch.vtensor<[1,4],f32>
  %_params.weight = util.global.load @_params.weight : tensor<4x3xf32>
  %1 = torch_c.from_builtin_tensor %_params.weight : tensor<4x3xf32> -> !torch.vtensor<[4,3],f32>
  %2 = torch.aten.mm %0, %1 : !torch.vtensor<[1,4],f32>, !torch.vtensor<[4,3],f32> -> !torch.vtensor<[1,3],f32>
  %3 = torch.aten.squeeze.dim %2, %int0 : !torch.vtensor<[1,3],f32>, !torch.int -> !torch.vtensor<[3],f32>
  %_params.bias = util.global.load @_params.bias : tensor<3xf32>
  %4 = torch_c.from_builtin_tensor %_params.bias : tensor<3xf32> -> !torch.vtensor<[3],f32>
  %5 = torch.aten.add.Tensor %3, %4, %int1 : !torch.vtensor<[3],f32>, !torch.vtensor<[3],f32>, !torch.int -> !torch.vtensor<[3],f32>
  return %5 : !torch.vtensor<[3],f32>
}

// -----// IR Dump After ConvertTorchToTMTensor (convert-torch-to-tmtensor) //----- //
func.func @main(%arg0: tensor<4xf32>) -> tensor<3xf32> attributes {torch.args_schema = "[1, {\22type\22: \22builtins.tuple\22, \22context\22: \22null\22, \22children_spec\22: [{\22type\22: \22builtins.list\22, \22context\22: \22null\22, \22children_spec\22: [{\22type\22: null, \22context\22: null, \22children_spec\22: []}]}, {\22type\22: \22builtins.dict\22, \22context\22: \22[]\22, \22children_spec\22: []}]}]", torch.assume_strict_symbolic_shapes, torch.return_schema = "[1, {\22type\22: null, \22context\22: null, \22children_spec\22: []}]"} {
  %0 = torch_c.from_builtin_tensor %arg0 : tensor<4xf32> -> !torch.vtensor<[4],f32>
  %1 = call @forward(%0) : (!torch.vtensor<[4],f32>) -> !torch.vtensor<[3],f32>
  %2 = torch_c.to_builtin_tensor %1 : !torch.vtensor<[3],f32> -> tensor<3xf32>
  return %2 : tensor<3xf32>
}

// -----// IR Dump After ConvertTorchToTMTensor (convert-torch-to-tmtensor) //----- //
func.func private @forward(%arg0: !torch.vtensor<[4],f32>) -> !torch.vtensor<[3],f32> attributes {torch.assume_strict_symbolic_shapes} {
  %int1 = torch.constant.int 1
  %int0 = torch.constant.int 0
  %0 = torch.aten.unsqueeze %arg0, %int0 : !torch.vtensor<[4],f32>, !torch.int -> !torch.vtensor<[1,4],f32>
  %_params.weight = util.global.load @_params.weight : tensor<4x3xf32>
  %1 = torch_c.from_builtin_tensor %_params.weight : tensor<4x3xf32> -> !torch.vtensor<[4,3],f32>
  %2 = torch.aten.mm %0, %1 : !torch.vtensor<[1,4],f32>, !torch.vtensor<[4,3],f32> -> !torch.vtensor<[1,3],f32>
  %3 = torch.aten.squeeze.dim %2, %int0 : !torch.vtensor<[1,3],f32>, !torch.int -> !torch.vtensor<[3],f32>
  %_params.bias = util.global.load @_params.bias : tensor<3xf32>
  %4 = torch_c.from_builtin_tensor %_params.bias : tensor<3xf32> -> !torch.vtensor<[3],f32>
  %5 = torch.aten.add.Tensor %3, %4, %int1 : !torch.vtensor<[3],f32>, !torch.vtensor<[3],f32>, !torch.int -> !torch.vtensor<[3],f32>
  return %5 : !torch.vtensor<[3],f32>
}

// -----// IR Dump After ConvertTorchToLinalg (convert-torch-to-linalg) //----- //
func.func @main(%arg0: tensor<4xf32>) -> tensor<3xf32> attributes {torch.args_schema = "[1, {\22type\22: \22builtins.tuple\22, \22context\22: \22null\22, \22children_spec\22: [{\22type\22: \22builtins.list\22, \22context\22: \22null\22, \22children_spec\22: [{\22type\22: null, \22context\22: null, \22children_spec\22: []}]}, {\22type\22: \22builtins.dict\22, \22context\22: \22[]\22, \22children_spec\22: []}]}]", torch.assume_strict_symbolic_shapes, torch.return_schema = "[1, {\22type\22: null, \22context\22: null, \22children_spec\22: []}]"} {
  %0 = torch_c.from_builtin_tensor %arg0 : tensor<4xf32> -> !torch.vtensor<[4],f32>
  %1 = call @forward(%0) : (!torch.vtensor<[4],f32>) -> !torch.vtensor<[3],f32>
  %2 = torch_c.to_builtin_tensor %1 : !torch.vtensor<[3],f32> -> tensor<3xf32>
  return %2 : tensor<3xf32>
}

// -----// IR Dump After ConvertTorchToLinalg (convert-torch-to-linalg) //----- //
func.func private @forward(%arg0: !torch.vtensor<[4],f32>) -> !torch.vtensor<[3],f32> attributes {torch.assume_strict_symbolic_shapes} {
  %0 = torch_c.to_builtin_tensor %arg0 : !torch.vtensor<[4],f32> -> tensor<4xf32>
  %int1 = torch.constant.int 1
  %1 = torch_c.to_i64 %int1
  %int0 = torch.constant.int 0
  %expanded = tensor.expand_shape %0 [[0, 1]] : tensor<4xf32> into tensor<1x4xf32>
  %_params.weight = util.global.load @_params.weight : tensor<4x3xf32>
  %2 = torch_c.from_builtin_tensor %_params.weight : tensor<4x3xf32> -> !torch.vtensor<[4,3],f32>
  %3 = torch_c.to_builtin_tensor %2 : !torch.vtensor<[4,3],f32> -> tensor<4x3xf32>
  %c0 = arith.constant 0 : index
  %dim = tensor.dim %expanded, %c0 : tensor<1x4xf32>
  %c1 = arith.constant 1 : index
  %dim_0 = tensor.dim %3, %c1 : tensor<4x3xf32>
  %4 = tensor.empty(%dim, %dim_0) : tensor<?x?xf32>
  %cst = arith.constant 0.000000e+00 : f32
  %5 = linalg.fill ins(%cst : f32) outs(%4 : tensor<?x?xf32>) -> tensor<?x?xf32>
  %6 = linalg.matmul ins(%expanded, %3 : tensor<1x4xf32>, tensor<4x3xf32>) outs(%5 : tensor<?x?xf32>) -> tensor<?x?xf32>
  %cast = tensor.cast %6 : tensor<?x?xf32> to tensor<1x3xf32>
  %collapsed = tensor.collapse_shape %cast [[0, 1]] : tensor<1x3xf32> into tensor<3xf32>
  %_params.bias = util.global.load @_params.bias : tensor<3xf32>
  %7 = torch_c.from_builtin_tensor %_params.bias : tensor<3xf32> -> !torch.vtensor<[3],f32>
  %8 = torch_c.to_builtin_tensor %7 : !torch.vtensor<[3],f32> -> tensor<3xf32>
  %c1_1 = arith.constant 1 : index
  %c0_2 = arith.constant 0 : index
  %c3 = arith.constant 3 : index
  %c0_3 = arith.constant 0 : index
  %c3_4 = arith.constant 3 : index
  %9 = tensor.empty() : tensor<3xf32>
  %10 = linalg.generic {indexing_maps = [affine_map<(d0) -> (d0)>, affine_map<(d0) -> (d0)>, affine_map<(d0) -> (d0)>], iterator_types = ["parallel"]} ins(%collapsed, %8 : tensor<3xf32>, tensor<3xf32>) outs(%9 : tensor<3xf32>) {
  ^bb0(%in: f32, %in_6: f32, %out: f32):
    %12 = arith.sitofp %1 : i64 to f32
    %13 = arith.mulf %in_6, %12 : f32
    %14 = arith.addf %in, %13 : f32
    linalg.yield %14 : f32
  } -> tensor<3xf32>
  %cast_5 = tensor.cast %10 : tensor<3xf32> to tensor<3xf32>
  %11 = torch_c.from_builtin_tensor %cast_5 : tensor<3xf32> -> !torch.vtensor<[3],f32>
  return %11 : !torch.vtensor<[3],f32>
}

// -----// IR Dump After ConvertTorchToSCF (convert-torch-to-scf) //----- //
func.func @main(%arg0: tensor<4xf32>) -> tensor<3xf32> attributes {torch.args_schema = "[1, {\22type\22: \22builtins.tuple\22, \22context\22: \22null\22, \22children_spec\22: [{\22type\22: \22builtins.list\22, \22context\22: \22null\22, \22children_spec\22: [{\22type\22: null, \22context\22: null, \22children_spec\22: []}]}, {\22type\22: \22builtins.dict\22, \22context\22: \22[]\22, \22children_spec\22: []}]}]", torch.assume_strict_symbolic_shapes, torch.return_schema = "[1, {\22type\22: null, \22context\22: null, \22children_spec\22: []}]"} {
  %0 = torch_c.from_builtin_tensor %arg0 : tensor<4xf32> -> !torch.vtensor<[4],f32>
  %1 = call @forward(%0) : (!torch.vtensor<[4],f32>) -> !torch.vtensor<[3],f32>
  %2 = torch_c.to_builtin_tensor %1 : !torch.vtensor<[3],f32> -> tensor<3xf32>
  return %2 : tensor<3xf32>
}

// -----// IR Dump After ConvertTorchToSCF (convert-torch-to-scf) //----- //
func.func private @forward(%arg0: !torch.vtensor<[4],f32>) -> !torch.vtensor<[3],f32> attributes {torch.assume_strict_symbolic_shapes} {
  %0 = torch_c.to_builtin_tensor %arg0 : !torch.vtensor<[4],f32> -> tensor<4xf32>
  %int1 = torch.constant.int 1
  %1 = torch_c.to_i64 %int1
  %int0 = torch.constant.int 0
  %expanded = tensor.expand_shape %0 [[0, 1]] : tensor<4xf32> into tensor<1x4xf32>
  %_params.weight = util.global.load @_params.weight : tensor<4x3xf32>
  %2 = torch_c.from_builtin_tensor %_params.weight : tensor<4x3xf32> -> !torch.vtensor<[4,3],f32>
  %3 = torch_c.to_builtin_tensor %2 : !torch.vtensor<[4,3],f32> -> tensor<4x3xf32>
  %c0 = arith.constant 0 : index
  %c1 = arith.constant 1 : index
  %c1_0 = arith.constant 1 : index
  %c3 = arith.constant 3 : index
  %4 = tensor.empty(%c1, %c3) : tensor<?x?xf32>
  %cst = arith.constant 0.000000e+00 : f32
  %5 = linalg.fill ins(%cst : f32) outs(%4 : tensor<?x?xf32>) -> tensor<?x?xf32>
  %6 = linalg.matmul ins(%expanded, %3 : tensor<1x4xf32>, tensor<4x3xf32>) outs(%5 : tensor<?x?xf32>) -> tensor<?x?xf32>
  %cast = tensor.cast %6 : tensor<?x?xf32> to tensor<1x3xf32>
  %collapsed = tensor.collapse_shape %cast [[0, 1]] : tensor<1x3xf32> into tensor<3xf32>
  %_params.bias = util.global.load @_params.bias : tensor<3xf32>
  %7 = torch_c.from_builtin_tensor %_params.bias : tensor<3xf32> -> !torch.vtensor<[3],f32>
  %8 = torch_c.to_builtin_tensor %7 : !torch.vtensor<[3],f32> -> tensor<3xf32>
  %c1_1 = arith.constant 1 : index
  %c0_2 = arith.constant 0 : index
  %c3_3 = arith.constant 3 : index
  %c0_4 = arith.constant 0 : index
  %c3_5 = arith.constant 3 : index
  %9 = tensor.empty() : tensor<3xf32>
  %10 = linalg.generic {indexing_maps = [affine_map<(d0) -> (d0)>, affine_map<(d0) -> (d0)>, affine_map<(d0) -> (d0)>], iterator_types = ["parallel"]} ins(%collapsed, %8 : tensor<3xf32>, tensor<3xf32>) outs(%9 : tensor<3xf32>) {
  ^bb0(%in: f32, %in_6: f32, %out: f32):
    %12 = arith.sitofp %1 : i64 to f32
    %13 = arith.mulf %in_6, %12 : f32
    %14 = arith.addf %in, %13 : f32
    linalg.yield %14 : f32
  } -> tensor<3xf32>
  %11 = torch_c.from_builtin_tensor %10 : tensor<3xf32> -> !torch.vtensor<[3],f32>
  return %11 : !torch.vtensor<[3],f32>
}

// -----// IR Dump After ConvertTorchToArith (convert-torch-to-arith) //----- //
func.func @main(%arg0: tensor<4xf32>) -> tensor<3xf32> attributes {torch.args_schema = "[1, {\22type\22: \22builtins.tuple\22, \22context\22: \22null\22, \22children_spec\22: [{\22type\22: \22builtins.list\22, \22context\22: \22null\22, \22children_spec\22: [{\22type\22: null, \22context\22: null, \22children_spec\22: []}]}, {\22type\22: \22builtins.dict\22, \22context\22: \22[]\22, \22children_spec\22: []}]}]", torch.assume_strict_symbolic_shapes, torch.return_schema = "[1, {\22type\22: null, \22context\22: null, \22children_spec\22: []}]"} {
  %0 = torch_c.from_builtin_tensor %arg0 : tensor<4xf32> -> !torch.vtensor<[4],f32>
  %1 = call @forward(%0) : (!torch.vtensor<[4],f32>) -> !torch.vtensor<[3],f32>
  %2 = torch_c.to_builtin_tensor %1 : !torch.vtensor<[3],f32> -> tensor<3xf32>
  return %2 : tensor<3xf32>
}

// -----// IR Dump After ConvertTorchToArith (convert-torch-to-arith) //----- //
func.func private @forward(%arg0: !torch.vtensor<[4],f32>) -> !torch.vtensor<[3],f32> attributes {torch.assume_strict_symbolic_shapes} {
  %0 = torch_c.to_builtin_tensor %arg0 : !torch.vtensor<[4],f32> -> tensor<4xf32>
  %c1_i64 = arith.constant 1 : i64
  %1 = torch_c.from_i64 %c1_i64
  %2 = torch_c.to_i64 %1
  %c0_i64 = arith.constant 0 : i64
  %expanded = tensor.expand_shape %0 [[0, 1]] : tensor<4xf32> into tensor<1x4xf32>
  %_params.weight = util.global.load @_params.weight : tensor<4x3xf32>
  %3 = torch_c.from_builtin_tensor %_params.weight : tensor<4x3xf32> -> !torch.vtensor<[4,3],f32>
  %4 = torch_c.to_builtin_tensor %3 : !torch.vtensor<[4,3],f32> -> tensor<4x3xf32>
  %c0 = arith.constant 0 : index
  %c1 = arith.constant 1 : index
  %c1_0 = arith.constant 1 : index
  %c3 = arith.constant 3 : index
  %5 = tensor.empty(%c1, %c3) : tensor<?x?xf32>
  %cst = arith.constant 0.000000e+00 : f32
  %6 = linalg.fill ins(%cst : f32) outs(%5 : tensor<?x?xf32>) -> tensor<?x?xf32>
  %7 = linalg.matmul ins(%expanded, %4 : tensor<1x4xf32>, tensor<4x3xf32>) outs(%6 : tensor<?x?xf32>) -> tensor<?x?xf32>
  %cast = tensor.cast %7 : tensor<?x?xf32> to tensor<1x3xf32>
  %collapsed = tensor.collapse_shape %cast [[0, 1]] : tensor<1x3xf32> into tensor<3xf32>
  %_params.bias = util.global.load @_params.bias : tensor<3xf32>
  %8 = torch_c.from_builtin_tensor %_params.bias : tensor<3xf32> -> !torch.vtensor<[3],f32>
  %9 = torch_c.to_builtin_tensor %8 : !torch.vtensor<[3],f32> -> tensor<3xf32>
  %c1_1 = arith.constant 1 : index
  %c0_2 = arith.constant 0 : index
  %c3_3 = arith.constant 3 : index
  %c0_4 = arith.constant 0 : index
  %c3_5 = arith.constant 3 : index
  %10 = tensor.empty() : tensor<3xf32>
  %11 = linalg.generic {indexing_maps = [affine_map<(d0) -> (d0)>, affine_map<(d0) -> (d0)>, affine_map<(d0) -> (d0)>], iterator_types = ["parallel"]} ins(%collapsed, %9 : tensor<3xf32>, tensor<3xf32>) outs(%10 : tensor<3xf32>) {
  ^bb0(%in: f32, %in_6: f32, %out: f32):
    %13 = arith.sitofp %2 : i64 to f32
    %14 = arith.mulf %in_6, %13 : f32
    %15 = arith.addf %in, %14 : f32
    linalg.yield %15 : f32
  } -> tensor<3xf32>
  %12 = torch_c.from_builtin_tensor %11 : tensor<3xf32> -> !torch.vtensor<[3],f32>
  return %12 : !torch.vtensor<[3],f32>
}

// -----// IR Dump After ConvertTorchConversionToMLProgram (convert-torch-conversion-to-mlprogram) //----- //
#executable_target_cuda_nvptx_fb = #hal.executable.target<"cuda", "cuda-nvptx-fb", {target_arch = "sm_75"}>
#map = affine_map<(d0) -> (d0)>
#device_target_cuda = #hal.device.target<"cuda", {executable_targets = [#executable_target_cuda_nvptx_fb], legacy_sync}>
module @LinearModule attributes {hal.device.targets = [#device_target_cuda]} {
  ml_program.global private mutable @global_seed(dense<0> : tensor<i64>) : tensor<i64>
  util.global private @_params.weight {noinline} = dense<[[1.54099607, -0.293428898, -2.17878938], [0.568431258, -1.08452237, -1.39859545], [0.403346837, 0.838026344, -0.719257593], [-0.403343529, -0.596635341, 0.182036489]]> : tensor<4x3xf32>
  util.global private @_params.bias {noinline} = dense<[-0.856674611, 1.10060418, -1.07118738]> : tensor<3xf32>
  func.func @main(%arg0: tensor<4xf32>) -> tensor<3xf32> attributes {torch.args_schema = "[1, {\22type\22: \22builtins.tuple\22, \22context\22: \22null\22, \22children_spec\22: [{\22type\22: \22builtins.list\22, \22context\22: \22null\22, \22children_spec\22: [{\22type\22: null, \22context\22: null, \22children_spec\22: []}]}, {\22type\22: \22builtins.dict\22, \22context\22: \22[]\22, \22children_spec\22: []}]}]", torch.assume_strict_symbolic_shapes, torch.return_schema = "[1, {\22type\22: null, \22context\22: null, \22children_spec\22: []}]"} {
    %0 = torch_c.from_builtin_tensor %arg0 : tensor<4xf32> -> !torch.vtensor<[4],f32>
    %1 = call @forward(%0) : (!torch.vtensor<[4],f32>) -> !torch.vtensor<[3],f32>
    %2 = torch_c.to_builtin_tensor %1 : !torch.vtensor<[3],f32> -> tensor<3xf32>
    return %2 : tensor<3xf32>
  }
  func.func private @forward(%arg0: !torch.vtensor<[4],f32>) -> !torch.vtensor<[3],f32> attributes {torch.assume_strict_symbolic_shapes} {
    %0 = torch_c.to_builtin_tensor %arg0 : !torch.vtensor<[4],f32> -> tensor<4xf32>
    %c1_i64 = arith.constant 1 : i64
    %1 = torch_c.from_i64 %c1_i64
    %2 = torch_c.to_i64 %1
    %c0_i64 = arith.constant 0 : i64
    %expanded = tensor.expand_shape %0 [[0, 1]] : tensor<4xf32> into tensor<1x4xf32>
    %_params.weight = util.global.load @_params.weight : tensor<4x3xf32>
    %3 = torch_c.from_builtin_tensor %_params.weight : tensor<4x3xf32> -> !torch.vtensor<[4,3],f32>
    %4 = torch_c.to_builtin_tensor %3 : !torch.vtensor<[4,3],f32> -> tensor<4x3xf32>
    %c0 = arith.constant 0 : index
    %c1 = arith.constant 1 : index
    %c1_0 = arith.constant 1 : index
    %c3 = arith.constant 3 : index
    %5 = tensor.empty(%c1, %c3) : tensor<?x?xf32>
    %cst = arith.constant 0.000000e+00 : f32
    %6 = linalg.fill ins(%cst : f32) outs(%5 : tensor<?x?xf32>) -> tensor<?x?xf32>
    %7 = linalg.matmul ins(%expanded, %4 : tensor<1x4xf32>, tensor<4x3xf32>) outs(%6 : tensor<?x?xf32>) -> tensor<?x?xf32>
    %cast = tensor.cast %7 : tensor<?x?xf32> to tensor<1x3xf32>
    %collapsed = tensor.collapse_shape %cast [[0, 1]] : tensor<1x3xf32> into tensor<3xf32>
    %_params.bias = util.global.load @_params.bias : tensor<3xf32>
    %8 = torch_c.from_builtin_tensor %_params.bias : tensor<3xf32> -> !torch.vtensor<[3],f32>
    %9 = torch_c.to_builtin_tensor %8 : !torch.vtensor<[3],f32> -> tensor<3xf32>
    %c1_1 = arith.constant 1 : index
    %c0_2 = arith.constant 0 : index
    %c3_3 = arith.constant 3 : index
    %c0_4 = arith.constant 0 : index
    %c3_5 = arith.constant 3 : index
    %10 = tensor.empty() : tensor<3xf32>
    %11 = linalg.generic {indexing_maps = [#map, #map, #map], iterator_types = ["parallel"]} ins(%collapsed, %9 : tensor<3xf32>, tensor<3xf32>) outs(%10 : tensor<3xf32>) {
    ^bb0(%in: f32, %in_6: f32, %out: f32):
      %13 = arith.sitofp %2 : i64 to f32
      %14 = arith.mulf %in_6, %13 : f32
      %15 = arith.addf %in, %14 : f32
      linalg.yield %15 : f32
    } -> tensor<3xf32>
    %12 = torch_c.from_builtin_tensor %11 : tensor<3xf32> -> !torch.vtensor<[3],f32>
    return %12 : !torch.vtensor<[3],f32>
  }
}


// -----// IR Dump After ExpandOps (memref-expand) //----- //
func.func @main(%arg0: tensor<4xf32>) -> tensor<3xf32> attributes {torch.args_schema = "[1, {\22type\22: \22builtins.tuple\22, \22context\22: \22null\22, \22children_spec\22: [{\22type\22: \22builtins.list\22, \22context\22: \22null\22, \22children_spec\22: [{\22type\22: null, \22context\22: null, \22children_spec\22: []}]}, {\22type\22: \22builtins.dict\22, \22context\22: \22[]\22, \22children_spec\22: []}]}]", torch.assume_strict_symbolic_shapes, torch.return_schema = "[1, {\22type\22: null, \22context\22: null, \22children_spec\22: []}]"} {
  %0 = torch_c.from_builtin_tensor %arg0 : tensor<4xf32> -> !torch.vtensor<[4],f32>
  %1 = call @forward(%0) : (!torch.vtensor<[4],f32>) -> !torch.vtensor<[3],f32>
  %2 = torch_c.to_builtin_tensor %1 : !torch.vtensor<[3],f32> -> tensor<3xf32>
  return %2 : tensor<3xf32>
}

// -----// IR Dump After ExpandOps (memref-expand) //----- //
func.func private @forward(%arg0: !torch.vtensor<[4],f32>) -> !torch.vtensor<[3],f32> attributes {torch.assume_strict_symbolic_shapes} {
  %0 = torch_c.to_builtin_tensor %arg0 : !torch.vtensor<[4],f32> -> tensor<4xf32>
  %c1_i64 = arith.constant 1 : i64
  %1 = torch_c.from_i64 %c1_i64
  %2 = torch_c.to_i64 %1
  %c0_i64 = arith.constant 0 : i64
  %expanded = tensor.expand_shape %0 [[0, 1]] : tensor<4xf32> into tensor<1x4xf32>
  %_params.weight = util.global.load @_params.weight : tensor<4x3xf32>
  %3 = torch_c.from_builtin_tensor %_params.weight : tensor<4x3xf32> -> !torch.vtensor<[4,3],f32>
  %4 = torch_c.to_builtin_tensor %3 : !torch.vtensor<[4,3],f32> -> tensor<4x3xf32>
  %c0 = arith.constant 0 : index
  %c1 = arith.constant 1 : index
  %c1_0 = arith.constant 1 : index
  %c3 = arith.constant 3 : index
  %5 = tensor.empty(%c1, %c3) : tensor<?x?xf32>
  %cst = arith.constant 0.000000e+00 : f32
  %6 = linalg.fill ins(%cst : f32) outs(%5 : tensor<?x?xf32>) -> tensor<?x?xf32>
  %7 = linalg.matmul ins(%expanded, %4 : tensor<1x4xf32>, tensor<4x3xf32>) outs(%6 : tensor<?x?xf32>) -> tensor<?x?xf32>
  %cast = tensor.cast %7 : tensor<?x?xf32> to tensor<1x3xf32>
  %collapsed = tensor.collapse_shape %cast [[0, 1]] : tensor<1x3xf32> into tensor<3xf32>
  %_params.bias = util.global.load @_params.bias : tensor<3xf32>
  %8 = torch_c.from_builtin_tensor %_params.bias : tensor<3xf32> -> !torch.vtensor<[3],f32>
  %9 = torch_c.to_builtin_tensor %8 : !torch.vtensor<[3],f32> -> tensor<3xf32>
  %c1_1 = arith.constant 1 : index
  %c0_2 = arith.constant 0 : index
  %c3_3 = arith.constant 3 : index
  %c0_4 = arith.constant 0 : index
  %c3_5 = arith.constant 3 : index
  %10 = tensor.empty() : tensor<3xf32>
  %11 = linalg.generic {indexing_maps = [affine_map<(d0) -> (d0)>, affine_map<(d0) -> (d0)>, affine_map<(d0) -> (d0)>], iterator_types = ["parallel"]} ins(%collapsed, %9 : tensor<3xf32>, tensor<3xf32>) outs(%10 : tensor<3xf32>) {
  ^bb0(%in: f32, %in_6: f32, %out: f32):
    %13 = arith.sitofp %2 : i64 to f32
    %14 = arith.mulf %in_6, %13 : f32
    %15 = arith.addf %in, %14 : f32
    linalg.yield %15 : f32
  } -> tensor<3xf32>
  %12 = torch_c.from_builtin_tensor %11 : tensor<3xf32> -> !torch.vtensor<[3],f32>
  return %12 : !torch.vtensor<[3],f32>
}

// -----// IR Dump After Canonicalizer (canonicalize) //----- //
func.func @main(%arg0: tensor<4xf32>) -> tensor<3xf32> attributes {torch.args_schema = "[1, {\22type\22: \22builtins.tuple\22, \22context\22: \22null\22, \22children_spec\22: [{\22type\22: \22builtins.list\22, \22context\22: \22null\22, \22children_spec\22: [{\22type\22: null, \22context\22: null, \22children_spec\22: []}]}, {\22type\22: \22builtins.dict\22, \22context\22: \22[]\22, \22children_spec\22: []}]}]", torch.assume_strict_symbolic_shapes, torch.return_schema = "[1, {\22type\22: null, \22context\22: null, \22children_spec\22: []}]"} {
  %0 = torch_c.from_builtin_tensor %arg0 : tensor<4xf32> -> !torch.vtensor<[4],f32>
  %1 = call @forward(%0) : (!torch.vtensor<[4],f32>) -> !torch.vtensor<[3],f32>
  %2 = torch_c.to_builtin_tensor %1 : !torch.vtensor<[3],f32> -> tensor<3xf32>
  return %2 : tensor<3xf32>
}

// -----// IR Dump After Canonicalizer (canonicalize) //----- //
func.func private @forward(%arg0: !torch.vtensor<[4],f32>) -> !torch.vtensor<[3],f32> attributes {torch.assume_strict_symbolic_shapes} {
  %cst = arith.constant 0.000000e+00 : f32
  %0 = torch_c.to_builtin_tensor %arg0 : !torch.vtensor<[4],f32> -> tensor<4xf32>
  %expanded = tensor.expand_shape %0 [[0, 1]] : tensor<4xf32> into tensor<1x4xf32>
  %_params.weight = util.global.load @_params.weight : tensor<4x3xf32>
  %1 = torch_c.from_builtin_tensor %_params.weight : tensor<4x3xf32> -> !torch.vtensor<[4,3],f32>
  %2 = torch_c.to_builtin_tensor %1 : !torch.vtensor<[4,3],f32> -> tensor<4x3xf32>
  %3 = tensor.empty() : tensor<1x3xf32>
  %4 = linalg.fill ins(%cst : f32) outs(%3 : tensor<1x3xf32>) -> tensor<1x3xf32>
  %5 = linalg.matmul ins(%expanded, %2 : tensor<1x4xf32>, tensor<4x3xf32>) outs(%4 : tensor<1x3xf32>) -> tensor<1x3xf32>
  %collapsed = tensor.collapse_shape %5 [[0, 1]] : tensor<1x3xf32> into tensor<3xf32>
  %_params.bias = util.global.load @_params.bias : tensor<3xf32>
  %6 = torch_c.from_builtin_tensor %_params.bias : tensor<3xf32> -> !torch.vtensor<[3],f32>
  %7 = torch_c.to_builtin_tensor %6 : !torch.vtensor<[3],f32> -> tensor<3xf32>
  %8 = tensor.empty() : tensor<3xf32>
  %9 = linalg.generic {indexing_maps = [affine_map<(d0) -> (d0)>, affine_map<(d0) -> (d0)>, affine_map<(d0) -> (d0)>], iterator_types = ["parallel"]} ins(%collapsed, %7 : tensor<3xf32>, tensor<3xf32>) outs(%8 : tensor<3xf32>) {
  ^bb0(%in: f32, %in_0: f32, %out: f32):
    %11 = arith.addf %in, %in_0 : f32
    linalg.yield %11 : f32
  } -> tensor<3xf32>
  %10 = torch_c.from_builtin_tensor %9 : tensor<3xf32> -> !torch.vtensor<[3],f32>
  return %10 : !torch.vtensor<[3],f32>
}

// -----// IR Dump After ResolveShapedTypeResultDims (resolve-shaped-type-result-dims) //----- //
func.func @main(%arg0: tensor<4xf32>) -> tensor<3xf32> attributes {torch.args_schema = "[1, {\22type\22: \22builtins.tuple\22, \22context\22: \22null\22, \22children_spec\22: [{\22type\22: \22builtins.list\22, \22context\22: \22null\22, \22children_spec\22: [{\22type\22: null, \22context\22: null, \22children_spec\22: []}]}, {\22type\22: \22builtins.dict\22, \22context\22: \22[]\22, \22children_spec\22: []}]}]", torch.assume_strict_symbolic_shapes, torch.return_schema = "[1, {\22type\22: null, \22context\22: null, \22children_spec\22: []}]"} {
  %0 = torch_c.from_builtin_tensor %arg0 : tensor<4xf32> -> !torch.vtensor<[4],f32>
  %1 = call @forward(%0) : (!torch.vtensor<[4],f32>) -> !torch.vtensor<[3],f32>
  %2 = torch_c.to_builtin_tensor %1 : !torch.vtensor<[3],f32> -> tensor<3xf32>
  return %2 : tensor<3xf32>
}

// -----// IR Dump After CSE (cse) //----- //
func.func @main(%arg0: tensor<4xf32>) -> tensor<3xf32> attributes {torch.args_schema = "[1, {\22type\22: \22builtins.tuple\22, \22context\22: \22null\22, \22children_spec\22: [{\22type\22: \22builtins.list\22, \22context\22: \22null\22, \22children_spec\22: [{\22type\22: null, \22context\22: null, \22children_spec\22: []}]}, {\22type\22: \22builtins.dict\22, \22context\22: \22[]\22, \22children_spec\22: []}]}]", torch.assume_strict_symbolic_shapes, torch.return_schema = "[1, {\22type\22: null, \22context\22: null, \22children_spec\22: []}]"} {
  %0 = torch_c.from_builtin_tensor %arg0 : tensor<4xf32> -> !torch.vtensor<[4],f32>
  %1 = call @forward(%0) : (!torch.vtensor<[4],f32>) -> !torch.vtensor<[3],f32>
  %2 = torch_c.to_builtin_tensor %1 : !torch.vtensor<[3],f32> -> tensor<3xf32>
  return %2 : tensor<3xf32>
}

// -----// IR Dump After ResolveShapedTypeResultDims (resolve-shaped-type-result-dims) //----- //
func.func private @forward(%arg0: !torch.vtensor<[4],f32>) -> !torch.vtensor<[3],f32> attributes {torch.assume_strict_symbolic_shapes} {
  %cst = arith.constant 0.000000e+00 : f32
  %0 = torch_c.to_builtin_tensor %arg0 : !torch.vtensor<[4],f32> -> tensor<4xf32>
  %expanded = tensor.expand_shape %0 [[0, 1]] : tensor<4xf32> into tensor<1x4xf32>
  %_params.weight = util.global.load @_params.weight : tensor<4x3xf32>
  %1 = torch_c.from_builtin_tensor %_params.weight : tensor<4x3xf32> -> !torch.vtensor<[4,3],f32>
  %2 = torch_c.to_builtin_tensor %1 : !torch.vtensor<[4,3],f32> -> tensor<4x3xf32>
  %3 = tensor.empty() : tensor<1x3xf32>
  %4 = linalg.fill ins(%cst : f32) outs(%3 : tensor<1x3xf32>) -> tensor<1x3xf32>
  %5 = linalg.matmul ins(%expanded, %2 : tensor<1x4xf32>, tensor<4x3xf32>) outs(%4 : tensor<1x3xf32>) -> tensor<1x3xf32>
  %collapsed = tensor.collapse_shape %5 [[0, 1]] : tensor<1x3xf32> into tensor<3xf32>
  %_params.bias = util.global.load @_params.bias : tensor<3xf32>
  %6 = torch_c.from_builtin_tensor %_params.bias : tensor<3xf32> -> !torch.vtensor<[3],f32>
  %7 = torch_c.to_builtin_tensor %6 : !torch.vtensor<[3],f32> -> tensor<3xf32>
  %8 = tensor.empty() : tensor<3xf32>
  %9 = linalg.generic {indexing_maps = [affine_map<(d0) -> (d0)>, affine_map<(d0) -> (d0)>, affine_map<(d0) -> (d0)>], iterator_types = ["parallel"]} ins(%collapsed, %7 : tensor<3xf32>, tensor<3xf32>) outs(%8 : tensor<3xf32>) {
  ^bb0(%in: f32, %in_0: f32, %out: f32):
    %11 = arith.addf %in, %in_0 : f32
    linalg.yield %11 : f32
  } -> tensor<3xf32>
  %10 = torch_c.from_builtin_tensor %9 : tensor<3xf32> -> !torch.vtensor<[3],f32>
  return %10 : !torch.vtensor<[3],f32>
}

// -----// IR Dump After CSE (cse) //----- //
func.func private @forward(%arg0: !torch.vtensor<[4],f32>) -> !torch.vtensor<[3],f32> attributes {torch.assume_strict_symbolic_shapes} {
  %cst = arith.constant 0.000000e+00 : f32
  %0 = torch_c.to_builtin_tensor %arg0 : !torch.vtensor<[4],f32> -> tensor<4xf32>
  %expanded = tensor.expand_shape %0 [[0, 1]] : tensor<4xf32> into tensor<1x4xf32>
  %_params.weight = util.global.load @_params.weight : tensor<4x3xf32>
  %1 = torch_c.from_builtin_tensor %_params.weight : tensor<4x3xf32> -> !torch.vtensor<[4,3],f32>
  %2 = torch_c.to_builtin_tensor %1 : !torch.vtensor<[4,3],f32> -> tensor<4x3xf32>
  %3 = tensor.empty() : tensor<1x3xf32>
  %4 = linalg.fill ins(%cst : f32) outs(%3 : tensor<1x3xf32>) -> tensor<1x3xf32>
  %5 = linalg.matmul ins(%expanded, %2 : tensor<1x4xf32>, tensor<4x3xf32>) outs(%4 : tensor<1x3xf32>) -> tensor<1x3xf32>
  %collapsed = tensor.collapse_shape %5 [[0, 1]] : tensor<1x3xf32> into tensor<3xf32>
  %_params.bias = util.global.load @_params.bias : tensor<3xf32>
  %6 = torch_c.from_builtin_tensor %_params.bias : tensor<3xf32> -> !torch.vtensor<[3],f32>
  %7 = torch_c.to_builtin_tensor %6 : !torch.vtensor<[3],f32> -> tensor<3xf32>
  %8 = tensor.empty() : tensor<3xf32>
  %9 = linalg.generic {indexing_maps = [affine_map<(d0) -> (d0)>, affine_map<(d0) -> (d0)>, affine_map<(d0) -> (d0)>], iterator_types = ["parallel"]} ins(%collapsed, %7 : tensor<3xf32>, tensor<3xf32>) outs(%8 : tensor<3xf32>) {
  ^bb0(%in: f32, %in_0: f32, %out: f32):
    %11 = arith.addf %in, %in_0 : f32
    linalg.yield %11 : f32
  } -> tensor<3xf32>
  %10 = torch_c.from_builtin_tensor %9 : tensor<3xf32> -> !torch.vtensor<[3],f32>
  return %10 : !torch.vtensor<[3],f32>
}

// -----// IR Dump After FuncBackendTypeConversion (torch-func-backend-type-conversion) //----- //
#executable_target_cuda_nvptx_fb = #hal.executable.target<"cuda", "cuda-nvptx-fb", {target_arch = "sm_75"}>
#map = affine_map<(d0) -> (d0)>
#device_target_cuda = #hal.device.target<"cuda", {executable_targets = [#executable_target_cuda_nvptx_fb], legacy_sync}>
module @LinearModule attributes {hal.device.targets = [#device_target_cuda]} {
  ml_program.global private mutable @global_seed(dense<0> : tensor<i64>) : tensor<i64>
  util.global private @_params.weight {noinline} = dense<[[1.54099607, -0.293428898, -2.17878938], [0.568431258, -1.08452237, -1.39859545], [0.403346837, 0.838026344, -0.719257593], [-0.403343529, -0.596635341, 0.182036489]]> : tensor<4x3xf32>
  util.global private @_params.bias {noinline} = dense<[-0.856674611, 1.10060418, -1.07118738]> : tensor<3xf32>
  func.func @main(%arg0: tensor<4xf32>) -> tensor<3xf32> attributes {torch.args_schema = "[1, {\22type\22: \22builtins.tuple\22, \22context\22: \22null\22, \22children_spec\22: [{\22type\22: \22builtins.list\22, \22context\22: \22null\22, \22children_spec\22: [{\22type\22: null, \22context\22: null, \22children_spec\22: []}]}, {\22type\22: \22builtins.dict\22, \22context\22: \22[]\22, \22children_spec\22: []}]}]", torch.assume_strict_symbolic_shapes, torch.return_schema = "[1, {\22type\22: null, \22context\22: null, \22children_spec\22: []}]"} {
    %0 = torch_c.from_builtin_tensor %arg0 : tensor<4xf32> -> !torch.vtensor<[4],f32>
    %1 = torch_c.to_builtin_tensor %0 : !torch.vtensor<[4],f32> -> tensor<4xf32>
    %2 = call @forward(%1) : (tensor<4xf32>) -> tensor<3xf32>
    %3 = torch_c.from_builtin_tensor %2 : tensor<3xf32> -> !torch.vtensor<[3],f32>
    %4 = torch_c.to_builtin_tensor %3 : !torch.vtensor<[3],f32> -> tensor<3xf32>
    return %4 : tensor<3xf32>
  }
  func.func private @forward(%arg0: tensor<4xf32>) -> tensor<3xf32> attributes {torch.assume_strict_symbolic_shapes} {
    %0 = torch_c.from_builtin_tensor %arg0 : tensor<4xf32> -> !torch.vtensor<[4],f32>
    %cst = arith.constant 0.000000e+00 : f32
    %1 = torch_c.to_builtin_tensor %0 : !torch.vtensor<[4],f32> -> tensor<4xf32>
    %expanded = tensor.expand_shape %1 [[0, 1]] : tensor<4xf32> into tensor<1x4xf32>
    %_params.weight = util.global.load @_params.weight : tensor<4x3xf32>
    %2 = torch_c.from_builtin_tensor %_params.weight : tensor<4x3xf32> -> !torch.vtensor<[4,3],f32>
    %3 = torch_c.to_builtin_tensor %2 : !torch.vtensor<[4,3],f32> -> tensor<4x3xf32>
    %4 = tensor.empty() : tensor<1x3xf32>
    %5 = linalg.fill ins(%cst : f32) outs(%4 : tensor<1x3xf32>) -> tensor<1x3xf32>
    %6 = linalg.matmul ins(%expanded, %3 : tensor<1x4xf32>, tensor<4x3xf32>) outs(%5 : tensor<1x3xf32>) -> tensor<1x3xf32>
    %collapsed = tensor.collapse_shape %6 [[0, 1]] : tensor<1x3xf32> into tensor<3xf32>
    %_params.bias = util.global.load @_params.bias : tensor<3xf32>
    %7 = torch_c.from_builtin_tensor %_params.bias : tensor<3xf32> -> !torch.vtensor<[3],f32>
    %8 = torch_c.to_builtin_tensor %7 : !torch.vtensor<[3],f32> -> tensor<3xf32>
    %9 = tensor.empty() : tensor<3xf32>
    %10 = linalg.generic {indexing_maps = [#map, #map, #map], iterator_types = ["parallel"]} ins(%collapsed, %8 : tensor<3xf32>, tensor<3xf32>) outs(%9 : tensor<3xf32>) {
    ^bb0(%in: f32, %in_0: f32, %out: f32):
      %13 = arith.addf %in, %in_0 : f32
      linalg.yield %13 : f32
    } -> tensor<3xf32>
    %11 = torch_c.from_builtin_tensor %10 : tensor<3xf32> -> !torch.vtensor<[3],f32>
    %12 = torch_c.to_builtin_tensor %11 : !torch.vtensor<[3],f32> -> tensor<3xf32>
    return %12 : tensor<3xf32>
  }
}


// -----// IR Dump After Canonicalizer (canonicalize) //----- //
func.func @main(%arg0: tensor<4xf32>) -> tensor<3xf32> attributes {torch.args_schema = "[1, {\22type\22: \22builtins.tuple\22, \22context\22: \22null\22, \22children_spec\22: [{\22type\22: \22builtins.list\22, \22context\22: \22null\22, \22children_spec\22: [{\22type\22: null, \22context\22: null, \22children_spec\22: []}]}, {\22type\22: \22builtins.dict\22, \22context\22: \22[]\22, \22children_spec\22: []}]}]", torch.assume_strict_symbolic_shapes, torch.return_schema = "[1, {\22type\22: null, \22context\22: null, \22children_spec\22: []}]"} {
  %0 = torch_c.from_builtin_tensor %arg0 : tensor<4xf32> -> !torch.vtensor<[4],f32>
  %1 = torch_c.to_builtin_tensor %0 : !torch.vtensor<[4],f32> -> tensor<4xf32>
  %2 = call @forward(%1) : (tensor<4xf32>) -> tensor<3xf32>
  %3 = torch_c.from_builtin_tensor %2 : tensor<3xf32> -> !torch.vtensor<[3],f32>
  %4 = torch_c.to_builtin_tensor %3 : !torch.vtensor<[3],f32> -> tensor<3xf32>
  return %4 : tensor<3xf32>
}

// -----// IR Dump After Canonicalizer (canonicalize) //----- //
func.func private @forward(%arg0: tensor<4xf32>) -> tensor<3xf32> attributes {torch.assume_strict_symbolic_shapes} {
  %cst = arith.constant 0.000000e+00 : f32
  %0 = torch_c.from_builtin_tensor %arg0 : tensor<4xf32> -> !torch.vtensor<[4],f32>
  %1 = torch_c.to_builtin_tensor %0 : !torch.vtensor<[4],f32> -> tensor<4xf32>
  %expanded = tensor.expand_shape %1 [[0, 1]] : tensor<4xf32> into tensor<1x4xf32>
  %_params.weight = util.global.load @_params.weight : tensor<4x3xf32>
  %2 = torch_c.from_builtin_tensor %_params.weight : tensor<4x3xf32> -> !torch.vtensor<[4,3],f32>
  %3 = torch_c.to_builtin_tensor %2 : !torch.vtensor<[4,3],f32> -> tensor<4x3xf32>
  %4 = tensor.empty() : tensor<1x3xf32>
  %5 = linalg.fill ins(%cst : f32) outs(%4 : tensor<1x3xf32>) -> tensor<1x3xf32>
  %6 = linalg.matmul ins(%expanded, %3 : tensor<1x4xf32>, tensor<4x3xf32>) outs(%5 : tensor<1x3xf32>) -> tensor<1x3xf32>
  %collapsed = tensor.collapse_shape %6 [[0, 1]] : tensor<1x3xf32> into tensor<3xf32>
  %_params.bias = util.global.load @_params.bias : tensor<3xf32>
  %7 = torch_c.from_builtin_tensor %_params.bias : tensor<3xf32> -> !torch.vtensor<[3],f32>
  %8 = torch_c.to_builtin_tensor %7 : !torch.vtensor<[3],f32> -> tensor<3xf32>
  %9 = tensor.empty() : tensor<3xf32>
  %10 = linalg.generic {indexing_maps = [affine_map<(d0) -> (d0)>, affine_map<(d0) -> (d0)>, affine_map<(d0) -> (d0)>], iterator_types = ["parallel"]} ins(%collapsed, %8 : tensor<3xf32>, tensor<3xf32>) outs(%9 : tensor<3xf32>) {
  ^bb0(%in: f32, %in_0: f32, %out: f32):
    %13 = arith.addf %in, %in_0 : f32
    linalg.yield %13 : f32
  } -> tensor<3xf32>
  %11 = torch_c.from_builtin_tensor %10 : tensor<3xf32> -> !torch.vtensor<[3],f32>
  %12 = torch_c.to_builtin_tensor %11 : !torch.vtensor<[3],f32> -> tensor<3xf32>
  return %12 : tensor<3xf32>
}

// -----// IR Dump After FinalizingBackendTypeConversion (torch-finalizing-backend-type-conversion) //----- //
func.func @main(%arg0: tensor<4xf32>) -> tensor<3xf32> attributes {torch.args_schema = "[1, {\22type\22: \22builtins.tuple\22, \22context\22: \22null\22, \22children_spec\22: [{\22type\22: \22builtins.list\22, \22context\22: \22null\22, \22children_spec\22: [{\22type\22: null, \22context\22: null, \22children_spec\22: []}]}, {\22type\22: \22builtins.dict\22, \22context\22: \22[]\22, \22children_spec\22: []}]}]", torch.assume_strict_symbolic_shapes, torch.return_schema = "[1, {\22type\22: null, \22context\22: null, \22children_spec\22: []}]"} {
  %0 = call @forward(%arg0) : (tensor<4xf32>) -> tensor<3xf32>
  return %0 : tensor<3xf32>
}

// -----// IR Dump After FinalizingBackendTypeConversion (torch-finalizing-backend-type-conversion) //----- //
func.func private @forward(%arg0: tensor<4xf32>) -> tensor<3xf32> attributes {torch.assume_strict_symbolic_shapes} {
  %cst = arith.constant 0.000000e+00 : f32
  %expanded = tensor.expand_shape %arg0 [[0, 1]] : tensor<4xf32> into tensor<1x4xf32>
  %_params.weight = util.global.load @_params.weight : tensor<4x3xf32>
  %0 = tensor.empty() : tensor<1x3xf32>
  %1 = linalg.fill ins(%cst : f32) outs(%0 : tensor<1x3xf32>) -> tensor<1x3xf32>
  %2 = linalg.matmul ins(%expanded, %_params.weight : tensor<1x4xf32>, tensor<4x3xf32>) outs(%1 : tensor<1x3xf32>) -> tensor<1x3xf32>
  %collapsed = tensor.collapse_shape %2 [[0, 1]] : tensor<1x3xf32> into tensor<3xf32>
  %_params.bias = util.global.load @_params.bias : tensor<3xf32>
  %3 = tensor.empty() : tensor<3xf32>
  %4 = linalg.generic {indexing_maps = [affine_map<(d0) -> (d0)>, affine_map<(d0) -> (d0)>, affine_map<(d0) -> (d0)>], iterator_types = ["parallel"]} ins(%collapsed, %_params.bias : tensor<3xf32>, tensor<3xf32>) outs(%3 : tensor<3xf32>) {
  ^bb0(%in: f32, %in_0: f32, %out: f32):
    %5 = arith.addf %in, %in_0 : f32
    linalg.yield %5 : f32
  } -> tensor<3xf32>
  return %4 : tensor<3xf32>
}

// -----// IR Dump After SymbolDCE (symbol-dce) //----- //
#executable_target_cuda_nvptx_fb = #hal.executable.target<"cuda", "cuda-nvptx-fb", {target_arch = "sm_75"}>
#map = affine_map<(d0) -> (d0)>
#device_target_cuda = #hal.device.target<"cuda", {executable_targets = [#executable_target_cuda_nvptx_fb], legacy_sync}>
module @LinearModule attributes {hal.device.targets = [#device_target_cuda]} {
  util.global private @_params.weight {noinline} = dense<[[1.54099607, -0.293428898, -2.17878938], [0.568431258, -1.08452237, -1.39859545], [0.403346837, 0.838026344, -0.719257593], [-0.403343529, -0.596635341, 0.182036489]]> : tensor<4x3xf32>
  util.global private @_params.bias {noinline} = dense<[-0.856674611, 1.10060418, -1.07118738]> : tensor<3xf32>
  func.func @main(%arg0: tensor<4xf32>) -> tensor<3xf32> attributes {torch.args_schema = "[1, {\22type\22: \22builtins.tuple\22, \22context\22: \22null\22, \22children_spec\22: [{\22type\22: \22builtins.list\22, \22context\22: \22null\22, \22children_spec\22: [{\22type\22: null, \22context\22: null, \22children_spec\22: []}]}, {\22type\22: \22builtins.dict\22, \22context\22: \22[]\22, \22children_spec\22: []}]}]", torch.assume_strict_symbolic_shapes, torch.return_schema = "[1, {\22type\22: null, \22context\22: null, \22children_spec\22: []}]"} {
    %0 = call @forward(%arg0) : (tensor<4xf32>) -> tensor<3xf32>
    return %0 : tensor<3xf32>
  }
  func.func private @forward(%arg0: tensor<4xf32>) -> tensor<3xf32> attributes {torch.assume_strict_symbolic_shapes} {
    %cst = arith.constant 0.000000e+00 : f32
    %expanded = tensor.expand_shape %arg0 [[0, 1]] : tensor<4xf32> into tensor<1x4xf32>
    %_params.weight = util.global.load @_params.weight : tensor<4x3xf32>
    %0 = tensor.empty() : tensor<1x3xf32>
    %1 = linalg.fill ins(%cst : f32) outs(%0 : tensor<1x3xf32>) -> tensor<1x3xf32>
    %2 = linalg.matmul ins(%expanded, %_params.weight : tensor<1x4xf32>, tensor<4x3xf32>) outs(%1 : tensor<1x3xf32>) -> tensor<1x3xf32>
    %collapsed = tensor.collapse_shape %2 [[0, 1]] : tensor<1x3xf32> into tensor<3xf32>
    %_params.bias = util.global.load @_params.bias : tensor<3xf32>
    %3 = tensor.empty() : tensor<3xf32>
    %4 = linalg.generic {indexing_maps = [#map, #map, #map], iterator_types = ["parallel"]} ins(%collapsed, %_params.bias : tensor<3xf32>, tensor<3xf32>) outs(%3 : tensor<3xf32>) {
    ^bb0(%in: f32, %in_0: f32, %out: f32):
      %5 = arith.addf %in, %in_0 : f32
      linalg.yield %5 : f32
    } -> tensor<3xf32>
    return %4 : tensor<3xf32>
  }
}


// -----// IR Dump After ConvertTMTensorToLinalgExt (torch-iree-tm-tensor-to-linalg-ext) //----- //
func.func @main(%arg0: tensor<4xf32>) -> tensor<3xf32> attributes {torch.args_schema = "[1, {\22type\22: \22builtins.tuple\22, \22context\22: \22null\22, \22children_spec\22: [{\22type\22: \22builtins.list\22, \22context\22: \22null\22, \22children_spec\22: [{\22type\22: null, \22context\22: null, \22children_spec\22: []}]}, {\22type\22: \22builtins.dict\22, \22context\22: \22[]\22, \22children_spec\22: []}]}]", torch.assume_strict_symbolic_shapes, torch.return_schema = "[1, {\22type\22: null, \22context\22: null, \22children_spec\22: []}]"} {
  %0 = call @forward(%arg0) : (tensor<4xf32>) -> tensor<3xf32>
  return %0 : tensor<3xf32>
}

// -----// IR Dump After ConvertTMTensorToLinalgExt (torch-iree-tm-tensor-to-linalg-ext) //----- //
func.func private @forward(%arg0: tensor<4xf32>) -> tensor<3xf32> attributes {torch.assume_strict_symbolic_shapes} {
  %cst = arith.constant 0.000000e+00 : f32
  %expanded = tensor.expand_shape %arg0 [[0, 1]] : tensor<4xf32> into tensor<1x4xf32>
  %_params.weight = util.global.load @_params.weight : tensor<4x3xf32>
  %0 = tensor.empty() : tensor<1x3xf32>
  %1 = linalg.fill ins(%cst : f32) outs(%0 : tensor<1x3xf32>) -> tensor<1x3xf32>
  %2 = linalg.matmul ins(%expanded, %_params.weight : tensor<1x4xf32>, tensor<4x3xf32>) outs(%1 : tensor<1x3xf32>) -> tensor<1x3xf32>
  %collapsed = tensor.collapse_shape %2 [[0, 1]] : tensor<1x3xf32> into tensor<3xf32>
  %_params.bias = util.global.load @_params.bias : tensor<3xf32>
  %3 = tensor.empty() : tensor<3xf32>
  %4 = linalg.generic {indexing_maps = [affine_map<(d0) -> (d0)>, affine_map<(d0) -> (d0)>, affine_map<(d0) -> (d0)>], iterator_types = ["parallel"]} ins(%collapsed, %_params.bias : tensor<3xf32>, tensor<3xf32>) outs(%3 : tensor<3xf32>) {
  ^bb0(%in: f32, %in_0: f32, %out: f32):
    %5 = arith.addf %in, %in_0 : f32
    linalg.yield %5 : f32
  } -> tensor<3xf32>
  return %4 : tensor<3xf32>
}

// -----// IR Dump After IREEImportPublic (iree-import-public) //----- //
#executable_target_cuda_nvptx_fb = #hal.executable.target<"cuda", "cuda-nvptx-fb", {target_arch = "sm_75"}>
#map = affine_map<(d0) -> (d0)>
#device_target_cuda = #hal.device.target<"cuda", {executable_targets = [#executable_target_cuda_nvptx_fb], legacy_sync}>
module @LinearModule attributes {hal.device.targets = [#device_target_cuda]} {
  util.global private @_params.weight {noinline} = dense<[[1.54099607, -0.293428898, -2.17878938], [0.568431258, -1.08452237, -1.39859545], [0.403346837, 0.838026344, -0.719257593], [-0.403343529, -0.596635341, 0.182036489]]> : tensor<4x3xf32>
  util.global private @_params.bias {noinline} = dense<[-0.856674611, 1.10060418, -1.07118738]> : tensor<3xf32>
  func.func @main(%arg0: tensor<4xf32>) -> tensor<3xf32> attributes {torch.args_schema = "[1, {\22type\22: \22builtins.tuple\22, \22context\22: \22null\22, \22children_spec\22: [{\22type\22: \22builtins.list\22, \22context\22: \22null\22, \22children_spec\22: [{\22type\22: null, \22context\22: null, \22children_spec\22: []}]}, {\22type\22: \22builtins.dict\22, \22context\22: \22[]\22, \22children_spec\22: []}]}]", torch.assume_strict_symbolic_shapes, torch.return_schema = "[1, {\22type\22: null, \22context\22: null, \22children_spec\22: []}]"} {
    %0 = call @forward(%arg0) : (tensor<4xf32>) -> tensor<3xf32>
    return %0 : tensor<3xf32>
  }
  func.func private @forward(%arg0: tensor<4xf32>) -> tensor<3xf32> attributes {torch.assume_strict_symbolic_shapes} {
    %cst = arith.constant 0.000000e+00 : f32
    %expanded = tensor.expand_shape %arg0 [[0, 1]] : tensor<4xf32> into tensor<1x4xf32>
    %_params.weight = util.global.load @_params.weight : tensor<4x3xf32>
    %0 = tensor.empty() : tensor<1x3xf32>
    %1 = linalg.fill ins(%cst : f32) outs(%0 : tensor<1x3xf32>) -> tensor<1x3xf32>
    %2 = linalg.matmul ins(%expanded, %_params.weight : tensor<1x4xf32>, tensor<4x3xf32>) outs(%1 : tensor<1x3xf32>) -> tensor<1x3xf32>
    %collapsed = tensor.collapse_shape %2 [[0, 1]] : tensor<1x3xf32> into tensor<3xf32>
    %_params.bias = util.global.load @_params.bias : tensor<3xf32>
    %3 = tensor.empty() : tensor<3xf32>
    %4 = linalg.generic {indexing_maps = [#map, #map, #map], iterator_types = ["parallel"]} ins(%collapsed, %_params.bias : tensor<3xf32>, tensor<3xf32>) outs(%3 : tensor<3xf32>) {
    ^bb0(%in: f32, %in_0: f32, %out: f32):
      %5 = arith.addf %in, %in_0 : f32
      linalg.yield %5 : f32
    } -> tensor<3xf32>
    return %4 : tensor<3xf32>
  }
}


// -----// IR Dump After ImportMLProgram (iree-import-ml-program) //----- //
#executable_target_cuda_nvptx_fb = #hal.executable.target<"cuda", "cuda-nvptx-fb", {target_arch = "sm_75"}>
#map = affine_map<(d0) -> (d0)>
#device_target_cuda = #hal.device.target<"cuda", {executable_targets = [#executable_target_cuda_nvptx_fb], legacy_sync}>
module @LinearModule attributes {hal.device.targets = [#device_target_cuda]} {
  util.global private @_params.weight {noinline} = dense<[[1.54099607, -0.293428898, -2.17878938], [0.568431258, -1.08452237, -1.39859545], [0.403346837, 0.838026344, -0.719257593], [-0.403343529, -0.596635341, 0.182036489]]> : tensor<4x3xf32>
  util.global private @_params.bias {noinline} = dense<[-0.856674611, 1.10060418, -1.07118738]> : tensor<3xf32>
  func.func @main(%arg0: tensor<4xf32>) -> tensor<3xf32> attributes {torch.args_schema = "[1, {\22type\22: \22builtins.tuple\22, \22context\22: \22null\22, \22children_spec\22: [{\22type\22: \22builtins.list\22, \22context\22: \22null\22, \22children_spec\22: [{\22type\22: null, \22context\22: null, \22children_spec\22: []}]}, {\22type\22: \22builtins.dict\22, \22context\22: \22[]\22, \22children_spec\22: []}]}]", torch.assume_strict_symbolic_shapes, torch.return_schema = "[1, {\22type\22: null, \22context\22: null, \22children_spec\22: []}]"} {
    %0 = call @forward(%arg0) : (tensor<4xf32>) -> tensor<3xf32>
    return %0 : tensor<3xf32>
  }
  func.func private @forward(%arg0: tensor<4xf32>) -> tensor<3xf32> attributes {torch.assume_strict_symbolic_shapes} {
    %cst = arith.constant 0.000000e+00 : f32
    %expanded = tensor.expand_shape %arg0 [[0, 1]] : tensor<4xf32> into tensor<1x4xf32>
    %_params.weight = util.global.load @_params.weight : tensor<4x3xf32>
    %0 = tensor.empty() : tensor<1x3xf32>
    %1 = linalg.fill ins(%cst : f32) outs(%0 : tensor<1x3xf32>) -> tensor<1x3xf32>
    %2 = linalg.matmul ins(%expanded, %_params.weight : tensor<1x4xf32>, tensor<4x3xf32>) outs(%1 : tensor<1x3xf32>) -> tensor<1x3xf32>
    %collapsed = tensor.collapse_shape %2 [[0, 1]] : tensor<1x3xf32> into tensor<3xf32>
    %_params.bias = util.global.load @_params.bias : tensor<3xf32>
    %3 = tensor.empty() : tensor<3xf32>
    %4 = linalg.generic {indexing_maps = [#map, #map, #map], iterator_types = ["parallel"]} ins(%collapsed, %_params.bias : tensor<3xf32>, tensor<3xf32>) outs(%3 : tensor<3xf32>) {
    ^bb0(%in: f32, %in_0: f32, %out: f32):
      %5 = arith.addf %in, %in_0 : f32
      linalg.yield %5 : f32
    } -> tensor<3xf32>
    return %4 : tensor<3xf32>
  }
}


// -----// IR Dump After SanitizeModuleNames (iree-sanitize-module-names) //----- //
#executable_target_cuda_nvptx_fb = #hal.executable.target<"cuda", "cuda-nvptx-fb", {target_arch = "sm_75"}>
#map = affine_map<(d0) -> (d0)>
#device_target_cuda = #hal.device.target<"cuda", {executable_targets = [#executable_target_cuda_nvptx_fb], legacy_sync}>
module @LinearModule attributes {hal.device.targets = [#device_target_cuda]} {
  util.global private @_params.weight {noinline} = dense<[[1.54099607, -0.293428898, -2.17878938], [0.568431258, -1.08452237, -1.39859545], [0.403346837, 0.838026344, -0.719257593], [-0.403343529, -0.596635341, 0.182036489]]> : tensor<4x3xf32>
  util.global private @_params.bias {noinline} = dense<[-0.856674611, 1.10060418, -1.07118738]> : tensor<3xf32>
  func.func @main(%arg0: tensor<4xf32>) -> tensor<3xf32> attributes {torch.args_schema = "[1, {\22type\22: \22builtins.tuple\22, \22context\22: \22null\22, \22children_spec\22: [{\22type\22: \22builtins.list\22, \22context\22: \22null\22, \22children_spec\22: [{\22type\22: null, \22context\22: null, \22children_spec\22: []}]}, {\22type\22: \22builtins.dict\22, \22context\22: \22[]\22, \22children_spec\22: []}]}]", torch.assume_strict_symbolic_shapes, torch.return_schema = "[1, {\22type\22: null, \22context\22: null, \22children_spec\22: []}]"} {
    %0 = call @forward(%arg0) : (tensor<4xf32>) -> tensor<3xf32>
    return %0 : tensor<3xf32>
  }
  func.func private @forward(%arg0: tensor<4xf32>) -> tensor<3xf32> attributes {torch.assume_strict_symbolic_shapes} {
    %cst = arith.constant 0.000000e+00 : f32
    %expanded = tensor.expand_shape %arg0 [[0, 1]] : tensor<4xf32> into tensor<1x4xf32>
    %_params.weight = util.global.load @_params.weight : tensor<4x3xf32>
    %0 = tensor.empty() : tensor<1x3xf32>
    %1 = linalg.fill ins(%cst : f32) outs(%0 : tensor<1x3xf32>) -> tensor<1x3xf32>
    %2 = linalg.matmul ins(%expanded, %_params.weight : tensor<1x4xf32>, tensor<4x3xf32>) outs(%1 : tensor<1x3xf32>) -> tensor<1x3xf32>
    %collapsed = tensor.collapse_shape %2 [[0, 1]] : tensor<1x3xf32> into tensor<3xf32>
    %_params.bias = util.global.load @_params.bias : tensor<3xf32>
    %3 = tensor.empty() : tensor<3xf32>
    %4 = linalg.generic {indexing_maps = [#map, #map, #map], iterator_types = ["parallel"]} ins(%collapsed, %_params.bias : tensor<3xf32>, tensor<3xf32>) outs(%3 : tensor<3xf32>) {
    ^bb0(%in: f32, %in_0: f32, %out: f32):
      %5 = arith.addf %in, %in_0 : f32
      linalg.yield %5 : f32
    } -> tensor<3xf32>
    return %4 : tensor<3xf32>
  }
}


// -----// IR Dump After mlir::iree_compiler::IREE::ABI::ConvertStreamableOpsPass (iree-abi-convert-streamable-ops) //----- //
#executable_target_cuda_nvptx_fb = #hal.executable.target<"cuda", "cuda-nvptx-fb", {target_arch = "sm_75"}>
#map = affine_map<(d0) -> (d0)>
#device_target_cuda = #hal.device.target<"cuda", {executable_targets = [#executable_target_cuda_nvptx_fb], legacy_sync}>
module @LinearModule attributes {hal.device.targets = [#device_target_cuda]} {
  util.global private @_params.weight {noinline} = dense<[[1.54099607, -0.293428898, -2.17878938], [0.568431258, -1.08452237, -1.39859545], [0.403346837, 0.838026344, -0.719257593], [-0.403343529, -0.596635341, 0.182036489]]> : tensor<4x3xf32>
  util.global private @_params.bias {noinline} = dense<[-0.856674611, 1.10060418, -1.07118738]> : tensor<3xf32>
  func.func @main(%arg0: tensor<4xf32>) -> tensor<3xf32> attributes {torch.args_schema = "[1, {\22type\22: \22builtins.tuple\22, \22context\22: \22null\22, \22children_spec\22: [{\22type\22: \22builtins.list\22, \22context\22: \22null\22, \22children_spec\22: [{\22type\22: null, \22context\22: null, \22children_spec\22: []}]}, {\22type\22: \22builtins.dict\22, \22context\22: \22[]\22, \22children_spec\22: []}]}]", torch.assume_strict_symbolic_shapes, torch.return_schema = "[1, {\22type\22: null, \22context\22: null, \22children_spec\22: []}]"} {
    %0 = call @forward(%arg0) : (tensor<4xf32>) -> tensor<3xf32>
    return %0 : tensor<3xf32>
  }
  func.func private @forward(%arg0: tensor<4xf32>) -> tensor<3xf32> attributes {torch.assume_strict_symbolic_shapes} {
    %cst = arith.constant 0.000000e+00 : f32
    %expanded = tensor.expand_shape %arg0 [[0, 1]] : tensor<4xf32> into tensor<1x4xf32>
    %_params.weight = util.global.load @_params.weight : tensor<4x3xf32>
    %0 = tensor.empty() : tensor<1x3xf32>
    %1 = linalg.fill ins(%cst : f32) outs(%0 : tensor<1x3xf32>) -> tensor<1x3xf32>
    %2 = linalg.matmul ins(%expanded, %_params.weight : tensor<1x4xf32>, tensor<4x3xf32>) outs(%1 : tensor<1x3xf32>) -> tensor<1x3xf32>
    %collapsed = tensor.collapse_shape %2 [[0, 1]] : tensor<1x3xf32> into tensor<3xf32>
    %_params.bias = util.global.load @_params.bias : tensor<3xf32>
    %3 = tensor.empty() : tensor<3xf32>
    %4 = linalg.generic {indexing_maps = [#map, #map, #map], iterator_types = ["parallel"]} ins(%collapsed, %_params.bias : tensor<3xf32>, tensor<3xf32>) outs(%3 : tensor<3xf32>) {
    ^bb0(%in: f32, %in_0: f32, %out: f32):
      %5 = arith.addf %in, %in_0 : f32
      linalg.yield %5 : f32
    } -> tensor<3xf32>
    return %4 : tensor<3xf32>
  }
}


// -----// IR Dump After mlir::iree_compiler::IREE::ABI::WrapEntryPointsPass (iree-abi-wrap-entry-points) //----- //
#executable_target_cuda_nvptx_fb = #hal.executable.target<"cuda", "cuda-nvptx-fb", {target_arch = "sm_75"}>
#map = affine_map<(d0) -> (d0)>
#device_target_cuda = #hal.device.target<"cuda", {executable_targets = [#executable_target_cuda_nvptx_fb], legacy_sync}>
module @LinearModule attributes {hal.device.targets = [#device_target_cuda]} {
  util.global private @_params.weight {noinline} = dense<[[1.54099607, -0.293428898, -2.17878938], [0.568431258, -1.08452237, -1.39859545], [0.403346837, 0.838026344, -0.719257593], [-0.403343529, -0.596635341, 0.182036489]]> : tensor<4x3xf32>
  util.global private @_params.bias {noinline} = dense<[-0.856674611, 1.10060418, -1.07118738]> : tensor<3xf32>
  func.func @main(%arg0: !hal.buffer_view) -> !hal.buffer_view attributes {iree.abi.stub} {
    %0 = hal.tensor.import %arg0 "input 0" : !hal.buffer_view -> tensor<4xf32>
    %1 = call @_main(%0) : (tensor<4xf32>) -> tensor<3xf32>
    %2 = hal.tensor.export %1 "output 0" : tensor<3xf32> -> !hal.buffer_view
    return %2 : !hal.buffer_view
  }
  func.func private @_main(%arg0: tensor<4xf32>) -> tensor<3xf32> attributes {torch.args_schema = "[1, {\22type\22: \22builtins.tuple\22, \22context\22: \22null\22, \22children_spec\22: [{\22type\22: \22builtins.list\22, \22context\22: \22null\22, \22children_spec\22: [{\22type\22: null, \22context\22: null, \22children_spec\22: []}]}, {\22type\22: \22builtins.dict\22, \22context\22: \22[]\22, \22children_spec\22: []}]}]", torch.assume_strict_symbolic_shapes, torch.return_schema = "[1, {\22type\22: null, \22context\22: null, \22children_spec\22: []}]"} {
    %0 = call @forward(%arg0) : (tensor<4xf32>) -> tensor<3xf32>
    return %0 : tensor<3xf32>
  }
  func.func private @forward(%arg0: tensor<4xf32>) -> tensor<3xf32> attributes {torch.assume_strict_symbolic_shapes} {
    %cst = arith.constant 0.000000e+00 : f32
    %expanded = tensor.expand_shape %arg0 [[0, 1]] : tensor<4xf32> into tensor<1x4xf32>
    %_params.weight = util.global.load @_params.weight : tensor<4x3xf32>
    %0 = tensor.empty() : tensor<1x3xf32>
    %1 = linalg.fill ins(%cst : f32) outs(%0 : tensor<1x3xf32>) -> tensor<1x3xf32>
    %2 = linalg.matmul ins(%expanded, %_params.weight : tensor<1x4xf32>, tensor<4x3xf32>) outs(%1 : tensor<1x3xf32>) -> tensor<1x3xf32>
    %collapsed = tensor.collapse_shape %2 [[0, 1]] : tensor<1x3xf32> into tensor<3xf32>
    %_params.bias = util.global.load @_params.bias : tensor<3xf32>
    %3 = tensor.empty() : tensor<3xf32>
    %4 = linalg.generic {indexing_maps = [#map, #map, #map], iterator_types = ["parallel"]} ins(%collapsed, %_params.bias : tensor<3xf32>, tensor<3xf32>) outs(%3 : tensor<3xf32>) {
    ^bb0(%in: f32, %in_0: f32, %out: f32):
      %5 = arith.addf %in, %in_0 : f32
      linalg.yield %5 : f32
    } -> tensor<3xf32>
    return %4 : tensor<3xf32>
  }
}


// -----// IR Dump After Canonicalizer (canonicalize) //----- //
func.func private @forward(%arg0: tensor<4xf32>) -> tensor<3xf32> attributes {torch.assume_strict_symbolic_shapes} {
  %cst = arith.constant 0.000000e+00 : f32
  %expanded = tensor.expand_shape %arg0 [[0, 1]] : tensor<4xf32> into tensor<1x4xf32>
  %_params.weight = util.global.load @_params.weight : tensor<4x3xf32>
  %0 = tensor.empty() : tensor<1x3xf32>
  %1 = linalg.fill ins(%cst : f32) outs(%0 : tensor<1x3xf32>) -> tensor<1x3xf32>
  %2 = linalg.matmul ins(%expanded, %_params.weight : tensor<1x4xf32>, tensor<4x3xf32>) outs(%1 : tensor<1x3xf32>) -> tensor<1x3xf32>
  %collapsed = tensor.collapse_shape %2 [[0, 1]] : tensor<1x3xf32> into tensor<3xf32>
  %_params.bias = util.global.load @_params.bias : tensor<3xf32>
  %3 = tensor.empty() : tensor<3xf32>
  %4 = linalg.generic {indexing_maps = [affine_map<(d0) -> (d0)>, affine_map<(d0) -> (d0)>, affine_map<(d0) -> (d0)>], iterator_types = ["parallel"]} ins(%collapsed, %_params.bias : tensor<3xf32>, tensor<3xf32>) outs(%3 : tensor<3xf32>) {
  ^bb0(%in: f32, %in_0: f32, %out: f32):
    %5 = arith.addf %in, %in_0 : f32
    linalg.yield %5 : f32
  } -> tensor<3xf32>
  return %4 : tensor<3xf32>
}

// -----// IR Dump After Canonicalizer (canonicalize) //----- //
func.func private @_main(%arg0: tensor<4xf32>) -> tensor<3xf32> attributes {torch.args_schema = "[1, {\22type\22: \22builtins.tuple\22, \22context\22: \22null\22, \22children_spec\22: [{\22type\22: \22builtins.list\22, \22context\22: \22null\22, \22children_spec\22: [{\22type\22: null, \22context\22: null, \22children_spec\22: []}]}, {\22type\22: \22builtins.dict\22, \22context\22: \22[]\22, \22children_spec\22: []}]}]", torch.assume_strict_symbolic_shapes, torch.return_schema = "[1, {\22type\22: null, \22context\22: null, \22children_spec\22: []}]"} {
  %0 = call @forward(%arg0) : (tensor<4xf32>) -> tensor<3xf32>
  return %0 : tensor<3xf32>
}

// -----// IR Dump After Canonicalizer (canonicalize) //----- //
func.func private @_main(%arg0: tensor<4xf32>) -> tensor<3xf32> attributes {torch.args_schema = "[1, {\22type\22: \22builtins.tuple\22, \22context\22: \22null\22, \22children_spec\22: [{\22type\22: \22builtins.list\22, \22context\22: \22null\22, \22children_spec\22: [{\22type\22: null, \22context\22: null, \22children_spec\22: []}]}, {\22type\22: \22builtins.dict\22, \22context\22: \22[]\22, \22children_spec\22: []}]}]", torch.assume_strict_symbolic_shapes, torch.return_schema = "[1, {\22type\22: null, \22context\22: null, \22children_spec\22: []}]"} {
  %cst = arith.constant 0.000000e+00 : f32
  %expanded = tensor.expand_shape %arg0 [[0, 1]] : tensor<4xf32> into tensor<1x4xf32>
  %_params.weight = util.global.load @_params.weight : tensor<4x3xf32>
  %0 = tensor.empty() : tensor<1x3xf32>
  %1 = linalg.fill ins(%cst : f32) outs(%0 : tensor<1x3xf32>) -> tensor<1x3xf32>
  %2 = linalg.matmul ins(%expanded, %_params.weight : tensor<1x4xf32>, tensor<4x3xf32>) outs(%1 : tensor<1x3xf32>) -> tensor<1x3xf32>
  %collapsed = tensor.collapse_shape %2 [[0, 1]] : tensor<1x3xf32> into tensor<3xf32>
  %_params.bias = util.global.load @_params.bias : tensor<3xf32>
  %3 = tensor.empty() : tensor<3xf32>
  %4 = linalg.generic {indexing_maps = [affine_map<(d0) -> (d0)>, affine_map<(d0) -> (d0)>, affine_map<(d0) -> (d0)>], iterator_types = ["parallel"]} ins(%collapsed, %_params.bias : tensor<3xf32>, tensor<3xf32>) outs(%3 : tensor<3xf32>) {
  ^bb0(%in: f32, %in_0: f32, %out: f32):
    %5 = arith.addf %in, %in_0 : f32
    linalg.yield %5 : f32
  } -> tensor<3xf32>
  return %4 : tensor<3xf32>
}

// -----// IR Dump After Canonicalizer (canonicalize) //----- //
func.func @main(%arg0: !hal.buffer_view) -> !hal.buffer_view attributes {iree.abi.stub} {
  %0 = hal.tensor.import %arg0 "input 0" : !hal.buffer_view -> tensor<4xf32>
  %1 = call @_main(%0) : (tensor<4xf32>) -> tensor<3xf32>
  %2 = hal.tensor.export %1 "output 0" : tensor<3xf32> -> !hal.buffer_view
  return %2 : !hal.buffer_view
}

// -----// IR Dump After Canonicalizer (canonicalize) //----- //
func.func @main(%arg0: !hal.buffer_view) -> !hal.buffer_view attributes {iree.abi.stub} {
  %cst = arith.constant 0.000000e+00 : f32
  %0 = hal.tensor.import %arg0 "input 0" : !hal.buffer_view -> tensor<4xf32>
  %expanded = tensor.expand_shape %0 [[0, 1]] : tensor<4xf32> into tensor<1x4xf32>
  %_params.weight = util.global.load @_params.weight : tensor<4x3xf32>
  %1 = tensor.empty() : tensor<1x3xf32>
  %2 = linalg.fill ins(%cst : f32) outs(%1 : tensor<1x3xf32>) -> tensor<1x3xf32>
  %3 = linalg.matmul ins(%expanded, %_params.weight : tensor<1x4xf32>, tensor<4x3xf32>) outs(%2 : tensor<1x3xf32>) -> tensor<1x3xf32>
  %collapsed = tensor.collapse_shape %3 [[0, 1]] : tensor<1x3xf32> into tensor<3xf32>
  %_params.bias = util.global.load @_params.bias : tensor<3xf32>
  %4 = tensor.empty() : tensor<3xf32>
  %5 = linalg.generic {indexing_maps = [affine_map<(d0) -> (d0)>, affine_map<(d0) -> (d0)>, affine_map<(d0) -> (d0)>], iterator_types = ["parallel"]} ins(%collapsed, %_params.bias : tensor<3xf32>, tensor<3xf32>) outs(%4 : tensor<3xf32>) {
  ^bb0(%in: f32, %in_0: f32, %out: f32):
    %7 = arith.addf %in, %in_0 : f32
    linalg.yield %7 : f32
  } -> tensor<3xf32>
  %6 = hal.tensor.export %5 "output 0" : tensor<3xf32> -> !hal.buffer_view
  return %6 : !hal.buffer_view
}

// -----// IR Dump After Inliner (inline) //----- //
#executable_target_cuda_nvptx_fb = #hal.executable.target<"cuda", "cuda-nvptx-fb", {target_arch = "sm_75"}>
#map = affine_map<(d0) -> (d0)>
#device_target_cuda = #hal.device.target<"cuda", {executable_targets = [#executable_target_cuda_nvptx_fb], legacy_sync}>
module @LinearModule attributes {hal.device.targets = [#device_target_cuda]} {
  util.global private @_params.weight {noinline} = dense<[[1.54099607, -0.293428898, -2.17878938], [0.568431258, -1.08452237, -1.39859545], [0.403346837, 0.838026344, -0.719257593], [-0.403343529, -0.596635341, 0.182036489]]> : tensor<4x3xf32>
  util.global private @_params.bias {noinline} = dense<[-0.856674611, 1.10060418, -1.07118738]> : tensor<3xf32>
  func.func @main(%arg0: !hal.buffer_view) -> !hal.buffer_view attributes {iree.abi.stub} {
    %cst = arith.constant 0.000000e+00 : f32
    %0 = hal.tensor.import %arg0 "input 0" : !hal.buffer_view -> tensor<4xf32>
    %expanded = tensor.expand_shape %0 [[0, 1]] : tensor<4xf32> into tensor<1x4xf32>
    %_params.weight = util.global.load @_params.weight : tensor<4x3xf32>
    %1 = tensor.empty() : tensor<1x3xf32>
    %2 = linalg.fill ins(%cst : f32) outs(%1 : tensor<1x3xf32>) -> tensor<1x3xf32>
    %3 = linalg.matmul ins(%expanded, %_params.weight : tensor<1x4xf32>, tensor<4x3xf32>) outs(%2 : tensor<1x3xf32>) -> tensor<1x3xf32>
    %collapsed = tensor.collapse_shape %3 [[0, 1]] : tensor<1x3xf32> into tensor<3xf32>
    %_params.bias = util.global.load @_params.bias : tensor<3xf32>
    %4 = tensor.empty() : tensor<3xf32>
    %5 = linalg.generic {indexing_maps = [#map, #map, #map], iterator_types = ["parallel"]} ins(%collapsed, %_params.bias : tensor<3xf32>, tensor<3xf32>) outs(%4 : tensor<3xf32>) {
    ^bb0(%in: f32, %in_0: f32, %out: f32):
      %7 = arith.addf %in, %in_0 : f32
      linalg.yield %7 : f32
    } -> tensor<3xf32>
    %6 = hal.tensor.export %5 "output 0" : tensor<3xf32> -> !hal.buffer_view
    return %6 : !hal.buffer_view
  }
}


// -----// IR Dump After Canonicalizer (canonicalize) //----- //
func.func @main(%arg0: !hal.buffer_view) -> !hal.buffer_view attributes {iree.abi.stub} {
  %cst = arith.constant 0.000000e+00 : f32
  %0 = hal.tensor.import %arg0 "input 0" : !hal.buffer_view -> tensor<4xf32>
  %expanded = tensor.expand_shape %0 [[0, 1]] : tensor<4xf32> into tensor<1x4xf32>
  %_params.weight = util.global.load @_params.weight : tensor<4x3xf32>
  %1 = tensor.empty() : tensor<1x3xf32>
  %2 = linalg.fill ins(%cst : f32) outs(%1 : tensor<1x3xf32>) -> tensor<1x3xf32>
  %3 = linalg.matmul ins(%expanded, %_params.weight : tensor<1x4xf32>, tensor<4x3xf32>) outs(%2 : tensor<1x3xf32>) -> tensor<1x3xf32>
  %collapsed = tensor.collapse_shape %3 [[0, 1]] : tensor<1x3xf32> into tensor<3xf32>
  %_params.bias = util.global.load @_params.bias : tensor<3xf32>
  %4 = tensor.empty() : tensor<3xf32>
  %5 = linalg.generic {indexing_maps = [affine_map<(d0) -> (d0)>, affine_map<(d0) -> (d0)>, affine_map<(d0) -> (d0)>], iterator_types = ["parallel"]} ins(%collapsed, %_params.bias : tensor<3xf32>, tensor<3xf32>) outs(%4 : tensor<3xf32>) {
  ^bb0(%in: f32, %in_0: f32, %out: f32):
    %7 = arith.addf %in, %in_0 : f32
    linalg.yield %7 : f32
  } -> tensor<3xf32>
  %6 = hal.tensor.export %5 "output 0" : tensor<3xf32> -> !hal.buffer_view
  return %6 : !hal.buffer_view
}

// -----// IR Dump After CSE (cse) //----- //
func.func @main(%arg0: !hal.buffer_view) -> !hal.buffer_view attributes {iree.abi.stub} {
  %cst = arith.constant 0.000000e+00 : f32
  %0 = hal.tensor.import %arg0 "input 0" : !hal.buffer_view -> tensor<4xf32>
  %expanded = tensor.expand_shape %0 [[0, 1]] : tensor<4xf32> into tensor<1x4xf32>
  %_params.weight = util.global.load @_params.weight : tensor<4x3xf32>
  %1 = tensor.empty() : tensor<1x3xf32>
  %2 = linalg.fill ins(%cst : f32) outs(%1 : tensor<1x3xf32>) -> tensor<1x3xf32>
  %3 = linalg.matmul ins(%expanded, %_params.weight : tensor<1x4xf32>, tensor<4x3xf32>) outs(%2 : tensor<1x3xf32>) -> tensor<1x3xf32>
  %collapsed = tensor.collapse_shape %3 [[0, 1]] : tensor<1x3xf32> into tensor<3xf32>
  %_params.bias = util.global.load @_params.bias : tensor<3xf32>
  %4 = tensor.empty() : tensor<3xf32>
  %5 = linalg.generic {indexing_maps = [affine_map<(d0) -> (d0)>, affine_map<(d0) -> (d0)>, affine_map<(d0) -> (d0)>], iterator_types = ["parallel"]} ins(%collapsed, %_params.bias : tensor<3xf32>, tensor<3xf32>) outs(%4 : tensor<3xf32>) {
  ^bb0(%in: f32, %in_0: f32, %out: f32):
    %7 = arith.addf %in, %in_0 : f32
    linalg.yield %7 : f32
  } -> tensor<3xf32>
  %6 = hal.tensor.export %5 "output 0" : tensor<3xf32> -> !hal.buffer_view
  return %6 : !hal.buffer_view
}

// -----// IR Dump After SymbolDCE (symbol-dce) //----- //
#executable_target_cuda_nvptx_fb = #hal.executable.target<"cuda", "cuda-nvptx-fb", {target_arch = "sm_75"}>
#map = affine_map<(d0) -> (d0)>
#device_target_cuda = #hal.device.target<"cuda", {executable_targets = [#executable_target_cuda_nvptx_fb], legacy_sync}>
module @LinearModule attributes {hal.device.targets = [#device_target_cuda]} {
  util.global private @_params.weight {noinline} = dense<[[1.54099607, -0.293428898, -2.17878938], [0.568431258, -1.08452237, -1.39859545], [0.403346837, 0.838026344, -0.719257593], [-0.403343529, -0.596635341, 0.182036489]]> : tensor<4x3xf32>
  util.global private @_params.bias {noinline} = dense<[-0.856674611, 1.10060418, -1.07118738]> : tensor<3xf32>
  func.func @main(%arg0: !hal.buffer_view) -> !hal.buffer_view attributes {iree.abi.stub} {
    %cst = arith.constant 0.000000e+00 : f32
    %0 = hal.tensor.import %arg0 "input 0" : !hal.buffer_view -> tensor<4xf32>
    %expanded = tensor.expand_shape %0 [[0, 1]] : tensor<4xf32> into tensor<1x4xf32>
    %_params.weight = util.global.load @_params.weight : tensor<4x3xf32>
    %1 = tensor.empty() : tensor<1x3xf32>
    %2 = linalg.fill ins(%cst : f32) outs(%1 : tensor<1x3xf32>) -> tensor<1x3xf32>
    %3 = linalg.matmul ins(%expanded, %_params.weight : tensor<1x4xf32>, tensor<4x3xf32>) outs(%2 : tensor<1x3xf32>) -> tensor<1x3xf32>
    %collapsed = tensor.collapse_shape %3 [[0, 1]] : tensor<1x3xf32> into tensor<3xf32>
    %_params.bias = util.global.load @_params.bias : tensor<3xf32>
    %4 = tensor.empty() : tensor<3xf32>
    %5 = linalg.generic {indexing_maps = [#map, #map, #map], iterator_types = ["parallel"]} ins(%collapsed, %_params.bias : tensor<3xf32>, tensor<3xf32>) outs(%4 : tensor<3xf32>) {
    ^bb0(%in: f32, %in_0: f32, %out: f32):
      %7 = arith.addf %in, %in_0 : f32
      linalg.yield %7 : f32
    } -> tensor<3xf32>
    %6 = hal.tensor.export %5 "output 0" : tensor<3xf32> -> !hal.buffer_view
    return %6 : !hal.buffer_view
  }
}


// -----// IR Dump After DemoteF64ToF32 (iree-util-demote-f64-to-f32) //----- //
#executable_target_cuda_nvptx_fb = #hal.executable.target<"cuda", "cuda-nvptx-fb", {target_arch = "sm_75"}>
#map = affine_map<(d0) -> (d0)>
#device_target_cuda = #hal.device.target<"cuda", {executable_targets = [#executable_target_cuda_nvptx_fb], legacy_sync}>
module @LinearModule attributes {hal.device.targets = [#device_target_cuda]} {
  util.global private @_params.weight {noinline} = dense<[[1.54099607, -0.293428898, -2.17878938], [0.568431258, -1.08452237, -1.39859545], [0.403346837, 0.838026344, -0.719257593], [-0.403343529, -0.596635341, 0.182036489]]> : tensor<4x3xf32>
  util.global private @_params.bias {noinline} = dense<[-0.856674611, 1.10060418, -1.07118738]> : tensor<3xf32>
  func.func @main(%arg0: !hal.buffer_view) -> !hal.buffer_view attributes {iree.abi.stub} {
    %cst = arith.constant 0.000000e+00 : f32
    %0 = hal.tensor.import %arg0 "input 0" : !hal.buffer_view -> tensor<4xf32>
    %expanded = tensor.expand_shape %0 [[0, 1]] : tensor<4xf32> into tensor<1x4xf32>
    %_params.weight = util.global.load @_params.weight : tensor<4x3xf32>
    %1 = tensor.empty() : tensor<1x3xf32>
    %2 = linalg.fill ins(%cst : f32) outs(%1 : tensor<1x3xf32>) -> tensor<1x3xf32>
    %3 = linalg.matmul ins(%expanded, %_params.weight : tensor<1x4xf32>, tensor<4x3xf32>) outs(%2 : tensor<1x3xf32>) -> tensor<1x3xf32>
    %collapsed = tensor.collapse_shape %3 [[0, 1]] : tensor<1x3xf32> into tensor<3xf32>
    %_params.bias = util.global.load @_params.bias : tensor<3xf32>
    %4 = tensor.empty() : tensor<3xf32>
    %5 = linalg.generic {indexing_maps = [#map, #map, #map], iterator_types = ["parallel"]} ins(%collapsed, %_params.bias : tensor<3xf32>, tensor<3xf32>) outs(%4 : tensor<3xf32>) {
    ^bb0(%in: f32, %in_0: f32, %out: f32):
      %7 = arith.addf %in, %in_0 : f32
      linalg.yield %7 : f32
    } -> tensor<3xf32>
    %6 = hal.tensor.export %5 "output 0" : tensor<3xf32> -> !hal.buffer_view
    return %6 : !hal.buffer_view
  }
}


// -----// IR Dump After RemoveZeroExtentTensors (iree-global-opt-remove-zero-extent-tensors) //----- //
func.func @main(%arg0: !hal.buffer_view) -> !hal.buffer_view attributes {iree.abi.stub} {
  %cst = arith.constant 0.000000e+00 : f32
  %0 = hal.tensor.import %arg0 "input 0" : !hal.buffer_view -> tensor<4xf32>
  %expanded = tensor.expand_shape %0 [[0, 1]] : tensor<4xf32> into tensor<1x4xf32>
  %_params.weight = util.global.load @_params.weight : tensor<4x3xf32>
  %1 = tensor.empty() : tensor<1x3xf32>
  %2 = linalg.fill ins(%cst : f32) outs(%1 : tensor<1x3xf32>) -> tensor<1x3xf32>
  %3 = linalg.matmul ins(%expanded, %_params.weight : tensor<1x4xf32>, tensor<4x3xf32>) outs(%2 : tensor<1x3xf32>) -> tensor<1x3xf32>
  %collapsed = tensor.collapse_shape %3 [[0, 1]] : tensor<1x3xf32> into tensor<3xf32>
  %_params.bias = util.global.load @_params.bias : tensor<3xf32>
  %4 = tensor.empty() : tensor<3xf32>
  %5 = linalg.generic {indexing_maps = [affine_map<(d0) -> (d0)>, affine_map<(d0) -> (d0)>, affine_map<(d0) -> (d0)>], iterator_types = ["parallel"]} ins(%collapsed, %_params.bias : tensor<3xf32>, tensor<3xf32>) outs(%4 : tensor<3xf32>) {
  ^bb0(%in: f32, %in_0: f32, %out: f32):
    %7 = arith.addf %in, %in_0 : f32
    linalg.yield %7 : f32
  } -> tensor<3xf32>
  %6 = hal.tensor.export %5 "output 0" : tensor<3xf32> -> !hal.buffer_view
  return %6 : !hal.buffer_view
}

// -----// IR Dump After DetachElementwiseFromNamedOps (iree-global-opt-detach-elementwise-from-named-ops) //----- //
func.func @main(%arg0: !hal.buffer_view) -> !hal.buffer_view attributes {iree.abi.stub} {
  %cst = arith.constant 0.000000e+00 : f32
  %0 = hal.tensor.import %arg0 "input 0" : !hal.buffer_view -> tensor<4xf32>
  %expanded = tensor.expand_shape %0 [[0, 1]] : tensor<4xf32> into tensor<1x4xf32>
  %_params.weight = util.global.load @_params.weight : tensor<4x3xf32>
  %1 = tensor.empty() : tensor<1x3xf32>
  %2 = linalg.fill ins(%cst : f32) outs(%1 : tensor<1x3xf32>) -> tensor<1x3xf32>
  %3 = linalg.matmul ins(%expanded, %_params.weight : tensor<1x4xf32>, tensor<4x3xf32>) outs(%2 : tensor<1x3xf32>) -> tensor<1x3xf32>
  %collapsed = tensor.collapse_shape %3 [[0, 1]] : tensor<1x3xf32> into tensor<3xf32>
  %_params.bias = util.global.load @_params.bias : tensor<3xf32>
  %4 = tensor.empty() : tensor<3xf32>
  %5 = linalg.generic {indexing_maps = [affine_map<(d0) -> (d0)>, affine_map<(d0) -> (d0)>, affine_map<(d0) -> (d0)>], iterator_types = ["parallel"]} ins(%collapsed, %_params.bias : tensor<3xf32>, tensor<3xf32>) outs(%4 : tensor<3xf32>) {
  ^bb0(%in: f32, %in_0: f32, %out: f32):
    %7 = arith.addf %in, %in_0 : f32
    linalg.yield %7 : f32
  } -> tensor<3xf32>
  %6 = hal.tensor.export %5 "output 0" : tensor<3xf32> -> !hal.buffer_view
  return %6 : !hal.buffer_view
}

// -----// IR Dump After LinalgNamedOpConversion (linalg-named-op-conversion) //----- //
func.func @main(%arg0: !hal.buffer_view) -> !hal.buffer_view attributes {iree.abi.stub} {
  %cst = arith.constant 0.000000e+00 : f32
  %0 = hal.tensor.import %arg0 "input 0" : !hal.buffer_view -> tensor<4xf32>
  %expanded = tensor.expand_shape %0 [[0, 1]] : tensor<4xf32> into tensor<1x4xf32>
  %_params.weight = util.global.load @_params.weight : tensor<4x3xf32>
  %1 = tensor.empty() : tensor<1x3xf32>
  %2 = linalg.fill ins(%cst : f32) outs(%1 : tensor<1x3xf32>) -> tensor<1x3xf32>
  %3 = linalg.matmul ins(%expanded, %_params.weight : tensor<1x4xf32>, tensor<4x3xf32>) outs(%2 : tensor<1x3xf32>) -> tensor<1x3xf32>
  %collapsed = tensor.collapse_shape %3 [[0, 1]] : tensor<1x3xf32> into tensor<3xf32>
  %_params.bias = util.global.load @_params.bias : tensor<3xf32>
  %4 = tensor.empty() : tensor<3xf32>
  %5 = linalg.generic {indexing_maps = [affine_map<(d0) -> (d0)>, affine_map<(d0) -> (d0)>, affine_map<(d0) -> (d0)>], iterator_types = ["parallel"]} ins(%collapsed, %_params.bias : tensor<3xf32>, tensor<3xf32>) outs(%4 : tensor<3xf32>) {
  ^bb0(%in: f32, %in_0: f32, %out: f32):
    %7 = arith.addf %in, %in_0 : f32
    linalg.yield %7 : f32
  } -> tensor<3xf32>
  %6 = hal.tensor.export %5 "output 0" : tensor<3xf32> -> !hal.buffer_view
  return %6 : !hal.buffer_view
}

// -----// IR Dump After Convert1X1FilterConv2DToMatmul (iree-global-opt-convert-1x1-filter-conv2d-to-matmul) //----- //
func.func @main(%arg0: !hal.buffer_view) -> !hal.buffer_view attributes {iree.abi.stub} {
  %cst = arith.constant 0.000000e+00 : f32
  %0 = hal.tensor.import %arg0 "input 0" : !hal.buffer_view -> tensor<4xf32>
  %expanded = tensor.expand_shape %0 [[0, 1]] : tensor<4xf32> into tensor<1x4xf32>
  %_params.weight = util.global.load @_params.weight : tensor<4x3xf32>
  %1 = tensor.empty() : tensor<1x3xf32>
  %2 = linalg.fill ins(%cst : f32) outs(%1 : tensor<1x3xf32>) -> tensor<1x3xf32>
  %3 = linalg.matmul ins(%expanded, %_params.weight : tensor<1x4xf32>, tensor<4x3xf32>) outs(%2 : tensor<1x3xf32>) -> tensor<1x3xf32>
  %collapsed = tensor.collapse_shape %3 [[0, 1]] : tensor<1x3xf32> into tensor<3xf32>
  %_params.bias = util.global.load @_params.bias : tensor<3xf32>
  %4 = tensor.empty() : tensor<3xf32>
  %5 = linalg.generic {indexing_maps = [affine_map<(d0) -> (d0)>, affine_map<(d0) -> (d0)>, affine_map<(d0) -> (d0)>], iterator_types = ["parallel"]} ins(%collapsed, %_params.bias : tensor<3xf32>, tensor<3xf32>) outs(%4 : tensor<3xf32>) {
  ^bb0(%in: f32, %in_0: f32, %out: f32):
    %7 = arith.addf %in, %in_0 : f32
    linalg.yield %7 : f32
  } -> tensor<3xf32>
  %6 = hal.tensor.export %5 "output 0" : tensor<3xf32> -> !hal.buffer_view
  return %6 : !hal.buffer_view
}

// -----// IR Dump After EraseUnusedLinalgOperands (iree-global-opt-erase-unused-linalg-operands) //----- //
#executable_target_cuda_nvptx_fb = #hal.executable.target<"cuda", "cuda-nvptx-fb", {target_arch = "sm_75"}>
#map = affine_map<(d0) -> (d0)>
#device_target_cuda = #hal.device.target<"cuda", {executable_targets = [#executable_target_cuda_nvptx_fb], legacy_sync}>
module @LinearModule attributes {hal.device.targets = [#device_target_cuda]} {
  util.global private @_params.weight {noinline} = dense<[[1.54099607, -0.293428898, -2.17878938], [0.568431258, -1.08452237, -1.39859545], [0.403346837, 0.838026344, -0.719257593], [-0.403343529, -0.596635341, 0.182036489]]> : tensor<4x3xf32>
  util.global private @_params.bias {noinline} = dense<[-0.856674611, 1.10060418, -1.07118738]> : tensor<3xf32>
  func.func @main(%arg0: !hal.buffer_view) -> !hal.buffer_view attributes {iree.abi.stub} {
    %cst = arith.constant 0.000000e+00 : f32
    %0 = hal.tensor.import %arg0 "input 0" : !hal.buffer_view -> tensor<4xf32>
    %expanded = tensor.expand_shape %0 [[0, 1]] : tensor<4xf32> into tensor<1x4xf32>
    %_params.weight = util.global.load @_params.weight : tensor<4x3xf32>
    %1 = tensor.empty() : tensor<1x3xf32>
    %2 = linalg.fill ins(%cst : f32) outs(%1 : tensor<1x3xf32>) -> tensor<1x3xf32>
    %3 = linalg.matmul ins(%expanded, %_params.weight : tensor<1x4xf32>, tensor<4x3xf32>) outs(%2 : tensor<1x3xf32>) -> tensor<1x3xf32>
    %collapsed = tensor.collapse_shape %3 [[0, 1]] : tensor<1x3xf32> into tensor<3xf32>
    %_params.bias = util.global.load @_params.bias : tensor<3xf32>
    %4 = tensor.empty() : tensor<3xf32>
    %5 = linalg.generic {indexing_maps = [#map, #map, #map], iterator_types = ["parallel"]} ins(%collapsed, %_params.bias : tensor<3xf32>, tensor<3xf32>) outs(%4 : tensor<3xf32>) {
    ^bb0(%in: f32, %in_0: f32, %out: f32):
      %7 = arith.addf %in, %in_0 : f32
      linalg.yield %7 : f32
    } -> tensor<3xf32>
    %6 = hal.tensor.export %5 "output 0" : tensor<3xf32> -> !hal.buffer_view
    return %6 : !hal.buffer_view
  }
}


// -----// IR Dump After ExpandTensorShapes (iree-flow-expand-tensor-shapes) //----- //
#executable_target_cuda_nvptx_fb = #hal.executable.target<"cuda", "cuda-nvptx-fb", {target_arch = "sm_75"}>
#map = affine_map<(d0) -> (d0)>
#device_target_cuda = #hal.device.target<"cuda", {executable_targets = [#executable_target_cuda_nvptx_fb], legacy_sync}>
module @LinearModule attributes {hal.device.targets = [#device_target_cuda]} {
  util.global private @_params.weight {noinline} = dense<[[1.54099607, -0.293428898, -2.17878938], [0.568431258, -1.08452237, -1.39859545], [0.403346837, 0.838026344, -0.719257593], [-0.403343529, -0.596635341, 0.182036489]]> : tensor<4x3xf32>
  util.global private @_params.bias {noinline} = dense<[-0.856674611, 1.10060418, -1.07118738]> : tensor<3xf32>
  func.func @main(%arg0: !hal.buffer_view) -> !hal.buffer_view attributes {iree.abi.stub} {
    %cst = arith.constant 0.000000e+00 : f32
    %0 = hal.tensor.import %arg0 "input 0" : !hal.buffer_view -> tensor<4xf32>
    %expanded = tensor.expand_shape %0 [[0, 1]] : tensor<4xf32> into tensor<1x4xf32>
    %_params.weight = util.global.load @_params.weight : tensor<4x3xf32>
    %1 = tensor.empty() : tensor<1x3xf32>
    %2 = linalg.fill ins(%cst : f32) outs(%1 : tensor<1x3xf32>) -> tensor<1x3xf32>
    %3 = linalg.matmul ins(%expanded, %_params.weight : tensor<1x4xf32>, tensor<4x3xf32>) outs(%2 : tensor<1x3xf32>) -> tensor<1x3xf32>
    %collapsed = tensor.collapse_shape %3 [[0, 1]] : tensor<1x3xf32> into tensor<3xf32>
    %_params.bias = util.global.load @_params.bias : tensor<3xf32>
    %4 = tensor.empty() : tensor<3xf32>
    %5 = linalg.generic {indexing_maps = [#map, #map, #map], iterator_types = ["parallel"]} ins(%collapsed, %_params.bias : tensor<3xf32>, tensor<3xf32>) outs(%4 : tensor<3xf32>) {
    ^bb0(%in: f32, %in_0: f32, %out: f32):
      %7 = arith.addf %in, %in_0 : f32
      linalg.yield %7 : f32
    } -> tensor<3xf32>
    %6 = hal.tensor.export %5 "output 0" : tensor<3xf32> -> !hal.buffer_view
    return %6 : !hal.buffer_view
  }
}


// -----// IR Dump After ConvertElementwiseToLinalg (convert-elementwise-to-linalg) //----- //
func.func @main(%arg0: !hal.buffer_view) -> !hal.buffer_view attributes {iree.abi.stub} {
  %cst = arith.constant 0.000000e+00 : f32
  %0 = hal.tensor.import %arg0 "input 0" : !hal.buffer_view -> tensor<4xf32>
  %expanded = tensor.expand_shape %0 [[0, 1]] : tensor<4xf32> into tensor<1x4xf32>
  %_params.weight = util.global.load @_params.weight : tensor<4x3xf32>
  %1 = tensor.empty() : tensor<1x3xf32>
  %2 = linalg.fill ins(%cst : f32) outs(%1 : tensor<1x3xf32>) -> tensor<1x3xf32>
  %3 = linalg.matmul ins(%expanded, %_params.weight : tensor<1x4xf32>, tensor<4x3xf32>) outs(%2 : tensor<1x3xf32>) -> tensor<1x3xf32>
  %collapsed = tensor.collapse_shape %3 [[0, 1]] : tensor<1x3xf32> into tensor<3xf32>
  %_params.bias = util.global.load @_params.bias : tensor<3xf32>
  %4 = tensor.empty() : tensor<3xf32>
  %5 = linalg.generic {indexing_maps = [affine_map<(d0) -> (d0)>, affine_map<(d0) -> (d0)>, affine_map<(d0) -> (d0)>], iterator_types = ["parallel"]} ins(%collapsed, %_params.bias : tensor<3xf32>, tensor<3xf32>) outs(%4 : tensor<3xf32>) {
  ^bb0(%in: f32, %in_0: f32, %out: f32):
    %7 = arith.addf %in, %in_0 : f32
    linalg.yield %7 : f32
  } -> tensor<3xf32>
  %6 = hal.tensor.export %5 "output 0" : tensor<3xf32> -> !hal.buffer_view
  return %6 : !hal.buffer_view
}

// -----// IR Dump After GeneralizeLinalgNamedOps (iree-flow-generalize-linalg-named-ops) //----- //
func.func @main(%arg0: !hal.buffer_view) -> !hal.buffer_view attributes {iree.abi.stub} {
  %cst = arith.constant 0.000000e+00 : f32
  %0 = hal.tensor.import %arg0 "input 0" : !hal.buffer_view -> tensor<4xf32>
  %expanded = tensor.expand_shape %0 [[0, 1]] : tensor<4xf32> into tensor<1x4xf32>
  %_params.weight = util.global.load @_params.weight : tensor<4x3xf32>
  %1 = tensor.empty() : tensor<1x3xf32>
  %2 = linalg.fill ins(%cst : f32) outs(%1 : tensor<1x3xf32>) -> tensor<1x3xf32>
  %3 = linalg.matmul ins(%expanded, %_params.weight : tensor<1x4xf32>, tensor<4x3xf32>) outs(%2 : tensor<1x3xf32>) -> tensor<1x3xf32>
  %collapsed = tensor.collapse_shape %3 [[0, 1]] : tensor<1x3xf32> into tensor<3xf32>
  %_params.bias = util.global.load @_params.bias : tensor<3xf32>
  %4 = tensor.empty() : tensor<3xf32>
  %5 = linalg.generic {indexing_maps = [affine_map<(d0) -> (d0)>, affine_map<(d0) -> (d0)>, affine_map<(d0) -> (d0)>], iterator_types = ["parallel"]} ins(%collapsed, %_params.bias : tensor<3xf32>, tensor<3xf32>) outs(%4 : tensor<3xf32>) {
  ^bb0(%in: f32, %in_0: f32, %out: f32):
    %7 = arith.addf %in, %in_0 : f32
    linalg.yield %7 : f32
  } -> tensor<3xf32>
  %6 = hal.tensor.export %5 "output 0" : tensor<3xf32> -> !hal.buffer_view
  return %6 : !hal.buffer_view
}

// -----// IR Dump After RaiseSpecialOps (iree-flow-raise-special-ops) //----- //
func.func @main(%arg0: !hal.buffer_view) -> !hal.buffer_view attributes {iree.abi.stub} {
  %cst = arith.constant 0.000000e+00 : f32
  %0 = hal.tensor.import %arg0 "input 0" : !hal.buffer_view -> tensor<4xf32>
  %expanded = tensor.expand_shape %0 [[0, 1]] : tensor<4xf32> into tensor<1x4xf32>
  %_params.weight = util.global.load @_params.weight : tensor<4x3xf32>
  %1 = tensor.empty() : tensor<1x3xf32>
  %2 = linalg.fill ins(%cst : f32) outs(%1 : tensor<1x3xf32>) -> tensor<1x3xf32>
  %3 = linalg.matmul ins(%expanded, %_params.weight : tensor<1x4xf32>, tensor<4x3xf32>) outs(%2 : tensor<1x3xf32>) -> tensor<1x3xf32>
  %collapsed = tensor.collapse_shape %3 [[0, 1]] : tensor<1x3xf32> into tensor<3xf32>
  %_params.bias = util.global.load @_params.bias : tensor<3xf32>
  %4 = tensor.empty() : tensor<3xf32>
  %5 = linalg.generic {indexing_maps = [affine_map<(d0) -> (d0)>, affine_map<(d0) -> (d0)>, affine_map<(d0) -> (d0)>], iterator_types = ["parallel"]} ins(%collapsed, %_params.bias : tensor<3xf32>, tensor<3xf32>) outs(%4 : tensor<3xf32>) {
  ^bb0(%in: f32, %in_0: f32, %out: f32):
    %7 = arith.addf %in, %in_0 : f32
    linalg.yield %7 : f32
  } -> tensor<3xf32>
  %6 = hal.tensor.export %5 "output 0" : tensor<3xf32> -> !hal.buffer_view
  return %6 : !hal.buffer_view
}

// -----// IR Dump After FoldUnitExtentDims (iree-flow-fold-unit-extent-dims) //----- //
func.func @main(%arg0: !hal.buffer_view) -> !hal.buffer_view attributes {iree.abi.stub} {
  %cst = arith.constant 0.000000e+00 : f32
  %0 = hal.tensor.import %arg0 "input 0" : !hal.buffer_view -> tensor<4xf32>
  %expanded = tensor.expand_shape %0 [[0, 1]] : tensor<4xf32> into tensor<1x4xf32>
  %_params.weight = util.global.load @_params.weight : tensor<4x3xf32>
  %1 = tensor.empty() : tensor<1x3xf32>
  %2 = linalg.fill ins(%cst : f32) outs(%1 : tensor<1x3xf32>) -> tensor<1x3xf32>
  %3 = linalg.matmul ins(%expanded, %_params.weight : tensor<1x4xf32>, tensor<4x3xf32>) outs(%2 : tensor<1x3xf32>) -> tensor<1x3xf32>
  %collapsed = tensor.collapse_shape %3 [[0, 1]] : tensor<1x3xf32> into tensor<3xf32>
  %_params.bias = util.global.load @_params.bias : tensor<3xf32>
  %4 = tensor.empty() : tensor<3xf32>
  %5 = linalg.generic {indexing_maps = [affine_map<(d0) -> (d0)>, affine_map<(d0) -> (d0)>, affine_map<(d0) -> (d0)>], iterator_types = ["parallel"]} ins(%collapsed, %_params.bias : tensor<3xf32>, tensor<3xf32>) outs(%4 : tensor<3xf32>) {
  ^bb0(%in: f32, %in_0: f32, %out: f32):
    %7 = arith.addf %in, %in_0 : f32
    linalg.yield %7 : f32
  } -> tensor<3xf32>
  %6 = hal.tensor.export %5 "output 0" : tensor<3xf32> -> !hal.buffer_view
  return %6 : !hal.buffer_view
}

// -----// IR Dump After FuseDequantizationMatmul (iree-flow-fuse-dequantization-matmul) //----- //
func.func @main(%arg0: !hal.buffer_view) -> !hal.buffer_view attributes {iree.abi.stub} {
  %cst = arith.constant 0.000000e+00 : f32
  %0 = hal.tensor.import %arg0 "input 0" : !hal.buffer_view -> tensor<4xf32>
  %expanded = tensor.expand_shape %0 [[0, 1]] : tensor<4xf32> into tensor<1x4xf32>
  %_params.weight = util.global.load @_params.weight : tensor<4x3xf32>
  %1 = tensor.empty() : tensor<1x3xf32>
  %2 = linalg.fill ins(%cst : f32) outs(%1 : tensor<1x3xf32>) -> tensor<1x3xf32>
  %3 = linalg.matmul ins(%expanded, %_params.weight : tensor<1x4xf32>, tensor<4x3xf32>) outs(%2 : tensor<1x3xf32>) -> tensor<1x3xf32>
  %collapsed = tensor.collapse_shape %3 [[0, 1]] : tensor<1x3xf32> into tensor<3xf32>
  %_params.bias = util.global.load @_params.bias : tensor<3xf32>
  %4 = tensor.empty() : tensor<3xf32>
  %5 = linalg.generic {indexing_maps = [affine_map<(d0) -> (d0)>, affine_map<(d0) -> (d0)>, affine_map<(d0) -> (d0)>], iterator_types = ["parallel"]} ins(%collapsed, %_params.bias : tensor<3xf32>, tensor<3xf32>) outs(%4 : tensor<3xf32>) {
  ^bb0(%in: f32, %in_0: f32, %out: f32):
    %7 = arith.addf %in, %in_0 : f32
    linalg.yield %7 : f32
  } -> tensor<3xf32>
  %6 = hal.tensor.export %5 "output 0" : tensor<3xf32> -> !hal.buffer_view
  return %6 : !hal.buffer_view
}

// -----// IR Dump After Canonicalizer (canonicalize) //----- //
func.func @main(%arg0: !hal.buffer_view) -> !hal.buffer_view attributes {iree.abi.stub} {
  %cst = arith.constant 0.000000e+00 : f32
  %0 = hal.tensor.import %arg0 "input 0" : !hal.buffer_view -> tensor<4xf32>
  %expanded = tensor.expand_shape %0 [[0, 1]] : tensor<4xf32> into tensor<1x4xf32>
  %_params.weight = util.global.load @_params.weight : tensor<4x3xf32>
  %1 = tensor.empty() : tensor<1x3xf32>
  %2 = linalg.fill ins(%cst : f32) outs(%1 : tensor<1x3xf32>) -> tensor<1x3xf32>
  %3 = linalg.matmul ins(%expanded, %_params.weight : tensor<1x4xf32>, tensor<4x3xf32>) outs(%2 : tensor<1x3xf32>) -> tensor<1x3xf32>
  %collapsed = tensor.collapse_shape %3 [[0, 1]] : tensor<1x3xf32> into tensor<3xf32>
  %_params.bias = util.global.load @_params.bias : tensor<3xf32>
  %4 = tensor.empty() : tensor<3xf32>
  %5 = linalg.generic {indexing_maps = [affine_map<(d0) -> (d0)>, affine_map<(d0) -> (d0)>, affine_map<(d0) -> (d0)>], iterator_types = ["parallel"]} ins(%collapsed, %_params.bias : tensor<3xf32>, tensor<3xf32>) outs(%4 : tensor<3xf32>) {
  ^bb0(%in: f32, %in_0: f32, %out: f32):
    %7 = arith.addf %in, %in_0 : f32
    linalg.yield %7 : f32
  } -> tensor<3xf32>
  %6 = hal.tensor.export %5 "output 0" : tensor<3xf32> -> !hal.buffer_view
  return %6 : !hal.buffer_view
}

// -----// IR Dump After CSE (cse) //----- //
func.func @main(%arg0: !hal.buffer_view) -> !hal.buffer_view attributes {iree.abi.stub} {
  %cst = arith.constant 0.000000e+00 : f32
  %0 = hal.tensor.import %arg0 "input 0" : !hal.buffer_view -> tensor<4xf32>
  %expanded = tensor.expand_shape %0 [[0, 1]] : tensor<4xf32> into tensor<1x4xf32>
  %_params.weight = util.global.load @_params.weight : tensor<4x3xf32>
  %1 = tensor.empty() : tensor<1x3xf32>
  %2 = linalg.fill ins(%cst : f32) outs(%1 : tensor<1x3xf32>) -> tensor<1x3xf32>
  %3 = linalg.matmul ins(%expanded, %_params.weight : tensor<1x4xf32>, tensor<4x3xf32>) outs(%2 : tensor<1x3xf32>) -> tensor<1x3xf32>
  %collapsed = tensor.collapse_shape %3 [[0, 1]] : tensor<1x3xf32> into tensor<3xf32>
  %_params.bias = util.global.load @_params.bias : tensor<3xf32>
  %4 = tensor.empty() : tensor<3xf32>
  %5 = linalg.generic {indexing_maps = [affine_map<(d0) -> (d0)>, affine_map<(d0) -> (d0)>, affine_map<(d0) -> (d0)>], iterator_types = ["parallel"]} ins(%collapsed, %_params.bias : tensor<3xf32>, tensor<3xf32>) outs(%4 : tensor<3xf32>) {
  ^bb0(%in: f32, %in_0: f32, %out: f32):
    %7 = arith.addf %in, %in_0 : f32
    linalg.yield %7 : f32
  } -> tensor<3xf32>
  %6 = hal.tensor.export %5 "output 0" : tensor<3xf32> -> !hal.buffer_view
  return %6 : !hal.buffer_view
}

// -----// IR Dump After MaterializeHomogeneousEncodings (iree-global-opt-materialize-homogeneous-encodings) //----- //
#executable_target_cuda_nvptx_fb = #hal.executable.target<"cuda", "cuda-nvptx-fb", {target_arch = "sm_75"}>
#map = affine_map<(d0) -> (d0)>
#device_target_cuda = #hal.device.target<"cuda", {executable_targets = [#executable_target_cuda_nvptx_fb], legacy_sync}>
module @LinearModule attributes {hal.device.targets = [#device_target_cuda]} {
  util.global private @_params.weight {noinline} = dense<[[1.54099607, -0.293428898, -2.17878938], [0.568431258, -1.08452237, -1.39859545], [0.403346837, 0.838026344, -0.719257593], [-0.403343529, -0.596635341, 0.182036489]]> : tensor<4x3xf32>
  util.global private @_params.bias {noinline} = dense<[-0.856674611, 1.10060418, -1.07118738]> : tensor<3xf32>
  func.func @main(%arg0: !hal.buffer_view) -> !hal.buffer_view attributes {iree.abi.stub} {
    %cst = arith.constant 0.000000e+00 : f32
    %0 = hal.tensor.import %arg0 "input 0" : !hal.buffer_view -> tensor<4xf32>
    %expanded = tensor.expand_shape %0 [[0, 1]] : tensor<4xf32> into tensor<1x4xf32>
    %_params.weight = util.global.load @_params.weight : tensor<4x3xf32>
    %1 = tensor.empty() : tensor<1x3xf32>
    %2 = linalg.fill ins(%cst : f32) outs(%1 : tensor<1x3xf32>) -> tensor<1x3xf32>
    %3 = linalg.matmul ins(%expanded, %_params.weight : tensor<1x4xf32>, tensor<4x3xf32>) outs(%2 : tensor<1x3xf32>) -> tensor<1x3xf32>
    %collapsed = tensor.collapse_shape %3 [[0, 1]] : tensor<1x3xf32> into tensor<3xf32>
    %_params.bias = util.global.load @_params.bias : tensor<3xf32>
    %4 = tensor.empty() : tensor<3xf32>
    %5 = linalg.generic {indexing_maps = [#map, #map, #map], iterator_types = ["parallel"]} ins(%collapsed, %_params.bias : tensor<3xf32>, tensor<3xf32>) outs(%4 : tensor<3xf32>) {
    ^bb0(%in: f32, %in_0: f32, %out: f32):
      %7 = arith.addf %in, %in_0 : f32
      linalg.yield %7 : f32
    } -> tensor<3xf32>
    %6 = hal.tensor.export %5 "output 0" : tensor<3xf32> -> !hal.buffer_view
    return %6 : !hal.buffer_view
  }
}


// -----// IR Dump After SimplifyGlobalAccesses (iree-util-simplify-global-accesses) //----- //
func.func @main(%arg0: !hal.buffer_view) -> !hal.buffer_view attributes {iree.abi.stub} {
  %_params.weight = util.global.load @_params.weight : tensor<4x3xf32>
  %_params.bias = util.global.load @_params.bias : tensor<3xf32>
  %cst = arith.constant 0.000000e+00 : f32
  %0 = hal.tensor.import %arg0 "input 0" : !hal.buffer_view -> tensor<4xf32>
  %expanded = tensor.expand_shape %0 [[0, 1]] : tensor<4xf32> into tensor<1x4xf32>
  %1 = tensor.empty() : tensor<1x3xf32>
  %2 = linalg.fill ins(%cst : f32) outs(%1 : tensor<1x3xf32>) -> tensor<1x3xf32>
  %3 = linalg.matmul ins(%expanded, %_params.weight : tensor<1x4xf32>, tensor<4x3xf32>) outs(%2 : tensor<1x3xf32>) -> tensor<1x3xf32>
  %collapsed = tensor.collapse_shape %3 [[0, 1]] : tensor<1x3xf32> into tensor<3xf32>
  %4 = tensor.empty() : tensor<3xf32>
  %5 = linalg.generic {indexing_maps = [affine_map<(d0) -> (d0)>, affine_map<(d0) -> (d0)>, affine_map<(d0) -> (d0)>], iterator_types = ["parallel"]} ins(%collapsed, %_params.bias : tensor<3xf32>, tensor<3xf32>) outs(%4 : tensor<3xf32>) {
  ^bb0(%in: f32, %in_0: f32, %out: f32):
    %7 = arith.addf %in, %in_0 : f32
    linalg.yield %7 : f32
  } -> tensor<3xf32>
  %6 = hal.tensor.export %5 "output 0" : tensor<3xf32> -> !hal.buffer_view
  return %6 : !hal.buffer_view
}

// -----// IR Dump After ApplyPatterns (iree-util-apply-patterns) //----- //
#executable_target_cuda_nvptx_fb = #hal.executable.target<"cuda", "cuda-nvptx-fb", {target_arch = "sm_75"}>
#map = affine_map<(d0) -> (d0)>
#device_target_cuda = #hal.device.target<"cuda", {executable_targets = [#executable_target_cuda_nvptx_fb], legacy_sync}>
module @LinearModule attributes {hal.device.targets = [#device_target_cuda], iree.fixedpoint.iteration = 0 : index} {
  util.global private @_params.weight {noinline} = dense<[[1.54099607, -0.293428898, -2.17878938], [0.568431258, -1.08452237, -1.39859545], [0.403346837, 0.838026344, -0.719257593], [-0.403343529, -0.596635341, 0.182036489]]> : tensor<4x3xf32>
  util.global private @_params.bias {noinline} = dense<[-0.856674611, 1.10060418, -1.07118738]> : tensor<3xf32>
  func.func @main(%arg0: !hal.buffer_view) -> !hal.buffer_view attributes {iree.abi.stub} {
    %cst = arith.constant 0.000000e+00 : f32
    %_params.weight = util.global.load @_params.weight : tensor<4x3xf32>
    %_params.bias = util.global.load @_params.bias : tensor<3xf32>
    %0 = hal.tensor.import %arg0 "input 0" : !hal.buffer_view -> tensor<4xf32>
    %expanded = tensor.expand_shape %0 [[0, 1]] : tensor<4xf32> into tensor<1x4xf32>
    %1 = tensor.empty() : tensor<1x3xf32>
    %2 = linalg.fill ins(%cst : f32) outs(%1 : tensor<1x3xf32>) -> tensor<1x3xf32>
    %3 = linalg.matmul ins(%expanded, %_params.weight : tensor<1x4xf32>, tensor<4x3xf32>) outs(%2 : tensor<1x3xf32>) -> tensor<1x3xf32>
    %collapsed = tensor.collapse_shape %3 [[0, 1]] : tensor<1x3xf32> into tensor<3xf32>
    %4 = tensor.empty() : tensor<3xf32>
    %5 = linalg.generic {indexing_maps = [#map, #map, #map], iterator_types = ["parallel"]} ins(%collapsed, %_params.bias : tensor<3xf32>, tensor<3xf32>) outs(%4 : tensor<3xf32>) {
    ^bb0(%in: f32, %in_0: f32, %out: f32):
      %7 = arith.addf %in, %in_0 : f32
      linalg.yield %7 : f32
    } -> tensor<3xf32>
    %6 = hal.tensor.export %5 "output 0" : tensor<3xf32> -> !hal.buffer_view
    return %6 : !hal.buffer_view
  }
}


// -----// IR Dump After FoldGlobals (iree-util-fold-globals) //----- //
#executable_target_cuda_nvptx_fb = #hal.executable.target<"cuda", "cuda-nvptx-fb", {target_arch = "sm_75"}>
#map = affine_map<(d0) -> (d0)>
#device_target_cuda = #hal.device.target<"cuda", {executable_targets = [#executable_target_cuda_nvptx_fb], legacy_sync}>
module @LinearModule attributes {hal.device.targets = [#device_target_cuda], iree.fixedpoint.iteration = 0 : index} {
  util.global private @_params.weight {noinline} = dense<[[1.54099607, -0.293428898, -2.17878938], [0.568431258, -1.08452237, -1.39859545], [0.403346837, 0.838026344, -0.719257593], [-0.403343529, -0.596635341, 0.182036489]]> : tensor<4x3xf32>
  util.global private @_params.bias {noinline} = dense<[-0.856674611, 1.10060418, -1.07118738]> : tensor<3xf32>
  func.func @main(%arg0: !hal.buffer_view) -> !hal.buffer_view attributes {iree.abi.stub} {
    %cst = arith.constant 0.000000e+00 : f32
    %_params.weight = util.global.load @_params.weight : tensor<4x3xf32>
    %_params.bias = util.global.load @_params.bias : tensor<3xf32>
    %0 = hal.tensor.import %arg0 "input 0" : !hal.buffer_view -> tensor<4xf32>
    %expanded = tensor.expand_shape %0 [[0, 1]] : tensor<4xf32> into tensor<1x4xf32>
    %1 = tensor.empty() : tensor<1x3xf32>
    %2 = linalg.fill ins(%cst : f32) outs(%1 : tensor<1x3xf32>) -> tensor<1x3xf32>
    %3 = linalg.matmul ins(%expanded, %_params.weight : tensor<1x4xf32>, tensor<4x3xf32>) outs(%2 : tensor<1x3xf32>) -> tensor<1x3xf32>
    %collapsed = tensor.collapse_shape %3 [[0, 1]] : tensor<1x3xf32> into tensor<3xf32>
    %4 = tensor.empty() : tensor<3xf32>
    %5 = linalg.generic {indexing_maps = [#map, #map, #map], iterator_types = ["parallel"]} ins(%collapsed, %_params.bias : tensor<3xf32>, tensor<3xf32>) outs(%4 : tensor<3xf32>) {
    ^bb0(%in: f32, %in_0: f32, %out: f32):
      %7 = arith.addf %in, %in_0 : f32
      linalg.yield %7 : f32
    } -> tensor<3xf32>
    %6 = hal.tensor.export %5 "output 0" : tensor<3xf32> -> !hal.buffer_view
    return %6 : !hal.buffer_view
  }
}


// -----// IR Dump After IPO (iree-util-ipo) //----- //
#executable_target_cuda_nvptx_fb = #hal.executable.target<"cuda", "cuda-nvptx-fb", {target_arch = "sm_75"}>
#map = affine_map<(d0) -> (d0)>
#device_target_cuda = #hal.device.target<"cuda", {executable_targets = [#executable_target_cuda_nvptx_fb], legacy_sync}>
module @LinearModule attributes {hal.device.targets = [#device_target_cuda], iree.fixedpoint.iteration = 0 : index} {
  util.global private @_params.weight {noinline} = dense<[[1.54099607, -0.293428898, -2.17878938], [0.568431258, -1.08452237, -1.39859545], [0.403346837, 0.838026344, -0.719257593], [-0.403343529, -0.596635341, 0.182036489]]> : tensor<4x3xf32>
  util.global private @_params.bias {noinline} = dense<[-0.856674611, 1.10060418, -1.07118738]> : tensor<3xf32>
  func.func @main(%arg0: !hal.buffer_view) -> !hal.buffer_view attributes {iree.abi.stub} {
    %cst = arith.constant 0.000000e+00 : f32
    %_params.weight = util.global.load @_params.weight : tensor<4x3xf32>
    %_params.bias = util.global.load @_params.bias : tensor<3xf32>
    %0 = hal.tensor.import %arg0 "input 0" : !hal.buffer_view -> tensor<4xf32>
    %expanded = tensor.expand_shape %0 [[0, 1]] : tensor<4xf32> into tensor<1x4xf32>
    %1 = tensor.empty() : tensor<1x3xf32>
    %2 = linalg.fill ins(%cst : f32) outs(%1 : tensor<1x3xf32>) -> tensor<1x3xf32>
    %3 = linalg.matmul ins(%expanded, %_params.weight : tensor<1x4xf32>, tensor<4x3xf32>) outs(%2 : tensor<1x3xf32>) -> tensor<1x3xf32>
    %collapsed = tensor.collapse_shape %3 [[0, 1]] : tensor<1x3xf32> into tensor<3xf32>
    %4 = tensor.empty() : tensor<3xf32>
    %5 = linalg.generic {indexing_maps = [#map, #map, #map], iterator_types = ["parallel"]} ins(%collapsed, %_params.bias : tensor<3xf32>, tensor<3xf32>) outs(%4 : tensor<3xf32>) {
    ^bb0(%in: f32, %in_0: f32, %out: f32):
      %7 = arith.addf %in, %in_0 : f32
      linalg.yield %7 : f32
    } -> tensor<3xf32>
    %6 = hal.tensor.export %5 "output 0" : tensor<3xf32> -> !hal.buffer_view
    return %6 : !hal.buffer_view
  }
}


// -----// IR Dump After HoistIntoGlobals (iree-util-hoist-into-globals) //----- //
#executable_target_cuda_nvptx_fb = #hal.executable.target<"cuda", "cuda-nvptx-fb", {target_arch = "sm_75"}>
#map = affine_map<(d0) -> (d0)>
#device_target_cuda = #hal.device.target<"cuda", {executable_targets = [#executable_target_cuda_nvptx_fb], legacy_sync}>
module @LinearModule attributes {hal.device.targets = [#device_target_cuda], iree.fixedpoint.iteration = 0 : index} {
  util.global private @_params.weight {noinline} = dense<[[1.54099607, -0.293428898, -2.17878938], [0.568431258, -1.08452237, -1.39859545], [0.403346837, 0.838026344, -0.719257593], [-0.403343529, -0.596635341, 0.182036489]]> : tensor<4x3xf32>
  util.global private @_params.bias {noinline} = dense<[-0.856674611, 1.10060418, -1.07118738]> : tensor<3xf32>
  func.func @main(%arg0: !hal.buffer_view) -> !hal.buffer_view attributes {iree.abi.stub} {
    %cst = arith.constant 0.000000e+00 : f32
    %_params.weight = util.global.load @_params.weight : tensor<4x3xf32>
    %_params.bias = util.global.load @_params.bias : tensor<3xf32>
    %0 = hal.tensor.import %arg0 "input 0" : !hal.buffer_view -> tensor<4xf32>
    %expanded = tensor.expand_shape %0 [[0, 1]] : tensor<4xf32> into tensor<1x4xf32>
    %1 = tensor.empty() : tensor<1x3xf32>
    %2 = linalg.fill ins(%cst : f32) outs(%1 : tensor<1x3xf32>) -> tensor<1x3xf32>
    %3 = linalg.matmul ins(%expanded, %_params.weight : tensor<1x4xf32>, tensor<4x3xf32>) outs(%2 : tensor<1x3xf32>) -> tensor<1x3xf32>
    %collapsed = tensor.collapse_shape %3 [[0, 1]] : tensor<1x3xf32> into tensor<3xf32>
    %4 = tensor.empty() : tensor<3xf32>
    %5 = linalg.generic {indexing_maps = [#map, #map, #map], iterator_types = ["parallel"]} ins(%collapsed, %_params.bias : tensor<3xf32>, tensor<3xf32>) outs(%4 : tensor<3xf32>) {
    ^bb0(%in: f32, %in_0: f32, %out: f32):
      %7 = arith.addf %in, %in_0 : f32
      linalg.yield %7 : f32
    } -> tensor<3xf32>
    %6 = hal.tensor.export %5 "output 0" : tensor<3xf32> -> !hal.buffer_view
    return %6 : !hal.buffer_view
  }
}


// -----// IR Dump After JitGlobals (iree-consteval-jit-globals) //----- //
#executable_target_cuda_nvptx_fb = #hal.executable.target<"cuda", "cuda-nvptx-fb", {target_arch = "sm_75"}>
#map = affine_map<(d0) -> (d0)>
#device_target_cuda = #hal.device.target<"cuda", {executable_targets = [#executable_target_cuda_nvptx_fb], legacy_sync}>
module @LinearModule attributes {hal.device.targets = [#device_target_cuda], iree.fixedpoint.iteration = 0 : index} {
  util.global private @_params.weight {noinline} = dense<[[1.54099607, -0.293428898, -2.17878938], [0.568431258, -1.08452237, -1.39859545], [0.403346837, 0.838026344, -0.719257593], [-0.403343529, -0.596635341, 0.182036489]]> : tensor<4x3xf32>
  util.global private @_params.bias {noinline} = dense<[-0.856674611, 1.10060418, -1.07118738]> : tensor<3xf32>
  func.func @main(%arg0: !hal.buffer_view) -> !hal.buffer_view attributes {iree.abi.stub} {
    %cst = arith.constant 0.000000e+00 : f32
    %_params.weight = util.global.load @_params.weight : tensor<4x3xf32>
    %_params.bias = util.global.load @_params.bias : tensor<3xf32>
    %0 = hal.tensor.import %arg0 "input 0" : !hal.buffer_view -> tensor<4xf32>
    %expanded = tensor.expand_shape %0 [[0, 1]] : tensor<4xf32> into tensor<1x4xf32>
    %1 = tensor.empty() : tensor<1x3xf32>
    %2 = linalg.fill ins(%cst : f32) outs(%1 : tensor<1x3xf32>) -> tensor<1x3xf32>
    %3 = linalg.matmul ins(%expanded, %_params.weight : tensor<1x4xf32>, tensor<4x3xf32>) outs(%2 : tensor<1x3xf32>) -> tensor<1x3xf32>
    %collapsed = tensor.collapse_shape %3 [[0, 1]] : tensor<1x3xf32> into tensor<3xf32>
    %4 = tensor.empty() : tensor<3xf32>
    %5 = linalg.generic {indexing_maps = [#map, #map, #map], iterator_types = ["parallel"]} ins(%collapsed, %_params.bias : tensor<3xf32>, tensor<3xf32>) outs(%4 : tensor<3xf32>) {
    ^bb0(%in: f32, %in_0: f32, %out: f32):
      %7 = arith.addf %in, %in_0 : f32
      linalg.yield %7 : f32
    } -> tensor<3xf32>
    %6 = hal.tensor.export %5 "output 0" : tensor<3xf32> -> !hal.buffer_view
    return %6 : !hal.buffer_view
  }
}


// -----// IR Dump After Canonicalizer (canonicalize) //----- //
func.func @main(%arg0: !hal.buffer_view) -> !hal.buffer_view attributes {iree.abi.stub} {
  %cst = arith.constant 0.000000e+00 : f32
  %_params.weight = util.global.load @_params.weight : tensor<4x3xf32>
  %_params.bias = util.global.load @_params.bias : tensor<3xf32>
  %0 = hal.tensor.import %arg0 "input 0" : !hal.buffer_view -> tensor<4xf32>
  %expanded = tensor.expand_shape %0 [[0, 1]] : tensor<4xf32> into tensor<1x4xf32>
  %1 = tensor.empty() : tensor<1x3xf32>
  %2 = linalg.fill ins(%cst : f32) outs(%1 : tensor<1x3xf32>) -> tensor<1x3xf32>
  %3 = linalg.matmul ins(%expanded, %_params.weight : tensor<1x4xf32>, tensor<4x3xf32>) outs(%2 : tensor<1x3xf32>) -> tensor<1x3xf32>
  %collapsed = tensor.collapse_shape %3 [[0, 1]] : tensor<1x3xf32> into tensor<3xf32>
  %4 = tensor.empty() : tensor<3xf32>
  %5 = linalg.generic {indexing_maps = [affine_map<(d0) -> (d0)>, affine_map<(d0) -> (d0)>, affine_map<(d0) -> (d0)>], iterator_types = ["parallel"]} ins(%collapsed, %_params.bias : tensor<3xf32>, tensor<3xf32>) outs(%4 : tensor<3xf32>) {
  ^bb0(%in: f32, %in_0: f32, %out: f32):
    %7 = arith.addf %in, %in_0 : f32
    linalg.yield %7 : f32
  } -> tensor<3xf32>
  %6 = hal.tensor.export %5 "output 0" : tensor<3xf32> -> !hal.buffer_view
  return %6 : !hal.buffer_view
}

// -----// IR Dump After CSE (cse) //----- //
func.func @main(%arg0: !hal.buffer_view) -> !hal.buffer_view attributes {iree.abi.stub} {
  %cst = arith.constant 0.000000e+00 : f32
  %_params.weight = util.global.load @_params.weight : tensor<4x3xf32>
  %_params.bias = util.global.load @_params.bias : tensor<3xf32>
  %0 = hal.tensor.import %arg0 "input 0" : !hal.buffer_view -> tensor<4xf32>
  %expanded = tensor.expand_shape %0 [[0, 1]] : tensor<4xf32> into tensor<1x4xf32>
  %1 = tensor.empty() : tensor<1x3xf32>
  %2 = linalg.fill ins(%cst : f32) outs(%1 : tensor<1x3xf32>) -> tensor<1x3xf32>
  %3 = linalg.matmul ins(%expanded, %_params.weight : tensor<1x4xf32>, tensor<4x3xf32>) outs(%2 : tensor<1x3xf32>) -> tensor<1x3xf32>
  %collapsed = tensor.collapse_shape %3 [[0, 1]] : tensor<1x3xf32> into tensor<3xf32>
  %4 = tensor.empty() : tensor<3xf32>
  %5 = linalg.generic {indexing_maps = [affine_map<(d0) -> (d0)>, affine_map<(d0) -> (d0)>, affine_map<(d0) -> (d0)>], iterator_types = ["parallel"]} ins(%collapsed, %_params.bias : tensor<3xf32>, tensor<3xf32>) outs(%4 : tensor<3xf32>) {
  ^bb0(%in: f32, %in_0: f32, %out: f32):
    %7 = arith.addf %in, %in_0 : f32
    linalg.yield %7 : f32
  } -> tensor<3xf32>
  %6 = hal.tensor.export %5 "output 0" : tensor<3xf32> -> !hal.buffer_view
  return %6 : !hal.buffer_view
}

// -----// IR Dump After FixedPointIterator (iree-util-fixed-point-iterator) //----- //
#executable_target_cuda_nvptx_fb = #hal.executable.target<"cuda", "cuda-nvptx-fb", {target_arch = "sm_75"}>
#map = affine_map<(d0) -> (d0)>
#device_target_cuda = #hal.device.target<"cuda", {executable_targets = [#executable_target_cuda_nvptx_fb], legacy_sync}>
module @LinearModule attributes {hal.device.targets = [#device_target_cuda]} {
  util.global private @_params.weight {noinline} = dense<[[1.54099607, -0.293428898, -2.17878938], [0.568431258, -1.08452237, -1.39859545], [0.403346837, 0.838026344, -0.719257593], [-0.403343529, -0.596635341, 0.182036489]]> : tensor<4x3xf32>
  util.global private @_params.bias {noinline} = dense<[-0.856674611, 1.10060418, -1.07118738]> : tensor<3xf32>
  func.func @main(%arg0: !hal.buffer_view) -> !hal.buffer_view attributes {iree.abi.stub} {
    %cst = arith.constant 0.000000e+00 : f32
    %_params.weight = util.global.load @_params.weight : tensor<4x3xf32>
    %_params.bias = util.global.load @_params.bias : tensor<3xf32>
    %0 = hal.tensor.import %arg0 "input 0" : !hal.buffer_view -> tensor<4xf32>
    %expanded = tensor.expand_shape %0 [[0, 1]] : tensor<4xf32> into tensor<1x4xf32>
    %1 = tensor.empty() : tensor<1x3xf32>
    %2 = linalg.fill ins(%cst : f32) outs(%1 : tensor<1x3xf32>) -> tensor<1x3xf32>
    %3 = linalg.matmul ins(%expanded, %_params.weight : tensor<1x4xf32>, tensor<4x3xf32>) outs(%2 : tensor<1x3xf32>) -> tensor<1x3xf32>
    %collapsed = tensor.collapse_shape %3 [[0, 1]] : tensor<1x3xf32> into tensor<3xf32>
    %4 = tensor.empty() : tensor<3xf32>
    %5 = linalg.generic {indexing_maps = [#map, #map, #map], iterator_types = ["parallel"]} ins(%collapsed, %_params.bias : tensor<3xf32>, tensor<3xf32>) outs(%4 : tensor<3xf32>) {
    ^bb0(%in: f32, %in_0: f32, %out: f32):
      %7 = arith.addf %in, %in_0 : f32
      linalg.yield %7 : f32
    } -> tensor<3xf32>
    %6 = hal.tensor.export %5 "output 0" : tensor<3xf32> -> !hal.buffer_view
    return %6 : !hal.buffer_view
  }
}


// -----// IR Dump After VerifyInputLegality (iree-verify-input-legality) //----- //
#executable_target_cuda_nvptx_fb = #hal.executable.target<"cuda", "cuda-nvptx-fb", {target_arch = "sm_75"}>
#map = affine_map<(d0) -> (d0)>
#device_target_cuda = #hal.device.target<"cuda", {executable_targets = [#executable_target_cuda_nvptx_fb], legacy_sync}>
module @LinearModule attributes {hal.device.targets = [#device_target_cuda]} {
  util.global private @_params.weight {noinline} = dense<[[1.54099607, -0.293428898, -2.17878938], [0.568431258, -1.08452237, -1.39859545], [0.403346837, 0.838026344, -0.719257593], [-0.403343529, -0.596635341, 0.182036489]]> : tensor<4x3xf32>
  util.global private @_params.bias {noinline} = dense<[-0.856674611, 1.10060418, -1.07118738]> : tensor<3xf32>
  func.func @main(%arg0: !hal.buffer_view) -> !hal.buffer_view attributes {iree.abi.stub} {
    %cst = arith.constant 0.000000e+00 : f32
    %_params.weight = util.global.load @_params.weight : tensor<4x3xf32>
    %_params.bias = util.global.load @_params.bias : tensor<3xf32>
    %0 = hal.tensor.import %arg0 "input 0" : !hal.buffer_view -> tensor<4xf32>
    %expanded = tensor.expand_shape %0 [[0, 1]] : tensor<4xf32> into tensor<1x4xf32>
    %1 = tensor.empty() : tensor<1x3xf32>
    %2 = linalg.fill ins(%cst : f32) outs(%1 : tensor<1x3xf32>) -> tensor<1x3xf32>
    %3 = linalg.matmul ins(%expanded, %_params.weight : tensor<1x4xf32>, tensor<4x3xf32>) outs(%2 : tensor<1x3xf32>) -> tensor<1x3xf32>
    %collapsed = tensor.collapse_shape %3 [[0, 1]] : tensor<1x3xf32> into tensor<3xf32>
    %4 = tensor.empty() : tensor<3xf32>
    %5 = linalg.generic {indexing_maps = [#map, #map, #map], iterator_types = ["parallel"]} ins(%collapsed, %_params.bias : tensor<3xf32>, tensor<3xf32>) outs(%4 : tensor<3xf32>) {
    ^bb0(%in: f32, %in_0: f32, %out: f32):
      %7 = arith.addf %in, %in_0 : f32
      linalg.yield %7 : f32
    } -> tensor<3xf32>
    %6 = hal.tensor.export %5 "output 0" : tensor<3xf32> -> !hal.buffer_view
    return %6 : !hal.buffer_view
  }
}


// -----// IR Dump After TensorPadToTensorInsertSlice (iree-flow-tensor-pad-to-tensor-insert-slice) //----- //
#executable_target_cuda_nvptx_fb = #hal.executable.target<"cuda", "cuda-nvptx-fb", {target_arch = "sm_75"}>
#map = affine_map<(d0) -> (d0)>
#device_target_cuda = #hal.device.target<"cuda", {executable_targets = [#executable_target_cuda_nvptx_fb], legacy_sync}>
module @LinearModule attributes {hal.device.targets = [#device_target_cuda]} {
  util.global private @_params.weight {noinline} = dense<[[1.54099607, -0.293428898, -2.17878938], [0.568431258, -1.08452237, -1.39859545], [0.403346837, 0.838026344, -0.719257593], [-0.403343529, -0.596635341, 0.182036489]]> : tensor<4x3xf32>
  util.global private @_params.bias {noinline} = dense<[-0.856674611, 1.10060418, -1.07118738]> : tensor<3xf32>
  func.func @main(%arg0: !hal.buffer_view) -> !hal.buffer_view attributes {iree.abi.stub} {
    %cst = arith.constant 0.000000e+00 : f32
    %_params.weight = util.global.load @_params.weight : tensor<4x3xf32>
    %_params.bias = util.global.load @_params.bias : tensor<3xf32>
    %0 = hal.tensor.import %arg0 "input 0" : !hal.buffer_view -> tensor<4xf32>
    %expanded = tensor.expand_shape %0 [[0, 1]] : tensor<4xf32> into tensor<1x4xf32>
    %1 = tensor.empty() : tensor<1x3xf32>
    %2 = linalg.fill ins(%cst : f32) outs(%1 : tensor<1x3xf32>) -> tensor<1x3xf32>
    %3 = linalg.matmul ins(%expanded, %_params.weight : tensor<1x4xf32>, tensor<4x3xf32>) outs(%2 : tensor<1x3xf32>) -> tensor<1x3xf32>
    %collapsed = tensor.collapse_shape %3 [[0, 1]] : tensor<1x3xf32> into tensor<3xf32>
    %4 = tensor.empty() : tensor<3xf32>
    %5 = linalg.generic {indexing_maps = [#map, #map, #map], iterator_types = ["parallel"]} ins(%collapsed, %_params.bias : tensor<3xf32>, tensor<3xf32>) outs(%4 : tensor<3xf32>) {
    ^bb0(%in: f32, %in_0: f32, %out: f32):
      %7 = arith.addf %in, %in_0 : f32
      linalg.yield %7 : f32
    } -> tensor<3xf32>
    %6 = hal.tensor.export %5 "output 0" : tensor<3xf32> -> !hal.buffer_view
    return %6 : !hal.buffer_view
  }
}


// -----// IR Dump After RaiseSpecialOps (iree-flow-raise-special-ops) //----- //
func.func @main(%arg0: !hal.buffer_view) -> !hal.buffer_view attributes {iree.abi.stub} {
  %cst = arith.constant 0.000000e+00 : f32
  %_params.weight = util.global.load @_params.weight : tensor<4x3xf32>
  %_params.bias = util.global.load @_params.bias : tensor<3xf32>
  %0 = hal.tensor.import %arg0 "input 0" : !hal.buffer_view -> tensor<4xf32>
  %expanded = tensor.expand_shape %0 [[0, 1]] : tensor<4xf32> into tensor<1x4xf32>
  %1 = tensor.empty() : tensor<1x3xf32>
  %2 = linalg.fill ins(%cst : f32) outs(%1 : tensor<1x3xf32>) -> tensor<1x3xf32>
  %3 = linalg.matmul ins(%expanded, %_params.weight : tensor<1x4xf32>, tensor<4x3xf32>) outs(%2 : tensor<1x3xf32>) -> tensor<1x3xf32>
  %collapsed = tensor.collapse_shape %3 [[0, 1]] : tensor<1x3xf32> into tensor<3xf32>
  %4 = tensor.empty() : tensor<3xf32>
  %5 = linalg.generic {indexing_maps = [affine_map<(d0) -> (d0)>, affine_map<(d0) -> (d0)>, affine_map<(d0) -> (d0)>], iterator_types = ["parallel"]} ins(%collapsed, %_params.bias : tensor<3xf32>, tensor<3xf32>) outs(%4 : tensor<3xf32>) {
  ^bb0(%in: f32, %in_0: f32, %out: f32):
    %7 = arith.addf %in, %in_0 : f32
    linalg.yield %7 : f32
  } -> tensor<3xf32>
  %6 = hal.tensor.export %5 "output 0" : tensor<3xf32> -> !hal.buffer_view
  return %6 : !hal.buffer_view
}

// -----// IR Dump After InterchangeGenericOps (iree-flow-interchange-generic-ops) //----- //
func.func @main(%arg0: !hal.buffer_view) -> !hal.buffer_view attributes {iree.abi.stub} {
  %cst = arith.constant 0.000000e+00 : f32
  %_params.weight = util.global.load @_params.weight : tensor<4x3xf32>
  %_params.bias = util.global.load @_params.bias : tensor<3xf32>
  %0 = hal.tensor.import %arg0 "input 0" : !hal.buffer_view -> tensor<4xf32>
  %expanded = tensor.expand_shape %0 [[0, 1]] : tensor<4xf32> into tensor<1x4xf32>
  %1 = tensor.empty() : tensor<1x3xf32>
  %2 = linalg.fill ins(%cst : f32) outs(%1 : tensor<1x3xf32>) -> tensor<1x3xf32>
  %3 = linalg.matmul ins(%expanded, %_params.weight : tensor<1x4xf32>, tensor<4x3xf32>) outs(%2 : tensor<1x3xf32>) -> tensor<1x3xf32>
  %collapsed = tensor.collapse_shape %3 [[0, 1]] : tensor<1x3xf32> into tensor<3xf32>
  %4 = tensor.empty() : tensor<3xf32>
  %5 = linalg.generic {indexing_maps = [affine_map<(d0) -> (d0)>, affine_map<(d0) -> (d0)>, affine_map<(d0) -> (d0)>], iterator_types = ["parallel"]} ins(%collapsed, %_params.bias : tensor<3xf32>, tensor<3xf32>) outs(%4 : tensor<3xf32>) {
  ^bb0(%in: f32, %in_0: f32, %out: f32):
    %7 = arith.addf %in, %in_0 : f32
    linalg.yield %7 : f32
  } -> tensor<3xf32>
  %6 = hal.tensor.export %5 "output 0" : tensor<3xf32> -> !hal.buffer_view
  return %6 : !hal.buffer_view
}

// -----// IR Dump After CollapseDims (iree-flow-collapse-dims) //----- //
func.func @main(%arg0: !hal.buffer_view) -> !hal.buffer_view attributes {iree.abi.stub} {
  %cst = arith.constant 0.000000e+00 : f32
  %_params.weight = util.global.load @_params.weight : tensor<4x3xf32>
  %_params.bias = util.global.load @_params.bias : tensor<3xf32>
  %0 = hal.tensor.import %arg0 "input 0" : !hal.buffer_view -> tensor<4xf32>
  %expanded = tensor.expand_shape %0 [[0, 1]] : tensor<4xf32> into tensor<1x4xf32>
  %1 = tensor.empty() : tensor<1x3xf32>
  %2 = linalg.fill ins(%cst : f32) outs(%1 : tensor<1x3xf32>) -> tensor<1x3xf32>
  %3 = linalg.matmul ins(%expanded, %_params.weight : tensor<1x4xf32>, tensor<4x3xf32>) outs(%2 : tensor<1x3xf32>) -> tensor<1x3xf32>
  %collapsed = tensor.collapse_shape %3 [[0, 1]] : tensor<1x3xf32> into tensor<3xf32>
  %4 = tensor.empty() : tensor<3xf32>
  %5 = linalg.generic {indexing_maps = [affine_map<(d0) -> (d0)>, affine_map<(d0) -> (d0)>, affine_map<(d0) -> (d0)>], iterator_types = ["parallel"]} ins(%collapsed, %_params.bias : tensor<3xf32>, tensor<3xf32>) outs(%4 : tensor<3xf32>) {
  ^bb0(%in: f32, %in_0: f32, %out: f32):
    %7 = arith.addf %in, %in_0 : f32
    linalg.yield %7 : f32
  } -> tensor<3xf32>
  %6 = hal.tensor.export %5 "output 0" : tensor<3xf32> -> !hal.buffer_view
  return %6 : !hal.buffer_view
}

// -----// IR Dump After ResolveShapedTypeResultDims (resolve-shaped-type-result-dims) //----- //
func.func @main(%arg0: !hal.buffer_view) -> !hal.buffer_view attributes {iree.abi.stub} {
  %cst = arith.constant 0.000000e+00 : f32
  %_params.weight = util.global.load @_params.weight : tensor<4x3xf32>
  %_params.bias = util.global.load @_params.bias : tensor<3xf32>
  %0 = hal.tensor.import %arg0 "input 0" : !hal.buffer_view -> tensor<4xf32>
  %expanded = tensor.expand_shape %0 [[0, 1]] : tensor<4xf32> into tensor<1x4xf32>
  %1 = tensor.empty() : tensor<1x3xf32>
  %2 = linalg.fill ins(%cst : f32) outs(%1 : tensor<1x3xf32>) -> tensor<1x3xf32>
  %3 = linalg.matmul ins(%expanded, %_params.weight : tensor<1x4xf32>, tensor<4x3xf32>) outs(%2 : tensor<1x3xf32>) -> tensor<1x3xf32>
  %collapsed = tensor.collapse_shape %3 [[0, 1]] : tensor<1x3xf32> into tensor<3xf32>
  %4 = tensor.empty() : tensor<3xf32>
  %5 = linalg.generic {indexing_maps = [affine_map<(d0) -> (d0)>, affine_map<(d0) -> (d0)>, affine_map<(d0) -> (d0)>], iterator_types = ["parallel"]} ins(%collapsed, %_params.bias : tensor<3xf32>, tensor<3xf32>) outs(%4 : tensor<3xf32>) {
  ^bb0(%in: f32, %in_0: f32, %out: f32):
    %7 = arith.addf %in, %in_0 : f32
    linalg.yield %7 : f32
  } -> tensor<3xf32>
  %6 = hal.tensor.export %5 "output 0" : tensor<3xf32> -> !hal.buffer_view
  return %6 : !hal.buffer_view
}

// -----// IR Dump After Canonicalizer (canonicalize) //----- //
func.func @main(%arg0: !hal.buffer_view) -> !hal.buffer_view attributes {iree.abi.stub} {
  %cst = arith.constant 0.000000e+00 : f32
  %_params.weight = util.global.load @_params.weight : tensor<4x3xf32>
  %_params.bias = util.global.load @_params.bias : tensor<3xf32>
  %0 = hal.tensor.import %arg0 "input 0" : !hal.buffer_view -> tensor<4xf32>
  %expanded = tensor.expand_shape %0 [[0, 1]] : tensor<4xf32> into tensor<1x4xf32>
  %1 = tensor.empty() : tensor<1x3xf32>
  %2 = linalg.fill ins(%cst : f32) outs(%1 : tensor<1x3xf32>) -> tensor<1x3xf32>
  %3 = linalg.matmul ins(%expanded, %_params.weight : tensor<1x4xf32>, tensor<4x3xf32>) outs(%2 : tensor<1x3xf32>) -> tensor<1x3xf32>
  %collapsed = tensor.collapse_shape %3 [[0, 1]] : tensor<1x3xf32> into tensor<3xf32>
  %4 = tensor.empty() : tensor<3xf32>
  %5 = linalg.generic {indexing_maps = [affine_map<(d0) -> (d0)>, affine_map<(d0) -> (d0)>, affine_map<(d0) -> (d0)>], iterator_types = ["parallel"]} ins(%collapsed, %_params.bias : tensor<3xf32>, tensor<3xf32>) outs(%4 : tensor<3xf32>) {
  ^bb0(%in: f32, %in_0: f32, %out: f32):
    %7 = arith.addf %in, %in_0 : f32
    linalg.yield %7 : f32
  } -> tensor<3xf32>
  %6 = hal.tensor.export %5 "output 0" : tensor<3xf32> -> !hal.buffer_view
  return %6 : !hal.buffer_view
}

// -----// IR Dump After CSE (cse) //----- //
func.func @main(%arg0: !hal.buffer_view) -> !hal.buffer_view attributes {iree.abi.stub} {
  %cst = arith.constant 0.000000e+00 : f32
  %_params.weight = util.global.load @_params.weight : tensor<4x3xf32>
  %_params.bias = util.global.load @_params.bias : tensor<3xf32>
  %0 = hal.tensor.import %arg0 "input 0" : !hal.buffer_view -> tensor<4xf32>
  %expanded = tensor.expand_shape %0 [[0, 1]] : tensor<4xf32> into tensor<1x4xf32>
  %1 = tensor.empty() : tensor<1x3xf32>
  %2 = linalg.fill ins(%cst : f32) outs(%1 : tensor<1x3xf32>) -> tensor<1x3xf32>
  %3 = linalg.matmul ins(%expanded, %_params.weight : tensor<1x4xf32>, tensor<4x3xf32>) outs(%2 : tensor<1x3xf32>) -> tensor<1x3xf32>
  %collapsed = tensor.collapse_shape %3 [[0, 1]] : tensor<1x3xf32> into tensor<3xf32>
  %4 = tensor.empty() : tensor<3xf32>
  %5 = linalg.generic {indexing_maps = [affine_map<(d0) -> (d0)>, affine_map<(d0) -> (d0)>, affine_map<(d0) -> (d0)>], iterator_types = ["parallel"]} ins(%collapsed, %_params.bias : tensor<3xf32>, tensor<3xf32>) outs(%4 : tensor<3xf32>) {
  ^bb0(%in: f32, %in_0: f32, %out: f32):
    %7 = arith.addf %in, %in_0 : f32
    linalg.yield %7 : f32
  } -> tensor<3xf32>
  %6 = hal.tensor.export %5 "output 0" : tensor<3xf32> -> !hal.buffer_view
  return %6 : !hal.buffer_view
}

// -----// IR Dump After FusionOfTensorOps (iree-flow-fusion-of-tensor-ops) //----- //
func.func @main(%arg0: !hal.buffer_view) -> !hal.buffer_view attributes {iree.abi.stub} {
  %cst = arith.constant 0.000000e+00 : f32
  %_params.weight = util.global.load @_params.weight : tensor<4x3xf32>
  %_params.bias = util.global.load @_params.bias : tensor<3xf32>
  %0 = hal.tensor.import %arg0 "input 0" : !hal.buffer_view -> tensor<4xf32>
  %expanded = tensor.expand_shape %0 [[0, 1]] : tensor<4xf32> into tensor<1x4xf32>
  %1 = tensor.empty() : tensor<1x3xf32>
  %2 = linalg.fill ins(%cst : f32) outs(%1 : tensor<1x3xf32>) -> tensor<1x3xf32>
  %3 = linalg.matmul ins(%expanded, %_params.weight : tensor<1x4xf32>, tensor<4x3xf32>) outs(%2 : tensor<1x3xf32>) -> tensor<1x3xf32>
  %expanded_0 = tensor.expand_shape %_params.bias [[0, 1]] : tensor<3xf32> into tensor<1x3xf32>
  %4 = tensor.empty() : tensor<1x3xf32>
  %5 = linalg.generic {indexing_maps = [affine_map<(d0, d1) -> (d0, d1)>, affine_map<(d0, d1) -> (d0, d1)>, affine_map<(d0, d1) -> (d0, d1)>], iterator_types = ["parallel", "parallel"]} ins(%3, %expanded_0 : tensor<1x3xf32>, tensor<1x3xf32>) outs(%4 : tensor<1x3xf32>) {
  ^bb0(%in: f32, %in_1: f32, %out: f32):
    %7 = arith.addf %in, %in_1 : f32
    linalg.yield %7 : f32
  } -> tensor<1x3xf32>
  %collapsed = tensor.collapse_shape %5 [[0, 1]] : tensor<1x3xf32> into tensor<3xf32>
  %6 = hal.tensor.export %collapsed "output 0" : tensor<3xf32> -> !hal.buffer_view
  return %6 : !hal.buffer_view
}

// -----// IR Dump After Canonicalizer (canonicalize) //----- //
func.func @main(%arg0: !hal.buffer_view) -> !hal.buffer_view attributes {iree.abi.stub} {
  %cst = arith.constant 0.000000e+00 : f32
  %_params.weight = util.global.load @_params.weight : tensor<4x3xf32>
  %_params.bias = util.global.load @_params.bias : tensor<3xf32>
  %0 = hal.tensor.import %arg0 "input 0" : !hal.buffer_view -> tensor<4xf32>
  %expanded = tensor.expand_shape %0 [[0, 1]] : tensor<4xf32> into tensor<1x4xf32>
  %1 = tensor.empty() : tensor<1x3xf32>
  %2 = linalg.fill ins(%cst : f32) outs(%1 : tensor<1x3xf32>) -> tensor<1x3xf32>
  %3 = linalg.matmul ins(%expanded, %_params.weight : tensor<1x4xf32>, tensor<4x3xf32>) outs(%2 : tensor<1x3xf32>) -> tensor<1x3xf32>
  %expanded_0 = tensor.expand_shape %_params.bias [[0, 1]] : tensor<3xf32> into tensor<1x3xf32>
  %4 = tensor.empty() : tensor<1x3xf32>
  %5 = linalg.generic {indexing_maps = [affine_map<(d0, d1) -> (d0, d1)>, affine_map<(d0, d1) -> (d0, d1)>, affine_map<(d0, d1) -> (d0, d1)>], iterator_types = ["parallel", "parallel"]} ins(%3, %expanded_0 : tensor<1x3xf32>, tensor<1x3xf32>) outs(%4 : tensor<1x3xf32>) {
  ^bb0(%in: f32, %in_1: f32, %out: f32):
    %7 = arith.addf %in, %in_1 : f32
    linalg.yield %7 : f32
  } -> tensor<1x3xf32>
  %collapsed = tensor.collapse_shape %5 [[0, 1]] : tensor<1x3xf32> into tensor<3xf32>
  %6 = hal.tensor.export %collapsed "output 0" : tensor<3xf32> -> !hal.buffer_view
  return %6 : !hal.buffer_view
}

// -----// IR Dump After CSE (cse) //----- //
func.func @main(%arg0: !hal.buffer_view) -> !hal.buffer_view attributes {iree.abi.stub} {
  %cst = arith.constant 0.000000e+00 : f32
  %_params.weight = util.global.load @_params.weight : tensor<4x3xf32>
  %_params.bias = util.global.load @_params.bias : tensor<3xf32>
  %0 = hal.tensor.import %arg0 "input 0" : !hal.buffer_view -> tensor<4xf32>
  %expanded = tensor.expand_shape %0 [[0, 1]] : tensor<4xf32> into tensor<1x4xf32>
  %1 = tensor.empty() : tensor<1x3xf32>
  %2 = linalg.fill ins(%cst : f32) outs(%1 : tensor<1x3xf32>) -> tensor<1x3xf32>
  %3 = linalg.matmul ins(%expanded, %_params.weight : tensor<1x4xf32>, tensor<4x3xf32>) outs(%2 : tensor<1x3xf32>) -> tensor<1x3xf32>
  %expanded_0 = tensor.expand_shape %_params.bias [[0, 1]] : tensor<3xf32> into tensor<1x3xf32>
  %4 = linalg.generic {indexing_maps = [affine_map<(d0, d1) -> (d0, d1)>, affine_map<(d0, d1) -> (d0, d1)>, affine_map<(d0, d1) -> (d0, d1)>], iterator_types = ["parallel", "parallel"]} ins(%3, %expanded_0 : tensor<1x3xf32>, tensor<1x3xf32>) outs(%1 : tensor<1x3xf32>) {
  ^bb0(%in: f32, %in_1: f32, %out: f32):
    %6 = arith.addf %in, %in_1 : f32
    linalg.yield %6 : f32
  } -> tensor<1x3xf32>
  %collapsed = tensor.collapse_shape %4 [[0, 1]] : tensor<1x3xf32> into tensor<3xf32>
  %5 = hal.tensor.export %collapsed "output 0" : tensor<3xf32> -> !hal.buffer_view
  return %5 : !hal.buffer_view
}

// -----// IR Dump After SplitReduction (iree-flow-split-reduction-ops) //----- //
func.func @main(%arg0: !hal.buffer_view) -> !hal.buffer_view attributes {iree.abi.stub} {
  %cst = arith.constant 0.000000e+00 : f32
  %_params.weight = util.global.load @_params.weight : tensor<4x3xf32>
  %_params.bias = util.global.load @_params.bias : tensor<3xf32>
  %0 = hal.tensor.import %arg0 "input 0" : !hal.buffer_view -> tensor<4xf32>
  %expanded = tensor.expand_shape %0 [[0, 1]] : tensor<4xf32> into tensor<1x4xf32>
  %1 = tensor.empty() : tensor<1x3xf32>
  %2 = linalg.fill ins(%cst : f32) outs(%1 : tensor<1x3xf32>) -> tensor<1x3xf32>
  %3 = linalg.matmul ins(%expanded, %_params.weight : tensor<1x4xf32>, tensor<4x3xf32>) outs(%2 : tensor<1x3xf32>) -> tensor<1x3xf32>
  %expanded_0 = tensor.expand_shape %_params.bias [[0, 1]] : tensor<3xf32> into tensor<1x3xf32>
  %4 = linalg.generic {indexing_maps = [affine_map<(d0, d1) -> (d0, d1)>, affine_map<(d0, d1) -> (d0, d1)>, affine_map<(d0, d1) -> (d0, d1)>], iterator_types = ["parallel", "parallel"]} ins(%3, %expanded_0 : tensor<1x3xf32>, tensor<1x3xf32>) outs(%1 : tensor<1x3xf32>) {
  ^bb0(%in: f32, %in_1: f32, %out: f32):
    %6 = arith.addf %in, %in_1 : f32
    linalg.yield %6 : f32
  } -> tensor<1x3xf32>
  %collapsed = tensor.collapse_shape %4 [[0, 1]] : tensor<1x3xf32> into tensor<3xf32>
  %5 = hal.tensor.export %collapsed "output 0" : tensor<3xf32> -> !hal.buffer_view
  return %5 : !hal.buffer_view
}

// -----// IR Dump After InterchangeGenericOps (iree-flow-interchange-generic-ops) //----- //
func.func @main(%arg0: !hal.buffer_view) -> !hal.buffer_view attributes {iree.abi.stub} {
  %cst = arith.constant 0.000000e+00 : f32
  %_params.weight = util.global.load @_params.weight : tensor<4x3xf32>
  %_params.bias = util.global.load @_params.bias : tensor<3xf32>
  %0 = hal.tensor.import %arg0 "input 0" : !hal.buffer_view -> tensor<4xf32>
  %expanded = tensor.expand_shape %0 [[0, 1]] : tensor<4xf32> into tensor<1x4xf32>
  %1 = tensor.empty() : tensor<1x3xf32>
  %2 = linalg.fill ins(%cst : f32) outs(%1 : tensor<1x3xf32>) -> tensor<1x3xf32>
  %3 = linalg.matmul ins(%expanded, %_params.weight : tensor<1x4xf32>, tensor<4x3xf32>) outs(%2 : tensor<1x3xf32>) -> tensor<1x3xf32>
  %expanded_0 = tensor.expand_shape %_params.bias [[0, 1]] : tensor<3xf32> into tensor<1x3xf32>
  %4 = linalg.generic {indexing_maps = [affine_map<(d0, d1) -> (d0, d1)>, affine_map<(d0, d1) -> (d0, d1)>, affine_map<(d0, d1) -> (d0, d1)>], iterator_types = ["parallel", "parallel"]} ins(%3, %expanded_0 : tensor<1x3xf32>, tensor<1x3xf32>) outs(%1 : tensor<1x3xf32>) {
  ^bb0(%in: f32, %in_1: f32, %out: f32):
    %6 = arith.addf %in, %in_1 : f32
    linalg.yield %6 : f32
  } -> tensor<1x3xf32>
  %collapsed = tensor.collapse_shape %4 [[0, 1]] : tensor<1x3xf32> into tensor<3xf32>
  %5 = hal.tensor.export %collapsed "output 0" : tensor<3xf32> -> !hal.buffer_view
  return %5 : !hal.buffer_view
}

// -----// IR Dump After FormScalarDispatches (iree-flow-form-scalar-dispatches) //----- //
func.func @main(%arg0: !hal.buffer_view) -> !hal.buffer_view attributes {iree.abi.stub} {
  %cst = arith.constant 0.000000e+00 : f32
  %_params.weight = util.global.load @_params.weight : tensor<4x3xf32>
  %_params.bias = util.global.load @_params.bias : tensor<3xf32>
  %0 = hal.tensor.import %arg0 "input 0" : !hal.buffer_view -> tensor<4xf32>
  %expanded = tensor.expand_shape %0 [[0, 1]] : tensor<4xf32> into tensor<1x4xf32>
  %1 = tensor.empty() : tensor<1x3xf32>
  %2 = linalg.fill ins(%cst : f32) outs(%1 : tensor<1x3xf32>) -> tensor<1x3xf32>
  %3 = linalg.matmul ins(%expanded, %_params.weight : tensor<1x4xf32>, tensor<4x3xf32>) outs(%2 : tensor<1x3xf32>) -> tensor<1x3xf32>
  %expanded_0 = tensor.expand_shape %_params.bias [[0, 1]] : tensor<3xf32> into tensor<1x3xf32>
  %4 = linalg.generic {indexing_maps = [affine_map<(d0, d1) -> (d0, d1)>, affine_map<(d0, d1) -> (d0, d1)>, affine_map<(d0, d1) -> (d0, d1)>], iterator_types = ["parallel", "parallel"]} ins(%3, %expanded_0 : tensor<1x3xf32>, tensor<1x3xf32>) outs(%1 : tensor<1x3xf32>) {
  ^bb0(%in: f32, %in_1: f32, %out: f32):
    %6 = arith.addf %in, %in_1 : f32
    linalg.yield %6 : f32
  } -> tensor<1x3xf32>
  %collapsed = tensor.collapse_shape %4 [[0, 1]] : tensor<1x3xf32> into tensor<3xf32>
  %5 = hal.tensor.export %collapsed "output 0" : tensor<3xf32> -> !hal.buffer_view
  return %5 : !hal.buffer_view
}

// -----// IR Dump After FormDispatchRegions (iree-flow-form-dispatch-regions) //----- //
func.func @main(%arg0: !hal.buffer_view) -> !hal.buffer_view attributes {iree.abi.stub} {
  %cst = arith.constant 0.000000e+00 : f32
  %_params.weight = util.global.load @_params.weight : tensor<4x3xf32>
  %_params.bias = util.global.load @_params.bias : tensor<3xf32>
  %0 = hal.tensor.import %arg0 "input 0" : !hal.buffer_view -> tensor<4xf32>
  %expanded = tensor.expand_shape %0 [[0, 1]] : tensor<4xf32> into tensor<1x4xf32>
  %1 = tensor.empty() : tensor<1x3xf32>
  %2 = linalg.fill ins(%cst : f32) outs(%1 : tensor<1x3xf32>) -> tensor<1x3xf32>
  %expanded_0 = tensor.expand_shape %_params.bias [[0, 1]] : tensor<3xf32> into tensor<1x3xf32>
  %3 = flow.dispatch.region -> (tensor<1x3xf32>) {
    %5 = linalg.matmul ins(%expanded, %_params.weight : tensor<1x4xf32>, tensor<4x3xf32>) outs(%2 : tensor<1x3xf32>) -> tensor<1x3xf32>
    %6 = linalg.generic {indexing_maps = [affine_map<(d0, d1) -> (d0, d1)>, affine_map<(d0, d1) -> (d0, d1)>, affine_map<(d0, d1) -> (d0, d1)>], iterator_types = ["parallel", "parallel"]} ins(%5, %expanded_0 : tensor<1x3xf32>, tensor<1x3xf32>) outs(%1 : tensor<1x3xf32>) {
    ^bb0(%in: f32, %in_1: f32, %out: f32):
      %7 = arith.addf %in, %in_1 : f32
      linalg.yield %7 : f32
    } -> tensor<1x3xf32>
    flow.return %6 : tensor<1x3xf32>
  }
  %collapsed = tensor.collapse_shape %3 [[0, 1]] : tensor<1x3xf32> into tensor<3xf32>
  %4 = hal.tensor.export %collapsed "output 0" : tensor<3xf32> -> !hal.buffer_view
  return %4 : !hal.buffer_view
}

// -----// IR Dump After CollapseDimensions (iree-flow-collapse-dimensions) //----- //
func.func @main(%arg0: !hal.buffer_view) -> !hal.buffer_view attributes {iree.abi.stub} {
  %cst = arith.constant 0.000000e+00 : f32
  %_params.weight = util.global.load @_params.weight : tensor<4x3xf32>
  %_params.bias = util.global.load @_params.bias : tensor<3xf32>
  %0 = hal.tensor.import %arg0 "input 0" : !hal.buffer_view -> tensor<4xf32>
  %expanded = tensor.expand_shape %0 [[0, 1]] : tensor<4xf32> into tensor<1x4xf32>
  %1 = tensor.empty() : tensor<1x3xf32>
  %2 = linalg.fill ins(%cst : f32) outs(%1 : tensor<1x3xf32>) -> tensor<1x3xf32>
  %expanded_0 = tensor.expand_shape %_params.bias [[0, 1]] : tensor<3xf32> into tensor<1x3xf32>
  %3 = flow.dispatch.region -> (tensor<1x3xf32>) {
    %5 = linalg.matmul ins(%expanded, %_params.weight : tensor<1x4xf32>, tensor<4x3xf32>) outs(%2 : tensor<1x3xf32>) -> tensor<1x3xf32>
    %6 = linalg.generic {indexing_maps = [affine_map<(d0, d1) -> (d0, d1)>, affine_map<(d0, d1) -> (d0, d1)>, affine_map<(d0, d1) -> (d0, d1)>], iterator_types = ["parallel", "parallel"]} ins(%5, %expanded_0 : tensor<1x3xf32>, tensor<1x3xf32>) outs(%1 : tensor<1x3xf32>) {
    ^bb0(%in: f32, %in_1: f32, %out: f32):
      %7 = arith.addf %in, %in_1 : f32
      linalg.yield %7 : f32
    } -> tensor<1x3xf32>
    flow.return %6 : tensor<1x3xf32>
  }
  %collapsed = tensor.collapse_shape %3 [[0, 1]] : tensor<1x3xf32> into tensor<3xf32>
  %4 = hal.tensor.export %collapsed "output 0" : tensor<3xf32> -> !hal.buffer_view
  return %4 : !hal.buffer_view
}

// -----// IR Dump After CloneProducersIntoDispatchRegions (iree-flow-clone-producers-into-dispatch-regions) //----- //
func.func @main(%arg0: !hal.buffer_view) -> !hal.buffer_view attributes {iree.abi.stub} {
  %cst = arith.constant 0.000000e+00 : f32
  %_params.weight = util.global.load @_params.weight : tensor<4x3xf32>
  %_params.bias = util.global.load @_params.bias : tensor<3xf32>
  %0 = hal.tensor.import %arg0 "input 0" : !hal.buffer_view -> tensor<4xf32>
  %expanded = tensor.expand_shape %0 [[0, 1]] : tensor<4xf32> into tensor<1x4xf32>
  %1 = tensor.empty() : tensor<1x3xf32>
  %2 = linalg.fill ins(%cst : f32) outs(%1 : tensor<1x3xf32>) -> tensor<1x3xf32>
  %expanded_0 = tensor.expand_shape %_params.bias [[0, 1]] : tensor<3xf32> into tensor<1x3xf32>
  %3 = flow.dispatch.region -> (tensor<1x3xf32>) {
    %5 = tensor.empty() : tensor<1x3xf32>
    %cst_1 = arith.constant 0.000000e+00 : f32
    %6 = linalg.fill ins(%cst_1 : f32) outs(%5 : tensor<1x3xf32>) -> tensor<1x3xf32>
    %7 = linalg.matmul ins(%expanded, %_params.weight : tensor<1x4xf32>, tensor<4x3xf32>) outs(%6 : tensor<1x3xf32>) -> tensor<1x3xf32>
    %8 = linalg.generic {indexing_maps = [affine_map<(d0, d1) -> (d0, d1)>, affine_map<(d0, d1) -> (d0, d1)>, affine_map<(d0, d1) -> (d0, d1)>], iterator_types = ["parallel", "parallel"]} ins(%7, %expanded_0 : tensor<1x3xf32>, tensor<1x3xf32>) outs(%5 : tensor<1x3xf32>) {
    ^bb0(%in: f32, %in_2: f32, %out: f32):
      %9 = arith.addf %in, %in_2 : f32
      linalg.yield %9 : f32
    } -> tensor<1x3xf32>
    flow.return %8 : tensor<1x3xf32>
  }
  %collapsed = tensor.collapse_shape %3 [[0, 1]] : tensor<1x3xf32> into tensor<3xf32>
  %4 = hal.tensor.export %collapsed "output 0" : tensor<3xf32> -> !hal.buffer_view
  return %4 : !hal.buffer_view
}

// -----// IR Dump After FormDispatchWorkgroups (iree-flow-form-dispatch-workgroups) //----- //
func.func @main(%arg0: !hal.buffer_view) -> !hal.buffer_view attributes {iree.abi.stub} {
  %_params.weight = util.global.load @_params.weight : tensor<4x3xf32>
  %_params.bias = util.global.load @_params.bias : tensor<3xf32>
  %0 = hal.tensor.import %arg0 "input 0" : !hal.buffer_view -> tensor<4xf32>
  %1 = flow.tensor.reshape %0 : tensor<4xf32> -> tensor<1x4xf32>
  %2 = flow.tensor.reshape %_params.bias : tensor<3xf32> -> tensor<1x3xf32>
  %3 = flow.dispatch.workgroups(%1, %_params.weight, %2) : (tensor<1x4xf32>, tensor<4x3xf32>, tensor<1x3xf32>) -> tensor<1x3xf32> =
      (%arg1: !flow.dispatch.tensor<readonly:tensor<1x4xf32>>, %arg2: !flow.dispatch.tensor<readonly:tensor<4x3xf32>>, %arg3: !flow.dispatch.tensor<readonly:tensor<1x3xf32>>, %arg4: !flow.dispatch.tensor<writeonly:tensor<1x3xf32>>) {
    %cst = arith.constant 0.000000e+00 : f32
    %6 = flow.dispatch.tensor.load %arg1, offsets = [0, 0], sizes = [1, 4], strides = [1, 1] : !flow.dispatch.tensor<readonly:tensor<1x4xf32>> -> tensor<1x4xf32>
    %7 = flow.dispatch.tensor.load %arg2, offsets = [0, 0], sizes = [4, 3], strides = [1, 1] : !flow.dispatch.tensor<readonly:tensor<4x3xf32>> -> tensor<4x3xf32>
    %8 = flow.dispatch.tensor.load %arg3, offsets = [0, 0], sizes = [1, 3], strides = [1, 1] : !flow.dispatch.tensor<readonly:tensor<1x3xf32>> -> tensor<1x3xf32>
    %9 = tensor.empty() : tensor<1x3xf32>
    %10 = linalg.fill ins(%cst : f32) outs(%9 : tensor<1x3xf32>) -> tensor<1x3xf32>
    %11 = linalg.matmul ins(%6, %7 : tensor<1x4xf32>, tensor<4x3xf32>) outs(%10 : tensor<1x3xf32>) -> tensor<1x3xf32>
    %12 = linalg.generic {indexing_maps = [affine_map<(d0, d1) -> (d0, d1)>, affine_map<(d0, d1) -> (d0, d1)>, affine_map<(d0, d1) -> (d0, d1)>], iterator_types = ["parallel", "parallel"]} ins(%11, %8 : tensor<1x3xf32>, tensor<1x3xf32>) outs(%9 : tensor<1x3xf32>) {
    ^bb0(%in: f32, %in_0: f32, %out: f32):
      %13 = arith.addf %in, %in_0 : f32
      linalg.yield %13 : f32
    } -> tensor<1x3xf32>
    flow.dispatch.tensor.store %12, %arg4, offsets = [0, 0], sizes = [1, 3], strides = [1, 1] : tensor<1x3xf32> -> !flow.dispatch.tensor<writeonly:tensor<1x3xf32>>
    flow.return
  } count() -> (index, index, index) {
    %x, %y, %z = flow.dispatch.workgroup_count_from_slice 
    flow.return %x, %y, %z : index, index, index
  }
  %4 = flow.tensor.reshape %3 : tensor<1x3xf32> -> tensor<3xf32>
  %5 = hal.tensor.export %4 "output 0" : tensor<3xf32> -> !hal.buffer_view
  return %5 : !hal.buffer_view
}

// -----// IR Dump After CaptureDispatchDynamicDims (iree-flow-capture-dispatch-dynamic-dims) //----- //
func.func @main(%arg0: !hal.buffer_view) -> !hal.buffer_view attributes {iree.abi.stub} {
  %_params.weight = util.global.load @_params.weight : tensor<4x3xf32>
  %_params.bias = util.global.load @_params.bias : tensor<3xf32>
  %0 = hal.tensor.import %arg0 "input 0" : !hal.buffer_view -> tensor<4xf32>
  %1 = flow.tensor.reshape %0 : tensor<4xf32> -> tensor<1x4xf32>
  %2 = flow.tensor.reshape %_params.bias : tensor<3xf32> -> tensor<1x3xf32>
  %3 = flow.dispatch.workgroups(%1, %_params.weight, %2) : (tensor<1x4xf32>, tensor<4x3xf32>, tensor<1x3xf32>) -> tensor<1x3xf32> =
      (%arg1: !flow.dispatch.tensor<readonly:tensor<1x4xf32>>, %arg2: !flow.dispatch.tensor<readonly:tensor<4x3xf32>>, %arg3: !flow.dispatch.tensor<readonly:tensor<1x3xf32>>, %arg4: !flow.dispatch.tensor<writeonly:tensor<1x3xf32>>) {
    %cst = arith.constant 0.000000e+00 : f32
    %6 = flow.dispatch.tensor.load %arg1, offsets = [0, 0], sizes = [1, 4], strides = [1, 1] : !flow.dispatch.tensor<readonly:tensor<1x4xf32>> -> tensor<1x4xf32>
    %7 = flow.dispatch.tensor.load %arg2, offsets = [0, 0], sizes = [4, 3], strides = [1, 1] : !flow.dispatch.tensor<readonly:tensor<4x3xf32>> -> tensor<4x3xf32>
    %8 = flow.dispatch.tensor.load %arg3, offsets = [0, 0], sizes = [1, 3], strides = [1, 1] : !flow.dispatch.tensor<readonly:tensor<1x3xf32>> -> tensor<1x3xf32>
    %9 = tensor.empty() : tensor<1x3xf32>
    %10 = linalg.fill ins(%cst : f32) outs(%9 : tensor<1x3xf32>) -> tensor<1x3xf32>
    %11 = linalg.matmul ins(%6, %7 : tensor<1x4xf32>, tensor<4x3xf32>) outs(%10 : tensor<1x3xf32>) -> tensor<1x3xf32>
    %12 = linalg.generic {indexing_maps = [affine_map<(d0, d1) -> (d0, d1)>, affine_map<(d0, d1) -> (d0, d1)>, affine_map<(d0, d1) -> (d0, d1)>], iterator_types = ["parallel", "parallel"]} ins(%11, %8 : tensor<1x3xf32>, tensor<1x3xf32>) outs(%9 : tensor<1x3xf32>) {
    ^bb0(%in: f32, %in_0: f32, %out: f32):
      %13 = arith.addf %in, %in_0 : f32
      linalg.yield %13 : f32
    } -> tensor<1x3xf32>
    flow.dispatch.tensor.store %12, %arg4, offsets = [0, 0], sizes = [1, 3], strides = [1, 1] : tensor<1x3xf32> -> !flow.dispatch.tensor<writeonly:tensor<1x3xf32>>
    flow.return
  } count() -> (index, index, index) {
    %x, %y, %z = flow.dispatch.workgroup_count_from_slice 
    flow.return %x, %y, %z : index, index, index
  }
  %4 = flow.tensor.reshape %3 : tensor<1x3xf32> -> tensor<3xf32>
  %5 = hal.tensor.export %4 "output 0" : tensor<3xf32> -> !hal.buffer_view
  return %5 : !hal.buffer_view
}

// -----// IR Dump After Canonicalizer (canonicalize) //----- //
func.func @main(%arg0: !hal.buffer_view) -> !hal.buffer_view attributes {iree.abi.stub} {
  %_params.weight = util.global.load @_params.weight : tensor<4x3xf32>
  %_params.bias = util.global.load @_params.bias : tensor<3xf32>
  %0 = hal.tensor.import %arg0 "input 0" : !hal.buffer_view -> tensor<4xf32>
  %1 = flow.tensor.reshape %0 : tensor<4xf32> -> tensor<1x4xf32>
  %2 = flow.tensor.reshape %_params.bias : tensor<3xf32> -> tensor<1x3xf32>
  %3 = flow.dispatch.workgroups(%1, %_params.weight, %2) : (tensor<1x4xf32>, tensor<4x3xf32>, tensor<1x3xf32>) -> tensor<1x3xf32> =
…
    %5 = vm.call.variadic @hal.fence.await(%c-1_1, [%ref_9]) : (i32, !vm.ref<!hal.fence> ...) -> i32
    vm.cond_br %5, ^bb4, ^bb3
  ^bb3:  // pred: ^bb2
    %ref_10 = vm.call.variadic @hal.buffer_view.create(%ref_7, %zero_2, %c12, %c553648160, %c1, [%c3_0]) {nosideeffects} : (!vm.ref<!hal.buffer>, i64, i64, i32, i32, i64 ...) -> !vm.ref<!hal.buffer_view>
    vm.return %ref_10 : !vm.ref<!hal.buffer_view>
  ^bb4:  // pred: ^bb2
    vm.fail %5, "failed to wait on timepoint"
  }
  vm.export @main attributes {iree.abi.stub}
  vm.export @__init
  vm.func private @__init() {
    %c527363 = vm.const.i32 527363
    %c48 = vm.const.i32 48
    %null = vm.const.ref.zero : !vm.ref<!hal.fence>
    %null_0 = vm.const.ref.zero : !vm.ref<!hal.executable>
    %null_1 = vm.const.ref.zero : !vm.buffer
    %c2 = vm.const.i32 2
    %c7 = vm.const.i32 7
    %c1 = vm.const.i32 1
    %zero = vm.const.i64.zero
    %c128 = vm.const.i64 128
    %c-1 = vm.const.i64 -1
    %zero_2 = vm.const.i32.zero
    %ref = vm.call @hal.ex.shared_device() {nosideeffects} : () -> !vm.ref<!hal.device>
    %_utf8_hal_executable_format_EAB228F999C2D3A1 = vm.const.ref.rodata @_utf8_hal_executable_format_EAB228F999C2D3A1 : !vm.buffer
    %_utf8_cuda_nvptx_fb_B15B42B96FDBACC = vm.const.ref.rodata @_utf8_cuda_nvptx_fb_B15B42B96FDBACC : !vm.buffer
    %0:2 = vm.call @hal.device.query.i64(%ref, %_utf8_hal_executable_format_EAB228F999C2D3A1, %_utf8_cuda_nvptx_fb_B15B42B96FDBACC) {nosideeffects} : (!vm.ref<!hal.device>, !vm.buffer, !vm.buffer) -> (i32, i64)
    %1 = vm.trunc.i64.i32 %0#1 : i64 -> i32
    %2 = vm.and.i32 %1, %c1 : i32
    %3 = vm.select.i32 %0#0, %2, %zero_2 : i32
    %ref_3 = vm.call.variadic @hal.descriptor_set_layout.create(%ref, %zero_2, [(%zero_2, %c7, %c1), (%c1, %c7, %c1), (%c2, %c7, %zero_2)]) {nosideeffects} : (!vm.ref<!hal.device>, i32, tuple<i32, i32, i32> ...) -> !vm.ref<!hal.descriptor_set_layout>
    %ref_4 = vm.call.variadic @hal.pipeline_layout.create(%ref, %zero_2, [%ref_3]) {nosideeffects} : (!vm.ref<!hal.device>, i32, !vm.ref<!hal.descriptor_set_layout> ...) -> !vm.ref<!hal.pipeline_layout>
    %4 = vm.select.i64 %3, %zero, %c-1 : i64
    %5 = vm.trunc.i64.i32 %4 : i64 -> i32
    vm.global.store.i32 %3, @_device_query_0 : i32
    vm.global.store.ref %ref_4, @_pipeline_layout_0 : !vm.ref<!hal.pipeline_layout>
    vm.br_table %5 {
      default: ^bb2,
      0: ^bb1
    }
  ^bb1:  // pred: ^bb0
    %_pipeline_layout_0 = vm.global.load.ref @_pipeline_layout_0 : !vm.ref<!hal.pipeline_layout>
    %main_dispatch_0_cuda_nvptx_fb = vm.const.ref.rodata @main_dispatch_0_cuda_nvptx_fb : !vm.buffer
    %ref_5 = vm.call.variadic @hal.executable.create(%ref, %_utf8_cuda_nvptx_fb_B15B42B96FDBACC, %main_dispatch_0_cuda_nvptx_fb, %null_1, [%_pipeline_layout_0]) {nosideeffects} : (!vm.ref<!hal.device>, !vm.buffer, !vm.buffer, !vm.buffer, !vm.ref<!hal.pipeline_layout> ...) -> !vm.ref<!hal.executable>
    vm.br ^bb3(%ref_5 : !vm.ref<!hal.executable>)
  ^bb2:  // pred: ^bb0
    vm.br ^bb3(%null_0 : !vm.ref<!hal.executable>)
  ^bb3(%6: !vm.ref<!hal.executable>):  // 2 preds: ^bb1, ^bb2
    %_const = vm.const.ref.rodata @_const : !vm.buffer
    %ref_6 = vm.call @hal.device.allocator(%ref) {nosideeffects} : (!vm.ref<!hal.device>) -> !vm.ref<!hal.allocator>
    %ref_7 = vm.call @hal.allocator.import(%ref_6, %c1, %c-1, %c48, %c527363, %_const, %zero, %c128) : (!vm.ref<!hal.allocator>, i32, i64, i32, i32, !vm.buffer, i64, i64) -> !vm.ref<!hal.buffer>
    %rnz = vm.cmp.nz.ref %ref_7 : !vm.ref<!hal.buffer>
    vm.global.store.ref %6, @_executable_main_dispatch_0 : !vm.ref<!hal.executable>
    vm.cond_br %rnz, ^bb5(%null, %ref_7 : !vm.ref<!hal.fence>, !vm.ref<!hal.buffer>), ^bb4
  ^bb4:  // pred: ^bb3
    %ref_8 = vm.call @hal.allocator.allocate(%ref_6, %c-1, %c48, %c527363, %c128) : (!vm.ref<!hal.allocator>, i64, i32, i32, i64) -> !vm.ref<!hal.buffer>
    %ref_9 = vm.call @hal.ex.file.from_memory(%ref, %c-1, %c1, %_const, %zero, %c128, %zero_2) : (!vm.ref<!hal.device>, i64, i32, !vm.buffer, i64, i64, i32) -> !vm.ref<!hal.file>
    %ref_10 = vm.call @hal.fence.create(%ref, %zero_2) : (!vm.ref<!hal.device>, i32) -> !vm.ref<!hal.fence>
    vm.call @hal.device.queue.read(%ref, %c-1, %null, %ref_10, %ref_9, %zero, %ref_8, %zero, %c128, %zero_2) : (!vm.ref<!hal.device>, i64, !vm.ref<!hal.fence>, !vm.ref<!hal.fence>, !vm.ref<!hal.file>, i64, !vm.ref<!hal.buffer>, i64, i64, i32) -> ()
    vm.br ^bb5(%ref_10, %ref_8 : !vm.ref<!hal.fence>, !vm.ref<!hal.buffer>)
  ^bb5(%7: !vm.ref<!hal.fence>, %8: !vm.ref<!hal.buffer>):  // 2 preds: ^bb3, ^bb4
    vm.global.store.ref %8, @_params.weight : !vm.ref<!hal.buffer>
    vm.global.store.ref %7, @_params.weight__timepoint : !vm.ref<!hal.fence>
    vm.return
  }
}

// -----// IR Dump After Canonicalizer (canonicalize) //----- //
vm.module public @LinearModule {
  vm.global.i32 private mutable @_device_query_0 : i32
  vm.global.ref private mutable @_pipeline_layout_0 : !vm.ref<!hal.pipeline_layout>
  vm.global.ref private mutable @_executable_main_dispatch_0 : !vm.ref<!hal.executable>
  vm.global.ref private mutable @_params.weight__timepoint : !vm.ref<!hal.fence>
  vm.global.ref private mutable @_params.weight : !vm.ref<!hal.buffer>
  vm.rodata private @main_dispatch_0_cuda_nvptx_fb {alignment = 16 : i64, mime_type = "application/x-flatbuffers"} dense<"…"> : vector<1302xi8>
  vm.rodata private @_utf8_hal_executable_format_EAB228F999C2D3A1 {alignment = 1 : i64} "hal.executable.format"
  vm.rodata private @_utf8_cuda_nvptx_fb_B15B42B96FDBACC {alignment = 1 : i64} "cuda-nvptx-fb"
  vm.rodata private @_const {alignment = 64 : i64} #util.composite<128xi8, [
    dense<[[1.54099607, -0.293428898, -2.17878938], [0.568431258, -1.08452237, -1.39859545], [0.403346837, 0.838026344, -0.719257593], [-0.403343529, -0.596635341, 0.182036489]]> : tensor<4x3xf32>,
    dense<0> : vector<16xi8>,
    dense<[-0.856674611, 1.10060418, -1.07118738]> : tensor<3xf32>,
    dense<0> : vector<52xi8>,
]>
  vm.import private @hal.ex.shared_device() -> !vm.ref<!hal.device> attributes {nosideeffects}
  vm.import private @hal.ex.file.from_memory(%device : !vm.ref<!hal.device>, %queue_affinity : i64, %access : i32, %buffer : !vm.buffer, %offset : i64, %length : i64, %flags : i32) -> !vm.ref<!hal.file>
  vm.import private @hal.allocator.allocate(%allocator : !vm.ref<!hal.allocator>, %queue_affinity : i64, %memory_types : i32, %buffer_usage : i32, %allocation_size : i64) -> !vm.ref<!hal.buffer> attributes {minimum_version = 1 : i32}
  vm.import private @hal.allocator.import(%allocator : !vm.ref<!hal.allocator>, %try : i32, %queue_affinity : i64, %memory_types : i32, %buffer_usage : i32, %source : !vm.buffer, %offset : i64, %length : i64) -> !vm.ref<!hal.buffer> attributes {minimum_version = 1 : i32}
  vm.import private @hal.buffer.assert(%buffer : !vm.ref<!hal.buffer>, %message : !vm.buffer, %allocator : !vm.ref<!hal.allocator>, %minimum_length : i64, %memory_types : i32, %buffer_usage : i32)
  vm.import private @hal.buffer_view.create(%buffer : !vm.ref<!hal.buffer>, %source_offset : i64, %source_length : i64, %element_type : i32, %encoding_type : i32, %shape : i64 ...) -> !vm.ref<!hal.buffer_view> attributes {nosideeffects}
  vm.import private @hal.buffer_view.assert(%buffer_view : !vm.ref<!hal.buffer_view>, %message : !vm.buffer, %element_type : i32, %encoding_type : i32, %shape : i64 ...)
  vm.import private @hal.buffer_view.buffer(%buffer_view : !vm.ref<!hal.buffer_view>) -> !vm.ref<!hal.buffer> attributes {nosideeffects}
  vm.import private @hal.command_buffer.create(%device : !vm.ref<!hal.device>, %modes : i32, %command_categories : i32, %binding_capacity : i32) -> !vm.ref<!hal.command_buffer>
  vm.import private @hal.command_buffer.finalize(%command_buffer : !vm.ref<!hal.command_buffer>)
  vm.import private @hal.command_buffer.execution_barrier(%command_buffer : !vm.ref<!hal.command_buffer>, %source_stage_mask : i32, %target_stage_mask : i32, %flags : i32)
  vm.import private @hal.command_buffer.push_descriptor_set(%command_buffer : !vm.ref<!hal.command_buffer>, %pipeline_layout : !vm.ref<!hal.pipeline_layout>, %set : i32, %bindings : tuple<i32, i32, !vm.ref<!hal.buffer>, i64, i64> ...)
  vm.import private @hal.command_buffer.dispatch(%command_buffer : !vm.ref<!hal.command_buffer>, %executable : !vm.ref<!hal.executable>, %entry_point : i32, %workgroup_x : i32, %workgroup_y : i32, %workgroup_z : i32)
  vm.import private @hal.descriptor_set_layout.create(%device : !vm.ref<!hal.device>, %flags : i32, %bindings : tuple<i32, i32, i32> ...) -> !vm.ref<!hal.descriptor_set_layout> attributes {nosideeffects}
  vm.import private @hal.device.allocator(%device : !vm.ref<!hal.device>) -> !vm.ref<!hal.allocator> attributes {nosideeffects}
  vm.import private @hal.device.query.i64(%device : !vm.ref<!hal.device>, %category : !vm.buffer, %key : !vm.buffer) -> (i32, i64) attributes {nosideeffects}
  vm.import private @hal.device.queue.alloca(%device : !vm.ref<!hal.device>, %queue_affinity : i64, %wait_fence : !vm.ref<!hal.fence>, %signal_fence : !vm.ref<!hal.fence>, %pool : i32, %memory_types : i32, %buffer_usage : i32, %allocation_size : i64) -> !vm.ref<!hal.buffer>
  vm.import private @hal.device.queue.read(%device : !vm.ref<!hal.device>, %queue_affinity : i64, %wait_fence : !vm.ref<!hal.fence>, %signal_fence : !vm.ref<!hal.fence>, %source_file : !vm.ref<!hal.file>, %source_offset : i64, %target_buffer : !vm.ref<!hal.buffer>, %target_offset : i64, %length : i64, %flags : i32)
  vm.import private @hal.device.queue.execute(%device : !vm.ref<!hal.device>, %queue_affinity : i64, %wait_fence : !vm.ref<!hal.fence>, %signal_fence : !vm.ref<!hal.fence>, %command_buffers : !vm.ref<!hal.command_buffer> ...)
  vm.import private @hal.executable.create(%device : !vm.ref<!hal.device>, %executable_format : !vm.buffer, %executable_data : !vm.buffer, %constants : !vm.buffer, %pipeline_layouts : !vm.ref<!hal.pipeline_layout> ...) -> !vm.ref<!hal.executable> attributes {nosideeffects}
  vm.import private @hal.fence.create(%device : !vm.ref<!hal.device>, %flags : i32) -> !vm.ref<!hal.fence>
  vm.import private @hal.fence.await(%timeout_millis : i32, %fences : !vm.ref<!hal.fence> ...) -> i32 attributes {vm.yield}
  vm.import private @hal.pipeline_layout.create(%device : !vm.ref<!hal.device>, %push_constants : i32, %set_layouts : !vm.ref<!hal.descriptor_set_layout> ...) -> !vm.ref<!hal.pipeline_layout> attributes {nosideeffects}
  vm.rodata private @_utf8_input_0_5FD512E67BEFDEEC {alignment = 1 : i64} "input 0"
  vm.rodata private @_utf8_tensor_3C6209B4FD120BDC {alignment = 1 : i64} "tensor"
  vm.func private @main(%arg0: !vm.ref<!hal.buffer_view>) -> !vm.ref<!hal.buffer_view> {
    %c13 = vm.const.i32 13
    %c28 = vm.const.i32 28
    %c2 = vm.const.i32 2
    %c3 = vm.const.i32 3
    %c17 = vm.const.i32 17
    %c48 = vm.const.i32 48
    %null = vm.const.ref.zero : !vm.ref<!hal.fence>
    %zero = vm.const.i32.zero
    %c3075 = vm.const.i32 3075
    %c16 = vm.const.i32 16
    %c3_0 = vm.const.i64 3
    %c-1 = vm.const.i64 -1
    %c-1_1 = vm.const.i32 -1
    %zero_2 = vm.const.i64.zero
    %c128 = vm.const.i64 128
    %c16_3 = vm.const.i64 16
    %c12 = vm.const.i64 12
    %c553648160 = vm.const.i32 553648160
    %c1 = vm.const.i32 1
    %c4 = vm.const.i64 4
    %_params.weight__timepoint = vm.global.load.ref @_params.weight__timepoint : !vm.ref<!hal.fence>
    %_params.weight = vm.global.load.ref @_params.weight : !vm.ref<!hal.buffer>
    %_device_query_0 = vm.global.load.i32 @_device_query_0 : i32
    %_pipeline_layout_0 = vm.global.load.ref @_pipeline_layout_0 : !vm.ref<!hal.pipeline_layout>
    %_executable_main_dispatch_0 = vm.global.load.ref @_executable_main_dispatch_0 : !vm.ref<!hal.executable>
    %_utf8_input_0_5FD512E67BEFDEEC = vm.const.ref.rodata @_utf8_input_0_5FD512E67BEFDEEC : !vm.buffer
    vm.call.variadic @hal.buffer_view.assert(%arg0, %_utf8_input_0_5FD512E67BEFDEEC, %c553648160, %c1, [%c4]) : (!vm.ref<!hal.buffer_view>, !vm.buffer, i32, i32, i64 ...)
    %ref = vm.call @hal.buffer_view.buffer(%arg0) {nosideeffects} : (!vm.ref<!hal.buffer_view>) -> !vm.ref<!hal.buffer>
    %ref_4 = vm.call @hal.ex.shared_device() {nosideeffects} : () -> !vm.ref<!hal.device>
    %ref_5 = vm.call @hal.device.allocator(%ref_4) {nosideeffects} : (!vm.ref<!hal.device>) -> !vm.ref<!hal.allocator>
    %_utf8_tensor_3C6209B4FD120BDC = vm.const.ref.rodata @_utf8_tensor_3C6209B4FD120BDC : !vm.buffer
    vm.call @hal.buffer.assert(%ref, %_utf8_tensor_3C6209B4FD120BDC, %ref_5, %c16_3, %c16, %c3075) : (!vm.ref<!hal.buffer>, !vm.buffer, !vm.ref<!hal.allocator>, i64, i32, i32) -> ()
    %ref_6 = vm.call @hal.fence.create(%ref_4, %zero) : (!vm.ref<!hal.device>, i32) -> !vm.ref<!hal.fence>
    %0 = vm.call.variadic @hal.fence.await(%c-1_1, [%_params.weight__timepoint]) : (i32, !vm.ref<!hal.fence> ...) -> i32
    %ref_7 = vm.call @hal.device.queue.alloca(%ref_4, %c-1, %null, %ref_6, %zero, %c48, %c3075, %c12) : (!vm.ref<!hal.device>, i64, !vm.ref<!hal.fence>, !vm.ref<!hal.fence>, i32, i32, i32, i64) -> !vm.ref<!hal.buffer>
    %1 = vm.call.variadic @hal.fence.await(%c-1_1, [%ref_6]) : (i32, !vm.ref<!hal.fence> ...) -> i32
    %ref_8 = vm.call @hal.command_buffer.create(%ref_4, %c17, %c3, %zero) : (!vm.ref<!hal.device>, i32, i32, i32) -> !vm.ref<!hal.command_buffer>
    %2 = vm.select.i64 %_device_query_0, %zero_2, %c-1 : i64
    %3 = vm.trunc.i64.i32 %2 : i64 -> i32
    vm.br_table %3 {
      default: ^bb2,
      0: ^bb1
    }
  ^bb1:  // pred: ^bb0
    vm.call.variadic @hal.command_buffer.push_descriptor_set(%ref_8, %_pipeline_layout_0, %zero, [(%zero, %zero, %ref, %zero_2, %c16_3), (%c1, %zero, %_params.weight, %zero_2, %c128), (%c2, %zero, %ref_7, %zero_2, %c12)]) : (!vm.ref<!hal.command_buffer>, !vm.ref<!hal.pipeline_layout>, i32, tuple<i32, i32, !vm.ref<!hal.buffer>, i64, i64> ...)
    vm.call @hal.command_buffer.dispatch(%ref_8, %_executable_main_dispatch_0, %zero, %c3, %c1, %c1) : (!vm.ref<!hal.command_buffer>, !vm.ref<!hal.executable>, i32, i32, i32, i32) -> ()
    vm.br ^bb2
  ^bb2:  // 2 preds: ^bb0, ^bb1
    vm.call @hal.command_buffer.execution_barrier(%ref_8, %c28, %c13, %zero) : (!vm.ref<!hal.command_buffer>, i32, i32, i32) -> ()
    vm.call @hal.command_buffer.finalize(%ref_8) : (!vm.ref<!hal.command_buffer>) -> ()
    %ref_9 = vm.call @hal.fence.create(%ref_4, %zero) : (!vm.ref<!hal.device>, i32) -> !vm.ref<!hal.fence>
    %4 = vm.call.variadic @hal.fence.await(%c-1_1, [%ref_6]) : (i32, !vm.ref<!hal.fence> ...) -> i32
    vm.call.variadic @hal.device.queue.execute(%ref_4, %c-1, %null, %ref_9, [%ref_8]) : (!vm.ref<!hal.device>, i64, !vm.ref<!hal.fence>, !vm.ref<!hal.fence>, !vm.ref<!hal.command_buffer> ...)
    %5 = vm.call.variadic @hal.fence.await(%c-1_1, [%ref_9]) : (i32, !vm.ref<!hal.fence> ...) -> i32
    vm.cond_br %5, ^bb4, ^bb3
  ^bb3:  // pred: ^bb2
    %ref_10 = vm.call.variadic @hal.buffer_view.create(%ref_7, %zero_2, %c12, %c553648160, %c1, [%c3_0]) {nosideeffects} : (!vm.ref<!hal.buffer>, i64, i64, i32, i32, i64 ...) -> !vm.ref<!hal.buffer_view>
    vm.return %ref_10 : !vm.ref<!hal.buffer_view>
  ^bb4:  // pred: ^bb2
    vm.fail %5, "failed to wait on timepoint"
  }
  vm.export @main attributes {iree.abi.stub}
  vm.export @__init
  vm.func private @__init() {
    %c527363 = vm.const.i32 527363
    %c48 = vm.const.i32 48
    %null = vm.const.ref.zero : !vm.ref<!hal.fence>
    %null_0 = vm.const.ref.zero : !vm.ref<!hal.executable>
    %null_1 = vm.const.ref.zero : !vm.buffer
    %c2 = vm.const.i32 2
    %c7 = vm.const.i32 7
    %c1 = vm.const.i32 1
    %zero = vm.const.i64.zero
    %c128 = vm.const.i64 128
    %c-1 = vm.const.i64 -1
    %zero_2 = vm.const.i32.zero
    %ref = vm.call @hal.ex.shared_device() {nosideeffects} : () -> !vm.ref<!hal.device>
    %_utf8_hal_executable_format_EAB228F999C2D3A1 = vm.const.ref.rodata @_utf8_hal_executable_format_EAB228F999C2D3A1 : !vm.buffer
    %_utf8_cuda_nvptx_fb_B15B42B96FDBACC = vm.const.ref.rodata @_utf8_cuda_nvptx_fb_B15B42B96FDBACC : !vm.buffer
    %0:2 = vm.call @hal.device.query.i64(%ref, %_utf8_hal_executable_format_EAB228F999C2D3A1, %_utf8_cuda_nvptx_fb_B15B42B96FDBACC) {nosideeffects} : (!vm.ref<!hal.device>, !vm.buffer, !vm.buffer) -> (i32, i64)
    %1 = vm.trunc.i64.i32 %0#1 : i64 -> i32
    %2 = vm.and.i32 %1, %c1 : i32
    %3 = vm.select.i32 %0#0, %2, %zero_2 : i32
    %ref_3 = vm.call.variadic @hal.descriptor_set_layout.create(%ref, %zero_2, [(%zero_2, %c7, %c1), (%c1, %c7, %c1), (%c2, %c7, %zero_2)]) {nosideeffects} : (!vm.ref<!hal.device>, i32, tuple<i32, i32, i32> ...) -> !vm.ref<!hal.descriptor_set_layout>
    %ref_4 = vm.call.variadic @hal.pipeline_layout.create(%ref, %zero_2, [%ref_3]) {nosideeffects} : (!vm.ref<!hal.device>, i32, !vm.ref<!hal.descriptor_set_layout> ...) -> !vm.ref<!hal.pipeline_layout>
    %4 = vm.select.i64 %3, %zero, %c-1 : i64
    %5 = vm.trunc.i64.i32 %4 : i64 -> i32
    vm.global.store.i32 %3, @_device_query_0 : i32
    vm.global.store.ref %ref_4, @_pipeline_layout_0 : !vm.ref<!hal.pipeline_layout>
    vm.br_table %5 {
      default: ^bb2,
      0: ^bb1
    }
  ^bb1:  // pred: ^bb0
    %_pipeline_layout_0 = vm.global.load.ref @_pipeline_layout_0 : !vm.ref<!hal.pipeline_layout>
    %main_dispatch_0_cuda_nvptx_fb = vm.const.ref.rodata @main_dispatch_0_cuda_nvptx_fb : !vm.buffer
    %ref_5 = vm.call.variadic @hal.executable.create(%ref, %_utf8_cuda_nvptx_fb_B15B42B96FDBACC, %main_dispatch_0_cuda_nvptx_fb, %null_1, [%_pipeline_layout_0]) {nosideeffects} : (!vm.ref<!hal.device>, !vm.buffer, !vm.buffer, !vm.buffer, !vm.ref<!hal.pipeline_layout> ...) -> !vm.ref<!hal.executable>
    vm.br ^bb3(%ref_5 : !vm.ref<!hal.executable>)
  ^bb2:  // pred: ^bb0
    vm.br ^bb3(%null_0 : !vm.ref<!hal.executable>)
  ^bb3(%6: !vm.ref<!hal.executable>):  // 2 preds: ^bb1, ^bb2
    %_const = vm.const.ref.rodata @_const : !vm.buffer
    %ref_6 = vm.call @hal.device.allocator(%ref) {nosideeffects} : (!vm.ref<!hal.device>) -> !vm.ref<!hal.allocator>
    %ref_7 = vm.call @hal.allocator.import(%ref_6, %c1, %c-1, %c48, %c527363, %_const, %zero, %c128) : (!vm.ref<!hal.allocator>, i32, i64, i32, i32, !vm.buffer, i64, i64) -> !vm.ref<!hal.buffer>
    %rnz = vm.cmp.nz.ref %ref_7 : !vm.ref<!hal.buffer>
    vm.global.store.ref %6, @_executable_main_dispatch_0 : !vm.ref<!hal.executable>
    vm.cond_br %rnz, ^bb5(%null, %ref_7 : !vm.ref<!hal.fence>, !vm.ref<!hal.buffer>), ^bb4
  ^bb4:  // pred: ^bb3
    %ref_8 = vm.call @hal.allocator.allocate(%ref_6, %c-1, %c48, %c527363, %c128) : (!vm.ref<!hal.allocator>, i64, i32, i32, i64) -> !vm.ref<!hal.buffer>
    %ref_9 = vm.call @hal.ex.file.from_memory(%ref, %c-1, %c1, %_const, %zero, %c128, %zero_2) : (!vm.ref<!hal.device>, i64, i32, !vm.buffer, i64, i64, i32) -> !vm.ref<!hal.file>
    %ref_10 = vm.call @hal.fence.create(%ref, %zero_2) : (!vm.ref<!hal.device>, i32) -> !vm.ref<!hal.fence>
    vm.call @hal.device.queue.read(%ref, %c-1, %null, %ref_10, %ref_9, %zero, %ref_8, %zero, %c128, %zero_2) : (!vm.ref<!hal.device>, i64, !vm.ref<!hal.fence>, !vm.ref<!hal.fence>, !vm.ref<!hal.file>, i64, !vm.ref<!hal.buffer>, i64, i64, i32) -> ()
    vm.br ^bb5(%ref_10, %ref_8 : !vm.ref<!hal.fence>, !vm.ref<!hal.buffer>)
  ^bb5(%7: !vm.ref<!hal.fence>, %8: !vm.ref<!hal.buffer>):  // 2 preds: ^bb3, ^bb4
    vm.global.store.ref %8, @_params.weight : !vm.ref<!hal.buffer>
    vm.global.store.ref %7, @_params.weight__timepoint : !vm.ref<!hal.fence>
    vm.return
  }
}

// -----// IR Dump After DropCompilerHints (iree-util-drop-compiler-hints) //----- //
vm.module public @LinearModule {
  vm.global.i32 private mutable @_device_query_0 : i32
  vm.global.ref private mutable @_pipeline_layout_0 : !vm.ref<!hal.pipeline_layout>
  vm.global.ref private mutable @_executable_main_dispatch_0 : !vm.ref<!hal.executable>
  vm.global.ref private mutable @_params.weight__timepoint : !vm.ref<!hal.fence>
  vm.global.ref private mutable @_params.weight : !vm.ref<!hal.buffer>
  vm.rodata private @main_dispatch_0_cuda_nvptx_fb {alignment = 16 : i64, mime_type = "application/x-flatbuffers"} dense<"…"> : vector<1302xi8>
  vm.rodata private @_utf8_hal_executable_format_EAB228F999C2D3A1 {alignment = 1 : i64} "hal.executable.format"
  vm.rodata private @_utf8_cuda_nvptx_fb_B15B42B96FDBACC {alignment = 1 : i64} "cuda-nvptx-fb"
  vm.rodata private @_const {alignment = 64 : i64} #util.composite<128xi8, [
    dense<[[1.54099607, -0.293428898, -2.17878938], [0.568431258, -1.08452237, -1.39859545], [0.403346837, 0.838026344, -0.719257593], [-0.403343529, -0.596635341, 0.182036489]]> : tensor<4x3xf32>,
    dense<0> : vector<16xi8>,
    dense<[-0.856674611, 1.10060418, -1.07118738]> : tensor<3xf32>,
    dense<0> : vector<52xi8>,
]>
  vm.import private @hal.ex.shared_device() -> !vm.ref<!hal.device> attributes {nosideeffects}
  vm.import private @hal.ex.file.from_memory(%device : !vm.ref<!hal.device>, %queue_affinity : i64, %access : i32, %buffer : !vm.buffer, %offset : i64, %length : i64, %flags : i32) -> !vm.ref<!hal.file>
  vm.import private @hal.allocator.allocate(%allocator : !vm.ref<!hal.allocator>, %queue_affinity : i64, %memory_types : i32, %buffer_usage : i32, %allocation_size : i64) -> !vm.ref<!hal.buffer> attributes {minimum_version = 1 : i32}
  vm.import private @hal.allocator.import(%allocator : !vm.ref<!hal.allocator>, %try : i32, %queue_affinity : i64, %memory_types : i32, %buffer_usage : i32, %source : !vm.buffer, %offset : i64, %length : i64) -> !vm.ref<!hal.buffer> attributes {minimum_version = 1 : i32}
  vm.import private @hal.buffer.assert(%buffer : !vm.ref<!hal.buffer>, %message : !vm.buffer, %allocator : !vm.ref<!hal.allocator>, %minimum_length : i64, %memory_types : i32, %buffer_usage : i32)
  vm.import private @hal.buffer_view.create(%buffer : !vm.ref<!hal.buffer>, %source_offset : i64, %source_length : i64, %element_type : i32, %encoding_type : i32, %shape : i64 ...) -> !vm.ref<!hal.buffer_view> attributes {nosideeffects}
  vm.import private @hal.buffer_view.assert(%buffer_view : !vm.ref<!hal.buffer_view>, %message : !vm.buffer, %element_type : i32, %encoding_type : i32, %shape : i64 ...)
  vm.import private @hal.buffer_view.buffer(%buffer_view : !vm.ref<!hal.buffer_view>) -> !vm.ref<!hal.buffer> attributes {nosideeffects}
  vm.import private @hal.command_buffer.create(%device : !vm.ref<!hal.device>, %modes : i32, %command_categories : i32, %binding_capacity : i32) -> !vm.ref<!hal.command_buffer>
  vm.import private @hal.command_buffer.finalize(%command_buffer : !vm.ref<!hal.command_buffer>)
  vm.import private @hal.command_buffer.execution_barrier(%command_buffer : !vm.ref<!hal.command_buffer>, %source_stage_mask : i32, %target_stage_mask : i32, %flags : i32)
  vm.import private @hal.command_buffer.push_descriptor_set(%command_buffer : !vm.ref<!hal.command_buffer>, %pipeline_layout : !vm.ref<!hal.pipeline_layout>, %set : i32, %bindings : tuple<i32, i32, !vm.ref<!hal.buffer>, i64, i64> ...)
  vm.import private @hal.command_buffer.dispatch(%command_buffer : !vm.ref<!hal.command_buffer>, %executable : !vm.ref<!hal.executable>, %entry_point : i32, %workgroup_x : i32, %workgroup_y : i32, %workgroup_z : i32)
  vm.import private @hal.descriptor_set_layout.create(%device : !vm.ref<!hal.device>, %flags : i32, %bindings : tuple<i32, i32, i32> ...) -> !vm.ref<!hal.descriptor_set_layout> attributes {nosideeffects}
  vm.import private @hal.device.allocator(%device : !vm.ref<!hal.device>) -> !vm.ref<!hal.allocator> attributes {nosideeffects}
  vm.import private @hal.device.query.i64(%device : !vm.ref<!hal.device>, %category : !vm.buffer, %key : !vm.buffer) -> (i32, i64) attributes {nosideeffects}
  vm.import private @hal.device.queue.alloca(%device : !vm.ref<!hal.device>, %queue_affinity : i64, %wait_fence : !vm.ref<!hal.fence>, %signal_fence : !vm.ref<!hal.fence>, %pool : i32, %memory_types : i32, %buffer_usage : i32, %allocation_size : i64) -> !vm.ref<!hal.buffer>
  vm.import private @hal.device.queue.read(%device : !vm.ref<!hal.device>, %queue_affinity : i64, %wait_fence : !vm.ref<!hal.fence>, %signal_fence : !vm.ref<!hal.fence>, %source_file : !vm.ref<!hal.file>, %source_offset : i64, %target_buffer : !vm.ref<!hal.buffer>, %target_offset : i64, %length : i64, %flags : i32)
  vm.import private @hal.device.queue.execute(%device : !vm.ref<!hal.device>, %queue_affinity : i64, %wait_fence : !vm.ref<!hal.fence>, %signal_fence : !vm.ref<!hal.fence>, %command_buffers : !vm.ref<!hal.command_buffer> ...)
  vm.import private @hal.executable.create(%device : !vm.ref<!hal.device>, %executable_format : !vm.buffer, %executable_data : !vm.buffer, %constants : !vm.buffer, %pipeline_layouts : !vm.ref<!hal.pipeline_layout> ...) -> !vm.ref<!hal.executable> attributes {nosideeffects}
  vm.import private @hal.fence.create(%device : !vm.ref<!hal.device>, %flags : i32) -> !vm.ref<!hal.fence>
  vm.import private @hal.fence.await(%timeout_millis : i32, %fences : !vm.ref<!hal.fence> ...) -> i32 attributes {vm.yield}
  vm.import private @hal.pipeline_layout.create(%device : !vm.ref<!hal.device>, %push_constants : i32, %set_layouts : !vm.ref<!hal.descriptor_set_layout> ...) -> !vm.ref<!hal.pipeline_layout> attributes {nosideeffects}
  vm.rodata private @_utf8_input_0_5FD512E67BEFDEEC {alignment = 1 : i64} "input 0"
  vm.rodata private @_utf8_tensor_3C6209B4FD120BDC {alignment = 1 : i64} "tensor"
  vm.func private @main(%arg0: !vm.ref<!hal.buffer_view>) -> !vm.ref<!hal.buffer_view> {
    %c13 = vm.const.i32 13
    %c28 = vm.const.i32 28
    %c2 = vm.const.i32 2
    %c3 = vm.const.i32 3
    %c17 = vm.const.i32 17
    %c48 = vm.const.i32 48
    %null = vm.const.ref.zero : !vm.ref<!hal.fence>
    %zero = vm.const.i32.zero
    %c3075 = vm.const.i32 3075
    %c16 = vm.const.i32 16
    %c3_0 = vm.const.i64 3
    %c-1 = vm.const.i64 -1
    %c-1_1 = vm.const.i32 -1
    %zero_2 = vm.const.i64.zero
    %c128 = vm.const.i64 128
    %c16_3 = vm.const.i64 16
    %c12 = vm.const.i64 12
    %c553648160 = vm.const.i32 553648160
    %c1 = vm.const.i32 1
    %c4 = vm.const.i64 4
    %_params.weight__timepoint = vm.global.load.ref @_params.weight__timepoint : !vm.ref<!hal.fence>
    %_params.weight = vm.global.load.ref @_params.weight : !vm.ref<!hal.buffer>
    %_device_query_0 = vm.global.load.i32 @_device_query_0 : i32
    %_pipeline_layout_0 = vm.global.load.ref @_pipeline_layout_0 : !vm.ref<!hal.pipeline_layout>
    %_executable_main_dispatch_0 = vm.global.load.ref @_executable_main_dispatch_0 : !vm.ref<!hal.executable>
    %_utf8_input_0_5FD512E67BEFDEEC = vm.const.ref.rodata @_utf8_input_0_5FD512E67BEFDEEC : !vm.buffer
    vm.call.variadic @hal.buffer_view.assert(%arg0, %_utf8_input_0_5FD512E67BEFDEEC, %c553648160, %c1, [%c4]) : (!vm.ref<!hal.buffer_view>, !vm.buffer, i32, i32, i64 ...)
    %ref = vm.call @hal.buffer_view.buffer(%arg0) {nosideeffects} : (!vm.ref<!hal.buffer_view>) -> !vm.ref<!hal.buffer>
    %ref_4 = vm.call @hal.ex.shared_device() {nosideeffects} : () -> !vm.ref<!hal.device>
    %ref_5 = vm.call @hal.device.allocator(%ref_4) {nosideeffects} : (!vm.ref<!hal.device>) -> !vm.ref<!hal.allocator>
    %_utf8_tensor_3C6209B4FD120BDC = vm.const.ref.rodata @_utf8_tensor_3C6209B4FD120BDC : !vm.buffer
    vm.call @hal.buffer.assert(%ref, %_utf8_tensor_3C6209B4FD120BDC, %ref_5, %c16_3, %c16, %c3075) : (!vm.ref<!hal.buffer>, !vm.buffer, !vm.ref<!hal.allocator>, i64, i32, i32) -> ()
    %ref_6 = vm.call @hal.fence.create(%ref_4, %zero) : (!vm.ref<!hal.device>, i32) -> !vm.ref<!hal.fence>
    %0 = vm.call.variadic @hal.fence.await(%c-1_1, [%_params.weight__timepoint]) : (i32, !vm.ref<!hal.fence> ...) -> i32
    %ref_7 = vm.call @hal.device.queue.alloca(%ref_4, %c-1, %null, %ref_6, %zero, %c48, %c3075, %c12) : (!vm.ref<!hal.device>, i64, !vm.ref<!hal.fence>, !vm.ref<!hal.fence>, i32, i32, i32, i64) -> !vm.ref<!hal.buffer>
    %1 = vm.call.variadic @hal.fence.await(%c-1_1, [%ref_6]) : (i32, !vm.ref<!hal.fence> ...) -> i32
    %ref_8 = vm.call @hal.command_buffer.create(%ref_4, %c17, %c3, %zero) : (!vm.ref<!hal.device>, i32, i32, i32) -> !vm.ref<!hal.command_buffer>
    %2 = vm.select.i64 %_device_query_0, %zero_2, %c-1 : i64
    %3 = vm.trunc.i64.i32 %2 : i64 -> i32
    vm.br_table %3 {
      default: ^bb2,
      0: ^bb1
    }
  ^bb1:  // pred: ^bb0
    vm.call.variadic @hal.command_buffer.push_descriptor_set(%ref_8, %_pipeline_layout_0, %zero, [(%zero, %zero, %ref, %zero_2, %c16_3), (%c1, %zero, %_params.weight, %zero_2, %c128), (%c2, %zero, %ref_7, %zero_2, %c12)]) : (!vm.ref<!hal.command_buffer>, !vm.ref<!hal.pipeline_layout>, i32, tuple<i32, i32, !vm.ref<!hal.buffer>, i64, i64> ...)
    vm.call @hal.command_buffer.dispatch(%ref_8, %_executable_main_dispatch_0, %zero, %c3, %c1, %c1) : (!vm.ref<!hal.command_buffer>, !vm.ref<!hal.executable>, i32, i32, i32, i32) -> ()
    vm.br ^bb2
  ^bb2:  // 2 preds: ^bb0, ^bb1
    vm.call @hal.command_buffer.execution_barrier(%ref_8, %c28, %c13, %zero) : (!vm.ref<!hal.command_buffer>, i32, i32, i32) -> ()
    vm.call @hal.command_buffer.finalize(%ref_8) : (!vm.ref<!hal.command_buffer>) -> ()
    %ref_9 = vm.call @hal.fence.create(%ref_4, %zero) : (!vm.ref<!hal.device>, i32) -> !vm.ref<!hal.fence>
    %4 = vm.call.variadic @hal.fence.await(%c-1_1, [%ref_6]) : (i32, !vm.ref<!hal.fence> ...) -> i32
    vm.call.variadic @hal.device.queue.execute(%ref_4, %c-1, %null, %ref_9, [%ref_8]) : (!vm.ref<!hal.device>, i64, !vm.ref<!hal.fence>, !vm.ref<!hal.fence>, !vm.ref<!hal.command_buffer> ...)
    %5 = vm.call.variadic @hal.fence.await(%c-1_1, [%ref_9]) : (i32, !vm.ref<!hal.fence> ...) -> i32
    vm.cond_br %5, ^bb4, ^bb3
  ^bb3:  // pred: ^bb2
    %ref_10 = vm.call.variadic @hal.buffer_view.create(%ref_7, %zero_2, %c12, %c553648160, %c1, [%c3_0]) {nosideeffects} : (!vm.ref<!hal.buffer>, i64, i64, i32, i32, i64 ...) -> !vm.ref<!hal.buffer_view>
    vm.return %ref_10 : !vm.ref<!hal.buffer_view>
  ^bb4:  // pred: ^bb2
    vm.fail %5, "failed to wait on timepoint"
  }
  vm.export @main attributes {iree.abi.stub}
  vm.export @__init
  vm.func private @__init() {
    %c527363 = vm.const.i32 527363
    %c48 = vm.const.i32 48
    %null = vm.const.ref.zero : !vm.ref<!hal.fence>
    %null_0 = vm.const.ref.zero : !vm.ref<!hal.executable>
    %null_1 = vm.const.ref.zero : !vm.buffer
    %c2 = vm.const.i32 2
    %c7 = vm.const.i32 7
    %c1 = vm.const.i32 1
    %zero = vm.const.i64.zero
    %c128 = vm.const.i64 128
    %c-1 = vm.const.i64 -1
    %zero_2 = vm.const.i32.zero
    %ref = vm.call @hal.ex.shared_device() {nosideeffects} : () -> !vm.ref<!hal.device>
    %_utf8_hal_executable_format_EAB228F999C2D3A1 = vm.const.ref.rodata @_utf8_hal_executable_format_EAB228F999C2D3A1 : !vm.buffer
    %_utf8_cuda_nvptx_fb_B15B42B96FDBACC = vm.const.ref.rodata @_utf8_cuda_nvptx_fb_B15B42B96FDBACC : !vm.buffer
    %0:2 = vm.call @hal.device.query.i64(%ref, %_utf8_hal_executable_format_EAB228F999C2D3A1, %_utf8_cuda_nvptx_fb_B15B42B96FDBACC) {nosideeffects} : (!vm.ref<!hal.device>, !vm.buffer, !vm.buffer) -> (i32, i64)
    %1 = vm.trunc.i64.i32 %0#1 : i64 -> i32
    %2 = vm.and.i32 %1, %c1 : i32
    %3 = vm.select.i32 %0#0, %2, %zero_2 : i32
    %ref_3 = vm.call.variadic @hal.descriptor_set_layout.create(%ref, %zero_2, [(%zero_2, %c7, %c1), (%c1, %c7, %c1), (%c2, %c7, %zero_2)]) {nosideeffects} : (!vm.ref<!hal.device>, i32, tuple<i32, i32, i32> ...) -> !vm.ref<!hal.descriptor_set_layout>
    %ref_4 = vm.call.variadic @hal.pipeline_layout.create(%ref, %zero_2, [%ref_3]) {nosideeffects} : (!vm.ref<!hal.device>, i32, !vm.ref<!hal.descriptor_set_layout> ...) -> !vm.ref<!hal.pipeline_layout>
    %4 = vm.select.i64 %3, %zero, %c-1 : i64
    %5 = vm.trunc.i64.i32 %4 : i64 -> i32
    vm.global.store.i32 %3, @_device_query_0 : i32
    vm.global.store.ref %ref_4, @_pipeline_layout_0 : !vm.ref<!hal.pipeline_layout>
    vm.br_table %5 {
      default: ^bb2,
      0: ^bb1
    }
  ^bb1:  // pred: ^bb0
    %_pipeline_layout_0 = vm.global.load.ref @_pipeline_layout_0 : !vm.ref<!hal.pipeline_layout>
    %main_dispatch_0_cuda_nvptx_fb = vm.const.ref.rodata @main_dispatch_0_cuda_nvptx_fb : !vm.buffer
    %ref_5 = vm.call.variadic @hal.executable.create(%ref, %_utf8_cuda_nvptx_fb_B15B42B96FDBACC, %main_dispatch_0_cuda_nvptx_fb, %null_1, [%_pipeline_layout_0]) {nosideeffects} : (!vm.ref<!hal.device>, !vm.buffer, !vm.buffer, !vm.buffer, !vm.ref<!hal.pipeline_layout> ...) -> !vm.ref<!hal.executable>
    vm.br ^bb3(%ref_5 : !vm.ref<!hal.executable>)
  ^bb2:  // pred: ^bb0
    vm.br ^bb3(%null_0 : !vm.ref<!hal.executable>)
  ^bb3(%6: !vm.ref<!hal.executable>):  // 2 preds: ^bb1, ^bb2
    %_const = vm.const.ref.rodata @_const : !vm.buffer
    %ref_6 = vm.call @hal.device.allocator(%ref) {nosideeffects} : (!vm.ref<!hal.device>) -> !vm.ref<!hal.allocator>
    %ref_7 = vm.call @hal.allocator.import(%ref_6, %c1, %c-1, %c48, %c527363, %_const, %zero, %c128) : (!vm.ref<!hal.allocator>, i32, i64, i32, i32, !vm.buffer, i64, i64) -> !vm.ref<!hal.buffer>
    %rnz = vm.cmp.nz.ref %ref_7 : !vm.ref<!hal.buffer>
    vm.global.store.ref %6, @_executable_main_dispatch_0 : !vm.ref<!hal.executable>
    vm.cond_br %rnz, ^bb5(%null, %ref_7 : !vm.ref<!hal.fence>, !vm.ref<!hal.buffer>), ^bb4
  ^bb4:  // pred: ^bb3
    %ref_8 = vm.call @hal.allocator.allocate(%ref_6, %c-1, %c48, %c527363, %c128) : (!vm.ref<!hal.allocator>, i64, i32, i32, i64) -> !vm.ref<!hal.buffer>
    %ref_9 = vm.call @hal.ex.file.from_memory(%ref, %c-1, %c1, %_const, %zero, %c128, %zero_2) : (!vm.ref<!hal.device>, i64, i32, !vm.buffer, i64, i64, i32) -> !vm.ref<!hal.file>
    %ref_10 = vm.call @hal.fence.create(%ref, %zero_2) : (!vm.ref<!hal.device>, i32) -> !vm.ref<!hal.fence>
    vm.call @hal.device.queue.read(%ref, %c-1, %null, %ref_10, %ref_9, %zero, %ref_8, %zero, %c128, %zero_2) : (!vm.ref<!hal.device>, i64, !vm.ref<!hal.fence>, !vm.ref<!hal.fence>, !vm.ref<!hal.file>, i64, !vm.ref<!hal.buffer>, i64, i64, i32) -> ()
    vm.br ^bb5(%ref_10, %ref_8 : !vm.ref<!hal.fence>, !vm.ref<!hal.buffer>)
  ^bb5(%7: !vm.ref<!hal.fence>, %8: !vm.ref<!hal.buffer>):  // 2 preds: ^bb3, ^bb4
    vm.global.store.ref %8, @_params.weight : !vm.ref<!hal.buffer>
    vm.global.store.ref %7, @_params.weight__timepoint : !vm.ref<!hal.fence>
    vm.return
  }
}

// -----// IR Dump After mlir::iree_compiler::IREE::VM::OrdinalAllocationPass (iree-vm-ordinal-allocation) //----- //
vm.module public @LinearModule attributes {ordinal_counts = #vm.ordinal_counts<import_funcs = 23, export_funcs = 2, internal_funcs = 2, global_bytes = 4, global_refs = 4, rodatas = 6, rwdatas = 0>} {
  vm.global.i32 private mutable @_device_query_0 {ordinal = 0 : i32} : i32
  vm.global.ref private mutable @_pipeline_layout_0 {ordinal = 0 : i32} : !vm.ref<!hal.pipeline_layout>
  vm.global.ref private mutable @_executable_main_dispatch_0 {ordinal = 1 : i32} : !vm.ref<!hal.executable>
  vm.global.ref private mutable @_params.weight__timepoint {ordinal = 2 : i32} : !vm.ref<!hal.fence>
  vm.global.ref private mutable @_params.weight {ordinal = 3 : i32} : !vm.ref<!hal.buffer>
  vm.rodata private @main_dispatch_0_cuda_nvptx_fb {alignment = 16 : i64, mime_type = "application/x-flatbuffers", ordinal = 0 : i32} dense<"…"> : vector<1302xi8>
  vm.rodata private @_utf8_hal_executable_format_EAB228F999C2D3A1 {alignment = 1 : i64, ordinal = 1 : i32} "hal.executable.format"
  vm.rodata private @_utf8_cuda_nvptx_fb_B15B42B96FDBACC {alignment = 1 : i64, ordinal = 2 : i32} "cuda-nvptx-fb"
  vm.rodata private @_const {alignment = 64 : i64, ordinal = 3 : i32} #util.composite<128xi8, [
    dense<[[1.54099607, -0.293428898, -2.17878938], [0.568431258, -1.08452237, -1.39859545], [0.403346837, 0.838026344, -0.719257593], [-0.403343529, -0.596635341, 0.182036489]]> : tensor<4x3xf32>,
    dense<0> : vector<16xi8>,
    dense<[-0.856674611, 1.10060418, -1.07118738]> : tensor<3xf32>,
    dense<0> : vector<52xi8>,
]>
  vm.import private @hal.ex.shared_device() -> !vm.ref<!hal.device> attributes {nosideeffects, ordinal = 0 : i32}
  vm.import private @hal.ex.file.from_memory(%device : !vm.ref<!hal.device>, %queue_affinity : i64, %access : i32, %buffer : !vm.buffer, %offset : i64, %length : i64, %flags : i32) -> !vm.ref<!hal.file> attributes {ordinal = 1 : i32}
  vm.import private @hal.allocator.allocate(%allocator : !vm.ref<!hal.allocator>, %queue_affinity : i64, %memory_types : i32, %buffer_usage : i32, %allocation_size : i64) -> !vm.ref<!hal.buffer> attributes {minimum_version = 1 : i32, ordinal = 2 : i32}
  vm.import private @hal.allocator.import(%allocator : !vm.ref<!hal.allocator>, %try : i32, %queue_affinity : i64, %memory_types : i32, %buffer_usage : i32, %source : !vm.buffer, %offset : i64, %length : i64) -> !vm.ref<!hal.buffer> attributes {minimum_version = 1 : i32, ordinal = 3 : i32}
  vm.import private @hal.buffer.assert(%buffer : !vm.ref<!hal.buffer>, %message : !vm.buffer, %allocator : !vm.ref<!hal.allocator>, %minimum_length : i64, %memory_types : i32, %buffer_usage : i32) attributes {ordinal = 4 : i32}
  vm.import private @hal.buffer_view.create(%buffer : !vm.ref<!hal.buffer>, %source_offset : i64, %source_length : i64, %element_type : i32, %encoding_type : i32, %shape : i64 ...) -> !vm.ref<!hal.buffer_view> attributes {nosideeffects, ordinal = 5 : i32}
  vm.import private @hal.buffer_view.assert(%buffer_view : !vm.ref<!hal.buffer_view>, %message : !vm.buffer, %element_type : i32, %encoding_type : i32, %shape : i64 ...) attributes {ordinal = 6 : i32}
  vm.import private @hal.buffer_view.buffer(%buffer_view : !vm.ref<!hal.buffer_view>) -> !vm.ref<!hal.buffer> attributes {nosideeffects, ordinal = 7 : i32}
  vm.import private @hal.command_buffer.create(%device : !vm.ref<!hal.device>, %modes : i32, %command_categories : i32, %binding_capacity : i32) -> !vm.ref<!hal.command_buffer> attributes {ordinal = 8 : i32}
  vm.import private @hal.command_buffer.finalize(%command_buffer : !vm.ref<!hal.command_buffer>) attributes {ordinal = 9 : i32}
  vm.import private @hal.command_buffer.execution_barrier(%command_buffer : !vm.ref<!hal.command_buffer>, %source_stage_mask : i32, %target_stage_mask : i32, %flags : i32) attributes {ordinal = 10 : i32}
  vm.import private @hal.command_buffer.push_descriptor_set(%command_buffer : !vm.ref<!hal.command_buffer>, %pipeline_layout : !vm.ref<!hal.pipeline_layout>, %set : i32, %bindings : tuple<i32, i32, !vm.ref<!hal.buffer>, i64, i64> ...) attributes {ordinal = 11 : i32}
  vm.import private @hal.command_buffer.dispatch(%command_buffer : !vm.ref<!hal.command_buffer>, %executable : !vm.ref<!hal.executable>, %entry_point : i32, %workgroup_x : i32, %workgroup_y : i32, %workgroup_z : i32) attributes {ordinal = 12 : i32}
  vm.import private @hal.descriptor_set_layout.create(%device : !vm.ref<!hal.device>, %flags : i32, %bindings : tuple<i32, i32, i32> ...) -> !vm.ref<!hal.descriptor_set_layout> attributes {nosideeffects, ordinal = 13 : i32}
  vm.import private @hal.device.allocator(%device : !vm.ref<!hal.device>) -> !vm.ref<!hal.allocator> attributes {nosideeffects, ordinal = 14 : i32}
  vm.import private @hal.device.query.i64(%device : !vm.ref<!hal.device>, %category : !vm.buffer, %key : !vm.buffer) -> (i32, i64) attributes {nosideeffects, ordinal = 15 : i32}
  vm.import private @hal.device.queue.alloca(%device : !vm.ref<!hal.device>, %queue_affinity : i64, %wait_fence : !vm.ref<!hal.fence>, %signal_fence : !vm.ref<!hal.fence>, %pool : i32, %memory_types : i32, %buffer_usage : i32, %allocation_size : i64) -> !vm.ref<!hal.buffer> attributes {ordinal = 16 : i32}
  vm.import private @hal.device.queue.read(%device : !vm.ref<!hal.device>, %queue_affinity : i64, %wait_fence : !vm.ref<!hal.fence>, %signal_fence : !vm.ref<!hal.fence>, %source_file : !vm.ref<!hal.file>, %source_offset : i64, %target_buffer : !vm.ref<!hal.buffer>, %target_offset : i64, %length : i64, %flags : i32) attributes {ordinal = 17 : i32}
  vm.import private @hal.device.queue.execute(%device : !vm.ref<!hal.device>, %queue_affinity : i64, %wait_fence : !vm.ref<!hal.fence>, %signal_fence : !vm.ref<!hal.fence>, %command_buffers : !vm.ref<!hal.command_buffer> ...) attributes {ordinal = 18 : i32}
  vm.import private @hal.executable.create(%device : !vm.ref<!hal.device>, %executable_format : !vm.buffer, %executable_data : !vm.buffer, %constants : !vm.buffer, %pipeline_layouts : !vm.ref<!hal.pipeline_layout> ...) -> !vm.ref<!hal.executable> attributes {nosideeffects, ordinal = 19 : i32}
  vm.import private @hal.fence.create(%device : !vm.ref<!hal.device>, %flags : i32) -> !vm.ref<!hal.fence> attributes {ordinal = 20 : i32}
  vm.import private @hal.fence.await(%timeout_millis : i32, %fences : !vm.ref<!hal.fence> ...) -> i32 attributes {ordinal = 21 : i32, vm.yield}
  vm.import private @hal.pipeline_layout.create(%device : !vm.ref<!hal.device>, %push_constants : i32, %set_layouts : !vm.ref<!hal.descriptor_set_layout> ...) -> !vm.ref<!hal.pipeline_layout> attributes {nosideeffects, ordinal = 22 : i32}
  vm.rodata private @_utf8_input_0_5FD512E67BEFDEEC {alignment = 1 : i64, ordinal = 4 : i32} "input 0"
  vm.rodata private @_utf8_tensor_3C6209B4FD120BDC {alignment = 1 : i64, ordinal = 5 : i32} "tensor"
  vm.func private @main(%arg0: !vm.ref<!hal.buffer_view>) -> !vm.ref<!hal.buffer_view> attributes {ordinal = 0 : i32} {
    %c13 = vm.const.i32 13
    %c28 = vm.const.i32 28
    %c2 = vm.const.i32 2
    %c3 = vm.const.i32 3
    %c17 = vm.const.i32 17
    %c48 = vm.const.i32 48
    %null = vm.const.ref.zero : !vm.ref<!hal.fence>
    %zero = vm.const.i32.zero
    %c3075 = vm.const.i32 3075
    %c16 = vm.const.i32 16
    %c3_0 = vm.const.i64 3
    %c-1 = vm.const.i64 -1
    %c-1_1 = vm.const.i32 -1
    %zero_2 = vm.const.i64.zero
    %c128 = vm.const.i64 128
    %c16_3 = vm.const.i64 16
    %c12 = vm.const.i64 12
    %c553648160 = vm.const.i32 553648160
    %c1 = vm.const.i32 1
    %c4 = vm.const.i64 4
    %_params.weight__timepoint = vm.global.load.ref @_params.weight__timepoint : !vm.ref<!hal.fence>
    %_params.weight = vm.global.load.ref @_params.weight : !vm.ref<!hal.buffer>
    %_device_query_0 = vm.global.load.i32 @_device_query_0 : i32
    %_pipeline_layout_0 = vm.global.load.ref @_pipeline_layout_0 : !vm.ref<!hal.pipeline_layout>
    %_executable_main_dispatch_0 = vm.global.load.ref @_executable_main_dispatch_0 : !vm.ref<!hal.executable>
    %_utf8_input_0_5FD512E67BEFDEEC = vm.const.ref.rodata @_utf8_input_0_5FD512E67BEFDEEC : !vm.buffer
    vm.call.variadic @hal.buffer_view.assert(%arg0, %_utf8_input_0_5FD512E67BEFDEEC, %c553648160, %c1, [%c4]) : (!vm.ref<!hal.buffer_view>, !vm.buffer, i32, i32, i64 ...)
    %ref = vm.call @hal.buffer_view.buffer(%arg0) {nosideeffects} : (!vm.ref<!hal.buffer_view>) -> !vm.ref<!hal.buffer>
    %ref_4 = vm.call @hal.ex.shared_device() {nosideeffects} : () -> !vm.ref<!hal.device>
    %ref_5 = vm.call @hal.device.allocator(%ref_4) {nosideeffects} : (!vm.ref<!hal.device>) -> !vm.ref<!hal.allocator>
    %_utf8_tensor_3C6209B4FD120BDC = vm.const.ref.rodata @_utf8_tensor_3C6209B4FD120BDC : !vm.buffer
    vm.call @hal.buffer.assert(%ref, %_utf8_tensor_3C6209B4FD120BDC, %ref_5, %c16_3, %c16, %c3075) : (!vm.ref<!hal.buffer>, !vm.buffer, !vm.ref<!hal.allocator>, i64, i32, i32) -> ()
    %ref_6 = vm.call @hal.fence.create(%ref_4, %zero) : (!vm.ref<!hal.device>, i32) -> !vm.ref<!hal.fence>
    %0 = vm.call.variadic @hal.fence.await(%c-1_1, [%_params.weight__timepoint]) : (i32, !vm.ref<!hal.fence> ...) -> i32
    %ref_7 = vm.call @hal.device.queue.alloca(%ref_4, %c-1, %null, %ref_6, %zero, %c48, %c3075, %c12) : (!vm.ref<!hal.device>, i64, !vm.ref<!hal.fence>, !vm.ref<!hal.fence>, i32, i32, i32, i64) -> !vm.ref<!hal.buffer>
    %1 = vm.call.variadic @hal.fence.await(%c-1_1, [%ref_6]) : (i32, !vm.ref<!hal.fence> ...) -> i32
    %ref_8 = vm.call @hal.command_buffer.create(%ref_4, %c17, %c3, %zero) : (!vm.ref<!hal.device>, i32, i32, i32) -> !vm.ref<!hal.command_buffer>
    %2 = vm.select.i64 %_device_query_0, %zero_2, %c-1 : i64
    %3 = vm.trunc.i64.i32 %2 : i64 -> i32
    vm.br_table %3 {
      default: ^bb2,
      0: ^bb1
    }
  ^bb1:  // pred: ^bb0
    vm.call.variadic @hal.command_buffer.push_descriptor_set(%ref_8, %_pipeline_layout_0, %zero, [(%zero, %zero, %ref, %zero_2, %c16_3), (%c1, %zero, %_params.weight, %zero_2, %c128), (%c2, %zero, %ref_7, %zero_2, %c12)]) : (!vm.ref<!hal.command_buffer>, !vm.ref<!hal.pipeline_layout>, i32, tuple<i32, i32, !vm.ref<!hal.buffer>, i64, i64> ...)
    vm.call @hal.command_buffer.dispatch(%ref_8, %_executable_main_dispatch_0, %zero, %c3, %c1, %c1) : (!vm.ref<!hal.command_buffer>, !vm.ref<!hal.executable>, i32, i32, i32, i32) -> ()
    vm.br ^bb2
  ^bb2:  // 2 preds: ^bb0, ^bb1
    vm.call @hal.command_buffer.execution_barrier(%ref_8, %c28, %c13, %zero) : (!vm.ref<!hal.command_buffer>, i32, i32, i32) -> ()
    vm.call @hal.command_buffer.finalize(%ref_8) : (!vm.ref<!hal.command_buffer>) -> ()
    %ref_9 = vm.call @hal.fence.create(%ref_4, %zero) : (!vm.ref<!hal.device>, i32) -> !vm.ref<!hal.fence>
    %4 = vm.call.variadic @hal.fence.await(%c-1_1, [%ref_6]) : (i32, !vm.ref<!hal.fence> ...) -> i32
    vm.call.variadic @hal.device.queue.execute(%ref_4, %c-1, %null, %ref_9, [%ref_8]) : (!vm.ref<!hal.device>, i64, !vm.ref<!hal.fence>, !vm.ref<!hal.fence>, !vm.ref<!hal.command_buffer> ...)
    %5 = vm.call.variadic @hal.fence.await(%c-1_1, [%ref_9]) : (i32, !vm.ref<!hal.fence> ...) -> i32
    vm.cond_br %5, ^bb4, ^bb3
  ^bb3:  // pred: ^bb2
    %ref_10 = vm.call.variadic @hal.buffer_view.create(%ref_7, %zero_2, %c12, %c553648160, %c1, [%c3_0]) {nosideeffects} : (!vm.ref<!hal.buffer>, i64, i64, i32, i32, i64 ...) -> !vm.ref<!hal.buffer_view>
    vm.return %ref_10 : !vm.ref<!hal.buffer_view>
  ^bb4:  // pred: ^bb2
    vm.fail %5, "failed to wait on timepoint"
  }
  vm.export @main attributes {iree.abi.stub, ordinal = 0 : i32}
  vm.export @__init attributes {ordinal = 1 : i32}
  vm.func private @__init() attributes {ordinal = 1 : i32} {
    %c527363 = vm.const.i32 527363
    %c48 = vm.const.i32 48
    %null = vm.const.ref.zero : !vm.ref<!hal.fence>
    %null_0 = vm.const.ref.zero : !vm.ref<!hal.executable>
    %null_1 = vm.const.ref.zero : !vm.buffer
    %c2 = vm.const.i32 2
    %c7 = vm.const.i32 7
    %c1 = vm.const.i32 1
    %zero = vm.const.i64.zero
    %c128 = vm.const.i64 128
    %c-1 = vm.const.i64 -1
    %zero_2 = vm.const.i32.zero
    %ref = vm.call @hal.ex.shared_device() {nosideeffects} : () -> !vm.ref<!hal.device>
    %_utf8_hal_executable_format_EAB228F999C2D3A1 = vm.const.ref.rodata @_utf8_hal_executable_format_EAB228F999C2D3A1 : !vm.buffer
    %_utf8_cuda_nvptx_fb_B15B42B96FDBACC = vm.const.ref.rodata @_utf8_cuda_nvptx_fb_B15B42B96FDBACC : !vm.buffer
    %0:2 = vm.call @hal.device.query.i64(%ref, %_utf8_hal_executable_format_EAB228F999C2D3A1, %_utf8_cuda_nvptx_fb_B15B42B96FDBACC) {nosideeffects} : (!vm.ref<!hal.device>, !vm.buffer, !vm.buffer) -> (i32, i64)
    %1 = vm.trunc.i64.i32 %0#1 : i64 -> i32
    %2 = vm.and.i32 %1, %c1 : i32
    %3 = vm.select.i32 %0#0, %2, %zero_2 : i32
    %ref_3 = vm.call.variadic @hal.descriptor_set_layout.create(%ref, %zero_2, [(%zero_2, %c7, %c1), (%c1, %c7, %c1), (%c2, %c7, %zero_2)]) {nosideeffects} : (!vm.ref<!hal.device>, i32, tuple<i32, i32, i32> ...) -> !vm.ref<!hal.descriptor_set_layout>
    %ref_4 = vm.call.variadic @hal.pipeline_layout.create(%ref, %zero_2, [%ref_3]) {nosideeffects} : (!vm.ref<!hal.device>, i32, !vm.ref<!hal.descriptor_set_layout> ...) -> !vm.ref<!hal.pipeline_layout>
    %4 = vm.select.i64 %3, %zero, %c-1 : i64
    %5 = vm.trunc.i64.i32 %4 : i64 -> i32
    vm.global.store.i32 %3, @_device_query_0 : i32
    vm.global.store.ref %ref_4, @_pipeline_layout_0 : !vm.ref<!hal.pipeline_layout>
    vm.br_table %5 {
      default: ^bb2,
      0: ^bb1
    }
  ^bb1:  // pred: ^bb0
    %_pipeline_layout_0 = vm.global.load.ref @_pipeline_layout_0 : !vm.ref<!hal.pipeline_layout>
    %main_dispatch_0_cuda_nvptx_fb = vm.const.ref.rodata @main_dispatch_0_cuda_nvptx_fb : !vm.buffer
    %ref_5 = vm.call.variadic @hal.executable.create(%ref, %_utf8_cuda_nvptx_fb_B15B42B96FDBACC, %main_dispatch_0_cuda_nvptx_fb, %null_1, [%_pipeline_layout_0]) {nosideeffects} : (!vm.ref<!hal.device>, !vm.buffer, !vm.buffer, !vm.buffer, !vm.ref<!hal.pipeline_layout> ...) -> !vm.ref<!hal.executable>
    vm.br ^bb3(%ref_5 : !vm.ref<!hal.executable>)
  ^bb2:  // pred: ^bb0
    vm.br ^bb3(%null_0 : !vm.ref<!hal.executable>)
  ^bb3(%6: !vm.ref<!hal.executable>):  // 2 preds: ^bb1, ^bb2
    %_const = vm.const.ref.rodata @_const : !vm.buffer
    %ref_6 = vm.call @hal.device.allocator(%ref) {nosideeffects} : (!vm.ref<!hal.device>) -> !vm.ref<!hal.allocator>
    %ref_7 = vm.call @hal.allocator.import(%ref_6, %c1, %c-1, %c48, %c527363, %_const, %zero, %c128) : (!vm.ref<!hal.allocator>, i32, i64, i32, i32, !vm.buffer, i64, i64) -> !vm.ref<!hal.buffer>
    %rnz = vm.cmp.nz.ref %ref_7 : !vm.ref<!hal.buffer>
    vm.global.store.ref %6, @_executable_main_dispatch_0 : !vm.ref<!hal.executable>
    vm.cond_br %rnz, ^bb5(%null, %ref_7 : !vm.ref<!hal.fence>, !vm.ref<!hal.buffer>), ^bb4
  ^bb4:  // pred: ^bb3
    %ref_8 = vm.call @hal.allocator.allocate(%ref_6, %c-1, %c48, %c527363, %c128) : (!vm.ref<!hal.allocator>, i64, i32, i32, i64) -> !vm.ref<!hal.buffer>
    %ref_9 = vm.call @hal.ex.file.from_memory(%ref, %c-1, %c1, %_const, %zero, %c128, %zero_2) : (!vm.ref<!hal.device>, i64, i32, !vm.buffer, i64, i64, i32) -> !vm.ref<!hal.file>
    %ref_10 = vm.call @hal.fence.create(%ref, %zero_2) : (!vm.ref<!hal.device>, i32) -> !vm.ref<!hal.fence>
    vm.call @hal.device.queue.read(%ref, %c-1, %null, %ref_10, %ref_9, %zero, %ref_8, %zero, %c128, %zero_2) : (!vm.ref<!hal.device>, i64, !vm.ref<!hal.fence>, !vm.ref<!hal.fence>, !vm.ref<!hal.file>, i64, !vm.ref<!hal.buffer>, i64, i64, i32) -> ()
    vm.br ^bb5(%ref_10, %ref_8 : !vm.ref<!hal.fence>, !vm.ref<!hal.buffer>)
  ^bb5(%7: !vm.ref<!hal.fence>, %8: !vm.ref<!hal.buffer>):  // 2 preds: ^bb3, ^bb4
    vm.global.store.ref %8, @_params.weight : !vm.ref<!hal.buffer>
    vm.global.store.ref %7, @_params.weight__timepoint : !vm.ref<!hal.fence>
    vm.return
  }
}

