// -----// IR Dump After mlir::iree_compiler::IREE::HAL::AssignTargetDevicesPass (iree-hal-assign-target-devices) //----- //
#executable_target_cuda_nvptx_fb = #hal.executable.target<"cuda", "cuda-nvptx-fb", {target_arch = "sm_75"}>
#device_target_cuda = #hal.device.target<"cuda", {executable_targets = [#executable_target_cuda_nvptx_fb], legacy_sync}>
module @LinearModule attributes {hal.device.targets = [#device_target_cuda]} {
  func.func @main(%arg0: tensor<?x?xf32>) -> tensor<?x?xf32> attributes {torch.args_schema = "[1, {\22type\22: \22builtins.tuple\22, \22context\22: \22null\22, \22children_spec\22: [{\22type\22: \22builtins.list\22, \22context\22: \22null\22, \22children_spec\22: [{\22type\22: null, \22context\22: null, \22children_spec\22: []}]}, {\22type\22: \22builtins.dict\22, \22context\22: \22[]\22, \22children_spec\22: []}]}]", torch.return_schema = "[1, {\22type\22: null, \22context\22: null, \22children_spec\22: []}]"} {
    %0 = torch_c.from_builtin_tensor %arg0 : tensor<?x?xf32> -> !torch.vtensor<[?,?],f32>
    %1 = call @forward(%0) : (!torch.vtensor<[?,?],f32>) -> !torch.vtensor<[?,?],f32>
    %2 = torch_c.to_builtin_tensor %1 : !torch.vtensor<[?,?],f32> -> tensor<?x?xf32>
    return %2 : tensor<?x?xf32>
  }
  func.func private @forward(%arg0: !torch.vtensor<[?,?],f32>) -> !torch.vtensor<[?,?],f32> {
    %0 = torch.aten.mm %arg0, %arg0 : !torch.vtensor<[?,?],f32>, !torch.vtensor<[?,?],f32> -> !torch.vtensor<[?,?],f32>
    return %0 : !torch.vtensor<[?,?],f32>
  }
}


// -----// IR Dump After SetStrictSymbolicShapesPass (torch-iree-set-strict-symbolic-shapes) //----- //
func.func @main(%arg0: tensor<?x?xf32>) -> tensor<?x?xf32> attributes {torch.args_schema = "[1, {\22type\22: \22builtins.tuple\22, \22context\22: \22null\22, \22children_spec\22: [{\22type\22: \22builtins.list\22, \22context\22: \22null\22, \22children_spec\22: [{\22type\22: null, \22context\22: null, \22children_spec\22: []}]}, {\22type\22: \22builtins.dict\22, \22context\22: \22[]\22, \22children_spec\22: []}]}]", torch.assume_strict_symbolic_shapes, torch.return_schema = "[1, {\22type\22: null, \22context\22: null, \22children_spec\22: []}]"} {
  %0 = torch_c.from_builtin_tensor %arg0 : tensor<?x?xf32> -> !torch.vtensor<[?,?],f32>
  %1 = call @forward(%0) : (!torch.vtensor<[?,?],f32>) -> !torch.vtensor<[?,?],f32>
  %2 = torch_c.to_builtin_tensor %1 : !torch.vtensor<[?,?],f32> -> tensor<?x?xf32>
  return %2 : tensor<?x?xf32>
}

// -----// IR Dump After SetStrictSymbolicShapesPass (torch-iree-set-strict-symbolic-shapes) //----- //
func.func private @forward(%arg0: !torch.vtensor<[?,?],f32>) -> !torch.vtensor<[?,?],f32> attributes {torch.assume_strict_symbolic_shapes} {
  %0 = torch.aten.mm %arg0, %arg0 : !torch.vtensor<[?,?],f32>, !torch.vtensor<[?,?],f32> -> !torch.vtensor<[?,?],f32>
  return %0 : !torch.vtensor<[?,?],f32>
}

// -----// IR Dump After Canonicalizer (canonicalize) //----- //
func.func @main(%arg0: tensor<?x?xf32>) -> tensor<?x?xf32> attributes {torch.args_schema = "[1, {\22type\22: \22builtins.tuple\22, \22context\22: \22null\22, \22children_spec\22: [{\22type\22: \22builtins.list\22, \22context\22: \22null\22, \22children_spec\22: [{\22type\22: null, \22context\22: null, \22children_spec\22: []}]}, {\22type\22: \22builtins.dict\22, \22context\22: \22[]\22, \22children_spec\22: []}]}]", torch.assume_strict_symbolic_shapes, torch.return_schema = "[1, {\22type\22: null, \22context\22: null, \22children_spec\22: []}]"} {
  %0 = torch_c.from_builtin_tensor %arg0 : tensor<?x?xf32> -> !torch.vtensor<[?,?],f32>
  %1 = call @forward(%0) : (!torch.vtensor<[?,?],f32>) -> !torch.vtensor<[?,?],f32>
  %2 = torch_c.to_builtin_tensor %1 : !torch.vtensor<[?,?],f32> -> tensor<?x?xf32>
  return %2 : tensor<?x?xf32>
}

// -----// IR Dump After Canonicalizer (canonicalize) //----- //
func.func private @forward(%arg0: !torch.vtensor<[?,?],f32>) -> !torch.vtensor<[?,?],f32> attributes {torch.assume_strict_symbolic_shapes} {
  %0 = torch.aten.mm %arg0, %arg0 : !torch.vtensor<[?,?],f32>, !torch.vtensor<[?,?],f32> -> !torch.vtensor<[?,?],f32>
  return %0 : !torch.vtensor<[?,?],f32>
}

// -----// IR Dump After BitCastQuantTensorPass (torch-iree-bitcast-quant-tensor) //----- //
func.func @main(%arg0: tensor<?x?xf32>) -> tensor<?x?xf32> attributes {torch.args_schema = "[1, {\22type\22: \22builtins.tuple\22, \22context\22: \22null\22, \22children_spec\22: [{\22type\22: \22builtins.list\22, \22context\22: \22null\22, \22children_spec\22: [{\22type\22: null, \22context\22: null, \22children_spec\22: []}]}, {\22type\22: \22builtins.dict\22, \22context\22: \22[]\22, \22children_spec\22: []}]}]", torch.assume_strict_symbolic_shapes, torch.return_schema = "[1, {\22type\22: null, \22context\22: null, \22children_spec\22: []}]"} {
  %0 = torch_c.from_builtin_tensor %arg0 : tensor<?x?xf32> -> !torch.vtensor<[?,?],f32>
  %1 = call @forward(%0) : (!torch.vtensor<[?,?],f32>) -> !torch.vtensor<[?,?],f32>
  %2 = torch_c.to_builtin_tensor %1 : !torch.vtensor<[?,?],f32> -> tensor<?x?xf32>
  return %2 : tensor<?x?xf32>
}

// -----// IR Dump After BitCastQuantTensorPass (torch-iree-bitcast-quant-tensor) //----- //
func.func private @forward(%arg0: !torch.vtensor<[?,?],f32>) -> !torch.vtensor<[?,?],f32> attributes {torch.assume_strict_symbolic_shapes} {
  %0 = torch.aten.mm %arg0, %arg0 : !torch.vtensor<[?,?],f32>, !torch.vtensor<[?,?],f32> -> !torch.vtensor<[?,?],f32>
  return %0 : !torch.vtensor<[?,?],f32>
}

// -----// IR Dump After ConvertCustomQuantOp (torch-convert-custom-quant-op) //----- //
func.func @main(%arg0: tensor<?x?xf32>) -> tensor<?x?xf32> attributes {torch.args_schema = "[1, {\22type\22: \22builtins.tuple\22, \22context\22: \22null\22, \22children_spec\22: [{\22type\22: \22builtins.list\22, \22context\22: \22null\22, \22children_spec\22: [{\22type\22: null, \22context\22: null, \22children_spec\22: []}]}, {\22type\22: \22builtins.dict\22, \22context\22: \22[]\22, \22children_spec\22: []}]}]", torch.assume_strict_symbolic_shapes, torch.return_schema = "[1, {\22type\22: null, \22context\22: null, \22children_spec\22: []}]"} {
  %0 = torch_c.from_builtin_tensor %arg0 : tensor<?x?xf32> -> !torch.vtensor<[?,?],f32>
  %1 = call @forward(%0) : (!torch.vtensor<[?,?],f32>) -> !torch.vtensor<[?,?],f32>
  %2 = torch_c.to_builtin_tensor %1 : !torch.vtensor<[?,?],f32> -> tensor<?x?xf32>
  return %2 : tensor<?x?xf32>
}

// -----// IR Dump After ConvertCustomQuantOp (torch-convert-custom-quant-op) //----- //
func.func private @forward(%arg0: !torch.vtensor<[?,?],f32>) -> !torch.vtensor<[?,?],f32> attributes {torch.assume_strict_symbolic_shapes} {
  %0 = torch.aten.mm %arg0, %arg0 : !torch.vtensor<[?,?],f32>, !torch.vtensor<[?,?],f32> -> !torch.vtensor<[?,?],f32>
  return %0 : !torch.vtensor<[?,?],f32>
}

// -----// IR Dump After DecomposeComplexOps (torch-decompose-complex-ops) //----- //
func.func @main(%arg0: tensor<?x?xf32>) -> tensor<?x?xf32> attributes {torch.args_schema = "[1, {\22type\22: \22builtins.tuple\22, \22context\22: \22null\22, \22children_spec\22: [{\22type\22: \22builtins.list\22, \22context\22: \22null\22, \22children_spec\22: [{\22type\22: null, \22context\22: null, \22children_spec\22: []}]}, {\22type\22: \22builtins.dict\22, \22context\22: \22[]\22, \22children_spec\22: []}]}]", torch.assume_strict_symbolic_shapes, torch.return_schema = "[1, {\22type\22: null, \22context\22: null, \22children_spec\22: []}]"} {
  %0 = torch_c.from_builtin_tensor %arg0 : tensor<?x?xf32> -> !torch.vtensor<[?,?],f32>
  %1 = call @forward(%0) : (!torch.vtensor<[?,?],f32>) -> !torch.vtensor<[?,?],f32>
  %2 = torch_c.to_builtin_tensor %1 : !torch.vtensor<[?,?],f32> -> tensor<?x?xf32>
  return %2 : tensor<?x?xf32>
}

// -----// IR Dump After DecomposeComplexOps (torch-decompose-complex-ops) //----- //
func.func private @forward(%arg0: !torch.vtensor<[?,?],f32>) -> !torch.vtensor<[?,?],f32> attributes {torch.assume_strict_symbolic_shapes} {
  %0 = torch.aten.mm %arg0, %arg0 : !torch.vtensor<[?,?],f32>, !torch.vtensor<[?,?],f32> -> !torch.vtensor<[?,?],f32>
  return %0 : !torch.vtensor<[?,?],f32>
}

// -----// IR Dump After ConvertTorchToTMTensor (convert-torch-to-tmtensor) //----- //
func.func @main(%arg0: tensor<?x?xf32>) -> tensor<?x?xf32> attributes {torch.args_schema = "[1, {\22type\22: \22builtins.tuple\22, \22context\22: \22null\22, \22children_spec\22: [{\22type\22: \22builtins.list\22, \22context\22: \22null\22, \22children_spec\22: [{\22type\22: null, \22context\22: null, \22children_spec\22: []}]}, {\22type\22: \22builtins.dict\22, \22context\22: \22[]\22, \22children_spec\22: []}]}]", torch.assume_strict_symbolic_shapes, torch.return_schema = "[1, {\22type\22: null, \22context\22: null, \22children_spec\22: []}]"} {
  %0 = torch_c.from_builtin_tensor %arg0 : tensor<?x?xf32> -> !torch.vtensor<[?,?],f32>
  %1 = call @forward(%0) : (!torch.vtensor<[?,?],f32>) -> !torch.vtensor<[?,?],f32>
  %2 = torch_c.to_builtin_tensor %1 : !torch.vtensor<[?,?],f32> -> tensor<?x?xf32>
  return %2 : tensor<?x?xf32>
}

// -----// IR Dump After ConvertTorchToTMTensor (convert-torch-to-tmtensor) //----- //
func.func private @forward(%arg0: !torch.vtensor<[?,?],f32>) -> !torch.vtensor<[?,?],f32> attributes {torch.assume_strict_symbolic_shapes} {
  %0 = torch.aten.mm %arg0, %arg0 : !torch.vtensor<[?,?],f32>, !torch.vtensor<[?,?],f32> -> !torch.vtensor<[?,?],f32>
  return %0 : !torch.vtensor<[?,?],f32>
}

// -----// IR Dump After ConvertTorchToLinalg (convert-torch-to-linalg) //----- //
func.func @main(%arg0: tensor<?x?xf32>) -> tensor<?x?xf32> attributes {torch.args_schema = "[1, {\22type\22: \22builtins.tuple\22, \22context\22: \22null\22, \22children_spec\22: [{\22type\22: \22builtins.list\22, \22context\22: \22null\22, \22children_spec\22: [{\22type\22: null, \22context\22: null, \22children_spec\22: []}]}, {\22type\22: \22builtins.dict\22, \22context\22: \22[]\22, \22children_spec\22: []}]}]", torch.assume_strict_symbolic_shapes, torch.return_schema = "[1, {\22type\22: null, \22context\22: null, \22children_spec\22: []}]"} {
  %0 = torch_c.from_builtin_tensor %arg0 : tensor<?x?xf32> -> !torch.vtensor<[?,?],f32>
  %1 = call @forward(%0) : (!torch.vtensor<[?,?],f32>) -> !torch.vtensor<[?,?],f32>
  %2 = torch_c.to_builtin_tensor %1 : !torch.vtensor<[?,?],f32> -> tensor<?x?xf32>
  return %2 : tensor<?x?xf32>
}

// -----// IR Dump After ConvertTorchToLinalg (convert-torch-to-linalg) //----- //
func.func private @forward(%arg0: !torch.vtensor<[?,?],f32>) -> !torch.vtensor<[?,?],f32> attributes {torch.assume_strict_symbolic_shapes} {
  %0 = torch_c.to_builtin_tensor %arg0 : !torch.vtensor<[?,?],f32> -> tensor<?x?xf32>
  %c0 = arith.constant 0 : index
  %dim = tensor.dim %0, %c0 : tensor<?x?xf32>
  %c1 = arith.constant 1 : index
  %dim_0 = tensor.dim %0, %c1 : tensor<?x?xf32>
  %1 = tensor.empty(%dim, %dim_0) : tensor<?x?xf32>
  %cst = arith.constant 0.000000e+00 : f32
  %2 = linalg.fill ins(%cst : f32) outs(%1 : tensor<?x?xf32>) -> tensor<?x?xf32>
  %3 = linalg.matmul ins(%0, %0 : tensor<?x?xf32>, tensor<?x?xf32>) outs(%2 : tensor<?x?xf32>) -> tensor<?x?xf32>
  %cast = tensor.cast %3 : tensor<?x?xf32> to tensor<?x?xf32>
  %4 = torch_c.from_builtin_tensor %cast : tensor<?x?xf32> -> !torch.vtensor<[?,?],f32>
  return %4 : !torch.vtensor<[?,?],f32>
}

// -----// IR Dump After ConvertTorchToSCF (convert-torch-to-scf) //----- //
func.func @main(%arg0: tensor<?x?xf32>) -> tensor<?x?xf32> attributes {torch.args_schema = "[1, {\22type\22: \22builtins.tuple\22, \22context\22: \22null\22, \22children_spec\22: [{\22type\22: \22builtins.list\22, \22context\22: \22null\22, \22children_spec\22: [{\22type\22: null, \22context\22: null, \22children_spec\22: []}]}, {\22type\22: \22builtins.dict\22, \22context\22: \22[]\22, \22children_spec\22: []}]}]", torch.assume_strict_symbolic_shapes, torch.return_schema = "[1, {\22type\22: null, \22context\22: null, \22children_spec\22: []}]"} {
  %0 = torch_c.from_builtin_tensor %arg0 : tensor<?x?xf32> -> !torch.vtensor<[?,?],f32>
  %1 = call @forward(%0) : (!torch.vtensor<[?,?],f32>) -> !torch.vtensor<[?,?],f32>
  %2 = torch_c.to_builtin_tensor %1 : !torch.vtensor<[?,?],f32> -> tensor<?x?xf32>
  return %2 : tensor<?x?xf32>
}

// -----// IR Dump After ConvertTorchToSCF (convert-torch-to-scf) //----- //
func.func private @forward(%arg0: !torch.vtensor<[?,?],f32>) -> !torch.vtensor<[?,?],f32> attributes {torch.assume_strict_symbolic_shapes} {
  %0 = torch_c.to_builtin_tensor %arg0 : !torch.vtensor<[?,?],f32> -> tensor<?x?xf32>
  %c0 = arith.constant 0 : index
  %dim = tensor.dim %0, %c0 : tensor<?x?xf32>
  %c1 = arith.constant 1 : index
  %dim_0 = tensor.dim %0, %c1 : tensor<?x?xf32>
  %1 = tensor.empty(%dim, %dim_0) : tensor<?x?xf32>
  %cst = arith.constant 0.000000e+00 : f32
  %2 = linalg.fill ins(%cst : f32) outs(%1 : tensor<?x?xf32>) -> tensor<?x?xf32>
  %3 = linalg.matmul ins(%0, %0 : tensor<?x?xf32>, tensor<?x?xf32>) outs(%2 : tensor<?x?xf32>) -> tensor<?x?xf32>
  %4 = torch_c.from_builtin_tensor %3 : tensor<?x?xf32> -> !torch.vtensor<[?,?],f32>
  return %4 : !torch.vtensor<[?,?],f32>
}

// -----// IR Dump After ConvertTorchToArith (convert-torch-to-arith) //----- //
func.func @main(%arg0: tensor<?x?xf32>) -> tensor<?x?xf32> attributes {torch.args_schema = "[1, {\22type\22: \22builtins.tuple\22, \22context\22: \22null\22, \22children_spec\22: [{\22type\22: \22builtins.list\22, \22context\22: \22null\22, \22children_spec\22: [{\22type\22: null, \22context\22: null, \22children_spec\22: []}]}, {\22type\22: \22builtins.dict\22, \22context\22: \22[]\22, \22children_spec\22: []}]}]", torch.assume_strict_symbolic_shapes, torch.return_schema = "[1, {\22type\22: null, \22context\22: null, \22children_spec\22: []}]"} {
  %0 = torch_c.from_builtin_tensor %arg0 : tensor<?x?xf32> -> !torch.vtensor<[?,?],f32>
  %1 = call @forward(%0) : (!torch.vtensor<[?,?],f32>) -> !torch.vtensor<[?,?],f32>
  %2 = torch_c.to_builtin_tensor %1 : !torch.vtensor<[?,?],f32> -> tensor<?x?xf32>
  return %2 : tensor<?x?xf32>
}

// -----// IR Dump After ConvertTorchToArith (convert-torch-to-arith) //----- //
func.func private @forward(%arg0: !torch.vtensor<[?,?],f32>) -> !torch.vtensor<[?,?],f32> attributes {torch.assume_strict_symbolic_shapes} {
  %0 = torch_c.to_builtin_tensor %arg0 : !torch.vtensor<[?,?],f32> -> tensor<?x?xf32>
  %c0 = arith.constant 0 : index
  %dim = tensor.dim %0, %c0 : tensor<?x?xf32>
  %c1 = arith.constant 1 : index
  %dim_0 = tensor.dim %0, %c1 : tensor<?x?xf32>
  %1 = tensor.empty(%dim, %dim_0) : tensor<?x?xf32>
  %cst = arith.constant 0.000000e+00 : f32
  %2 = linalg.fill ins(%cst : f32) outs(%1 : tensor<?x?xf32>) -> tensor<?x?xf32>
  %3 = linalg.matmul ins(%0, %0 : tensor<?x?xf32>, tensor<?x?xf32>) outs(%2 : tensor<?x?xf32>) -> tensor<?x?xf32>
  %4 = torch_c.from_builtin_tensor %3 : tensor<?x?xf32> -> !torch.vtensor<[?,?],f32>
  return %4 : !torch.vtensor<[?,?],f32>
}

// -----// IR Dump After ConvertTorchConversionToMLProgram (convert-torch-conversion-to-mlprogram) //----- //
#executable_target_cuda_nvptx_fb = #hal.executable.target<"cuda", "cuda-nvptx-fb", {target_arch = "sm_75"}>
#device_target_cuda = #hal.device.target<"cuda", {executable_targets = [#executable_target_cuda_nvptx_fb], legacy_sync}>
module @LinearModule attributes {hal.device.targets = [#device_target_cuda]} {
  ml_program.global private mutable @global_seed(dense<0> : tensor<i64>) : tensor<i64>
  func.func @main(%arg0: tensor<?x?xf32>) -> tensor<?x?xf32> attributes {torch.args_schema = "[1, {\22type\22: \22builtins.tuple\22, \22context\22: \22null\22, \22children_spec\22: [{\22type\22: \22builtins.list\22, \22context\22: \22null\22, \22children_spec\22: [{\22type\22: null, \22context\22: null, \22children_spec\22: []}]}, {\22type\22: \22builtins.dict\22, \22context\22: \22[]\22, \22children_spec\22: []}]}]", torch.assume_strict_symbolic_shapes, torch.return_schema = "[1, {\22type\22: null, \22context\22: null, \22children_spec\22: []}]"} {
    %0 = torch_c.from_builtin_tensor %arg0 : tensor<?x?xf32> -> !torch.vtensor<[?,?],f32>
    %1 = call @forward(%0) : (!torch.vtensor<[?,?],f32>) -> !torch.vtensor<[?,?],f32>
    %2 = torch_c.to_builtin_tensor %1 : !torch.vtensor<[?,?],f32> -> tensor<?x?xf32>
    return %2 : tensor<?x?xf32>
  }
  func.func private @forward(%arg0: !torch.vtensor<[?,?],f32>) -> !torch.vtensor<[?,?],f32> attributes {torch.assume_strict_symbolic_shapes} {
    %0 = torch_c.to_builtin_tensor %arg0 : !torch.vtensor<[?,?],f32> -> tensor<?x?xf32>
    %c0 = arith.constant 0 : index
    %dim = tensor.dim %0, %c0 : tensor<?x?xf32>
    %c1 = arith.constant 1 : index
    %dim_0 = tensor.dim %0, %c1 : tensor<?x?xf32>
    %1 = tensor.empty(%dim, %dim_0) : tensor<?x?xf32>
    %cst = arith.constant 0.000000e+00 : f32
    %2 = linalg.fill ins(%cst : f32) outs(%1 : tensor<?x?xf32>) -> tensor<?x?xf32>
    %3 = linalg.matmul ins(%0, %0 : tensor<?x?xf32>, tensor<?x?xf32>) outs(%2 : tensor<?x?xf32>) -> tensor<?x?xf32>
    %4 = torch_c.from_builtin_tensor %3 : tensor<?x?xf32> -> !torch.vtensor<[?,?],f32>
    return %4 : !torch.vtensor<[?,?],f32>
  }
}


// -----// IR Dump After ExpandOps (memref-expand) //----- //
func.func @main(%arg0: tensor<?x?xf32>) -> tensor<?x?xf32> attributes {torch.args_schema = "[1, {\22type\22: \22builtins.tuple\22, \22context\22: \22null\22, \22children_spec\22: [{\22type\22: \22builtins.list\22, \22context\22: \22null\22, \22children_spec\22: [{\22type\22: null, \22context\22: null, \22children_spec\22: []}]}, {\22type\22: \22builtins.dict\22, \22context\22: \22[]\22, \22children_spec\22: []}]}]", torch.assume_strict_symbolic_shapes, torch.return_schema = "[1, {\22type\22: null, \22context\22: null, \22children_spec\22: []}]"} {
  %0 = torch_c.from_builtin_tensor %arg0 : tensor<?x?xf32> -> !torch.vtensor<[?,?],f32>
  %1 = call @forward(%0) : (!torch.vtensor<[?,?],f32>) -> !torch.vtensor<[?,?],f32>
  %2 = torch_c.to_builtin_tensor %1 : !torch.vtensor<[?,?],f32> -> tensor<?x?xf32>
  return %2 : tensor<?x?xf32>
}

// -----// IR Dump After ExpandOps (memref-expand) //----- //
func.func private @forward(%arg0: !torch.vtensor<[?,?],f32>) -> !torch.vtensor<[?,?],f32> attributes {torch.assume_strict_symbolic_shapes} {
  %0 = torch_c.to_builtin_tensor %arg0 : !torch.vtensor<[?,?],f32> -> tensor<?x?xf32>
  %c0 = arith.constant 0 : index
  %dim = tensor.dim %0, %c0 : tensor<?x?xf32>
  %c1 = arith.constant 1 : index
  %dim_0 = tensor.dim %0, %c1 : tensor<?x?xf32>
  %1 = tensor.empty(%dim, %dim_0) : tensor<?x?xf32>
  %cst = arith.constant 0.000000e+00 : f32
  %2 = linalg.fill ins(%cst : f32) outs(%1 : tensor<?x?xf32>) -> tensor<?x?xf32>
  %3 = linalg.matmul ins(%0, %0 : tensor<?x?xf32>, tensor<?x?xf32>) outs(%2 : tensor<?x?xf32>) -> tensor<?x?xf32>
  %4 = torch_c.from_builtin_tensor %3 : tensor<?x?xf32> -> !torch.vtensor<[?,?],f32>
  return %4 : !torch.vtensor<[?,?],f32>
}

// -----// IR Dump After Canonicalizer (canonicalize) //----- //
func.func @main(%arg0: tensor<?x?xf32>) -> tensor<?x?xf32> attributes {torch.args_schema = "[1, {\22type\22: \22builtins.tuple\22, \22context\22: \22null\22, \22children_spec\22: [{\22type\22: \22builtins.list\22, \22context\22: \22null\22, \22children_spec\22: [{\22type\22: null, \22context\22: null, \22children_spec\22: []}]}, {\22type\22: \22builtins.dict\22, \22context\22: \22[]\22, \22children_spec\22: []}]}]", torch.assume_strict_symbolic_shapes, torch.return_schema = "[1, {\22type\22: null, \22context\22: null, \22children_spec\22: []}]"} {
  %0 = torch_c.from_builtin_tensor %arg0 : tensor<?x?xf32> -> !torch.vtensor<[?,?],f32>
  %1 = call @forward(%0) : (!torch.vtensor<[?,?],f32>) -> !torch.vtensor<[?,?],f32>
  %2 = torch_c.to_builtin_tensor %1 : !torch.vtensor<[?,?],f32> -> tensor<?x?xf32>
  return %2 : tensor<?x?xf32>
}

// -----// IR Dump After Canonicalizer (canonicalize) //----- //
func.func private @forward(%arg0: !torch.vtensor<[?,?],f32>) -> !torch.vtensor<[?,?],f32> attributes {torch.assume_strict_symbolic_shapes} {
  %cst = arith.constant 0.000000e+00 : f32
  %c1 = arith.constant 1 : index
  %c0 = arith.constant 0 : index
  %0 = torch_c.to_builtin_tensor %arg0 : !torch.vtensor<[?,?],f32> -> tensor<?x?xf32>
  %dim = tensor.dim %0, %c0 : tensor<?x?xf32>
  %dim_0 = tensor.dim %0, %c1 : tensor<?x?xf32>
  %1 = tensor.empty(%dim, %dim_0) : tensor<?x?xf32>
  %2 = linalg.fill ins(%cst : f32) outs(%1 : tensor<?x?xf32>) -> tensor<?x?xf32>
  %3 = linalg.matmul ins(%0, %0 : tensor<?x?xf32>, tensor<?x?xf32>) outs(%2 : tensor<?x?xf32>) -> tensor<?x?xf32>
  %4 = torch_c.from_builtin_tensor %3 : tensor<?x?xf32> -> !torch.vtensor<[?,?],f32>
  return %4 : !torch.vtensor<[?,?],f32>
}

// -----// IR Dump After ResolveShapedTypeResultDims (resolve-shaped-type-result-dims) //----- //
func.func @main(%arg0: tensor<?x?xf32>) -> tensor<?x?xf32> attributes {torch.args_schema = "[1, {\22type\22: \22builtins.tuple\22, \22context\22: \22null\22, \22children_spec\22: [{\22type\22: \22builtins.list\22, \22context\22: \22null\22, \22children_spec\22: [{\22type\22: null, \22context\22: null, \22children_spec\22: []}]}, {\22type\22: \22builtins.dict\22, \22context\22: \22[]\22, \22children_spec\22: []}]}]", torch.assume_strict_symbolic_shapes, torch.return_schema = "[1, {\22type\22: null, \22context\22: null, \22children_spec\22: []}]"} {
  %0 = torch_c.from_builtin_tensor %arg0 : tensor<?x?xf32> -> !torch.vtensor<[?,?],f32>
  %1 = call @forward(%0) : (!torch.vtensor<[?,?],f32>) -> !torch.vtensor<[?,?],f32>
  %2 = torch_c.to_builtin_tensor %1 : !torch.vtensor<[?,?],f32> -> tensor<?x?xf32>
  return %2 : tensor<?x?xf32>
}

// -----// IR Dump After ResolveShapedTypeResultDims (resolve-shaped-type-result-dims) //----- //
func.func private @forward(%arg0: !torch.vtensor<[?,?],f32>) -> !torch.vtensor<[?,?],f32> attributes {torch.assume_strict_symbolic_shapes} {
  %cst = arith.constant 0.000000e+00 : f32
  %c1 = arith.constant 1 : index
  %c0 = arith.constant 0 : index
  %0 = torch_c.to_builtin_tensor %arg0 : !torch.vtensor<[?,?],f32> -> tensor<?x?xf32>
  %dim = tensor.dim %0, %c0 : tensor<?x?xf32>
  %dim_0 = tensor.dim %0, %c1 : tensor<?x?xf32>
  %1 = tensor.empty(%dim, %dim_0) : tensor<?x?xf32>
  %2 = linalg.fill ins(%cst : f32) outs(%1 : tensor<?x?xf32>) -> tensor<?x?xf32>
  %3 = linalg.matmul ins(%0, %0 : tensor<?x?xf32>, tensor<?x?xf32>) outs(%2 : tensor<?x?xf32>) -> tensor<?x?xf32>
  %4 = torch_c.from_builtin_tensor %3 : tensor<?x?xf32> -> !torch.vtensor<[?,?],f32>
  return %4 : !torch.vtensor<[?,?],f32>
}

// -----// IR Dump After CSE (cse) //----- //
func.func @main(%arg0: tensor<?x?xf32>) -> tensor<?x?xf32> attributes {torch.args_schema = "[1, {\22type\22: \22builtins.tuple\22, \22context\22: \22null\22, \22children_spec\22: [{\22type\22: \22builtins.list\22, \22context\22: \22null\22, \22children_spec\22: [{\22type\22: null, \22context\22: null, \22children_spec\22: []}]}, {\22type\22: \22builtins.dict\22, \22context\22: \22[]\22, \22children_spec\22: []}]}]", torch.assume_strict_symbolic_shapes, torch.return_schema = "[1, {\22type\22: null, \22context\22: null, \22children_spec\22: []}]"} {
  %0 = torch_c.from_builtin_tensor %arg0 : tensor<?x?xf32> -> !torch.vtensor<[?,?],f32>
  %1 = call @forward(%0) : (!torch.vtensor<[?,?],f32>) -> !torch.vtensor<[?,?],f32>
  %2 = torch_c.to_builtin_tensor %1 : !torch.vtensor<[?,?],f32> -> tensor<?x?xf32>
  return %2 : tensor<?x?xf32>
}

// -----// IR Dump After CSE (cse) //----- //
func.func private @forward(%arg0: !torch.vtensor<[?,?],f32>) -> !torch.vtensor<[?,?],f32> attributes {torch.assume_strict_symbolic_shapes} {
  %cst = arith.constant 0.000000e+00 : f32
  %c1 = arith.constant 1 : index
  %c0 = arith.constant 0 : index
  %0 = torch_c.to_builtin_tensor %arg0 : !torch.vtensor<[?,?],f32> -> tensor<?x?xf32>
  %dim = tensor.dim %0, %c0 : tensor<?x?xf32>
  %dim_0 = tensor.dim %0, %c1 : tensor<?x?xf32>
  %1 = tensor.empty(%dim, %dim_0) : tensor<?x?xf32>
  %2 = linalg.fill ins(%cst : f32) outs(%1 : tensor<?x?xf32>) -> tensor<?x?xf32>
  %3 = linalg.matmul ins(%0, %0 : tensor<?x?xf32>, tensor<?x?xf32>) outs(%2 : tensor<?x?xf32>) -> tensor<?x?xf32>
  %4 = torch_c.from_builtin_tensor %3 : tensor<?x?xf32> -> !torch.vtensor<[?,?],f32>
  return %4 : !torch.vtensor<[?,?],f32>
}

// -----// IR Dump After FuncBackendTypeConversion (torch-func-backend-type-conversion) //----- //
#executable_target_cuda_nvptx_fb = #hal.executable.target<"cuda", "cuda-nvptx-fb", {target_arch = "sm_75"}>
#device_target_cuda = #hal.device.target<"cuda", {executable_targets = [#executable_target_cuda_nvptx_fb], legacy_sync}>
module @LinearModule attributes {hal.device.targets = [#device_target_cuda]} {
  ml_program.global private mutable @global_seed(dense<0> : tensor<i64>) : tensor<i64>
  func.func @main(%arg0: tensor<?x?xf32>) -> tensor<?x?xf32> attributes {torch.args_schema = "[1, {\22type\22: \22builtins.tuple\22, \22context\22: \22null\22, \22children_spec\22: [{\22type\22: \22builtins.list\22, \22context\22: \22null\22, \22children_spec\22: [{\22type\22: null, \22context\22: null, \22children_spec\22: []}]}, {\22type\22: \22builtins.dict\22, \22context\22: \22[]\22, \22children_spec\22: []}]}]", torch.assume_strict_symbolic_shapes, torch.return_schema = "[1, {\22type\22: null, \22context\22: null, \22children_spec\22: []}]"} {
    %0 = torch_c.from_builtin_tensor %arg0 : tensor<?x?xf32> -> !torch.vtensor<[?,?],f32>
    %1 = torch_c.to_builtin_tensor %0 : !torch.vtensor<[?,?],f32> -> tensor<?x?xf32>
    %2 = call @forward(%1) : (tensor<?x?xf32>) -> tensor<?x?xf32>
    %3 = torch_c.from_builtin_tensor %2 : tensor<?x?xf32> -> !torch.vtensor<[?,?],f32>
    %4 = torch_c.to_builtin_tensor %3 : !torch.vtensor<[?,?],f32> -> tensor<?x?xf32>
    return %4 : tensor<?x?xf32>
  }
  func.func private @forward(%arg0: tensor<?x?xf32>) -> tensor<?x?xf32> attributes {torch.assume_strict_symbolic_shapes} {
    %0 = torch_c.from_builtin_tensor %arg0 : tensor<?x?xf32> -> !torch.vtensor<[?,?],f32>
    %cst = arith.constant 0.000000e+00 : f32
    %c1 = arith.constant 1 : index
    %c0 = arith.constant 0 : index
    %1 = torch_c.to_builtin_tensor %0 : !torch.vtensor<[?,?],f32> -> tensor<?x?xf32>
    %dim = tensor.dim %1, %c0 : tensor<?x?xf32>
    %dim_0 = tensor.dim %1, %c1 : tensor<?x?xf32>
    %2 = tensor.empty(%dim, %dim_0) : tensor<?x?xf32>
    %3 = linalg.fill ins(%cst : f32) outs(%2 : tensor<?x?xf32>) -> tensor<?x?xf32>
    %4 = linalg.matmul ins(%1, %1 : tensor<?x?xf32>, tensor<?x?xf32>) outs(%3 : tensor<?x?xf32>) -> tensor<?x?xf32>
    %5 = torch_c.from_builtin_tensor %4 : tensor<?x?xf32> -> !torch.vtensor<[?,?],f32>
    %6 = torch_c.to_builtin_tensor %5 : !torch.vtensor<[?,?],f32> -> tensor<?x?xf32>
    return %6 : tensor<?x?xf32>
  }
}


// -----// IR Dump After Canonicalizer (canonicalize) //----- //
func.func @main(%arg0: tensor<?x?xf32>) -> tensor<?x?xf32> attributes {torch.args_schema = "[1, {\22type\22: \22builtins.tuple\22, \22context\22: \22null\22, \22children_spec\22: [{\22type\22: \22builtins.list\22, \22context\22: \22null\22, \22children_spec\22: [{\22type\22: null, \22context\22: null, \22children_spec\22: []}]}, {\22type\22: \22builtins.dict\22, \22context\22: \22[]\22, \22children_spec\22: []}]}]", torch.assume_strict_symbolic_shapes, torch.return_schema = "[1, {\22type\22: null, \22context\22: null, \22children_spec\22: []}]"} {
  %0 = torch_c.from_builtin_tensor %arg0 : tensor<?x?xf32> -> !torch.vtensor<[?,?],f32>
  %1 = torch_c.to_builtin_tensor %0 : !torch.vtensor<[?,?],f32> -> tensor<?x?xf32>
  %2 = call @forward(%1) : (tensor<?x?xf32>) -> tensor<?x?xf32>
  %3 = torch_c.from_builtin_tensor %2 : tensor<?x?xf32> -> !torch.vtensor<[?,?],f32>
  %4 = torch_c.to_builtin_tensor %3 : !torch.vtensor<[?,?],f32> -> tensor<?x?xf32>
  return %4 : tensor<?x?xf32>
}

// -----// IR Dump After Canonicalizer (canonicalize) //----- //
func.func private @forward(%arg0: tensor<?x?xf32>) -> tensor<?x?xf32> attributes {torch.assume_strict_symbolic_shapes} {
  %c0 = arith.constant 0 : index
  %c1 = arith.constant 1 : index
  %cst = arith.constant 0.000000e+00 : f32
  %0 = torch_c.from_builtin_tensor %arg0 : tensor<?x?xf32> -> !torch.vtensor<[?,?],f32>
  %1 = torch_c.to_builtin_tensor %0 : !torch.vtensor<[?,?],f32> -> tensor<?x?xf32>
  %dim = tensor.dim %1, %c0 : tensor<?x?xf32>
  %dim_0 = tensor.dim %1, %c1 : tensor<?x?xf32>
  %2 = tensor.empty(%dim, %dim_0) : tensor<?x?xf32>
  %3 = linalg.fill ins(%cst : f32) outs(%2 : tensor<?x?xf32>) -> tensor<?x?xf32>
  %4 = linalg.matmul ins(%1, %1 : tensor<?x?xf32>, tensor<?x?xf32>) outs(%3 : tensor<?x?xf32>) -> tensor<?x?xf32>
  %5 = torch_c.from_builtin_tensor %4 : tensor<?x?xf32> -> !torch.vtensor<[?,?],f32>
  %6 = torch_c.to_builtin_tensor %5 : !torch.vtensor<[?,?],f32> -> tensor<?x?xf32>
  return %6 : tensor<?x?xf32>
}

// -----// IR Dump After FinalizingBackendTypeConversion (torch-finalizing-backend-type-conversion) //----- //
func.func @main(%arg0: tensor<?x?xf32>) -> tensor<?x?xf32> attributes {torch.args_schema = "[1, {\22type\22: \22builtins.tuple\22, \22context\22: \22null\22, \22children_spec\22: [{\22type\22: \22builtins.list\22, \22context\22: \22null\22, \22children_spec\22: [{\22type\22: null, \22context\22: null, \22children_spec\22: []}]}, {\22type\22: \22builtins.dict\22, \22context\22: \22[]\22, \22children_spec\22: []}]}]", torch.assume_strict_symbolic_shapes, torch.return_schema = "[1, {\22type\22: null, \22context\22: null, \22children_spec\22: []}]"} {
  %0 = call @forward(%arg0) : (tensor<?x?xf32>) -> tensor<?x?xf32>
  return %0 : tensor<?x?xf32>
}

// -----// IR Dump After FinalizingBackendTypeConversion (torch-finalizing-backend-type-conversion) //----- //
func.func private @forward(%arg0: tensor<?x?xf32>) -> tensor<?x?xf32> attributes {torch.assume_strict_symbolic_shapes} {
  %c0 = arith.constant 0 : index
  %c1 = arith.constant 1 : index
  %cst = arith.constant 0.000000e+00 : f32
  %dim = tensor.dim %arg0, %c0 : tensor<?x?xf32>
  %dim_0 = tensor.dim %arg0, %c1 : tensor<?x?xf32>
  %0 = tensor.empty(%dim, %dim_0) : tensor<?x?xf32>
  %1 = linalg.fill ins(%cst : f32) outs(%0 : tensor<?x?xf32>) -> tensor<?x?xf32>
  %2 = linalg.matmul ins(%arg0, %arg0 : tensor<?x?xf32>, tensor<?x?xf32>) outs(%1 : tensor<?x?xf32>) -> tensor<?x?xf32>
  return %2 : tensor<?x?xf32>
}

// -----// IR Dump After SymbolDCE (symbol-dce) //----- //
#executable_target_cuda_nvptx_fb = #hal.executable.target<"cuda", "cuda-nvptx-fb", {target_arch = "sm_75"}>
#device_target_cuda = #hal.device.target<"cuda", {executable_targets = [#executable_target_cuda_nvptx_fb], legacy_sync}>
module @LinearModule attributes {hal.device.targets = [#device_target_cuda]} {
  func.func @main(%arg0: tensor<?x?xf32>) -> tensor<?x?xf32> attributes {torch.args_schema = "[1, {\22type\22: \22builtins.tuple\22, \22context\22: \22null\22, \22children_spec\22: [{\22type\22: \22builtins.list\22, \22context\22: \22null\22, \22children_spec\22: [{\22type\22: null, \22context\22: null, \22children_spec\22: []}]}, {\22type\22: \22builtins.dict\22, \22context\22: \22[]\22, \22children_spec\22: []}]}]", torch.assume_strict_symbolic_shapes, torch.return_schema = "[1, {\22type\22: null, \22context\22: null, \22children_spec\22: []}]"} {
    %0 = call @forward(%arg0) : (tensor<?x?xf32>) -> tensor<?x?xf32>
    return %0 : tensor<?x?xf32>
  }
  func.func private @forward(%arg0: tensor<?x?xf32>) -> tensor<?x?xf32> attributes {torch.assume_strict_symbolic_shapes} {
    %c0 = arith.constant 0 : index
    %c1 = arith.constant 1 : index
    %cst = arith.constant 0.000000e+00 : f32
    %dim = tensor.dim %arg0, %c0 : tensor<?x?xf32>
    %dim_0 = tensor.dim %arg0, %c1 : tensor<?x?xf32>
    %0 = tensor.empty(%dim, %dim_0) : tensor<?x?xf32>
    %1 = linalg.fill ins(%cst : f32) outs(%0 : tensor<?x?xf32>) -> tensor<?x?xf32>
    %2 = linalg.matmul ins(%arg0, %arg0 : tensor<?x?xf32>, tensor<?x?xf32>) outs(%1 : tensor<?x?xf32>) -> tensor<?x?xf32>
    return %2 : tensor<?x?xf32>
  }
}


// -----// IR Dump After ConvertTMTensorToLinalgExt (torch-iree-tm-tensor-to-linalg-ext) //----- //
func.func @main(%arg0: tensor<?x?xf32>) -> tensor<?x?xf32> attributes {torch.args_schema = "[1, {\22type\22: \22builtins.tuple\22, \22context\22: \22null\22, \22children_spec\22: [{\22type\22: \22builtins.list\22, \22context\22: \22null\22, \22children_spec\22: [{\22type\22: null, \22context\22: null, \22children_spec\22: []}]}, {\22type\22: \22builtins.dict\22, \22context\22: \22[]\22, \22children_spec\22: []}]}]", torch.assume_strict_symbolic_shapes, torch.return_schema = "[1, {\22type\22: null, \22context\22: null, \22children_spec\22: []}]"} {
  %0 = call @forward(%arg0) : (tensor<?x?xf32>) -> tensor<?x?xf32>
  return %0 : tensor<?x?xf32>
}

// -----// IR Dump After ConvertTMTensorToLinalgExt (torch-iree-tm-tensor-to-linalg-ext) //----- //
func.func private @forward(%arg0: tensor<?x?xf32>) -> tensor<?x?xf32> attributes {torch.assume_strict_symbolic_shapes} {
  %c0 = arith.constant 0 : index
  %c1 = arith.constant 1 : index
  %cst = arith.constant 0.000000e+00 : f32
  %dim = tensor.dim %arg0, %c0 : tensor<?x?xf32>
  %dim_0 = tensor.dim %arg0, %c1 : tensor<?x?xf32>
  %0 = tensor.empty(%dim, %dim_0) : tensor<?x?xf32>
  %1 = linalg.fill ins(%cst : f32) outs(%0 : tensor<?x?xf32>) -> tensor<?x?xf32>
  %2 = linalg.matmul ins(%arg0, %arg0 : tensor<?x?xf32>, tensor<?x?xf32>) outs(%1 : tensor<?x?xf32>) -> tensor<?x?xf32>
  return %2 : tensor<?x?xf32>
}

// -----// IR Dump After IREEImportPublic (iree-import-public) //----- //
#executable_target_cuda_nvptx_fb = #hal.executable.target<"cuda", "cuda-nvptx-fb", {target_arch = "sm_75"}>
#device_target_cuda = #hal.device.target<"cuda", {executable_targets = [#executable_target_cuda_nvptx_fb], legacy_sync}>
module @LinearModule attributes {hal.device.targets = [#device_target_cuda]} {
  func.func @main(%arg0: tensor<?x?xf32>) -> tensor<?x?xf32> attributes {torch.args_schema = "[1, {\22type\22: \22builtins.tuple\22, \22context\22: \22null\22, \22children_spec\22: [{\22type\22: \22builtins.list\22, \22context\22: \22null\22, \22children_spec\22: [{\22type\22: null, \22context\22: null, \22children_spec\22: []}]}, {\22type\22: \22builtins.dict\22, \22context\22: \22[]\22, \22children_spec\22: []}]}]", torch.assume_strict_symbolic_shapes, torch.return_schema = "[1, {\22type\22: null, \22context\22: null, \22children_spec\22: []}]"} {
    %0 = call @forward(%arg0) : (tensor<?x?xf32>) -> tensor<?x?xf32>
    return %0 : tensor<?x?xf32>
  }
  func.func private @forward(%arg0: tensor<?x?xf32>) -> tensor<?x?xf32> attributes {torch.assume_strict_symbolic_shapes} {
    %c0 = arith.constant 0 : index
    %c1 = arith.constant 1 : index
    %cst = arith.constant 0.000000e+00 : f32
    %dim = tensor.dim %arg0, %c0 : tensor<?x?xf32>
    %dim_0 = tensor.dim %arg0, %c1 : tensor<?x?xf32>
    %0 = tensor.empty(%dim, %dim_0) : tensor<?x?xf32>
    %1 = linalg.fill ins(%cst : f32) outs(%0 : tensor<?x?xf32>) -> tensor<?x?xf32>
    %2 = linalg.matmul ins(%arg0, %arg0 : tensor<?x?xf32>, tensor<?x?xf32>) outs(%1 : tensor<?x?xf32>) -> tensor<?x?xf32>
    return %2 : tensor<?x?xf32>
  }
}


// -----// IR Dump After ImportMLProgram (iree-import-ml-program) //----- //
#executable_target_cuda_nvptx_fb = #hal.executable.target<"cuda", "cuda-nvptx-fb", {target_arch = "sm_75"}>
#device_target_cuda = #hal.device.target<"cuda", {executable_targets = [#executable_target_cuda_nvptx_fb], legacy_sync}>
module @LinearModule attributes {hal.device.targets = [#device_target_cuda]} {
  func.func @main(%arg0: tensor<?x?xf32>) -> tensor<?x?xf32> attributes {torch.args_schema = "[1, {\22type\22: \22builtins.tuple\22, \22context\22: \22null\22, \22children_spec\22: [{\22type\22: \22builtins.list\22, \22context\22: \22null\22, \22children_spec\22: [{\22type\22: null, \22context\22: null, \22children_spec\22: []}]}, {\22type\22: \22builtins.dict\22, \22context\22: \22[]\22, \22children_spec\22: []}]}]", torch.assume_strict_symbolic_shapes, torch.return_schema = "[1, {\22type\22: null, \22context\22: null, \22children_spec\22: []}]"} {
    %0 = call @forward(%arg0) : (tensor<?x?xf32>) -> tensor<?x?xf32>
    return %0 : tensor<?x?xf32>
  }
  func.func private @forward(%arg0: tensor<?x?xf32>) -> tensor<?x?xf32> attributes {torch.assume_strict_symbolic_shapes} {
    %c0 = arith.constant 0 : index
    %c1 = arith.constant 1 : index
    %cst = arith.constant 0.000000e+00 : f32
    %dim = tensor.dim %arg0, %c0 : tensor<?x?xf32>
    %dim_0 = tensor.dim %arg0, %c1 : tensor<?x?xf32>
    %0 = tensor.empty(%dim, %dim_0) : tensor<?x?xf32>
    %1 = linalg.fill ins(%cst : f32) outs(%0 : tensor<?x?xf32>) -> tensor<?x?xf32>
    %2 = linalg.matmul ins(%arg0, %arg0 : tensor<?x?xf32>, tensor<?x?xf32>) outs(%1 : tensor<?x?xf32>) -> tensor<?x?xf32>
    return %2 : tensor<?x?xf32>
  }
}


// -----// IR Dump After SanitizeModuleNames (iree-sanitize-module-names) //----- //
#executable_target_cuda_nvptx_fb = #hal.executable.target<"cuda", "cuda-nvptx-fb", {target_arch = "sm_75"}>
#device_target_cuda = #hal.device.target<"cuda", {executable_targets = [#executable_target_cuda_nvptx_fb], legacy_sync}>
module @LinearModule attributes {hal.device.targets = [#device_target_cuda]} {
  func.func @main(%arg0: tensor<?x?xf32>) -> tensor<?x?xf32> attributes {torch.args_schema = "[1, {\22type\22: \22builtins.tuple\22, \22context\22: \22null\22, \22children_spec\22: [{\22type\22: \22builtins.list\22, \22context\22: \22null\22, \22children_spec\22: [{\22type\22: null, \22context\22: null, \22children_spec\22: []}]}, {\22type\22: \22builtins.dict\22, \22context\22: \22[]\22, \22children_spec\22: []}]}]", torch.assume_strict_symbolic_shapes, torch.return_schema = "[1, {\22type\22: null, \22context\22: null, \22children_spec\22: []}]"} {
    %0 = call @forward(%arg0) : (tensor<?x?xf32>) -> tensor<?x?xf32>
    return %0 : tensor<?x?xf32>
  }
  func.func private @forward(%arg0: tensor<?x?xf32>) -> tensor<?x?xf32> attributes {torch.assume_strict_symbolic_shapes} {
    %c0 = arith.constant 0 : index
    %c1 = arith.constant 1 : index
    %cst = arith.constant 0.000000e+00 : f32
    %dim = tensor.dim %arg0, %c0 : tensor<?x?xf32>
    %dim_0 = tensor.dim %arg0, %c1 : tensor<?x?xf32>
    %0 = tensor.empty(%dim, %dim_0) : tensor<?x?xf32>
    %1 = linalg.fill ins(%cst : f32) outs(%0 : tensor<?x?xf32>) -> tensor<?x?xf32>
    %2 = linalg.matmul ins(%arg0, %arg0 : tensor<?x?xf32>, tensor<?x?xf32>) outs(%1 : tensor<?x?xf32>) -> tensor<?x?xf32>
    return %2 : tensor<?x?xf32>
  }
}


// -----// IR Dump After mlir::iree_compiler::IREE::ABI::ConvertStreamableOpsPass (iree-abi-convert-streamable-ops) //----- //
#executable_target_cuda_nvptx_fb = #hal.executable.target<"cuda", "cuda-nvptx-fb", {target_arch = "sm_75"}>
#device_target_cuda = #hal.device.target<"cuda", {executable_targets = [#executable_target_cuda_nvptx_fb], legacy_sync}>
module @LinearModule attributes {hal.device.targets = [#device_target_cuda]} {
  func.func @main(%arg0: tensor<?x?xf32>) -> tensor<?x?xf32> attributes {torch.args_schema = "[1, {\22type\22: \22builtins.tuple\22, \22context\22: \22null\22, \22children_spec\22: [{\22type\22: \22builtins.list\22, \22context\22: \22null\22, \22children_spec\22: [{\22type\22: null, \22context\22: null, \22children_spec\22: []}]}, {\22type\22: \22builtins.dict\22, \22context\22: \22[]\22, \22children_spec\22: []}]}]", torch.assume_strict_symbolic_shapes, torch.return_schema = "[1, {\22type\22: null, \22context\22: null, \22children_spec\22: []}]"} {
    %0 = call @forward(%arg0) : (tensor<?x?xf32>) -> tensor<?x?xf32>
    return %0 : tensor<?x?xf32>
  }
  func.func private @forward(%arg0: tensor<?x?xf32>) -> tensor<?x?xf32> attributes {torch.assume_strict_symbolic_shapes} {
    %c0 = arith.constant 0 : index
    %c1 = arith.constant 1 : index
    %cst = arith.constant 0.000000e+00 : f32
    %dim = tensor.dim %arg0, %c0 : tensor<?x?xf32>
    %dim_0 = tensor.dim %arg0, %c1 : tensor<?x?xf32>
    %0 = tensor.empty(%dim, %dim_0) : tensor<?x?xf32>
    %1 = linalg.fill ins(%cst : f32) outs(%0 : tensor<?x?xf32>) -> tensor<?x?xf32>
    %2 = linalg.matmul ins(%arg0, %arg0 : tensor<?x?xf32>, tensor<?x?xf32>) outs(%1 : tensor<?x?xf32>) -> tensor<?x?xf32>
    return %2 : tensor<?x?xf32>
  }
}


// -----// IR Dump After mlir::iree_compiler::IREE::ABI::WrapEntryPointsPass (iree-abi-wrap-entry-points) //----- //
#executable_target_cuda_nvptx_fb = #hal.executable.target<"cuda", "cuda-nvptx-fb", {target_arch = "sm_75"}>
#device_target_cuda = #hal.device.target<"cuda", {executable_targets = [#executable_target_cuda_nvptx_fb], legacy_sync}>
module @LinearModule attributes {hal.device.targets = [#device_target_cuda]} {
  func.func @main(%arg0: !hal.buffer_view) -> !hal.buffer_view attributes {iree.abi.stub} {
    %0 = hal.buffer_view.dim<%arg0 : !hal.buffer_view>[0] : index
    %1 = hal.buffer_view.dim<%arg0 : !hal.buffer_view>[1] : index
    %2 = hal.tensor.import %arg0 "input 0" : !hal.buffer_view -> tensor<?x?xf32>{%0, %1}
    %3 = call @_main(%2) : (tensor<?x?xf32>) -> tensor<?x?xf32>
    %c0 = arith.constant 0 : index
    %dim = tensor.dim %3, %c0 : tensor<?x?xf32>
    %c1 = arith.constant 1 : index
    %dim_0 = tensor.dim %3, %c1 : tensor<?x?xf32>
    %4 = hal.tensor.export %3 "output 0" : tensor<?x?xf32>{%dim, %dim_0} -> !hal.buffer_view
    return %4 : !hal.buffer_view
  }
  func.func private @_main(%arg0: tensor<?x?xf32>) -> tensor<?x?xf32> attributes {torch.args_schema = "[1, {\22type\22: \22builtins.tuple\22, \22context\22: \22null\22, \22children_spec\22: [{\22type\22: \22builtins.list\22, \22context\22: \22null\22, \22children_spec\22: [{\22type\22: null, \22context\22: null, \22children_spec\22: []}]}, {\22type\22: \22builtins.dict\22, \22context\22: \22[]\22, \22children_spec\22: []}]}]", torch.assume_strict_symbolic_shapes, torch.return_schema = "[1, {\22type\22: null, \22context\22: null, \22children_spec\22: []}]"} {
    %0 = call @forward(%arg0) : (tensor<?x?xf32>) -> tensor<?x?xf32>
    return %0 : tensor<?x?xf32>
  }
  func.func private @forward(%arg0: tensor<?x?xf32>) -> tensor<?x?xf32> attributes {torch.assume_strict_symbolic_shapes} {
    %c0 = arith.constant 0 : index
    %c1 = arith.constant 1 : index
    %cst = arith.constant 0.000000e+00 : f32
    %dim = tensor.dim %arg0, %c0 : tensor<?x?xf32>
    %dim_0 = tensor.dim %arg0, %c1 : tensor<?x?xf32>
    %0 = tensor.empty(%dim, %dim_0) : tensor<?x?xf32>
    %1 = linalg.fill ins(%cst : f32) outs(%0 : tensor<?x?xf32>) -> tensor<?x?xf32>
    %2 = linalg.matmul ins(%arg0, %arg0 : tensor<?x?xf32>, tensor<?x?xf32>) outs(%1 : tensor<?x?xf32>) -> tensor<?x?xf32>
    return %2 : tensor<?x?xf32>
  }
}


// -----// IR Dump After Canonicalizer (canonicalize) //----- //
func.func private @forward(%arg0: tensor<?x?xf32>) -> tensor<?x?xf32> attributes {torch.assume_strict_symbolic_shapes} {
  %c0 = arith.constant 0 : index
  %c1 = arith.constant 1 : index
  %cst = arith.constant 0.000000e+00 : f32
  %dim = tensor.dim %arg0, %c0 : tensor<?x?xf32>
  %dim_0 = tensor.dim %arg0, %c1 : tensor<?x?xf32>
  %0 = tensor.empty(%dim, %dim_0) : tensor<?x?xf32>
  %1 = linalg.fill ins(%cst : f32) outs(%0 : tensor<?x?xf32>) -> tensor<?x?xf32>
  %2 = linalg.matmul ins(%arg0, %arg0 : tensor<?x?xf32>, tensor<?x?xf32>) outs(%1 : tensor<?x?xf32>) -> tensor<?x?xf32>
  return %2 : tensor<?x?xf32>
}

// -----// IR Dump After Canonicalizer (canonicalize) //----- //
func.func private @_main(%arg0: tensor<?x?xf32>) -> tensor<?x?xf32> attributes {torch.args_schema = "[1, {\22type\22: \22builtins.tuple\22, \22context\22: \22null\22, \22children_spec\22: [{\22type\22: \22builtins.list\22, \22context\22: \22null\22, \22children_spec\22: [{\22type\22: null, \22context\22: null, \22children_spec\22: []}]}, {\22type\22: \22builtins.dict\22, \22context\22: \22[]\22, \22children_spec\22: []}]}]", torch.assume_strict_symbolic_shapes, torch.return_schema = "[1, {\22type\22: null, \22context\22: null, \22children_spec\22: []}]"} {
  %0 = call @forward(%arg0) : (tensor<?x?xf32>) -> tensor<?x?xf32>
  return %0 : tensor<?x?xf32>
}

// -----// IR Dump After Canonicalizer (canonicalize) //----- //
func.func private @_main(%arg0: tensor<?x?xf32>) -> tensor<?x?xf32> attributes {torch.args_schema = "[1, {\22type\22: \22builtins.tuple\22, \22context\22: \22null\22, \22children_spec\22: [{\22type\22: \22builtins.list\22, \22context\22: \22null\22, \22children_spec\22: [{\22type\22: null, \22context\22: null, \22children_spec\22: []}]}, {\22type\22: \22builtins.dict\22, \22context\22: \22[]\22, \22children_spec\22: []}]}]", torch.assume_strict_symbolic_shapes, torch.return_schema = "[1, {\22type\22: null, \22context\22: null, \22children_spec\22: []}]"} {
  %c0 = arith.constant 0 : index
  %c1 = arith.constant 1 : index
  %cst = arith.constant 0.000000e+00 : f32
  %dim = tensor.dim %arg0, %c0 : tensor<?x?xf32>
  %dim_0 = tensor.dim %arg0, %c1 : tensor<?x?xf32>
  %0 = tensor.empty(%dim, %dim_0) : tensor<?x?xf32>
  %1 = linalg.fill ins(%cst : f32) outs(%0 : tensor<?x?xf32>) -> tensor<?x?xf32>
  %2 = linalg.matmul ins(%arg0, %arg0 : tensor<?x?xf32>, tensor<?x?xf32>) outs(%1 : tensor<?x?xf32>) -> tensor<?x?xf32>
  return %2 : tensor<?x?xf32>
}

// -----// IR Dump After Canonicalizer (canonicalize) //----- //
func.func @main(%arg0: !hal.buffer_view) -> !hal.buffer_view attributes {iree.abi.stub} {
  %c1 = arith.constant 1 : index
  %c0 = arith.constant 0 : index
  %0 = hal.buffer_view.dim<%arg0 : !hal.buffer_view>[0] : index
  %1 = hal.buffer_view.dim<%arg0 : !hal.buffer_view>[1] : index
  %2 = hal.tensor.import %arg0 "input 0" : !hal.buffer_view -> tensor<?x?xf32>{%0, %1}
  %3 = call @_main(%2) : (tensor<?x?xf32>) -> tensor<?x?xf32>
  %dim = tensor.dim %3, %c0 : tensor<?x?xf32>
  %dim_0 = tensor.dim %3, %c1 : tensor<?x?xf32>
  %4 = hal.tensor.export %3 "output 0" : tensor<?x?xf32>{%dim, %dim_0} -> !hal.buffer_view
  return %4 : !hal.buffer_view
}

// -----// IR Dump After Canonicalizer (canonicalize) //----- //
func.func @main(%arg0: !hal.buffer_view) -> !hal.buffer_view attributes {iree.abi.stub} {
  %cst = arith.constant 0.000000e+00 : f32
  %0 = hal.buffer_view.dim<%arg0 : !hal.buffer_view>[0] : index
  %1 = hal.buffer_view.dim<%arg0 : !hal.buffer_view>[1] : index
  %2 = hal.tensor.import %arg0 "input 0" : !hal.buffer_view -> tensor<?x?xf32>{%0, %1}
  %3 = tensor.empty(%0, %1) : tensor<?x?xf32>
  %4 = linalg.fill ins(%cst : f32) outs(%3 : tensor<?x?xf32>) -> tensor<?x?xf32>
  %5 = linalg.matmul ins(%2, %2 : tensor<?x?xf32>, tensor<?x?xf32>) outs(%4 : tensor<?x?xf32>) -> tensor<?x?xf32>
  %6 = hal.tensor.export %5 "output 0" : tensor<?x?xf32>{%0, %1} -> !hal.buffer_view
  return %6 : !hal.buffer_view
}

// -----// IR Dump After Inliner (inline) //----- //
#executable_target_cuda_nvptx_fb = #hal.executable.target<"cuda", "cuda-nvptx-fb", {target_arch = "sm_75"}>
#device_target_cuda = #hal.device.target<"cuda", {executable_targets = [#executable_target_cuda_nvptx_fb], legacy_sync}>
module @LinearModule attributes {hal.device.targets = [#device_target_cuda]} {
  func.func @main(%arg0: !hal.buffer_view) -> !hal.buffer_view attributes {iree.abi.stub} {
    %cst = arith.constant 0.000000e+00 : f32
    %0 = hal.buffer_view.dim<%arg0 : !hal.buffer_view>[0] : index
    %1 = hal.buffer_view.dim<%arg0 : !hal.buffer_view>[1] : index
    %2 = hal.tensor.import %arg0 "input 0" : !hal.buffer_view -> tensor<?x?xf32>{%0, %1}
    %3 = tensor.empty(%0, %1) : tensor<?x?xf32>
    %4 = linalg.fill ins(%cst : f32) outs(%3 : tensor<?x?xf32>) -> tensor<?x?xf32>
    %5 = linalg.matmul ins(%2, %2 : tensor<?x?xf32>, tensor<?x?xf32>) outs(%4 : tensor<?x?xf32>) -> tensor<?x?xf32>
    %6 = hal.tensor.export %5 "output 0" : tensor<?x?xf32>{%0, %1} -> !hal.buffer_view
    return %6 : !hal.buffer_view
  }
}


// -----// IR Dump After Canonicalizer (canonicalize) //----- //
func.func @main(%arg0: !hal.buffer_view) -> !hal.buffer_view attributes {iree.abi.stub} {
  %cst = arith.constant 0.000000e+00 : f32
  %0 = hal.buffer_view.dim<%arg0 : !hal.buffer_view>[0] : index
  %1 = hal.buffer_view.dim<%arg0 : !hal.buffer_view>[1] : index
  %2 = hal.tensor.import %arg0 "input 0" : !hal.buffer_view -> tensor<?x?xf32>{%0, %1}
  %3 = tensor.empty(%0, %1) : tensor<?x?xf32>
  %4 = linalg.fill ins(%cst : f32) outs(%3 : tensor<?x?xf32>) -> tensor<?x?xf32>
  %5 = linalg.matmul ins(%2, %2 : tensor<?x?xf32>, tensor<?x?xf32>) outs(%4 : tensor<?x?xf32>) -> tensor<?x?xf32>
  %6 = hal.tensor.export %5 "output 0" : tensor<?x?xf32>{%0, %1} -> !hal.buffer_view
  return %6 : !hal.buffer_view
}

// -----// IR Dump After CSE (cse) //----- //
func.func @main(%arg0: !hal.buffer_view) -> !hal.buffer_view attributes {iree.abi.stub} {
  %cst = arith.constant 0.000000e+00 : f32
  %0 = hal.buffer_view.dim<%arg0 : !hal.buffer_view>[0] : index
  %1 = hal.buffer_view.dim<%arg0 : !hal.buffer_view>[1] : index
  %2 = hal.tensor.import %arg0 "input 0" : !hal.buffer_view -> tensor<?x?xf32>{%0, %1}
  %3 = tensor.empty(%0, %1) : tensor<?x?xf32>
  %4 = linalg.fill ins(%cst : f32) outs(%3 : tensor<?x?xf32>) -> tensor<?x?xf32>
  %5 = linalg.matmul ins(%2, %2 : tensor<?x?xf32>, tensor<?x?xf32>) outs(%4 : tensor<?x?xf32>) -> tensor<?x?xf32>
  %6 = hal.tensor.export %5 "output 0" : tensor<?x?xf32>{%0, %1} -> !hal.buffer_view
  return %6 : !hal.buffer_view
}

// -----// IR Dump After SymbolDCE (symbol-dce) //----- //
#executable_target_cuda_nvptx_fb = #hal.executable.target<"cuda", "cuda-nvptx-fb", {target_arch = "sm_75"}>
#device_target_cuda = #hal.device.target<"cuda", {executable_targets = [#executable_target_cuda_nvptx_fb], legacy_sync}>
module @LinearModule attributes {hal.device.targets = [#device_target_cuda]} {
  func.func @main(%arg0: !hal.buffer_view) -> !hal.buffer_view attributes {iree.abi.stub} {
    %cst = arith.constant 0.000000e+00 : f32
    %0 = hal.buffer_view.dim<%arg0 : !hal.buffer_view>[0] : index
    %1 = hal.buffer_view.dim<%arg0 : !hal.buffer_view>[1] : index
    %2 = hal.tensor.import %arg0 "input 0" : !hal.buffer_view -> tensor<?x?xf32>{%0, %1}
    %3 = tensor.empty(%0, %1) : tensor<?x?xf32>
    %4 = linalg.fill ins(%cst : f32) outs(%3 : tensor<?x?xf32>) -> tensor<?x?xf32>
    %5 = linalg.matmul ins(%2, %2 : tensor<?x?xf32>, tensor<?x?xf32>) outs(%4 : tensor<?x?xf32>) -> tensor<?x?xf32>
    %6 = hal.tensor.export %5 "output 0" : tensor<?x?xf32>{%0, %1} -> !hal.buffer_view
    return %6 : !hal.buffer_view
  }
}


// -----// IR Dump After DemoteF64ToF32 (iree-util-demote-f64-to-f32) //----- //
#executable_target_cuda_nvptx_fb = #hal.executable.target<"cuda", "cuda-nvptx-fb", {target_arch = "sm_75"}>
#device_target_cuda = #hal.device.target<"cuda", {executable_targets = [#executable_target_cuda_nvptx_fb], legacy_sync}>
module @LinearModule attributes {hal.device.targets = [#device_target_cuda]} {
  func.func @main(%arg0: !hal.buffer_view) -> !hal.buffer_view attributes {iree.abi.stub} {
    %cst = arith.constant 0.000000e+00 : f32
    %0 = hal.buffer_view.dim<%arg0 : !hal.buffer_view>[0] : index
    %1 = hal.buffer_view.dim<%arg0 : !hal.buffer_view>[1] : index
    %2 = hal.tensor.import %arg0 "input 0" : !hal.buffer_view -> tensor<?x?xf32>{%0, %1}
    %3 = tensor.empty(%0, %1) : tensor<?x?xf32>
    %4 = linalg.fill ins(%cst : f32) outs(%3 : tensor<?x?xf32>) -> tensor<?x?xf32>
    %5 = linalg.matmul ins(%2, %2 : tensor<?x?xf32>, tensor<?x?xf32>) outs(%4 : tensor<?x?xf32>) -> tensor<?x?xf32>
    %6 = hal.tensor.export %5 "output 0" : tensor<?x?xf32>{%0, %1} -> !hal.buffer_view
    return %6 : !hal.buffer_view
  }
}


// -----// IR Dump After RemoveZeroExtentTensors (iree-global-opt-remove-zero-extent-tensors) //----- //
func.func @main(%arg0: !hal.buffer_view) -> !hal.buffer_view attributes {iree.abi.stub} {
  %cst = arith.constant 0.000000e+00 : f32
  %0 = hal.buffer_view.dim<%arg0 : !hal.buffer_view>[0] : index
  %1 = hal.buffer_view.dim<%arg0 : !hal.buffer_view>[1] : index
  %2 = hal.tensor.import %arg0 "input 0" : !hal.buffer_view -> tensor<?x?xf32>{%0, %1}
  %3 = tensor.empty(%0, %1) : tensor<?x?xf32>
  %4 = linalg.fill ins(%cst : f32) outs(%3 : tensor<?x?xf32>) -> tensor<?x?xf32>
  %5 = linalg.matmul ins(%2, %2 : tensor<?x?xf32>, tensor<?x?xf32>) outs(%4 : tensor<?x?xf32>) -> tensor<?x?xf32>
  %6 = hal.tensor.export %5 "output 0" : tensor<?x?xf32>{%0, %1} -> !hal.buffer_view
  return %6 : !hal.buffer_view
}

// -----// IR Dump After DetachElementwiseFromNamedOps (iree-global-opt-detach-elementwise-from-named-ops) //----- //
func.func @main(%arg0: !hal.buffer_view) -> !hal.buffer_view attributes {iree.abi.stub} {
  %cst = arith.constant 0.000000e+00 : f32
  %0 = hal.buffer_view.dim<%arg0 : !hal.buffer_view>[0] : index
  %1 = hal.buffer_view.dim<%arg0 : !hal.buffer_view>[1] : index
  %2 = hal.tensor.import %arg0 "input 0" : !hal.buffer_view -> tensor<?x?xf32>{%0, %1}
  %3 = tensor.empty(%0, %1) : tensor<?x?xf32>
  %4 = linalg.fill ins(%cst : f32) outs(%3 : tensor<?x?xf32>) -> tensor<?x?xf32>
  %5 = linalg.matmul ins(%2, %2 : tensor<?x?xf32>, tensor<?x?xf32>) outs(%4 : tensor<?x?xf32>) -> tensor<?x?xf32>
  %6 = hal.tensor.export %5 "output 0" : tensor<?x?xf32>{%0, %1} -> !hal.buffer_view
  return %6 : !hal.buffer_view
}

// -----// IR Dump After LinalgNamedOpConversion (linalg-named-op-conversion) //----- //
func.func @main(%arg0: !hal.buffer_view) -> !hal.buffer_view attributes {iree.abi.stub} {
  %cst = arith.constant 0.000000e+00 : f32
  %0 = hal.buffer_view.dim<%arg0 : !hal.buffer_view>[0] : index
  %1 = hal.buffer_view.dim<%arg0 : !hal.buffer_view>[1] : index
  %2 = hal.tensor.import %arg0 "input 0" : !hal.buffer_view -> tensor<?x?xf32>{%0, %1}
  %3 = tensor.empty(%0, %1) : tensor<?x?xf32>
  %4 = linalg.fill ins(%cst : f32) outs(%3 : tensor<?x?xf32>) -> tensor<?x?xf32>
  %5 = linalg.matmul ins(%2, %2 : tensor<?x?xf32>, tensor<?x?xf32>) outs(%4 : tensor<?x?xf32>) -> tensor<?x?xf32>
  %6 = hal.tensor.export %5 "output 0" : tensor<?x?xf32>{%0, %1} -> !hal.buffer_view
  return %6 : !hal.buffer_view
}

// -----// IR Dump After Convert1X1FilterConv2DToMatmul (iree-global-opt-convert-1x1-filter-conv2d-to-matmul) //----- //
func.func @main(%arg0: !hal.buffer_view) -> !hal.buffer_view attributes {iree.abi.stub} {
  %cst = arith.constant 0.000000e+00 : f32
  %0 = hal.buffer_view.dim<%arg0 : !hal.buffer_view>[0] : index
  %1 = hal.buffer_view.dim<%arg0 : !hal.buffer_view>[1] : index
  %2 = hal.tensor.import %arg0 "input 0" : !hal.buffer_view -> tensor<?x?xf32>{%0, %1}
  %3 = tensor.empty(%0, %1) : tensor<?x?xf32>
  %4 = linalg.fill ins(%cst : f32) outs(%3 : tensor<?x?xf32>) -> tensor<?x?xf32>
  %5 = linalg.matmul ins(%2, %2 : tensor<?x?xf32>, tensor<?x?xf32>) outs(%4 : tensor<?x?xf32>) -> tensor<?x?xf32>
  %6 = hal.tensor.export %5 "output 0" : tensor<?x?xf32>{%0, %1} -> !hal.buffer_view
  return %6 : !hal.buffer_view
}

// -----// IR Dump After EraseUnusedLinalgOperands (iree-global-opt-erase-unused-linalg-operands) //----- //
#executable_target_cuda_nvptx_fb = #hal.executable.target<"cuda", "cuda-nvptx-fb", {target_arch = "sm_75"}>
#device_target_cuda = #hal.device.target<"cuda", {executable_targets = [#executable_target_cuda_nvptx_fb], legacy_sync}>
module @LinearModule attributes {hal.device.targets = [#device_target_cuda]} {
  func.func @main(%arg0: !hal.buffer_view) -> !hal.buffer_view attributes {iree.abi.stub} {
    %cst = arith.constant 0.000000e+00 : f32
    %0 = hal.buffer_view.dim<%arg0 : !hal.buffer_view>[0] : index
    %1 = hal.buffer_view.dim<%arg0 : !hal.buffer_view>[1] : index
    %2 = hal.tensor.import %arg0 "input 0" : !hal.buffer_view -> tensor<?x?xf32>{%0, %1}
    %3 = tensor.empty(%0, %1) : tensor<?x?xf32>
    %4 = linalg.fill ins(%cst : f32) outs(%3 : tensor<?x?xf32>) -> tensor<?x?xf32>
    %5 = linalg.matmul ins(%2, %2 : tensor<?x?xf32>, tensor<?x?xf32>) outs(%4 : tensor<?x?xf32>) -> tensor<?x?xf32>
    %6 = hal.tensor.export %5 "output 0" : tensor<?x?xf32>{%0, %1} -> !hal.buffer_view
    return %6 : !hal.buffer_view
  }
}


// -----// IR Dump After ExpandTensorShapes (iree-flow-expand-tensor-shapes) //----- //
#executable_target_cuda_nvptx_fb = #hal.executable.target<"cuda", "cuda-nvptx-fb", {target_arch = "sm_75"}>
#device_target_cuda = #hal.device.target<"cuda", {executable_targets = [#executable_target_cuda_nvptx_fb], legacy_sync}>
module @LinearModule attributes {hal.device.targets = [#device_target_cuda]} {
  func.func @main(%arg0: !hal.buffer_view) -> !hal.buffer_view attributes {iree.abi.stub} {
    %cst = arith.constant 0.000000e+00 : f32
    %0 = hal.buffer_view.dim<%arg0 : !hal.buffer_view>[0] : index
    %1 = hal.buffer_view.dim<%arg0 : !hal.buffer_view>[1] : index
    %2 = hal.tensor.import %arg0 "input 0" : !hal.buffer_view -> tensor<?x?xf32>{%0, %1}
    %3 = tensor.empty(%0, %1) : tensor<?x?xf32>
    %4 = linalg.fill ins(%cst : f32) outs(%3 : tensor<?x?xf32>) -> tensor<?x?xf32>
    %5 = linalg.matmul ins(%2, %2 : tensor<?x?xf32>, tensor<?x?xf32>) outs(%4 : tensor<?x?xf32>) -> tensor<?x?xf32>
    %6 = hal.tensor.export %5 "output 0" : tensor<?x?xf32>{%0, %1} -> !hal.buffer_view
    return %6 : !hal.buffer_view
  }
}


// -----// IR Dump After ConvertElementwiseToLinalg (convert-elementwise-to-linalg) //----- //
func.func @main(%arg0: !hal.buffer_view) -> !hal.buffer_view attributes {iree.abi.stub} {
  %cst = arith.constant 0.000000e+00 : f32
  %0 = hal.buffer_view.dim<%arg0 : !hal.buffer_view>[0] : index
  %1 = hal.buffer_view.dim<%arg0 : !hal.buffer_view>[1] : index
  %2 = hal.tensor.import %arg0 "input 0" : !hal.buffer_view -> tensor<?x?xf32>{%0, %1}
  %3 = tensor.empty(%0, %1) : tensor<?x?xf32>
  %4 = linalg.fill ins(%cst : f32) outs(%3 : tensor<?x?xf32>) -> tensor<?x?xf32>
  %5 = linalg.matmul ins(%2, %2 : tensor<?x?xf32>, tensor<?x?xf32>) outs(%4 : tensor<?x?xf32>) -> tensor<?x?xf32>
  %6 = hal.tensor.export %5 "output 0" : tensor<?x?xf32>{%0, %1} -> !hal.buffer_view
  return %6 : !hal.buffer_view
}

// -----// IR Dump After GeneralizeLinalgNamedOps (iree-flow-generalize-linalg-named-ops) //----- //
func.func @main(%arg0: !hal.buffer_view) -> !hal.buffer_view attributes {iree.abi.stub} {
  %cst = arith.constant 0.000000e+00 : f32
  %0 = hal.buffer_view.dim<%arg0 : !hal.buffer_view>[0] : index
  %1 = hal.buffer_view.dim<%arg0 : !hal.buffer_view>[1] : index
  %2 = hal.tensor.import %arg0 "input 0" : !hal.buffer_view -> tensor<?x?xf32>{%0, %1}
  %3 = tensor.empty(%0, %1) : tensor<?x?xf32>
  %4 = linalg.fill ins(%cst : f32) outs(%3 : tensor<?x?xf32>) -> tensor<?x?xf32>
  %5 = linalg.matmul ins(%2, %2 : tensor<?x?xf32>, tensor<?x?xf32>) outs(%4 : tensor<?x?xf32>) -> tensor<?x?xf32>
  %6 = hal.tensor.export %5 "output 0" : tensor<?x?xf32>{%0, %1} -> !hal.buffer_view
  return %6 : !hal.buffer_view
}

// -----// IR Dump After RaiseSpecialOps (iree-flow-raise-special-ops) //----- //
func.func @main(%arg0: !hal.buffer_view) -> !hal.buffer_view attributes {iree.abi.stub} {
  %cst = arith.constant 0.000000e+00 : f32
  %0 = hal.buffer_view.dim<%arg0 : !hal.buffer_view>[0] : index
  %1 = hal.buffer_view.dim<%arg0 : !hal.buffer_view>[1] : index
  %2 = hal.tensor.import %arg0 "input 0" : !hal.buffer_view -> tensor<?x?xf32>{%0, %1}
  %3 = tensor.empty(%0, %1) : tensor<?x?xf32>
  %4 = linalg.fill ins(%cst : f32) outs(%3 : tensor<?x?xf32>) -> tensor<?x?xf32>
  %5 = linalg.matmul ins(%2, %2 : tensor<?x?xf32>, tensor<?x?xf32>) outs(%4 : tensor<?x?xf32>) -> tensor<?x?xf32>
  %6 = hal.tensor.export %5 "output 0" : tensor<?x?xf32>{%0, %1} -> !hal.buffer_view
  return %6 : !hal.buffer_view
}

// -----// IR Dump After FoldUnitExtentDims (iree-flow-fold-unit-extent-dims) //----- //
func.func @main(%arg0: !hal.buffer_view) -> !hal.buffer_view attributes {iree.abi.stub} {
  %cst = arith.constant 0.000000e+00 : f32
  %0 = hal.buffer_view.dim<%arg0 : !hal.buffer_view>[0] : index
  %1 = hal.buffer_view.dim<%arg0 : !hal.buffer_view>[1] : index
  %2 = hal.tensor.import %arg0 "input 0" : !hal.buffer_view -> tensor<?x?xf32>{%0, %1}
  %3 = tensor.empty(%0, %1) : tensor<?x?xf32>
  %4 = linalg.fill ins(%cst : f32) outs(%3 : tensor<?x?xf32>) -> tensor<?x?xf32>
  %5 = linalg.matmul ins(%2, %2 : tensor<?x?xf32>, tensor<?x?xf32>) outs(%4 : tensor<?x?xf32>) -> tensor<?x?xf32>
  %6 = hal.tensor.export %5 "output 0" : tensor<?x?xf32>{%0, %1} -> !hal.buffer_view
  return %6 : !hal.buffer_view
}

// -----// IR Dump After FuseDequantizationMatmul (iree-flow-fuse-dequantization-matmul) //----- //
func.func @main(%arg0: !hal.buffer_view) -> !hal.buffer_view attributes {iree.abi.stub} {
  %cst = arith.constant 0.000000e+00 : f32
  %0 = hal.buffer_view.dim<%arg0 : !hal.buffer_view>[0] : index
  %1 = hal.buffer_view.dim<%arg0 : !hal.buffer_view>[1] : index
  %2 = hal.tensor.import %arg0 "input 0" : !hal.buffer_view -> tensor<?x?xf32>{%0, %1}
  %3 = tensor.empty(%0, %1) : tensor<?x?xf32>
  %4 = linalg.fill ins(%cst : f32) outs(%3 : tensor<?x?xf32>) -> tensor<?x?xf32>
  %5 = linalg.matmul ins(%2, %2 : tensor<?x?xf32>, tensor<?x?xf32>) outs(%4 : tensor<?x?xf32>) -> tensor<?x?xf32>
  %6 = hal.tensor.export %5 "output 0" : tensor<?x?xf32>{%0, %1} -> !hal.buffer_view
  return %6 : !hal.buffer_view
}

// -----// IR Dump After Canonicalizer (canonicalize) //----- //
func.func @main(%arg0: !hal.buffer_view) -> !hal.buffer_view attributes {iree.abi.stub} {
  %cst = arith.constant 0.000000e+00 : f32
  %0 = hal.buffer_view.dim<%arg0 : !hal.buffer_view>[0] : index
  %1 = hal.buffer_view.dim<%arg0 : !hal.buffer_view>[1] : index
  %2 = hal.tensor.import %arg0 "input 0" : !hal.buffer_view -> tensor<?x?xf32>{%0, %1}
  %3 = tensor.empty(%0, %1) : tensor<?x?xf32>
  %4 = linalg.fill ins(%cst : f32) outs(%3 : tensor<?x?xf32>) -> tensor<?x?xf32>
  %5 = linalg.matmul ins(%2, %2 : tensor<?x?xf32>, tensor<?x?xf32>) outs(%4 : tensor<?x?xf32>) -> tensor<?x?xf32>
  %6 = hal.tensor.export %5 "output 0" : tensor<?x?xf32>{%0, %1} -> !hal.buffer_view
  return %6 : !hal.buffer_view
}

// -----// IR Dump After CSE (cse) //----- //
func.func @main(%arg0: !hal.buffer_view) -> !hal.buffer_view attributes {iree.abi.stub} {
  %cst = arith.constant 0.000000e+00 : f32
  %0 = hal.buffer_view.dim<%arg0 : !hal.buffer_view>[0] : index
  %1 = hal.buffer_view.dim<%arg0 : !hal.buffer_view>[1] : index
  %2 = hal.tensor.import %arg0 "input 0" : !hal.buffer_view -> tensor<?x?xf32>{%0, %1}
  %3 = tensor.empty(%0, %1) : tensor<?x?xf32>
  %4 = linalg.fill ins(%cst : f32) outs(%3 : tensor<?x?xf32>) -> tensor<?x?xf32>
  %5 = linalg.matmul ins(%2, %2 : tensor<?x?xf32>, tensor<?x?xf32>) outs(%4 : tensor<?x?xf32>) -> tensor<?x?xf32>
  %6 = hal.tensor.export %5 "output 0" : tensor<?x?xf32>{%0, %1} -> !hal.buffer_view
  return %6 : !hal.buffer_view
}

// -----// IR Dump After MaterializeHomogeneousEncodings (iree-global-opt-materialize-homogeneous-encodings) //----- //
#executable_target_cuda_nvptx_fb = #hal.executable.target<"cuda", "cuda-nvptx-fb", {target_arch = "sm_75"}>
#device_target_cuda = #hal.device.target<"cuda", {executable_targets = [#executable_target_cuda_nvptx_fb], legacy_sync}>
module @LinearModule attributes {hal.device.targets = [#device_target_cuda]} {
  func.func @main(%arg0: !hal.buffer_view) -> !hal.buffer_view attributes {iree.abi.stub} {
    %cst = arith.constant 0.000000e+00 : f32
    %0 = hal.buffer_view.dim<%arg0 : !hal.buffer_view>[0] : index
    %1 = hal.buffer_view.dim<%arg0 : !hal.buffer_view>[1] : index
    %2 = hal.tensor.import %arg0 "input 0" : !hal.buffer_view -> tensor<?x?xf32>{%0, %1}
    %3 = tensor.empty(%0, %1) : tensor<?x?xf32>
    %4 = linalg.fill ins(%cst : f32) outs(%3 : tensor<?x?xf32>) -> tensor<?x?xf32>
    %5 = linalg.matmul ins(%2, %2 : tensor<?x?xf32>, tensor<?x?xf32>) outs(%4 : tensor<?x?xf32>) -> tensor<?x?xf32>
    %6 = hal.tensor.export %5 "output 0" : tensor<?x?xf32>{%0, %1} -> !hal.buffer_view
    return %6 : !hal.buffer_view
  }
}


// -----// IR Dump After SimplifyGlobalAccesses (iree-util-simplify-global-accesses) //----- //
func.func @main(%arg0: !hal.buffer_view) -> !hal.buffer_view attributes {iree.abi.stub} {
  %cst = arith.constant 0.000000e+00 : f32
  %0 = hal.buffer_view.dim<%arg0 : !hal.buffer_view>[0] : index
  %1 = hal.buffer_view.dim<%arg0 : !hal.buffer_view>[1] : index
  %2 = hal.tensor.import %arg0 "input 0" : !hal.buffer_view -> tensor<?x?xf32>{%0, %1}
  %3 = tensor.empty(%0, %1) : tensor<?x?xf32>
  %4 = linalg.fill ins(%cst : f32) outs(%3 : tensor<?x?xf32>) -> tensor<?x?xf32>
  %5 = linalg.matmul ins(%2, %2 : tensor<?x?xf32>, tensor<?x?xf32>) outs(%4 : tensor<?x?xf32>) -> tensor<?x?xf32>
  %6 = hal.tensor.export %5 "output 0" : tensor<?x?xf32>{%0, %1} -> !hal.buffer_view
  return %6 : !hal.buffer_view
}

// -----// IR Dump After ApplyPatterns (iree-util-apply-patterns) //----- //
#executable_target_cuda_nvptx_fb = #hal.executable.target<"cuda", "cuda-nvptx-fb", {target_arch = "sm_75"}>
#device_target_cuda = #hal.device.target<"cuda", {executable_targets = [#executable_target_cuda_nvptx_fb], legacy_sync}>
module @LinearModule attributes {hal.device.targets = [#device_target_cuda], iree.fixedpoint.iteration = 0 : index} {
  func.func @main(%arg0: !hal.buffer_view) -> !hal.buffer_view attributes {iree.abi.stub} {
    %cst = arith.constant 0.000000e+00 : f32
    %0 = hal.buffer_view.dim<%arg0 : !hal.buffer_view>[0] : index
    %1 = hal.buffer_view.dim<%arg0 : !hal.buffer_view>[1] : index
    %2 = hal.tensor.import %arg0 "input 0" : !hal.buffer_view -> tensor<?x?xf32>{%0, %1}
    %3 = tensor.empty(%0, %1) : tensor<?x?xf32>
    %4 = linalg.fill ins(%cst : f32) outs(%3 : tensor<?x?xf32>) -> tensor<?x?xf32>
    %5 = linalg.matmul ins(%2, %2 : tensor<?x?xf32>, tensor<?x?xf32>) outs(%4 : tensor<?x?xf32>) -> tensor<?x?xf32>
    %6 = hal.tensor.export %5 "output 0" : tensor<?x?xf32>{%0, %1} -> !hal.buffer_view
    return %6 : !hal.buffer_view
  }
}


// -----// IR Dump After FoldGlobals (iree-util-fold-globals) //----- //
#executable_target_cuda_nvptx_fb = #hal.executable.target<"cuda", "cuda-nvptx-fb", {target_arch = "sm_75"}>
#device_target_cuda = #hal.device.target<"cuda", {executable_targets = [#executable_target_cuda_nvptx_fb], legacy_sync}>
module @LinearModule attributes {hal.device.targets = [#device_target_cuda], iree.fixedpoint.iteration = 0 : index} {
  func.func @main(%arg0: !hal.buffer_view) -> !hal.buffer_view attributes {iree.abi.stub} {
    %cst = arith.constant 0.000000e+00 : f32
    %0 = hal.buffer_view.dim<%arg0 : !hal.buffer_view>[0] : index
    %1 = hal.buffer_view.dim<%arg0 : !hal.buffer_view>[1] : index
    %2 = hal.tensor.import %arg0 "input 0" : !hal.buffer_view -> tensor<?x?xf32>{%0, %1}
    %3 = tensor.empty(%0, %1) : tensor<?x?xf32>
    %4 = linalg.fill ins(%cst : f32) outs(%3 : tensor<?x?xf32>) -> tensor<?x?xf32>
    %5 = linalg.matmul ins(%2, %2 : tensor<?x?xf32>, tensor<?x?xf32>) outs(%4 : tensor<?x?xf32>) -> tensor<?x?xf32>
    %6 = hal.tensor.export %5 "output 0" : tensor<?x?xf32>{%0, %1} -> !hal.buffer_view
    return %6 : !hal.buffer_view
  }
}


// -----// IR Dump After IPO (iree-util-ipo) //----- //
#executable_target_cuda_nvptx_fb = #hal.executable.target<"cuda", "cuda-nvptx-fb", {target_arch = "sm_75"}>
#device_target_cuda = #hal.device.target<"cuda", {executable_targets = [#executable_target_cuda_nvptx_fb], legacy_sync}>
module @LinearModule attributes {hal.device.targets = [#device_target_cuda], iree.fixedpoint.iteration = 0 : index} {
  func.func @main(%arg0: !hal.buffer_view) -> !hal.buffer_view attributes {iree.abi.stub} {
    %cst = arith.constant 0.000000e+00 : f32
    %0 = hal.buffer_view.dim<%arg0 : !hal.buffer_view>[0] : index
    %1 = hal.buffer_view.dim<%arg0 : !hal.buffer_view>[1] : index
    %2 = hal.tensor.import %arg0 "input 0" : !hal.buffer_view -> tensor<?x?xf32>{%0, %1}
    %3 = tensor.empty(%0, %1) : tensor<?x?xf32>
    %4 = linalg.fill ins(%cst : f32) outs(%3 : tensor<?x?xf32>) -> tensor<?x?xf32>
    %5 = linalg.matmul ins(%2, %2 : tensor<?x?xf32>, tensor<?x?xf32>) outs(%4 : tensor<?x?xf32>) -> tensor<?x?xf32>
    %6 = hal.tensor.export %5 "output 0" : tensor<?x?xf32>{%0, %1} -> !hal.buffer_view
    return %6 : !hal.buffer_view
  }
}


// -----// IR Dump After HoistIntoGlobals (iree-util-hoist-into-globals) //----- //
#executable_target_cuda_nvptx_fb = #hal.executable.target<"cuda", "cuda-nvptx-fb", {target_arch = "sm_75"}>
#device_target_cuda = #hal.device.target<"cuda", {executable_targets = [#executable_target_cuda_nvptx_fb], legacy_sync}>
module @LinearModule attributes {hal.device.targets = [#device_target_cuda], iree.fixedpoint.iteration = 0 : index} {
  func.func @main(%arg0: !hal.buffer_view) -> !hal.buffer_view attributes {iree.abi.stub} {
    %cst = arith.constant 0.000000e+00 : f32
    %0 = hal.buffer_view.dim<%arg0 : !hal.buffer_view>[0] : index
    %1 = hal.buffer_view.dim<%arg0 : !hal.buffer_view>[1] : index
    %2 = hal.tensor.import %arg0 "input 0" : !hal.buffer_view -> tensor<?x?xf32>{%0, %1}
    %3 = tensor.empty(%0, %1) : tensor<?x?xf32>
    %4 = linalg.fill ins(%cst : f32) outs(%3 : tensor<?x?xf32>) -> tensor<?x?xf32>
    %5 = linalg.matmul ins(%2, %2 : tensor<?x?xf32>, tensor<?x?xf32>) outs(%4 : tensor<?x?xf32>) -> tensor<?x?xf32>
    %6 = hal.tensor.export %5 "output 0" : tensor<?x?xf32>{%0, %1} -> !hal.buffer_view
    return %6 : !hal.buffer_view
  }
}


// -----// IR Dump After JitGlobals (iree-consteval-jit-globals) //----- //
#executable_target_cuda_nvptx_fb = #hal.executable.target<"cuda", "cuda-nvptx-fb", {target_arch = "sm_75"}>
#device_target_cuda = #hal.device.target<"cuda", {executable_targets = [#executable_target_cuda_nvptx_fb], legacy_sync}>
module @LinearModule attributes {hal.device.targets = [#device_target_cuda], iree.fixedpoint.iteration = 0 : index} {
  func.func @main(%arg0: !hal.buffer_view) -> !hal.buffer_view attributes {iree.abi.stub} {
    %cst = arith.constant 0.000000e+00 : f32
    %0 = hal.buffer_view.dim<%arg0 : !hal.buffer_view>[0] : index
    %1 = hal.buffer_view.dim<%arg0 : !hal.buffer_view>[1] : index
    %2 = hal.tensor.import %arg0 "input 0" : !hal.buffer_view -> tensor<?x?xf32>{%0, %1}
    %3 = tensor.empty(%0, %1) : tensor<?x?xf32>
    %4 = linalg.fill ins(%cst : f32) outs(%3 : tensor<?x?xf32>) -> tensor<?x?xf32>
    %5 = linalg.matmul ins(%2, %2 : tensor<?x?xf32>, tensor<?x?xf32>) outs(%4 : tensor<?x?xf32>) -> tensor<?x?xf32>
    %6 = hal.tensor.export %5 "output 0" : tensor<?x?xf32>{%0, %1} -> !hal.buffer_view
    return %6 : !hal.buffer_view
  }
}


// -----// IR Dump After Canonicalizer (canonicalize) //----- //
func.func @main(%arg0: !hal.buffer_view) -> !hal.buffer_view attributes {iree.abi.stub} {
  %cst = arith.constant 0.000000e+00 : f32
  %0 = hal.buffer_view.dim<%arg0 : !hal.buffer_view>[0] : index
  %1 = hal.buffer_view.dim<%arg0 : !hal.buffer_view>[1] : index
  %2 = hal.tensor.import %arg0 "input 0" : !hal.buffer_view -> tensor<?x?xf32>{%0, %1}
  %3 = tensor.empty(%0, %1) : tensor<?x?xf32>
  %4 = linalg.fill ins(%cst : f32) outs(%3 : tensor<?x?xf32>) -> tensor<?x?xf32>
  %5 = linalg.matmul ins(%2, %2 : tensor<?x?xf32>, tensor<?x?xf32>) outs(%4 : tensor<?x?xf32>) -> tensor<?x?xf32>
  %6 = hal.tensor.export %5 "output 0" : tensor<?x?xf32>{%0, %1} -> !hal.buffer_view
  return %6 : !hal.buffer_view
}

// -----// IR Dump After CSE (cse) //----- //
func.func @main(%arg0: !hal.buffer_view) -> !hal.buffer_view attributes {iree.abi.stub} {
  %cst = arith.constant 0.000000e+00 : f32
  %0 = hal.buffer_view.dim<%arg0 : !hal.buffer_view>[0] : index
  %1 = hal.buffer_view.dim<%arg0 : !hal.buffer_view>[1] : index
  %2 = hal.tensor.import %arg0 "input 0" : !hal.buffer_view -> tensor<?x?xf32>{%0, %1}
  %3 = tensor.empty(%0, %1) : tensor<?x?xf32>
  %4 = linalg.fill ins(%cst : f32) outs(%3 : tensor<?x?xf32>) -> tensor<?x?xf32>
  %5 = linalg.matmul ins(%2, %2 : tensor<?x?xf32>, tensor<?x?xf32>) outs(%4 : tensor<?x?xf32>) -> tensor<?x?xf32>
  %6 = hal.tensor.export %5 "output 0" : tensor<?x?xf32>{%0, %1} -> !hal.buffer_view
  return %6 : !hal.buffer_view
}

// -----// IR Dump After FixedPointIterator (iree-util-fixed-point-iterator) //----- //
#executable_target_cuda_nvptx_fb = #hal.executable.target<"cuda", "cuda-nvptx-fb", {target_arch = "sm_75"}>
#device_target_cuda = #hal.device.target<"cuda", {executable_targets = [#executable_target_cuda_nvptx_fb], legacy_sync}>
module @LinearModule attributes {hal.device.targets = [#device_target_cuda]} {
  func.func @main(%arg0: !hal.buffer_view) -> !hal.buffer_view attributes {iree.abi.stub} {
    %cst = arith.constant 0.000000e+00 : f32
    %0 = hal.buffer_view.dim<%arg0 : !hal.buffer_view>[0] : index
    %1 = hal.buffer_view.dim<%arg0 : !hal.buffer_view>[1] : index
    %2 = hal.tensor.import %arg0 "input 0" : !hal.buffer_view -> tensor<?x?xf32>{%0, %1}
    %3 = tensor.empty(%0, %1) : tensor<?x?xf32>
    %4 = linalg.fill ins(%cst : f32) outs(%3 : tensor<?x?xf32>) -> tensor<?x?xf32>
    %5 = linalg.matmul ins(%2, %2 : tensor<?x?xf32>, tensor<?x?xf32>) outs(%4 : tensor<?x?xf32>) -> tensor<?x?xf32>
    %6 = hal.tensor.export %5 "output 0" : tensor<?x?xf32>{%0, %1} -> !hal.buffer_view
    return %6 : !hal.buffer_view
  }
}


// -----// IR Dump After VerifyInputLegality (iree-verify-input-legality) //----- //
#executable_target_cuda_nvptx_fb = #hal.executable.target<"cuda", "cuda-nvptx-fb", {target_arch = "sm_75"}>
#device_target_cuda = #hal.device.target<"cuda", {executable_targets = [#executable_target_cuda_nvptx_fb], legacy_sync}>
module @LinearModule attributes {hal.device.targets = [#device_target_cuda]} {
  func.func @main(%arg0: !hal.buffer_view) -> !hal.buffer_view attributes {iree.abi.stub} {
    %cst = arith.constant 0.000000e+00 : f32
    %0 = hal.buffer_view.dim<%arg0 : !hal.buffer_view>[0] : index
    %1 = hal.buffer_view.dim<%arg0 : !hal.buffer_view>[1] : index
    %2 = hal.tensor.import %arg0 "input 0" : !hal.buffer_view -> tensor<?x?xf32>{%0, %1}
    %3 = tensor.empty(%0, %1) : tensor<?x?xf32>
    %4 = linalg.fill ins(%cst : f32) outs(%3 : tensor<?x?xf32>) -> tensor<?x?xf32>
    %5 = linalg.matmul ins(%2, %2 : tensor<?x?xf32>, tensor<?x?xf32>) outs(%4 : tensor<?x?xf32>) -> tensor<?x?xf32>
    %6 = hal.tensor.export %5 "output 0" : tensor<?x?xf32>{%0, %1} -> !hal.buffer_view
    return %6 : !hal.buffer_view
  }
}


// -----// IR Dump After TensorPadToTensorInsertSlice (iree-flow-tensor-pad-to-tensor-insert-slice) //----- //
#executable_target_cuda_nvptx_fb = #hal.executable.target<"cuda", "cuda-nvptx-fb", {target_arch = "sm_75"}>
#device_target_cuda = #hal.device.target<"cuda", {executable_targets = [#executable_target_cuda_nvptx_fb], legacy_sync}>
module @LinearModule attributes {hal.device.targets = [#device_target_cuda]} {
  func.func @main(%arg0: !hal.buffer_view) -> !hal.buffer_view attributes {iree.abi.stub} {
    %cst = arith.constant 0.000000e+00 : f32
    %0 = hal.buffer_view.dim<%arg0 : !hal.buffer_view>[0] : index
    %1 = hal.buffer_view.dim<%arg0 : !hal.buffer_view>[1] : index
    %2 = hal.tensor.import %arg0 "input 0" : !hal.buffer_view -> tensor<?x?xf32>{%0, %1}
    %3 = tensor.empty(%0, %1) : tensor<?x?xf32>
    %4 = linalg.fill ins(%cst : f32) outs(%3 : tensor<?x?xf32>) -> tensor<?x?xf32>
    %5 = linalg.matmul ins(%2, %2 : tensor<?x?xf32>, tensor<?x?xf32>) outs(%4 : tensor<?x?xf32>) -> tensor<?x?xf32>
    %6 = hal.tensor.export %5 "output 0" : tensor<?x?xf32>{%0, %1} -> !hal.buffer_view
    return %6 : !hal.buffer_view
  }
}


// -----// IR Dump After RaiseSpecialOps (iree-flow-raise-special-ops) //----- //
func.func @main(%arg0: !hal.buffer_view) -> !hal.buffer_view attributes {iree.abi.stub} {
  %cst = arith.constant 0.000000e+00 : f32
  %0 = hal.buffer_view.dim<%arg0 : !hal.buffer_view>[0] : index
  %1 = hal.buffer_view.dim<%arg0 : !hal.buffer_view>[1] : index
  %2 = hal.tensor.import %arg0 "input 0" : !hal.buffer_view -> tensor<?x?xf32>{%0, %1}
  %3 = tensor.empty(%0, %1) : tensor<?x?xf32>
  %4 = linalg.fill ins(%cst : f32) outs(%3 : tensor<?x?xf32>) -> tensor<?x?xf32>
  %5 = linalg.matmul ins(%2, %2 : tensor<?x?xf32>, tensor<?x?xf32>) outs(%4 : tensor<?x?xf32>) -> tensor<?x?xf32>
  %6 = hal.tensor.export %5 "output 0" : tensor<?x?xf32>{%0, %1} -> !hal.buffer_view
  return %6 : !hal.buffer_view
}

// -----// IR Dump After InterchangeGenericOps (iree-flow-interchange-generic-ops) //----- //
func.func @main(%arg0: !hal.buffer_view) -> !hal.buffer_view attributes {iree.abi.stub} {
  %cst = arith.constant 0.000000e+00 : f32
  %0 = hal.buffer_view.dim<%arg0 : !hal.buffer_view>[0] : index
  %1 = hal.buffer_view.dim<%arg0 : !hal.buffer_view>[1] : index
  %2 = hal.tensor.import %arg0 "input 0" : !hal.buffer_view -> tensor<?x?xf32>{%0, %1}
  %3 = tensor.empty(%0, %1) : tensor<?x?xf32>
  %4 = linalg.fill ins(%cst : f32) outs(%3 : tensor<?x?xf32>) -> tensor<?x?xf32>
  %5 = linalg.matmul ins(%2, %2 : tensor<?x?xf32>, tensor<?x?xf32>) outs(%4 : tensor<?x?xf32>) -> tensor<?x?xf32>
  %6 = hal.tensor.export %5 "output 0" : tensor<?x?xf32>{%0, %1} -> !hal.buffer_view
  return %6 : !hal.buffer_view
}

// -----// IR Dump After CollapseDims (iree-flow-collapse-dims) //----- //
func.func @main(%arg0: !hal.buffer_view) -> !hal.buffer_view attributes {iree.abi.stub} {
  %cst = arith.constant 0.000000e+00 : f32
  %0 = hal.buffer_view.dim<%arg0 : !hal.buffer_view>[0] : index
  %1 = hal.buffer_view.dim<%arg0 : !hal.buffer_view>[1] : index
  %2 = hal.tensor.import %arg0 "input 0" : !hal.buffer_view -> tensor<?x?xf32>{%0, %1}
  %3 = tensor.empty(%0, %1) : tensor<?x?xf32>
  %4 = linalg.fill ins(%cst : f32) outs(%3 : tensor<?x?xf32>) -> tensor<?x?xf32>
  %5 = linalg.matmul ins(%2, %2 : tensor<?x?xf32>, tensor<?x?xf32>) outs(%4 : tensor<?x?xf32>) -> tensor<?x?xf32>
  %6 = hal.tensor.export %5 "output 0" : tensor<?x?xf32>{%0, %1} -> !hal.buffer_view
  return %6 : !hal.buffer_view
}

// -----// IR Dump After ResolveShapedTypeResultDims (resolve-shaped-type-result-dims) //----- //
func.func @main(%arg0: !hal.buffer_view) -> !hal.buffer_view attributes {iree.abi.stub} {
  %cst = arith.constant 0.000000e+00 : f32
  %0 = hal.buffer_view.dim<%arg0 : !hal.buffer_view>[0] : index
  %1 = hal.buffer_view.dim<%arg0 : !hal.buffer_view>[1] : index
  %2 = hal.tensor.import %arg0 "input 0" : !hal.buffer_view -> tensor<?x?xf32>{%0, %1}
  %3 = tensor.empty(%0, %1) : tensor<?x?xf32>
  %4 = linalg.fill ins(%cst : f32) outs(%3 : tensor<?x?xf32>) -> tensor<?x?xf32>
  %5 = linalg.matmul ins(%2, %2 : tensor<?x?xf32>, tensor<?x?xf32>) outs(%4 : tensor<?x?xf32>) -> tensor<?x?xf32>
  %6 = hal.tensor.export %5 "output 0" : tensor<?x?xf32>{%0, %1} -> !hal.buffer_view
  return %6 : !hal.buffer_view
}

// -----// IR Dump After Canonicalizer (canonicalize) //----- //
func.func @main(%arg0: !hal.buffer_view) -> !hal.buffer_view attributes {iree.abi.stub} {
  %cst = arith.constant 0.000000e+00 : f32
  %0 = hal.buffer_view.dim<%arg0 : !hal.buffer_view>[0] : index
  %1 = hal.buffer_view.dim<%arg0 : !hal.buffer_view>[1] : index
  %2 = hal.tensor.import %arg0 "input 0" : !hal.buffer_view -> tensor<?x?xf32>{%0, %1}
  %3 = tensor.empty(%0, %1) : tensor<?x?xf32>
  %4 = linalg.fill ins(%cst : f32) outs(%3 : tensor<?x?xf32>) -> tensor<?x?xf32>
  %5 = linalg.matmul ins(%2, %2 : tensor<?x?xf32>, tensor<?x?xf32>) outs(%4 : tensor<?x?xf32>) -> tensor<?x?xf32>
  %6 = hal.tensor.export %5 "output 0" : tensor<?x?xf32>{%0, %1} -> !hal.buffer_view
  return %6 : !hal.buffer_view
}

// -----// IR Dump After CSE (cse) //----- //
func.func @main(%arg0: !hal.buffer_view) -> !hal.buffer_view attributes {iree.abi.stub} {
  %cst = arith.constant 0.000000e+00 : f32
  %0 = hal.buffer_view.dim<%arg0 : !hal.buffer_view>[0] : index
  %1 = hal.buffer_view.dim<%arg0 : !hal.buffer_view>[1] : index
  %2 = hal.tensor.import %arg0 "input 0" : !hal.buffer_view -> tensor<?x?xf32>{%0, %1}
  %3 = tensor.empty(%0, %1) : tensor<?x?xf32>
  %4 = linalg.fill ins(%cst : f32) outs(%3 : tensor<?x?xf32>) -> tensor<?x?xf32>
  %5 = linalg.matmul ins(%2, %2 : tensor<?x?xf32>, tensor<?x?xf32>) outs(%4 : tensor<?x?xf32>) -> tensor<?x?xf32>
  %6 = hal.tensor.export %5 "output 0" : tensor<?x?xf32>{%0, %1} -> !hal.buffer_view
  return %6 : !hal.buffer_view
}

// -----// IR Dump After FusionOfTensorOps (iree-flow-fusion-of-tensor-ops) //----- //
func.func @main(%arg0: !hal.buffer_view) -> !hal.buffer_view attributes {iree.abi.stub} {
  %cst = arith.constant 0.000000e+00 : f32
  %0 = hal.buffer_view.dim<%arg0 : !hal.buffer_view>[0] : index
  %1 = hal.buffer_view.dim<%arg0 : !hal.buffer_view>[1] : index
  %2 = hal.tensor.import %arg0 "input 0" : !hal.buffer_view -> tensor<?x?xf32>{%0, %1}
  %3 = tensor.empty(%0, %1) : tensor<?x?xf32>
  %4 = linalg.fill ins(%cst : f32) outs(%3 : tensor<?x?xf32>) -> tensor<?x?xf32>
  %5 = linalg.matmul ins(%2, %2 : tensor<?x?xf32>, tensor<?x?xf32>) outs(%4 : tensor<?x?xf32>) -> tensor<?x?xf32>
  %6 = hal.tensor.export %5 "output 0" : tensor<?x?xf32>{%0, %1} -> !hal.buffer_view
  return %6 : !hal.buffer_view
}

// -----// IR Dump After Canonicalizer (canonicalize) //----- //
func.func @main(%arg0: !hal.buffer_view) -> !hal.buffer_view attributes {iree.abi.stub} {
  %cst = arith.constant 0.000000e+00 : f32
  %0 = hal.buffer_view.dim<%arg0 : !hal.buffer_view>[0] : index
  %1 = hal.buffer_view.dim<%arg0 : !hal.buffer_view>[1] : index
  %2 = hal.tensor.import %arg0 "input 0" : !hal.buffer_view -> tensor<?x?xf32>{%0, %1}
  %3 = tensor.empty(%0, %1) : tensor<?x?xf32>
  %4 = linalg.fill ins(%cst : f32) outs(%3 : tensor<?x?xf32>) -> tensor<?x?xf32>
  %5 = linalg.matmul ins(%2, %2 : tensor<?x?xf32>, tensor<?x?xf32>) outs(%4 : tensor<?x?xf32>) -> tensor<?x?xf32>
  %6 = hal.tensor.export %5 "output 0" : tensor<?x?xf32>{%0, %1} -> !hal.buffer_view
  return %6 : !hal.buffer_view
}

// -----// IR Dump After CSE (cse) //----- //
func.func @main(%arg0: !hal.buffer_view) -> !hal.buffer_view attributes {iree.abi.stub} {
  %cst = arith.constant 0.000000e+00 : f32
  %0 = hal.buffer_view.dim<%arg0 : !hal.buffer_view>[0] : index
  %1 = hal.buffer_view.dim<%arg0 : !hal.buffer_view>[1] : index
  %2 = hal.tensor.import %arg0 "input 0" : !hal.buffer_view -> tensor<?x?xf32>{%0, %1}
  %3 = tensor.empty(%0, %1) : tensor<?x?xf32>
  %4 = linalg.fill ins(%cst : f32) outs(%3 : tensor<?x?xf32>) -> tensor<?x?xf32>
  %5 = linalg.matmul ins(%2, %2 : tensor<?x?xf32>, tensor<?x?xf32>) outs(%4 : tensor<?x?xf32>) -> tensor<?x?xf32>
  %6 = hal.tensor.export %5 "output 0" : tensor<?x?xf32>{%0, %1} -> !hal.buffer_view
  return %6 : !hal.buffer_view
}

// -----// IR Dump After SplitReduction (iree-flow-split-reduction-ops) //----- //
func.func @main(%arg0: !hal.buffer_view) -> !hal.buffer_view attributes {iree.abi.stub} {
  %cst = arith.constant 0.000000e+00 : f32
  %0 = hal.buffer_view.dim<%arg0 : !hal.buffer_view>[0] : index
  %1 = hal.buffer_view.dim<%arg0 : !hal.buffer_view>[1] : index
  %2 = hal.tensor.import %arg0 "input 0" : !hal.buffer_view -> tensor<?x?xf32>{%0, %1}
  %3 = tensor.empty(%0, %1) : tensor<?x?xf32>
  %4 = linalg.fill ins(%cst : f32) outs(%3 : tensor<?x?xf32>) -> tensor<?x?xf32>
  %5 = linalg.matmul ins(%2, %2 : tensor<?x?xf32>, tensor<?x?xf32>) outs(%4 : tensor<?x?xf32>) -> tensor<?x?xf32>
  %6 = hal.tensor.export %5 "output 0" : tensor<?x?xf32>{%0, %1} -> !hal.buffer_view
  return %6 : !hal.buffer_view
}

// -----// IR Dump After InterchangeGenericOps (iree-flow-interchange-generic-ops) //----- //
func.func @main(%arg0: !hal.buffer_view) -> !hal.buffer_view attributes {iree.abi.stub} {
  %cst = arith.constant 0.000000e+00 : f32
  %0 = hal.buffer_view.dim<%arg0 : !hal.buffer_view>[0] : index
  %1 = hal.buffer_view.dim<%arg0 : !hal.buffer_view>[1] : index
  %2 = hal.tensor.import %arg0 "input 0" : !hal.buffer_view -> tensor<?x?xf32>{%0, %1}
  %3 = tensor.empty(%0, %1) : tensor<?x?xf32>
  %4 = linalg.fill ins(%cst : f32) outs(%3 : tensor<?x?xf32>) -> tensor<?x?xf32>
  %5 = linalg.matmul ins(%2, %2 : tensor<?x?xf32>, tensor<?x?xf32>) outs(%4 : tensor<?x?xf32>) -> tensor<?x?xf32>
  %6 = hal.tensor.export %5 "output 0" : tensor<?x?xf32>{%0, %1} -> !hal.buffer_view
  return %6 : !hal.buffer_view
}

// -----// IR Dump After FormScalarDispatches (iree-flow-form-scalar-dispatches) //----- //
func.func @main(%arg0: !hal.buffer_view) -> !hal.buffer_view attributes {iree.abi.stub} {
  %cst = arith.constant 0.000000e+00 : f32
  %0 = hal.buffer_view.dim<%arg0 : !hal.buffer_view>[0] : index
  %1 = hal.buffer_view.dim<%arg0 : !hal.buffer_view>[1] : index
  %2 = hal.tensor.import %arg0 "input 0" : !hal.buffer_view -> tensor<?x?xf32>{%0, %1}
  %3 = tensor.empty(%0, %1) : tensor<?x?xf32>
  %4 = linalg.fill ins(%cst : f32) outs(%3 : tensor<?x?xf32>) -> tensor<?x?xf32>
  %5 = linalg.matmul ins(%2, %2 : tensor<?x?xf32>, tensor<?x?xf32>) outs(%4 : tensor<?x?xf32>) -> tensor<?x?xf32>
  %6 = hal.tensor.export %5 "output 0" : tensor<?x?xf32>{%0, %1} -> !hal.buffer_view
  return %6 : !hal.buffer_view
}

// -----// IR Dump After FormDispatchRegions (iree-flow-form-dispatch-regions) //----- //
func.func @main(%arg0: !hal.buffer_view) -> !hal.buffer_view attributes {iree.abi.stub} {
  %cst = arith.constant 0.000000e+00 : f32
  %0 = hal.buffer_view.dim<%arg0 : !hal.buffer_view>[0] : index
  %1 = hal.buffer_view.dim<%arg0 : !hal.buffer_view>[1] : index
  %2 = hal.tensor.import %arg0 "input 0" : !hal.buffer_view -> tensor<?x?xf32>{%0, %1}
  %3 = tensor.empty(%0, %1) : tensor<?x?xf32>
  %4 = linalg.fill ins(%cst : f32) outs(%3 : tensor<?x?xf32>) -> tensor<?x?xf32>
  %5 = flow.dispatch.region -> (tensor<?x?xf32>{%0, %1}) {
    %7 = linalg.matmul ins(%2, %2 : tensor<?x?xf32>, tensor<?x?xf32>) outs(%4 : tensor<?x?xf32>) -> tensor<?x?xf32>
    flow.return %7 : tensor<?x?xf32>
  }
  %6 = hal.tensor.export %5 "output 0" : tensor<?x?xf32>{%0, %1} -> !hal.buffer_view
  return %6 : !hal.buffer_view
}

// -----// IR Dump After CollapseDimensions (iree-flow-collapse-dimensions) //----- //
func.func @main(%arg0: !hal.buffer_view) -> !hal.buffer_view attributes {iree.abi.stub} {
  %cst = arith.constant 0.000000e+00 : f32
  %0 = hal.buffer_view.dim<%arg0 : !hal.buffer_view>[0] : index
  %1 = hal.buffer_view.dim<%arg0 : !hal.buffer_view>[1] : index
  %2 = hal.tensor.import %arg0 "input 0" : !hal.buffer_view -> tensor<?x?xf32>{%0, %1}
  %3 = tensor.empty(%0, %1) : tensor<?x?xf32>
  %4 = linalg.fill ins(%cst : f32) outs(%3 : tensor<?x?xf32>) -> tensor<?x?xf32>
  %5 = flow.dispatch.region -> (tensor<?x?xf32>{%0, %1}) {
    %7 = linalg.matmul ins(%2, %2 : tensor<?x?xf32>, tensor<?x?xf32>) outs(%4 : tensor<?x?xf32>) -> tensor<?x?xf32>
    flow.return %7 : tensor<?x?xf32>
  }
  %6 = hal.tensor.export %5 "output 0" : tensor<?x?xf32>{%0, %1} -> !hal.buffer_view
  return %6 : !hal.buffer_view
}

// -----// IR Dump After CloneProducersIntoDispatchRegions (iree-flow-clone-producers-into-dispatch-regions) //----- //
func.func @main(%arg0: !hal.buffer_view) -> !hal.buffer_view attributes {iree.abi.stub} {
  %cst = arith.constant 0.000000e+00 : f32
  %0 = hal.buffer_view.dim<%arg0 : !hal.buffer_view>[0] : index
  %1 = hal.buffer_view.dim<%arg0 : !hal.buffer_view>[1] : index
  %2 = hal.tensor.import %arg0 "input 0" : !hal.buffer_view -> tensor<?x?xf32>{%0, %1}
  %3 = tensor.empty(%0, %1) : tensor<?x?xf32>
  %4 = linalg.fill ins(%cst : f32) outs(%3 : tensor<?x?xf32>) -> tensor<?x?xf32>
  %5 = flow.dispatch.region -> (tensor<?x?xf32>{%0, %1}) {
    %7 = tensor.empty(%0, %1) : tensor<?x?xf32>
    %cst_0 = arith.constant 0.000000e+00 : f32
    %8 = linalg.fill ins(%cst_0 : f32) outs(%7 : tensor<?x?xf32>) -> tensor<?x?xf32>
    %9 = linalg.matmul ins(%2, %2 : tensor<?x?xf32>, tensor<?x?xf32>) outs(%8 : tensor<?x?xf32>) -> tensor<?x?xf32>
    flow.return %9 : tensor<?x?xf32>
  }
  %6 = hal.tensor.export %5 "output 0" : tensor<?x?xf32>{%0, %1} -> !hal.buffer_view
  return %6 : !hal.buffer_view
}

// -----// IR Dump After FormDispatchWorkgroups (iree-flow-form-dispatch-workgroups) //----- //
func.func @main(%arg0: !hal.buffer_view) -> !hal.buffer_view attributes {iree.abi.stub} {
  %0 = hal.buffer_view.dim<%arg0 : !hal.buffer_view>[0] : index
  %1 = hal.buffer_view.dim<%arg0 : !hal.buffer_view>[1] : index
  %2 = hal.tensor.import %arg0 "input 0" : !hal.buffer_view -> tensor<?x?xf32>{%0, %1}
  %3 = flow.dispatch.workgroups[%0, %1](%2, %0, %1) : (tensor<?x?xf32>{%0, %1}, index, index) -> tensor<?x?xf32>{%0, %1} =
      (%arg1: !flow.dispatch.tensor<readonly:tensor<?x?xf32>>, %arg2: index, %arg3: index, %arg4: !flow.dispatch.tensor<writeonly:tensor<?x?xf32>>) {
    %5 = flow.dispatch.workload.ordinal %arg2, 0 : index
    %6 = flow.dispatch.workload.ordinal %arg3, 1 : index
    %cst = arith.constant 0.000000e+00 : f32
    %7 = flow.dispatch.tensor.load %arg1, offsets = [0, 0], sizes = [%5, %6], strides = [1, 1] : !flow.dispatch.tensor<readonly:tensor<?x?xf32>>{%5, %6} -> tensor<?x?xf32>
    %8 = tensor.empty(%5, %6) : tensor<?x?xf32>
    %9 = linalg.fill ins(%cst : f32) outs(%8 : tensor<?x?xf32>) -> tensor<?x?xf32>
    %10 = linalg.matmul ins(%7, %7 : tensor<?x?xf32>, tensor<?x?xf32>) outs(%9 : tensor<?x?xf32>) -> tensor<?x?xf32>
    flow.dispatch.tensor.store %10, %arg4, offsets = [0, 0], sizes = [%5, %6], strides = [1, 1] : tensor<?x?xf32> -> !flow.dispatch.tensor<writeonly:tensor<?x?xf32>>{%5, %6}
    flow.return
  } count(%arg1: index, %arg2: index) -> (index, index, index) {
    %x, %y, %z = flow.dispatch.workgroup_count_from_slice %arg1, %arg2
    flow.return %x, %y, %z : index, index, index
  }
  %4 = hal.tensor.export %3 "output 0" : tensor<?x?xf32>{%0, %1} -> !hal.buffer_view
  return %4 : !hal.buffer_view
}

// -----// IR Dump After CaptureDispatchDynamicDims (iree-flow-capture-dispatch-dynamic-dims) //----- // //
func.func @main(%arg0: !hal.buffer_view) -> !hal.buffer_view attributes {iree.abi.stub} {
  %0 = hal.buffer_view.dim<%arg0 : !hal.buffer_view>[0] : index
  %1 = hal.buffer_view.dim<%arg0 : !hal.buffer_view>[1] : index
  %2 = hal.tensor.import %arg0 "input 0" : !hal.buffer_view -> tensor<?x?xf32>{%0, %1}
  %3 = flow.dispatch.workgroups[%0, %1](%2, %0, %1) : (tensor<?x?xf32>{%0, %1}, index, index) -> tensor<?x?xf32>{%0, %1} =
      (%arg1: !flow.dispatch.tensor<readonly:tensor<?x?xf32>>, %arg2: index, %arg3: index, %arg4: !flow.dispatch.tensor<writeonly:tensor<?x?xf32>>) {
    %5 = flow.dispatch.tie_shape %arg1 : !flow.dispatch.tensor<readonly:tensor<?x?xf32>>{%arg2, %arg3}
    %6 = flow.dispatch.tie_shape %arg4 : !flow.dispatch.tensor<writeonly:tensor<?x?xf32>>{%arg2, %arg3}
    %7 = flow.dispatch.workload.ordinal %arg2, 0 : index
    %8 = flow.dispatch.workload.ordinal %arg3, 1 : index
    %cst = arith.constant 0.000000e+00 : f32
    %9 = flow.dispatch.tensor.load %5, offsets = [0, 0], sizes = [%7, %8], strides = [1, 1] : !flow.dispatch.tensor<readonly:tensor<?x?xf32>>{%7, %8} -> tensor<?x?xf32>
    %10 = tensor.empty(%7, %8) : tensor<?x?xf32>
    %11 = linalg.fill ins(%cst : f32) outs(%10 : tensor<?x?xf32>) -> tensor<?x?xf32>
    %12 = linalg.matmul ins(%9, %9 : tensor<?x?xf32>, tensor<?x?xf32>) outs(%11 : tensor<?x?xf32>) -> tensor<?x?xf32>
    flow.dispatch.tensor.store %12, %6, offsets = [0, 0], sizes = [%7, %8], strides = [1, 1] : tensor<?x?xf32> -> !flow.dispatch.tensor<writeonly:tensor<?x?xf32>>{%7, %8}
    flow.return
  } count(%arg1: index, %arg2: index) -> (index, index, index) {
    %x, %y, %z = flow.dispatch.workgroup_count_from_slice %arg1, %arg2
    flow.return %x, %y, %z : index, index, index
  }
  %4 = hal.tensor.export %3 "output 0" : tensor<?x?xf32>{%0, %1} -> !hal.buffer_view
  return %4 : !hal.buffer_view
}

// -----// IR Dump After Canonicalizer (canonicalize) //----- //
func.func @main(%arg0: !hal.buffer_view) -> !hal.buffer_view attributes {iree.abi.stub} {
  %0 = hal.buffer_view.dim<%arg0 : !hal.buffer_view>[0] : index
  %1 = hal.buffer_view.dim<%arg0 : !hal.buffer_view>[1] : index
  %2 = hal.tensor.import %arg0 "input 0" : !hal.buffer_view -> tensor<?x?xf32>{%0, %1}
  %3 = flow.dispatch.workgroups[%0, %1](%2, %0, %1) : (tensor<?x?xf32>{%0, %1}, index, index) -> tensor<?x?xf32>{%0, %1} =
      (%arg1: !flow.dispatch.tensor<readonly:tensor<?x?xf32>>, %arg2: index, %arg3: index, %arg4: !flow.dispatch.tensor<writeonly:tensor<?x?xf32>>) {
    %cst = arith.constant 0.000000e+00 : f32
    %5 = flow.dispatch.workload.ordinal %arg2, 0 : index
    %6 = flow.dispatch.workload.ordinal %arg3, 1 : index
    %7 = flow.dispatch.tie_shape %arg1 : !flow.dispatch.tensor<readonly:tensor<?x?xf32>>{%5, %6}
    %8 = flow.dispatch.tie_shape %arg4 : !flow.dispatch.tensor<writeonly:tensor<?x?xf32>>{%5, %6}
    %9 = flow.dispatch.tensor.load %7, offsets = [0, 0], sizes = [%5, %6], strides = [1, 1] : !flow.dispatch.tensor<readonly:tensor<?x?xf32>>{%5, %6} -> tensor<?x?xf32>
    %10 = tensor.empty(%5, %6) : tensor<?x?xf32>
    %11 = linalg.fill ins(%cst : f32) outs(%10 : tensor<?x?xf32>) -> tensor<?x?xf32>
    %12 = linalg.matmul ins(%9, %9 : tensor<?x?xf32>, tensor<?x?xf32>) outs(%11 : tensor<?x?xf32>) -> tensor<?x?xf32>
    flow.dispatch.tensor.store %12, %8, offsets = [0, 0], sizes = [%5, %6], strides = [1, 1] : tensor<?x?xf32> -> !flow.dispatch.tensor<writeonly:tensor<?x?xf32>>{%5, %6}
    flow.return
  } count(%arg1: index, %arg2: index) -> (index, index, index) {
    %x, %y, %z = flow.dispatch.workgroup_count_from_slice %arg1, %arg2
    flow.return %x, %y, %z : index, index, index
  }
  %4 = hal.tensor.export %3 "output 0" : tensor<?x?xf32>{%0, %1} -> !hal.buffer_view
  return %4 : !hal.buffer_view
}

// -----// IR Dump After CSE (cse) //----- //
func.func @main(%arg0: !hal.buffer_view) -> !hal.buffer_view attributes {iree.abi.stub} {
  %0 = hal.buffer_view.dim<%arg0 : !hal.buffer_view>[0] : index
  %1 = hal.buffer_view.dim<%arg0 : !hal.buffer_view>[1] : index
  %2 = hal.tensor.import %arg0 "input 0" : !hal.buffer_view -> tensor<?x?xf32>{%0, %1}
  %3 = flow.dispatch.workgroups[%0, %1](%2, %0, %1) : (tensor<?x?xf32>{%0, %1}, index, index) -> tensor<?x?xf32>{%0, %1} =
      (%arg1: !flow.dispatch.tensor<readonly:tensor<?x?xf32>>, %arg2: index, %arg3: index, %arg4: !flow.dispatch.tensor<writeonly:tensor<?x?xf32>>) {
    %cst = arith.constant 0.000000e+00 : f32
    %5 = flow.dispatch.workload.ordinal %arg2, 0 : index
    %6 = flow.dispatch.workload.ordinal %arg3, 1 : index
    %7 = flow.dispatch.tie_shape %arg1 : !flow.dispatch.tensor<readonly:tensor<?x?xf32>>{%5, %6}
    %8 = flow.dispatch.tie_shape %arg4 : !flow.dispatch.tensor<writeonly:tensor<?x?xf32>>{%5, %6}
    %9 = flow.dispatch.tensor.load %7, offsets = [0, 0], sizes = [%5, %6], strides = [1, 1] : !flow.dispatch.tensor<readonly:tensor<?x?xf32>>{%5, %6} -> tensor<?x?xf32>
    %10 = tensor.empty(%5, %6) : tensor<?x?xf32>
    %11 = linalg.fill ins(%cst : f32) outs(%10 : tensor<?x?xf32>) -> tensor<?x?xf32>
    %12 = linalg.matmul ins(%9, %9 : tensor<?x?xf32>, tensor<?x?xf32>) outs(%11 : tensor<?x?xf32>) -> tensor<?x?xf32>
    flow.dispatch.tensor.store %12, %8, offsets = [0, 0], sizes = [%5, %6], strides = [1, 1] : tensor<?x?xf32> -> !flow.dispatch.tensor<writeonly:tensor<?x?xf32>>{%5, %6}
    flow.return
  } count(%arg1: index, %arg2: index) -> (index, index, index) {
    %x, %y, %z = flow.dispatch.workgroup_count_from_slice %arg1, %arg2
    flow.return %x, %y, %z : index, index, index
  }
  %4 = hal.tensor.export %3 "output 0" : tensor<?x?xf32>{%0, %1} -> !hal.buffer_view
  return %4 : !hal.buffer_view
}

// -----// IR Dump After InitializeEmptyTensors (iree-flow-initialize-empty-tensors) //----- //
func.func @main(%arg0: !hal.buffer_view) -> !hal.buffer_view attributes {iree.abi.stub} {
  %0 = hal.buffer_view.dim<%arg0 : !hal.buffer_view>[0] : index
  %1 = hal.buffer_view.dim<%arg0 : !hal.buffer_view>[1] : index
  %2 = hal.tensor.import %arg0 "input 0" : !hal.buffer_view -> tensor<?x?xf32>{%0, %1}
  %3 = flow.dispatch.workgroups[%0, %1](%2, %0, %1) : (tensor<?x?xf32>{%0, %1}, index, index) -> tensor<?x?xf32>{%0, %1} =
      (%arg1: !flow.dispatch.tensor<readonly:tensor<?x?xf32>>, %arg2: index, %arg3: index, %arg4: !flow.dispatch.tensor<writeonly:tensor<?x?xf32>>) {
    %cst = arith.constant 0.000000e+00 : f32
    %5 = flow.dispatch.workload.ordinal %arg2, 0 : index
    %6 = flow.dispatch.workload.ordinal %arg3, 1 : index
    %7 = flow.dispatch.tie_shape %arg1 : !flow.dispatch.tensor<readonly:tensor<?x?xf32>>{%5, %6}
    %8 = flow.dispatch.tie_shape %arg4 : !flow.dispatch.tensor<writeonly:tensor<?x?xf32>>{%5, %6}
    %9 = flow.dispatch.tensor.load %7, offsets = [0, 0], sizes = [%5, %6], strides = [1, 1] : !flow.dispatch.tensor<readonly:tensor<?x?xf32>>{%5, %6} -> tensor<?x?xf32>
    %10 = tensor.empty(%5, %6) : tensor<?x?xf32>
    %11 = linalg.fill ins(%cst : f32) outs(%10 : tensor<?x?xf32>) -> tensor<?x?xf32>
    %12 = linalg.matmul ins(%9, %9 : tensor<?x?xf32>, tensor<?x?xf32>) outs(%11 : tensor<?x?xf32>) -> tensor<?x?xf32>
    flow.dispatch.tensor.store %12, %8, offsets = [0, 0], sizes = [%5, %6], strides = [1, 1] : tensor<?x?xf32> -> !flow.dispatch.tensor<writeonly:tensor<?x?xf32>>{%5, %6}
    flow.return
  } count(%arg1: index, %arg2: index) -> (index, index, index) {
    %x, %y, %z = flow.dispatch.workgroup_count_from_slice %arg1, %arg2
    flow.return %x, %y, %z : index, index, index
  }
  %4 = hal.tensor.export %3 "output 0" : tensor<?x?xf32>{%0, %1} -> !hal.buffer_view
  return %4 : !hal.buffer_view
}

// -----// IR Dump After OutlineDispatchRegions (iree-flow-outline-dispatch-regions) //----- //
#executable_target_cuda_nvptx_fb = #hal.executable.target<"cuda", "cuda-nvptx-fb", {target_arch = "sm_75"}>
#device_target_cuda = #hal.device.target<"cuda", {executable_targets = [#executable_target_cuda_nvptx_fb], legacy_sync}>
module @LinearModule attributes {hal.device.targets = [#device_target_cuda]} {
  flow.executable private @main_dispatch_0 {
    flow.executable.export public @main_dispatch_0 workgroups(%arg0: index, %arg1: index) -> (index, index, index) {
      %x, %y, %z = flow.dispatch.workgroup_count_from_slice %arg0, %arg1
      flow.return %x, %y, %z : index, index, index
    }
    builtin.module {
      func.func @main_dispatch_0(%arg0: !flow.dispatch.tensor<readonly:tensor<?x?xf32>>, %arg1: index, %arg2: index, %arg3: !flow.dispatch.tensor<writeonly:tensor<?x?xf32>>) {
        %cst = arith.constant 0.000000e+00 : f32
        %0 = flow.dispatch.workload.ordinal %arg1, 0 : index
        %1 = flow.dispatch.workload.ordinal %arg2, 1 : index
        %2 = flow.dispatch.tie_shape %arg0 : !flow.dispatch.tensor<readonly:tensor<?x?xf32>>{%0, %1}
        %3 = flow.dispatch.tie_shape %arg3 : !flow.dispatch.tensor<writeonly:tensor<?x?xf32>>{%0, %1}
        %4 = flow.dispatch.tensor.load %2, offsets = [0, 0], sizes = [%0, %1], strides = [1, 1] : !flow.dispatch.tensor<readonly:tensor<?x?xf32>>{%0, %1} -> tensor<?x?xf32>
        %5 = tensor.empty(%0, %1) : tensor<?x?xf32>
        %6 = linalg.fill ins(%cst : f32) outs(%5 : tensor<?x?xf32>) -> tensor<?x?xf32>
        %7 = linalg.matmul ins(%4, %4 : tensor<?x?xf32>, tensor<?x?xf32>) outs(%6 : tensor<?x?xf32>) -> tensor<?x?xf32>
        flow.dispatch.tensor.store %7, %3, offsets = [0, 0], sizes = [%0, %1], strides = [1, 1] : tensor<?x?xf32> -> !flow.dispatch.tensor<writeonly:tensor<?x?xf32>>{%0, %1}
        return
      }
    }
  }
  func.func @main(%arg0: !hal.buffer_view) -> !hal.buffer_view attributes {iree.abi.stub} {
    %0 = hal.buffer_view.dim<%arg0 : !hal.buffer_view>[0] : index
    %1 = hal.buffer_view.dim<%arg0 : !hal.buffer_view>[1] : index
    %2 = hal.tensor.import %arg0 "input 0" : !hal.buffer_view -> tensor<?x?xf32>{%0, %1}
    %3 = flow.dispatch @main_dispatch_0::@main_dispatch_0[%0, %1](%2, %0, %1) : (tensor<?x?xf32>{%0, %1}, index, index) -> tensor<?x?xf32>{%0, %1}
    %4 = hal.tensor.export %3 "output 0" : tensor<?x?xf32>{%0, %1} -> !hal.buffer_view
    return %4 : !hal.buffer_view
  }
}


// -----// IR Dump After AnnotateDispatches (iree-flow-annotate-dispatches) //----- //
#executable_target_cuda_nvptx_fb = #hal.executable.target<"cuda", "cuda-nvptx-fb", {target_arch = "sm_75"}>
#device_target_cuda = #hal.device.target<"cuda", {executable_targets = [#executable_target_cuda_nvptx_fb], legacy_sync}>
module @LinearModule attributes {hal.device.targets = [#device_target_cuda]} {
  flow.executable private @main_dispatch_0 {
    flow.executable.export public @main_dispatch_0_matmul_DxDxD_f32 workgroups(%arg0: index, %arg1: index) -> (index, index, index) {
      %x, %y, %z = flow.dispatch.workgroup_count_from_slice %arg0, %arg1
      flow.return %x, %y, %z : index, index, index
    }
    builtin.module {
      func.func @main_dispatch_0_matmul_DxDxD_f32(%arg0: !flow.dispatch.tensor<readonly:tensor<?x?xf32>>, %arg1: index, %arg2: index, %arg3: !flow.dispatch.tensor<writeonly:tensor<?x?xf32>>) {
        %cst = arith.constant 0.000000e+00 : f32
        %0 = flow.dispatch.workload.ordinal %arg1, 0 : index
        %1 = flow.dispatch.workload.ordinal %arg2, 1 : index
        %2 = flow.dispatch.tie_shape %arg0 : !flow.dispatch.tensor<readonly:tensor<?x?xf32>>{%0, %1}
        %3 = flow.dispatch.tie_shape %arg3 : !flow.dispatch.tensor<writeonly:tensor<?x?xf32>>{%0, %1}
        %4 = flow.dispatch.tensor.load %2, offsets = [0, 0], sizes = [%0, %1], strides = [1, 1] : !flow.dispatch.tensor<readonly:tensor<?x?xf32>>{%0, %1} -> tensor<?x?xf32>
        %5 = tensor.empty(%0, %1) : tensor<?x?xf32>
        %6 = linalg.fill ins(%cst : f32) outs(%5 : tensor<?x?xf32>) -> tensor<?x?xf32>
        %7 = linalg.matmul ins(%4, %4 : tensor<?x?xf32>, tensor<?x?xf32>) outs(%6 : tensor<?x?xf32>) -> tensor<?x?xf32>
        flow.dispatch.tensor.store %7, %3, offsets = [0, 0], sizes = [%0, %1], strides = [1, 1] : tensor<?x?xf32> -> !flow.dispatch.tensor<writeonly:tensor<?x?xf32>>{%0, %1}
        return
      }
    }
  }
  func.func @main(%arg0: !hal.buffer_view) -> !hal.buffer_view attributes {iree.abi.stub} {
    %0 = hal.buffer_view.dim<%arg0 : !hal.buffer_view>[0] : index
    %1 = hal.buffer_view.dim<%arg0 : !hal.buffer_view>[1] : index
    %2 = hal.tensor.import %arg0 "input 0" : !hal.buffer_view -> tensor<?x?xf32>{%0, %1}
    %3 = flow.dispatch @main_dispatch_0::@main_dispatch_0_matmul_DxDxD_f32[%0, %1](%2, %0, %1) : (tensor<?x?xf32>{%0, %1}, index, index) -> tensor<?x?xf32>{%0, %1}
    %4 = hal.tensor.export %3 "output 0" : tensor<?x?xf32>{%0, %1} -> !hal.buffer_view
    return %4 : !hal.buffer_view
  }
}


// -----// IR Dump After StripDebugOps (iree-util-strip-debug-ops) //----- //
flow.executable private @main_dispatch_0 {
  flow.executable.export public @main_dispatch_0_matmul_DxDxD_f32 workgroups(%arg0: index, %arg1: index) -> (index, index, index) {
    %x, %y, %z = flow.dispatch.workgroup_count_from_slice %arg0, %arg1
    flow.return %x, %y, %z : index, index, index
  }
  builtin.module {
    func.func @main_dispatch_0_matmul_DxDxD_f32(%arg0: !flow.dispatch.tensor<readonly:tensor<?x?xf32>>, %arg1: index, %arg2: index, %arg3: !flow.dispatch.tensor<writeonly:tensor<?x?xf32>>) {
      %cst = arith.constant 0.000000e+00 : f32
      %0 = flow.dispatch.workload.ordinal %arg1, 0 : index
      %1 = flow.dispatch.workload.ordinal %arg2, 1 : index
      %2 = flow.dispatch.tie_shape %arg0 : !flow.dispatch.tensor<readonly:tensor<?x?xf32>>{%0, %1}
      %3 = flow.dispatch.tie_shape %arg3 : !flow.dispatch.tensor<writeonly:tensor<?x?xf32>>{%0, %1}
      %4 = flow.dispatch.tensor.load %2, offsets = [0, 0], sizes = [%0, %1], strides = [1, 1] : !flow.dispatch.tensor<readonly:tensor<?x?xf32>>{%0, %1} -> tensor<?x?xf32>
      %5 = tensor.empty(%0, %1) : tensor<?x?xf32>
      %6 = linalg.fill ins(%cst : f32) outs(%5 : tensor<?x?xf32>) -> tensor<?x?xf32>
      %7 = linalg.matmul ins(%4, %4 : tensor<?x?xf32>, tensor<?x?xf32>) outs(%6 : tensor<?x?xf32>) -> tensor<?x?xf32>
      flow.dispatch.tensor.store %7, %3, offsets = [0, 0], sizes = [%0, %1], strides = [1, 1] : tensor<?x?xf32> -> !flow.dispatch.tensor<writeonly:tensor<?x?xf32>>{%0, %1}
      return
    }
  }
}

// -----// IR Dump After Canonicalizer (canonicalize) //----- //
func.func @main(%arg0: !hal.buffer_view) -> !hal.buffer_view attributes {iree.abi.stub} {
  %0 = hal.buffer_view.dim<%arg0 : !hal.buffer_view>[0] : index
  %1 = hal.buffer_view.dim<%arg0 : !hal.buffer_view>[1] : index
  %2 = hal.tensor.import %arg0 "input 0" : !hal.buffer_view -> tensor<?x?xf32>{%0, %1}
  %3 = flow.dispatch @main_dispatch_0::@main_dispatch_0_matmul_DxDxD_f32[%0, %1](%2, %0, %1) : (tensor<?x?xf32>{%0, %1}, index, index) -> tensor<?x?xf32>{%0, %1}
  %4 = hal.tensor.export %3 "output 0" : tensor<?x?xf32>{%0, %1} -> !hal.buffer_view
  return %4 : !hal.buffer_view
}

// -----// IR Dump After DeduplicateExecutables (iree-flow-deduplicate-executables) //----- //
#executable_target_cuda_nvptx_fb = #hal.executable.target<"cuda", "cuda-nvptx-fb", {target_arch = "sm_75"}>
#device_target_cuda = #hal.device.target<"cuda", {executable_targets = [#executable_target_cuda_nvptx_fb], legacy_sync}>
module @LinearModule attributes {hal.device.targets = [#device_target_cuda]} {
  flow.executable private @main_dispatch_0 {
    flow.executable.export public @main_dispatch_0_matmul_DxDxD_f32 workgroups(%arg0: index, %arg1: index) -> (index, index, index) {
      %x, %y, %z = flow.dispatch.workgroup_count_from_slice %arg0, %arg1
      flow.return %x, %y, %z : index, index, index
    }
    builtin.module {
      func.func @main_dispatch_0_matmul_DxDxD_f32(%arg0: !flow.dispatch.tensor<readonly:tensor<?x?xf32>>, %arg1: index, %arg2: index, %arg3: !flow.dispatch.tensor<writeonly:tensor<?x?xf32>>) {
        %cst = arith.constant 0.000000e+00 : f32
        %0 = flow.dispatch.workload.ordinal %arg1, 0 : index
        %1 = flow.dispatch.workload.ordinal %arg2, 1 : index
        %2 = flow.dispatch.tie_shape %arg0 : !flow.dispatch.tensor<readonly:tensor<?x?xf32>>{%0, %1}
        %3 = flow.dispatch.tie_shape %arg3 : !flow.dispatch.tensor<writeonly:tensor<?x?xf32>>{%0, %1}
        %4 = flow.dispatch.tensor.load %2, offsets = [0, 0], sizes = [%0, %1], strides = [1, 1] : !flow.dispatch.tensor<readonly:tensor<?x?xf32>>{%0, %1} -> tensor<?x?xf32>
        %5 = tensor.empty(%0, %1) : tensor<?x?xf32>
        %6 = linalg.fill ins(%cst : f32) outs(%5 : tensor<?x?xf32>) -> tensor<?x?xf32>
        %7 = linalg.matmul ins(%4, %4 : tensor<?x?xf32>, tensor<?x?xf32>) outs(%6 : tensor<?x?xf32>) -> tensor<?x?xf32>
        flow.dispatch.tensor.store %7, %3, offsets = [0, 0], sizes = [%0, %1], strides = [1, 1] : tensor<?x?xf32> -> !flow.dispatch.tensor<writeonly:tensor<?x?xf32>>{%0, %1}
        return
      }
    }
  }
  func.func @main(%arg0: !hal.buffer_view) -> !hal.buffer_view attributes {iree.abi.stub} {
    %0 = hal.buffer_view.dim<%arg0 : !hal.buffer_view>[0] : index
    %1 = hal.buffer_view.dim<%arg0 : !hal.buffer_view>[1] : index
    %2 = hal.tensor.import %arg0 "input 0" : !hal.buffer_view -> tensor<?x?xf32>{%0, %1}
    %3 = flow.dispatch @main_dispatch_0::@main_dispatch_0_matmul_DxDxD_f32[%0, %1](%2, %0, %1) : (tensor<?x?xf32>{%0, %1}, index, index) -> tensor<?x?xf32>{%0, %1}
    %4 = hal.tensor.export %3 "output 0" : tensor<?x?xf32>{%0, %1} -> !hal.buffer_view
    return %4 : !hal.buffer_view
  }
}


// -----// IR Dump After CleanupTensorShapes (iree-flow-cleanup-tensor-shapes) //----- //
func.func @main(%arg0: !hal.buffer_view) -> !hal.buffer_view attributes {iree.abi.stub} {
  %0 = hal.buffer_view.dim<%arg0 : !hal.buffer_view>[0] : index
  %1 = hal.buffer_view.dim<%arg0 : !hal.buffer_view>[1] : index
  %2 = hal.tensor.import %arg0 "input 0" : !hal.buffer_view -> tensor<?x?xf32>{%0, %1}
  %3 = flow.dispatch @main_dispatch_0::@main_dispatch_0_matmul_DxDxD_f32[%0, %1](%2, %0, %1) : (tensor<?x?xf32>{%0, %1}, index, index) -> tensor<?x?xf32>{%0, %1}
  %4 = hal.tensor.export %3 "output 0" : tensor<?x?xf32>{%0, %1} -> !hal.buffer_view
  return %4 : !hal.buffer_view
}

// -----// IR Dump After Canonicalizer (canonicalize) //----- //
flow.executable private @main_dispatch_0 {
  flow.executable.export public @main_dispatch_0_matmul_DxDxD_f32 workgroups(%arg0: index, %arg1: index) -> (index, index, index) {
    %x, %y, %z = flow.dispatch.workgroup_count_from_slice %arg0, %arg1
    flow.return %x, %y, %z : index, index, index
  }
  builtin.module {
    func.func @main_dispatch_0_matmul_DxDxD_f32(%arg0: !flow.dispatch.tensor<readonly:tensor<?x?xf32>>, %arg1: index, %arg2: index, %arg3: !flow.dispatch.tensor<writeonly:tensor<?x?xf32>>) {
      %cst = arith.constant 0.000000e+00 : f32
      %0 = flow.dispatch.workload.ordinal %arg1, 0 : index
      %1 = flow.dispatch.workload.ordinal %arg2, 1 : index
      %2 = flow.dispatch.tie_shape %arg0 : !flow.dispatch.tensor<readonly:tensor<?x?xf32>>{%0, %1}
      %3 = flow.dispatch.tie_shape %arg3 : !flow.dispatch.tensor<writeonly:tensor<?x?xf32>>{%0, %1}
      %4 = flow.dispatch.tensor.load %2, offsets = [0, 0], sizes = [%0, %1], strides = [1, 1] : !flow.dispatch.tensor<readonly:tensor<?x?xf32>>{%0, %1} -> tensor<?x?xf32>
      %5 = tensor.empty(%0, %1) : tensor<?x?xf32>
      %6 = linalg.fill ins(%cst : f32) outs(%5 : tensor<?x?xf32>) -> tensor<?x?xf32>
      %7 = linalg.matmul ins(%4, %4 : tensor<?x?xf32>, tensor<?x?xf32>) outs(%6 : tensor<?x?xf32>) -> tensor<?x?xf32>
      flow.dispatch.tensor.store %7, %3, offsets = [0, 0], sizes = [%0, %1], strides = [1, 1] : tensor<?x?xf32> -> !flow.dispatch.tensor<writeonly:tensor<?x?xf32>>{%0, %1}
      return
    }
  }
}

// -----// IR Dump After CSE (cse) //----- //
flow.executable private @main_dispatch_0 {
  flow.executable.export public @main_dispatch_0_matmul_DxDxD_f32 workgroups(%arg0: index, %arg1: index) -> (index, index, index) {
    %x, %y, %z = flow.dispatch.workgroup_count_from_slice %arg0, %arg1
    flow.return %x, %y, %z : index, index, index
  }
  builtin.module {
    func.func @main_dispatch_0_matmul_DxDxD_f32(%arg0: !flow.dispatch.tensor<readonly:tensor<?x?xf32>>, %arg1: index, %arg2: index, %arg3: !flow.dispatch.tensor<writeonly:tensor<?x?xf32>>) {
      %cst = arith.constant 0.000000e+00 : f32
      %0 = flow.dispatch.workload.ordinal %arg1, 0 : index
      %1 = flow.dispatch.workload.ordinal %arg2, 1 : index
      %2 = flow.dispatch.tie_shape %arg0 : !flow.dispatch.tensor<readonly:tensor<?x?xf32>>{%0, %1}
      %3 = flow.dispatch.tie_shape %arg3 : !flow.dispatch.tensor<writeonly:tensor<?x?xf32>>{%0, %1}
      %4 = flow.dispatch.tensor.load %2, offsets = [0, 0], sizes = [%0, %1], strides = [1, 1] : !flow.dispatch.tensor<readonly:tensor<?x?xf32>>{%0, %1} -> tensor<?x?xf32>
      %5 = tensor.empty(%0, %1) : tensor<?x?xf32>
      %6 = linalg.fill ins(%cst : f32) outs(%5 : tensor<?x?xf32>) -> tensor<?x?xf32>
      %7 = linalg.matmul ins(%4, %4 : tensor<?x?xf32>, tensor<?x?xf32>) outs(%6 : tensor<?x?xf32>) -> tensor<?x?xf32>
      flow.dispatch.tensor.store %7, %3, offsets = [0, 0], sizes = [%0, %1], strides = [1, 1] : tensor<?x?xf32> -> !flow.dispatch.tensor<writeonly:tensor<?x?xf32>>{%0, %1}
      return
    }
  }
}

// -----// IR Dump After Canonicalizer (canonicalize) //----- //
func.func @main(%arg0: !hal.buffer_view) -> !hal.buffer_view attributes {iree.abi.stub} {
  %0 = hal.buffer_view.dim<%arg0 : !hal.buffer_view>[0] : index
  %1 = hal.buffer_view.dim<%arg0 : !hal.buffer_view>[1] : index
  %2 = hal.tensor.import %arg0 "input 0" : !hal.buffer_view -> tensor<?x?xf32>{%0, %1}
  %3 = flow.dispatch @main_dispatch_0::@main_dispatch_0_matmul_DxDxD_f32[%0, %1](%2, %0, %1) : (tensor<?x?xf32>{%0, %1}, index, index) -> tensor<?x?xf32>{%0, %1}
  %4 = hal.tensor.export %3 "output 0" : tensor<?x?xf32>{%0, %1} -> !hal.buffer_view
  return %4 : !hal.buffer_view
}

// -----// IR Dump After CSE (cse) //----- //
func.func @main(%arg0: !hal.buffer_view) -> !hal.buffer_view attributes {iree.abi.stub} {
  %0 = hal.buffer_view.dim<%arg0 : !hal.buffer_view>[0] : index
  %1 = hal.buffer_view.dim<%arg0 : !hal.buffer_view>[1] : index
  %2 = hal.tensor.import %arg0 "input 0" : !hal.buffer_view -> tensor<?x?xf32>{%0, %1}
  %3 = flow.dispatch @main_dispatch_0::@main_dispatch_0_matmul_DxDxD_f32[%0, %1](%2, %0, %1) : (tensor<?x?xf32>{%0, %1}, index, index) -> tensor<?x?xf32>{%0, %1}
  %4 = hal.tensor.export %3 "output 0" : tensor<?x?xf32>{%0, %1} -> !hal.buffer_view
  return %4 : !hal.buffer_view
}

// -----// IR Dump After SymbolDCE (symbol-dce) //----- //
#executable_target_cuda_nvptx_fb = #hal.executable.target<"cuda", "cuda-nvptx-fb", {target_arch = "sm_75"}>
#device_target_cuda = #hal.device.target<"cuda", {executable_targets = [#executable_target_cuda_nvptx_fb], legacy_sync}>
module @LinearModule attributes {hal.device.targets = [#device_target_cuda]} {
  flow.executable private @main_dispatch_0 {
    flow.executable.export public @main_dispatch_0_matmul_DxDxD_f32 workgroups(%arg0: index, %arg1: index) -> (index, index, index) {
      %x, %y, %z = flow.dispatch.workgroup_count_from_slice %arg0, %arg1
      flow.return %x, %y, %z : index, index, index
    }
    builtin.module {
      func.func @main_dispatch_0_matmul_DxDxD_f32(%arg0: !flow.dispatch.tensor<readonly:tensor<?x?xf32>>, %arg1: index, %arg2: index, %arg3: !flow.dispatch.tensor<writeonly:tensor<?x?xf32>>) {
        %cst = arith.constant 0.000000e+00 : f32
        %0 = flow.dispatch.workload.ordinal %arg1, 0 : index
        %1 = flow.dispatch.workload.ordinal %arg2, 1 : index
        %2 = flow.dispatch.tie_shape %arg0 : !flow.dispatch.tensor<readonly:tensor<?x?xf32>>{%0, %1}
        %3 = flow.dispatch.tie_shape %arg3 : !flow.dispatch.tensor<writeonly:tensor<?x?xf32>>{%0, %1}
        %4 = flow.dispatch.tensor.load %2, offsets = [0, 0], sizes = [%0, %1], strides = [1, 1] : !flow.dispatch.tensor<readonly:tensor<?x?xf32>>{%0, %1} -> tensor<?x?xf32>
        %5 = tensor.empty(%0, %1) : tensor<?x?xf32>
        %6 = linalg.fill ins(%cst : f32) outs(%5 : tensor<?x?xf32>) -> tensor<?x?xf32>
        %7 = linalg.matmul ins(%4, %4 : tensor<?x?xf32>, tensor<?x?xf32>) outs(%6 : tensor<?x?xf32>) -> tensor<?x?xf32>
        flow.dispatch.tensor.store %7, %3, offsets = [0, 0], sizes = [%0, %1], strides = [1, 1] : tensor<?x?xf32> -> !flow.dispatch.tensor<writeonly:tensor<?x?xf32>>{%0, %1}
        return
      }
    }
  }
  func.func @main(%arg0: !hal.buffer_view) -> !hal.buffer_view attributes {iree.abi.stub} {
    %0 = hal.buffer_view.dim<%arg0 : !hal.buffer_view>[0] : index
    %1 = hal.buffer_view.dim<%arg0 : !hal.buffer_view>[1] : index
    %2 = hal.tensor.import %arg0 "input 0" : !hal.buffer_view -> tensor<?x?xf32>{%0, %1}
    %3 = flow.dispatch @main_dispatch_0::@main_dispatch_0_matmul_DxDxD_f32[%0, %1](%2, %0, %1) : (tensor<?x?xf32>{%0, %1}, index, index) -> tensor<?x?xf32>{%0, %1}
    %4 = hal.tensor.export %3 "output 0" : tensor<?x?xf32>{%0, %1} -> !hal.buffer_view
    return %4 : !hal.buffer_view
  }
}


// -----// IR Dump After VerifyInput (iree-stream-verify-input) //----- //
#executable_target_cuda_nvptx_fb = #hal.executable.target<"cuda", "cuda-nvptx-fb", {target_arch = "sm_75"}>
#device_target_cuda = #hal.device.target<"cuda", {executable_targets = [#executable_target_cuda_nvptx_fb], legacy_sync}>
module @LinearModule attributes {hal.device.targets = [#device_target_cuda]} {
  flow.executable private @main_dispatch_0 {
    flow.executable.export public @main_dispatch_0_matmul_DxDxD_f32 workgroups(%arg0: index, %arg1: index) -> (index, index, index) {
      %x, %y, %z = flow.dispatch.workgroup_count_from_slice %arg0, %arg1
      flow.return %x, %y, %z : index, index, index
    }
    builtin.module {
      func.func @main_dispatch_0_matmul_DxDxD_f32(%arg0: !flow.dispatch.tensor<readonly:tensor<?x?xf32>>, %arg1: index, %arg2: index, %arg3: !flow.dispatch.tensor<writeonly:tensor<?x?xf32>>) {
        %cst = arith.constant 0.000000e+00 : f32
        %0 = flow.dispatch.workload.ordinal %arg1, 0 : index
        %1 = flow.dispatch.workload.ordinal %arg2, 1 : index
        %2 = flow.dispatch.tie_shape %arg0 : !flow.dispatch.tensor<readonly:tensor<?x?xf32>>{%0, %1}
        %3 = flow.dispatch.tie_shape %arg3 : !flow.dispatch.tensor<writeonly:tensor<?x?xf32>>{%0, %1}
        %4 = flow.dispatch.tensor.load %2, offsets = [0, 0], sizes = [%0, %1], strides = [1, 1] : !flow.dispatch.tensor<readonly:tensor<?x?xf32>>{%0, %1} -> tensor<?x?xf32>
        %5 = tensor.empty(%0, %1) : tensor<?x?xf32>
        %6 = linalg.fill ins(%cst : f32) outs(%5 : tensor<?x?xf32>) -> tensor<?x?xf32>
        %7 = linalg.matmul ins(%4, %4 : tensor<?x?xf32>, tensor<?x?xf32>) outs(%6 : tensor<?x?xf32>) -> tensor<?x?xf32>
        flow.dispatch.tensor.store %7, %3, offsets = [0, 0], sizes = [%0, %1], strides = [1, 1] : tensor<?x?xf32> -> !flow.dispatch.tensor<writeonly:tensor<?x?xf32>>{%0, %1}
        return
      }
    }
  }
  func.func @main(%arg0: !hal.buffer_view) -> !hal.buffer_view attributes {iree.abi.stub} {
    %0 = hal.buffer_view.dim<%arg0 : !hal.buffer_view>[0] : index
    %1 = hal.buffer_view.dim<%arg0 : !hal.buffer_view>[1] : index
    %2 = hal.tensor.import %arg0 "input 0" : !hal.buffer_view -> tensor<?x?xf32>{%0, %1}
    %3 = flow.dispatch @main_dispatch_0::@main_dispatch_0_matmul_DxDxD_f32[%0, %1](%2, %0, %1) : (tensor<?x?xf32>{%0, %1}, index, index) -> tensor<?x?xf32>{%0, %1}
    %4 = hal.tensor.export %3 "output 0" : tensor<?x?xf32>{%0, %1} -> !hal.buffer_view
    return %4 : !hal.buffer_view
  }
}


// -----// IR Dump After Canonicalizer (canonicalize) //----- //
func.func @main(%arg0: !hal.buffer_view) -> !hal.buffer_view attributes {iree.abi.stub} {
  %0 = hal.buffer_view.dim<%arg0 : !hal.buffer_view>[0] : index
  %1 = hal.buffer_view.dim<%arg0 : !hal.buffer_view>[1] : index
  %2 = hal.tensor.import %arg0 "input 0" : !hal.buffer_view -> tensor<?x?xf32>{%0, %1}
  %3 = flow.dispatch @main_dispatch_0::@main_dispatch_0_matmul_DxDxD_f32[%0, %1](%2, %0, %1) : (tensor<?x?xf32>{%0, %1}, index, index) -> tensor<?x?xf32>{%0, %1}
  %4 = hal.tensor.export %3 "output 0" : tensor<?x?xf32>{%0, %1} -> !hal.buffer_view
  return %4 : !hal.buffer_view
}

// -----// IR Dump After CSE (cse) //----- //
func.func @main(%arg0: !hal.buffer_view) -> !hal.buffer_view attributes {iree.abi.stub} {
  %0 = hal.buffer_view.dim<%arg0 : !hal.buffer_view>[0] : index
  %1 = hal.buffer_view.dim<%arg0 : !hal.buffer_view>[1] : index
  %2 = hal.tensor.import %arg0 "input 0" : !hal.buffer_view -> tensor<?x?xf32>{%0, %1}
  %3 = flow.dispatch @main_dispatch_0::@main_dispatch_0_matmul_DxDxD_f32[%0, %1](%2, %0, %1) : (tensor<?x?xf32>{%0, %1}, index, index) -> tensor<?x?xf32>{%0, %1}
  %4 = hal.tensor.export %3 "output 0" : tensor<?x?xf32>{%0, %1} -> !hal.buffer_view
  return %4 : !hal.buffer_view
}

// -----// IR Dump After SimplifyGlobalAccesses (iree-util-simplify-global-accesses) //----- //
func.func @main(%arg0: !hal.buffer_view) -> !hal.buffer_view attributes {iree.abi.stub} {
  %0 = hal.buffer_view.dim<%arg0 : !hal.buffer_view>[0] : index
  %1 = hal.buffer_view.dim<%arg0 : !hal.buffer_view>[1] : index
  %2 = hal.tensor.import %arg0 "input 0" : !hal.buffer_view -> tensor<?x?xf32>{%0, %1}
  %3 = flow.dispatch @main_dispatch_0::@main_dispatch_0_matmul_DxDxD_f32[%0, %1](%2, %0, %1) : (tensor<?x?xf32>{%0, %1}, index, index) -> tensor<?x?xf32>{%0, %1}
  %4 = hal.tensor.export %3 "output 0" : tensor<?x?xf32>{%0, %1} -> !hal.buffer_view
  return %4 : !hal.buffer_view
}

// -----// IR Dump After ApplyPatterns (iree-util-apply-patterns) //----- //
#executable_target_cuda_nvptx_fb = #hal.executable.target<"cuda", "cuda-nvptx-fb", {target_arch = "sm_75"}>
#device_target_cuda = #hal.device.target<"cuda", {executable_targets = [#executable_target_cuda_nvptx_fb], legacy_sync}>
module @LinearModule attributes {hal.device.targets = [#device_target_cuda]} {
  flow.executable private @main_dispatch_0 {
    flow.executable.export public @main_dispatch_0_matmul_DxDxD_f32 workgroups(%arg0: index, %arg1: index) -> (index, index, index) {
      %x, %y, %z = flow.dispatch.workgroup_count_from_slice %arg0, %arg1
      flow.return %x, %y, %z : index, index, index
    }
    builtin.module {
      func.func @main_dispatch_0_matmul_DxDxD_f32(%arg0: !flow.dispatch.tensor<readonly:tensor<?x?xf32>>, %arg1: index, %arg2: index, %arg3: !flow.dispatch.tensor<writeonly:tensor<?x?xf32>>) {
        %cst = arith.constant 0.000000e+00 : f32
        %0 = flow.dispatch.workload.ordinal %arg1, 0 : index
        %1 = flow.dispatch.workload.ordinal %arg2, 1 : index
        %2 = flow.dispatch.tie_shape %arg0 : !flow.dispatch.tensor<readonly:tensor<?x?xf32>>{%0, %1}
        %3 = flow.dispatch.tie_shape %arg3 : !flow.dispatch.tensor<writeonly:tensor<?x?xf32>>{%0, %1}
        %4 = flow.dispatch.tensor.load %2, offsets = [0, 0], sizes = [%0, %1], strides = [1, 1] : !flow.dispatch.tensor<readonly:tensor<?x?xf32>>{%0, %1} -> tensor<?x?xf32>
        %5 = tensor.empty(%0, %1) : tensor<?x?xf32>
        %6 = linalg.fill ins(%cst : f32) outs(%5 : tensor<?x?xf32>) -> tensor<?x?xf32>
        %7 = linalg.matmul ins(%4, %4 : tensor<?x?xf32>, tensor<?x?xf32>) outs(%6 : tensor<?x?xf32>) -> tensor<?x?xf32>
        flow.dispatch.tensor.store %7, %3, offsets = [0, 0], sizes = [%0, %1], strides = [1, 1] : tensor<?x?xf32> -> !flow.dispatch.tensor<writeonly:tensor<?x?xf32>>{%0, %1}
        return
      }
    }
  }
  func.func @main(%arg0: !hal.buffer_view) -> !hal.buffer_view attributes {iree.abi.stub} {
    %0 = hal.buffer_view.dim<%arg0 : !hal.buffer_view>[0] : index
    %1 = hal.buffer_view.dim<%arg0 : !hal.buffer_view>[1] : index
    %2 = hal.tensor.import %arg0 "input 0" : !hal.buffer_view -> tensor<?x?xf32>{%0, %1}
    %3 = flow.dispatch @main_dispatch_0::@main_dispatch_0_matmul_DxDxD_f32[%0, %1](%2, %0, %1) : (tensor<?x?xf32>{%0, %1}, index, index) -> tensor<?x?xf32>{%0, %1}
    %4 = hal.tensor.export %3 "output 0" : tensor<?x?xf32>{%0, %1} -> !hal.buffer_view
    return %4 : !hal.buffer_view
  }
}


// -----// IR Dump After FoldGlobals (iree-util-fold-globals) //----- //
#executable_target_cuda_nvptx_fb = #hal.executable.target<"cuda", "cuda-nvptx-fb", {target_arch = "sm_75"}>
#device_target_cuda = #hal.device.target<"cuda", {executable_targets = [#executable_target_cuda_nvptx_fb], legacy_sync}>
module @LinearModule attributes {hal.device.targets = [#device_target_cuda]} {
  flow.executable private @main_dispatch_0 {
    flow.executable.export public @main_dispatch_0_matmul_DxDxD_f32 workgroups(%arg0: index, %arg1: index) -> (index, index, index) {
      %x, %y, %z = flow.dispatch.workgroup_count_from_slice %arg0, %arg1
      flow.return %x, %y, %z : index, index, index
    }
    builtin.module {
      func.func @main_dispatch_0_matmul_DxDxD_f32(%arg0: !flow.dispatch.tensor<readonly:tensor<?x?xf32>>, %arg1: index, %arg2: index, %arg3: !flow.dispatch.tensor<writeonly:tensor<?x?xf32>>) {
        %cst = arith.constant 0.000000e+00 : f32
        %0 = flow.dispatch.workload.ordinal %arg1, 0 : index
        %1 = flow.dispatch.workload.ordinal %arg2, 1 : index
        %2 = flow.dispatch.tie_shape %arg0 : !flow.dispatch.tensor<readonly:tensor<?x?xf32>>{%0, %1}
        %3 = flow.dispatch.tie_shape %arg3 : !flow.dispatch.tensor<writeonly:tensor<?x?xf32>>{%0, %1}
        %4 = flow.dispatch.tensor.load %2, offsets = [0, 0], sizes = [%0, %1], strides = [1, 1] : !flow.dispatch.tensor<readonly:tensor<?x?xf32>>{%0, %1} -> tensor<?x?xf32>
        %5 = tensor.empty(%0, %1) : tensor<?x?xf32>
        %6 = linalg.fill ins(%cst : f32) outs(%5 : tensor<?x?xf32>) -> tensor<?x?xf32>
        %7 = linalg.matmul ins(%4, %4 : tensor<?x?xf32>, tensor<?x?xf32>) outs(%6 : tensor<?x?xf32>) -> tensor<?x?xf32>
        flow.dispatch.tensor.store %7, %3, offsets = [0, 0], sizes = [%0, %1], strides = [1, 1] : tensor<?x?xf32> -> !flow.dispatch.tensor<writeonly:tensor<?x?xf32>>{%0, %1}
        return
      }
    }
  }
  func.func @main(%arg0: !hal.buffer_view) -> !hal.buffer_view attributes {iree.abi.stub} {
    %0 = hal.buffer_view.dim<%arg0 : !hal.buffer_view>[0] : index
    %1 = hal.buffer_view.dim<%arg0 : !hal.buffer_view>[1] : index
    %2 = hal.tensor.import %arg0 "input 0" : !hal.buffer_view -> tensor<?x?xf32>{%0, %1}
    %3 = flow.dispatch @main_dispatch_0::@main_dispatch_0_matmul_DxDxD_f32[%0, %1](%2, %0, %1) : (tensor<?x?xf32>{%0, %1}, index, index) -> tensor<?x?xf32>{%0, %1}
    %4 = hal.tensor.export %3 "output 0" : tensor<?x?xf32>{%0, %1} -> !hal.buffer_view
    return %4 : !hal.buffer_view
  }
}


// -----// IR Dump After FuseGlobals (iree-util-fuse-globals) //----- //
#executable_target_cuda_nvptx_fb = #hal.executable.target<"cuda", "cuda-nvptx-fb", {target_arch = "sm_75"}>
#device_target_cuda = #hal.device.target<"cuda", {executable_targets = [#executable_target_cuda_nvptx_fb], legacy_sync}>
module @LinearModule attributes {hal.device.targets = [#device_target_cuda]} {
  flow.executable private @main_dispatch_0 {
    flow.executable.export public @main_dispatch_0_matmul_DxDxD_f32 workgroups(%arg0: index, %arg1: index) -> (index, index, index) {
      %x, %y, %z = flow.dispatch.workgroup_count_from_slice %arg0, %arg1
      flow.return %x, %y, %z : index, index, index
    }
    builtin.module {
      func.func @main_dispatch_0_matmul_DxDxD_f32(%arg0: !flow.dispatch.tensor<readonly:tensor<?x?xf32>>, %arg1: index, %arg2: index, %arg3: !flow.dispatch.tensor<writeonly:tensor<?x?xf32>>) {
        %cst = arith.constant 0.000000e+00 : f32
        %0 = flow.dispatch.workload.ordinal %arg1, 0 : index
        %1 = flow.dispatch.workload.ordinal %arg2, 1 : index
        %2 = flow.dispatch.tie_shape %arg0 : !flow.dispatch.tensor<readonly:tensor<?x?xf32>>{%0, %1}
        %3 = flow.dispatch.tie_shape %arg3 : !flow.dispatch.tensor<writeonly:tensor<?x?xf32>>{%0, %1}
        %4 = flow.dispatch.tensor.load %2, offsets = [0, 0], sizes = [%0, %1], strides = [1, 1] : !flow.dispatch.tensor<readonly:tensor<?x?xf32>>{%0, %1} -> tensor<?x?xf32>
        %5 = tensor.empty(%0, %1) : tensor<?x?xf32>
        %6 = linalg.fill ins(%cst : f32) outs(%5 : tensor<?x?xf32>) -> tensor<?x?xf32>
        %7 = linalg.matmul ins(%4, %4 : tensor<?x?xf32>, tensor<?x?xf32>) outs(%6 : tensor<?x?xf32>) -> tensor<?x?xf32>
        flow.dispatch.tensor.store %7, %3, offsets = [0, 0], sizes = [%0, %1], strides = [1, 1] : tensor<?x?xf32> -> !flow.dispatch.tensor<writeonly:tensor<?x?xf32>>{%0, %1}
        return
      }
    }
  }
  func.func @main(%arg0: !hal.buffer_view) -> !hal.buffer_view attributes {iree.abi.stub} {
    %0 = hal.buffer_view.dim<%arg0 : !hal.buffer_view>[0] : index
    %1 = hal.buffer_view.dim<%arg0 : !hal.buffer_view>[1] : index
    %2 = hal.tensor.import %arg0 "input 0" : !hal.buffer_view -> tensor<?x?xf32>{%0, %1}
    %3 = flow.dispatch @main_dispatch_0::@main_dispatch_0_matmul_DxDxD_f32[%0, %1](%2, %0, %1) : (tensor<?x?xf32>{%0, %1}, index, index) -> tensor<?x?xf32>{%0, %1}
    %4 = hal.tensor.export %3 "output 0" : tensor<?x?xf32>{%0, %1} -> !hal.buffer_view
    return %4 : !hal.buffer_view
  }
}


// -----// IR Dump After IPO (iree-util-ipo) //----- //
#executable_target_cuda_nvptx_fb = #hal.executable.target<"cuda", "cuda-nvptx-fb", {target_arch = "sm_75"}>
#device_target_cuda = #hal.device.target<"cuda", {executable_targets = [#executable_target_cuda_nvptx_fb], legacy_sync}>
module @LinearModule attributes {hal.device.targets = [#device_target_cuda]} {
  flow.executable private @main_dispatch_0 {
    flow.executable.export public @main_dispatch_0_matmul_DxDxD_f32 workgroups(%arg0: index, %arg1: index) -> (index, index, index) {
      %x, %y, %z = flow.dispatch.workgroup_count_from_slice %arg0, %arg1
      flow.return %x, %y, %z : index, index, index
    }
    builtin.module {
      func.func @main_dispatch_0_matmul_DxDxD_f32(%arg0: !flow.dispatch.tensor<readonly:tensor<?x?xf32>>, %arg1: index, %arg2: index, %arg3: !flow.dispatch.tensor<writeonly:tensor<?x?xf32>>) {
        %cst = arith.constant 0.000000e+00 : f32
        %0 = flow.dispatch.workload.ordinal %arg1, 0 : index
        %1 = flow.dispatch.workload.ordinal %arg2, 1 : index
        %2 = flow.dispatch.tie_shape %arg0 : !flow.dispatch.tensor<readonly:tensor<?x?xf32>>{%0, %1}
        %3 = flow.dispatch.tie_shape %arg3 : !flow.dispatch.tensor<writeonly:tensor<?x?xf32>>{%0, %1}
        %4 = flow.dispatch.tensor.load %2, offsets = [0, 0], sizes = [%0, %1], strides = [1, 1] : !flow.dispatch.tensor<readonly:tensor<?x?xf32>>{%0, %1} -> tensor<?x?xf32>
        %5 = tensor.empty(%0, %1) : tensor<?x?xf32>
        %6 = linalg.fill ins(%cst : f32) outs(%5 : tensor<?x?xf32>) -> tensor<?x?xf32>
        %7 = linalg.matmul ins(%4, %4 : tensor<?x?xf32>, tensor<?x?xf32>) outs(%6 : tensor<?x?xf32>) -> tensor<?x?xf32>
        flow.dispatch.tensor.store %7, %3, offsets = [0, 0], sizes = [%0, %1], strides = [1, 1] : tensor<?x?xf32> -> !flow.dispatch.tensor<writeonly:tensor<?x?xf32>>{%0, %1}
        return
      }
    }
  }
  func.func @main(%arg0: !hal.buffer_view) -> !hal.buffer_view attributes {iree.abi.stub} {
    %0 = hal.buffer_view.dim<%arg0 : !hal.buffer_view>[0] : index
    %1 = hal.buffer_view.dim<%arg0 : !hal.buffer_view>[1] : index
    %2 = hal.tensor.import %arg0 "input 0" : !hal.buffer_view -> tensor<?x?xf32>{%0, %1}
    %3 = flow.dispatch @main_dispatch_0::@main_dispatch_0_matmul_DxDxD_f32[%0, %1](%2, %0, %1) : (tensor<?x?xf32>{%0, %1}, index, index) -> tensor<?x?xf32>{%0, %1}
    %4 = hal.tensor.export %3 "output 0" : tensor<?x?xf32>{%0, %1} -> !hal.buffer_view
    return %4 : !hal.buffer_view
  }
}


// -----// IR Dump After OutlineConstants (iree-util-outline-constants) //----- //
#executable_target_cuda_nvptx_fb = #hal.executable.target<"cuda", "cuda-nvptx-fb", {target_arch = "sm_75"}>
#device_target_cuda = #hal.device.target<"cuda", {executable_targets = [#executable_target_cuda_nvptx_fb], legacy_sync}>
module @LinearModule attributes {hal.device.targets = [#device_target_cuda]} {
  flow.executable private @main_dispatch_0 {
    flow.executable.export public @main_dispatch_0_matmul_DxDxD_f32 workgroups(%arg0: index, %arg1: index) -> (index, index, index) {
      %x, %y, %z = flow.dispatch.workgroup_count_from_slice %arg0, %arg1
      flow.return %x, %y, %z : index, index, index
    }
    builtin.module {
      func.func @main_dispatch_0_matmul_DxDxD_f32(%arg0: !flow.dispatch.tensor<readonly:tensor<?x?xf32>>, %arg1: index, %arg2: index, %arg3: !flow.dispatch.tensor<writeonly:tensor<?x?xf32>>) {
        %cst = arith.constant 0.000000e+00 : f32
        %0 = flow.dispatch.workload.ordinal %arg1, 0 : index
        %1 = flow.dispatch.workload.ordinal %arg2, 1 : index
        %2 = flow.dispatch.tie_shape %arg0 : !flow.dispatch.tensor<readonly:tensor<?x?xf32>>{%0, %1}
        %3 = flow.dispatch.tie_shape %arg3 : !flow.dispatch.tensor<writeonly:tensor<?x?xf32>>{%0, %1}
        %4 = flow.dispatch.tensor.load %2, offsets = [0, 0], sizes = [%0, %1], strides = [1, 1] : !flow.dispatch.tensor<readonly:tensor<?x?xf32>>{%0, %1} -> tensor<?x?xf32>
        %5 = tensor.empty(%0, %1) : tensor<?x?xf32>
        %6 = linalg.fill ins(%cst : f32) outs(%5 : tensor<?x?xf32>) -> tensor<?x?xf32>
        %7 = linalg.matmul ins(%4, %4 : tensor<?x?xf32>, tensor<?x?xf32>) outs(%6 : tensor<?x?xf32>) -> tensor<?x?xf32>
        flow.dispatch.tensor.store %7, %3, offsets = [0, 0], sizes = [%0, %1], strides = [1, 1] : tensor<?x?xf32> -> !flow.dispatch.tensor<writeonly:tensor<?x?xf32>>{%0, %1}
        return
      }
    }
  }
  func.func @main(%arg0: !hal.buffer_view) -> !hal.buffer_view attributes {iree.abi.stub} {
    %0 = hal.buffer_view.dim<%arg0 : !hal.buffer_view>[0] : index
    %1 = hal.buffer_view.dim<%arg0 : !hal.buffer_view>[1] : index
    %2 = hal.tensor.import %arg0 "input 0" : !hal.buffer_view -> tensor<?x?xf32>{%0, %1}
    %3 = flow.dispatch @main_dispatch_0::@main_dispatch_0_matmul_DxDxD_f32[%0, %1](%2, %0, %1) : (tensor<?x?xf32>{%0, %1}, index, index) -> tensor<?x?xf32>{%0, %1}
    %4 = hal.tensor.export %3 "output 0" : tensor<?x?xf32>{%0, %1} -> !hal.buffer_view
    return %4 : !hal.buffer_view
  }
}


// -----// IR Dump After Canonicalizer (canonicalize) //----- //
func.func @main(%arg0: !hal.buffer_view) -> !hal.buffer_view attributes {iree.abi.stub} {
  %0 = hal.buffer_view.dim<%arg0 : !hal.buffer_view>[0] : index
  %1 = hal.buffer_view.dim<%arg0 : !hal.buffer_view>[1] : index
  %2 = hal.tensor.import %arg0 "input 0" : !hal.buffer_view -> tensor<?x?xf32>{%0, %1}
  %3 = flow.dispatch @main_dispatch_0::@main_dispatch_0_matmul_DxDxD_f32[%0, %1](%2, %0, %1) : (tensor<?x?xf32>{%0, %1}, index, index) -> tensor<?x?xf32>{%0, %1}
  %4 = hal.tensor.export %3 "output 0" : tensor<?x?xf32>{%0, %1} -> !hal.buffer_view
  return %4 : !hal.buffer_view
}

// -----// IR Dump After CSE (cse) //----- //
func.func @main(%arg0: !hal.buffer_view) -> !hal.buffer_view attributes {iree.abi.stub} {
  %0 = hal.buffer_view.dim<%arg0 : !hal.buffer_view>[0] : index
  %1 = hal.buffer_view.dim<%arg0 : !hal.buffer_view>[1] : index
  %2 = hal.tensor.import %arg0 "input 0" : !hal.buffer_view -> tensor<?x?xf32>{%0, %1}
  %3 = flow.dispatch @main_dispatch_0::@main_dispatch_0_matmul_DxDxD_f32[%0, %1](%2, %0, %1) : (tensor<?x?xf32>{%0, %1}, index, index) -> tensor<?x?xf32>{%0, %1}
  %4 = hal.tensor.export %3 "output 0" : tensor<?x?xf32>{%0, %1} -> !hal.buffer_view
  return %4 : !hal.buffer_view
}

// -----// IR Dump After SimplifyGlobalAccesses (iree-util-simplify-global-accesses) //----- //
func.func @main(%arg0: !hal.buffer_view) -> !hal.buffer_view attributes {iree.abi.stub} {
  %0 = hal.buffer_view.dim<%arg0 : !hal.buffer_view>[0] : index
  %1 = hal.buffer_view.dim<%arg0 : !hal.buffer_view>[1] : index
  %2 = hal.tensor.import %arg0 "input 0" : !hal.buffer_view -> tensor<?x?xf32>{%0, %1}
  %3 = flow.dispatch @main_dispatch_0::@main_dispatch_0_matmul_DxDxD_f32[%0, %1](%2, %0, %1) : (tensor<?x?xf32>{%0, %1}, index, index) -> tensor<?x?xf32>{%0, %1}
  %4 = hal.tensor.export %3 "output 0" : tensor<?x?xf32>{%0, %1} -> !hal.buffer_view
  return %4 : !hal.buffer_view
}

// -----// IR Dump After ApplyPatterns (iree-util-apply-patterns) //----- //
#executable_target_cuda_nvptx_fb = #hal.executable.target<"cuda", "cuda-nvptx-fb", {target_arch = "sm_75"}>
#device_target_cuda = #hal.device.target<"cuda", {executable_targets = [#executable_target_cuda_nvptx_fb], legacy_sync}>
module @LinearModule attributes {hal.device.targets = [#device_target_cuda]} {
  flow.executable private @main_dispatch_0 {
    flow.executable.export public @main_dispatch_0_matmul_DxDxD_f32 workgroups(%arg0: index, %arg1: index) -> (index, index, index) {
      %x, %y, %z = flow.dispatch.workgroup_count_from_slice %arg0, %arg1
      flow.return %x, %y, %z : index, index, index
    }
    builtin.module {
      func.func @main_dispatch_0_matmul_DxDxD_f32(%arg0: !flow.dispatch.tensor<readonly:tensor<?x?xf32>>, %arg1: index, %arg2: index, %arg3: !flow.dispatch.tensor<writeonly:tensor<?x?xf32>>) {
        %cst = arith.constant 0.000000e+00 : f32
        %0 = flow.dispatch.workload.ordinal %arg1, 0 : index
        %1 = flow.dispatch.workload.ordinal %arg2, 1 : index
        %2 = flow.dispatch.tie_shape %arg0 : !flow.dispatch.tensor<readonly:tensor<?x?xf32>>{%0, %1}
        %3 = flow.dispatch.tie_shape %arg3 : !flow.dispatch.tensor<writeonly:tensor<?x?xf32>>{%0, %1}
        %4 = flow.dispatch.tensor.load %2, offsets = [0, 0], sizes = [%0, %1], strides = [1, 1] : !flow.dispatch.tensor<readonly:tensor<?x?xf32>>{%0, %1} -> tensor<?x?xf32>
        %5 = tensor.empty(%0, %1) : tensor<?x?xf32>
        %6 = linalg.fill ins(%cst : f32) outs(%5 : tensor<?x?xf32>) -> tensor<?x?xf32>
        %7 = linalg.matmul ins(%4, %4 : tensor<?x?xf32>, tensor<?x?xf32>) outs(%6 : tensor<?x?xf32>) -> tensor<?x?xf32>
        flow.dispatch.tensor.store %7, %3, offsets = [0, 0], sizes = [%0, %1], strides = [1, 1] : tensor<?x?xf32> -> !flow.dispatch.tensor<writeonly:tensor<?x?xf32>>{%0, %1}
        return
      }
    }
  }
  func.func @main(%arg0: !hal.buffer_view) -> !hal.buffer_view attributes {iree.abi.stub} {
    %0 = hal.buffer_view.dim<%arg0 : !hal.buffer_view>[0] : index
    %1 = hal.buffer_view.dim<%arg0 : !hal.buffer_view>[1] : index
    %2 = hal.tensor.import %arg0 "input 0" : !hal.buffer_view -> tensor<?x?xf32>{%0, %1}
    %3 = flow.dispatch @main_dispatch_0::@main_dispatch_0_matmul_DxDxD_f32[%0, %1](%2, %0, %1) : (tensor<?x?xf32>{%0, %1}, index, index) -> tensor<?x?xf32>{%0, %1}
    %4 = hal.tensor.export %3 "output 0" : tensor<?x?xf32>{%0, %1} -> !hal.buffer_view
    return %4 : !hal.buffer_view
  }
}


// -----// IR Dump After FoldGlobals (iree-util-fold-globals) //----- //
#executable_target_cuda_nvptx_fb = #hal.executable.target<"cuda", "cuda-nvptx-fb", {target_arch = "sm_75"}>
#device_target_cuda = #hal.device.target<"cuda", {executable_targets = [#executable_target_cuda_nvptx_fb], legacy_sync}>
module @LinearModule attributes {hal.device.targets = [#device_target_cuda]} {
  flow.executable private @main_dispatch_0 {
    flow.executable.export public @main_dispatch_0_matmul_DxDxD_f32 workgroups(%arg0: index, %arg1: index) -> (index, index, index) {
      %x, %y, %z = flow.dispatch.workgroup_count_from_slice %arg0, %arg1
      flow.return %x, %y, %z : index, index, index
    }
    builtin.module {
      func.func @main_dispatch_0_matmul_DxDxD_f32(%arg0: !flow.dispatch.tensor<readonly:tensor<?x?xf32>>, %arg1: index, %arg2: index, %arg3: !flow.dispatch.tensor<writeonly:tensor<?x?xf32>>) {
        %cst = arith.constant 0.000000e+00 : f32
        %0 = flow.dispatch.workload.ordinal %arg1, 0 : index
        %1 = flow.dispatch.workload.ordinal %arg2, 1 : index
        %2 = flow.dispatch.tie_shape %arg0 : !flow.dispatch.tensor<readonly:tensor<?x?xf32>>{%0, %1}
        %3 = flow.dispatch.tie_shape %arg3 : !flow.dispatch.tensor<writeonly:tensor<?x?xf32>>{%0, %1}
        %4 = flow.dispatch.tensor.load %2, offsets = [0, 0], sizes = [%0, %1], strides = [1, 1] : !flow.dispatch.tensor<readonly:tensor<?x?xf32>>{%0, %1} -> tensor<?x?xf32>
        %5 = tensor.empty(%0, %1) : tensor<?x?xf32>
        %6 = linalg.fill ins(%cst : f32) outs(%5 : tensor<?x?xf32>) -> tensor<?x?xf32>
        %7 = linalg.matmul ins(%4, %4 : tensor<?x?xf32>, tensor<?x?xf32>) outs(%6 : tensor<?x?xf32>) -> tensor<?x?xf32>
        flow.dispatch.tensor.store %7, %3, offsets = [0, 0], sizes = [%0, %1], strides = [1, 1] : tensor<?x?xf32> -> !flow.dispatch.tensor<writeonly:tensor<?x?xf32>>{%0, %1}
        return
      }
    }
  }
  func.func @main(%arg0: !hal.buffer_view) -> !hal.buffer_view attributes {iree.abi.stub} {
    %0 = hal.buffer_view.dim<%arg0 : !hal.buffer_view>[0] : index
    %1 = hal.buffer_view.dim<%arg0 : !hal.buffer_view>[1] : index
    %2 = hal.tensor.import %arg0 "input 0" : !hal.buffer_view -> tensor<?x?xf32>{%0, %1}
    %3 = flow.dispatch @main_dispatch_0::@main_dispatch_0_matmul_DxDxD_f32[%0, %1](%2, %0, %1) : (tensor<?x?xf32>{%0, %1}, index, index) -> tensor<?x?xf32>{%0, %1}
    %4 = hal.tensor.export %3 "output 0" : tensor<?x?xf32>{%0, %1} -> !hal.buffer_view
    return %4 : !hal.buffer_view
  }
}


// -----// IR Dump After FuseGlobals (iree-util-fuse-globals) //----- //
#executable_target_cuda_nvptx_fb = #hal.executable.target<"cuda", "cuda-nvptx-fb", {target_arch = "sm_75"}>
#device_target_cuda = #hal.device.target<"cuda", {executable_targets = [#executable_target_cuda_nvptx_fb], legacy_sync}>
module @LinearModule attributes {hal.device.targets = [#device_target_cuda]} {
  flow.executable private @main_dispatch_0 {
    flow.executable.export public @main_dispatch_0_matmul_DxDxD_f32 workgroups(%arg0: index, %arg1: index) -> (index, index, index) {
      %x, %y, %z = flow.dispatch.workgroup_count_from_slice %arg0, %arg1
      flow.return %x, %y, %z : index, index, index
    }
    builtin.module {
      func.func @main_dispatch_0_matmul_DxDxD_f32(%arg0: !flow.dispatch.tensor<readonly:tensor<?x?xf32>>, %arg1: index, %arg2: index, %arg3: !flow.dispatch.tensor<writeonly:tensor<?x?xf32>>) {
        %cst = arith.constant 0.000000e+00 : f32
        %0 = flow.dispatch.workload.ordinal %arg1, 0 : index
        %1 = flow.dispatch.workload.ordinal %arg2, 1 : index
        %2 = flow.dispatch.tie_shape %arg0 : !flow.dispatch.tensor<readonly:tensor<?x?xf32>>{%0, %1}
        %3 = flow.dispatch.tie_shape %arg3 : !flow.dispatch.tensor<writeonly:tensor<?x?xf32>>{%0, %1}
        %4 = flow.dispatch.tensor.load %2, offsets = [0, 0], sizes = [%0, %1], strides = [1, 1] : !flow.dispatch.tensor<readonly:tensor<?x?xf32>>{%0, %1} -> tensor<?x?xf32>
        %5 = tensor.empty(%0, %1) : tensor<?x?xf32>
        %6 = linalg.fill ins(%cst : f32) outs(%5 : tensor<?x?xf32>) -> tensor<?x?xf32>
        %7 = linalg.matmul ins(%4, %4 : tensor<?x?xf32>, tensor<?x?xf32>) outs(%6 : tensor<?x?xf32>) -> tensor<?x?xf32>
        flow.dispatch.tensor.store %7, %3, offsets = [0, 0], sizes = [%0, %1], strides = [1, 1] : tensor<?x?xf32> -> !flow.dispatch.tensor<writeonly:tensor<?x?xf32>>{%0, %1}
        return
      }
    }
  }
  func.func @main(%arg0: !hal.buffer_view) -> !hal.buffer_view attributes {iree.abi.stub} {
    %0 = hal.buffer_view.dim<%arg0 : !hal.buffer_view>[0] : index
    %1 = hal.buffer_view.dim<%arg0 : !hal.buffer_view>[1] : index
    %2 = hal.tensor.import %arg0 "input 0" : !hal.buffer_view -> tensor<?x?xf32>{%0, %1}
    %3 = flow.dispatch @main_dispatch_0::@main_dispatch_0_matmul_DxDxD_f32[%0, %1](%2, %0, %1) : (tensor<?x?xf32>{%0, %1}, index, index) -> tensor<?x?xf32>{%0, %1}
    %4 = hal.tensor.export %3 "output 0" : tensor<?x?xf32>{%0, %1} -> !hal.buffer_view
    return %4 : !hal.buffer_view
  }
}


// -----// IR Dump After IPO (iree-util-ipo) //----- //
#executable_target_cuda_nvptx_fb = #hal.executable.target<"cuda", "cuda-nvptx-fb", {target_arch = "sm_75"}>
#device_target_cuda = #hal.device.target<"cuda", {executable_targets = [#executable_target_cuda_nvptx_fb], legacy_sync}>
module @LinearModule attributes {hal.device.targets = [#device_target_cuda]} {
  flow.executable private @main_dispatch_0 {
    flow.executable.export public @main_dispatch_0_matmul_DxDxD_f32 workgroups(%arg0: index, %arg1: index) -> (index, index, index) {
      %x, %y, %z = flow.dispatch.workgroup_count_from_slice %arg0, %arg1
      flow.return %x, %y, %z : index, index, index
    }
    builtin.module {
      func.func @main_dispatch_0_matmul_DxDxD_f32(%arg0: !flow.dispatch.tensor<readonly:tensor<?x?xf32>>, %arg1: index, %arg2: index, %arg3: !flow.dispatch.tensor<writeonly:tensor<?x?xf32>>) {
        %cst = arith.constant 0.000000e+00 : f32
        %0 = flow.dispatch.workload.ordinal %arg1, 0 : index
        %1 = flow.dispatch.workload.ordinal %arg2, 1 : index
        %2 = flow.dispatch.tie_shape %arg0 : !flow.dispatch.tensor<readonly:tensor<?x?xf32>>{%0, %1}
        %3 = flow.dispatch.tie_shape %arg3 : !flow.dispatch.tensor<writeonly:tensor<?x?xf32>>{%0, %1}
        %4 = flow.dispatch.tensor.load %2, offsets = [0, 0], sizes = [%0, %1], strides = [1, 1] : !flow.dispatch.tensor<readonly:tensor<?x?xf32>>{%0, %1} -> tensor<?x?xf32>
        %5 = tensor.empty(%0, %1) : tensor<?x?xf32>
        %6 = linalg.fill ins(%cst : f32) outs(%5 : tensor<?x?xf32>) -> tensor<?x?xf32>
        %7 = linalg.matmul ins(%4, %4 : tensor<?x?xf32>, tensor<?x?xf32>) outs(%6 : tensor<?x?xf32>) -> tensor<?x?xf32>
        flow.dispatch.tensor.store %7, %3, offsets = [0, 0], sizes = [%0, %1], strides = [1, 1] : tensor<?x?xf32> -> !flow.dispatch.tensor<writeonly:tensor<?x?xf32>>{%0, %1}
        return
      }
    }
  }
  func.func @main(%arg0: !hal.buffer_view) -> !hal.buffer_view attributes {iree.abi.stub} {
    %0 = hal.buffer_view.dim<%arg0 : !hal.buffer_view>[0] : index
    %1 = hal.buffer_view.dim<%arg0 : !hal.buffer_view>[1] : index
    %2 = hal.tensor.import %arg0 "input 0" : !hal.buffer_view -> tensor<?x?xf32>{%0, %1}
    %3 = flow.dispatch @main_dispatch_0::@main_dispatch_0_matmul_DxDxD_f32[%0, %1](%2, %0, %1) : (tensor<?x?xf32>{%0, %1}, index, index) -> tensor<?x?xf32>{%0, %1}
    %4 = hal.tensor.export %3 "output 0" : tensor<?x?xf32>{%0, %1} -> !hal.buffer_view
    return %4 : !hal.buffer_view
  }
}


// -----// IR Dump After ConvertToStream (iree-stream-conversion) //----- //
#executable_target_cuda_nvptx_fb = #hal.executable.target<"cuda", "cuda-nvptx-fb", {target_arch = "sm_75"}>
#device_target_cuda = #hal.device.target<"cuda", {executable_targets = [#executable_target_cuda_nvptx_fb], legacy_sync}>
module @LinearModule attributes {hal.device.targets = [#device_target_cuda]} {
  stream.executable private @main_dispatch_0 {
    stream.executable.export public @main_dispatch_0_matmul_DxDxD_f32 workgroups(%arg0: index, %arg1: index) -> (index, index, index) {
      %x, %y, %z = flow.dispatch.workgroup_count_from_slice %arg0, %arg1
      stream.return %x, %y, %z : index, index, index
    }
    builtin.module {
      func.func @main_dispatch_0_matmul_DxDxD_f32(%arg0: !stream.binding, %arg1: index, %arg2: index, %arg3: !stream.binding) {
        %c0 = arith.constant 0 : index
        %cst = arith.constant 0.000000e+00 : f32
        %0 = flow.dispatch.workload.ordinal %arg1, 0 : index
        %1 = flow.dispatch.workload.ordinal %arg2, 1 : index
        %2 = stream.binding.subspan %arg0[%c0] : !stream.binding -> !flow.dispatch.tensor<readonly:tensor<?x?xf32>>{%0, %1}
        %3 = stream.binding.subspan %arg3[%c0] : !stream.binding -> !flow.dispatch.tensor<writeonly:tensor<?x?xf32>>{%0, %1}
        %4 = flow.dispatch.tensor.load %2, offsets = [0, 0], sizes = [%0, %1], strides = [1, 1] : !flow.dispatch.tensor<readonly:tensor<?x?xf32>>{%0, %1} -> tensor<?x?xf32>
        %5 = tensor.empty(%0, %1) : tensor<?x?xf32>
        %6 = linalg.fill ins(%cst : f32) outs(%5 : tensor<?x?xf32>) -> tensor<?x?xf32>
        %7 = linalg.matmul ins(%4, %4 : tensor<?x?xf32>, tensor<?x?xf32>) outs(%6 : tensor<?x?xf32>) -> tensor<?x?xf32>
        flow.dispatch.tensor.store %7, %3, offsets = [0, 0], sizes = [%0, %1], strides = [1, 1] : tensor<?x?xf32> -> !flow.dispatch.tensor<writeonly:tensor<?x?xf32>>{%0, %1}
        return
      }
    }
  }
  func.func @main(%arg0: !hal.buffer_view) -> !hal.buffer_view attributes {iree.abi.stub} {
    %0 = hal.buffer_view.dim<%arg0 : !hal.buffer_view>[0] : index
    %1 = hal.buffer_view.dim<%arg0 : !hal.buffer_view>[1] : index
    %c553648160_i32 = arith.constant 553648160 : i32
    %c1_i32 = arith.constant 1 : i32
    hal.buffer_view.assert<%arg0 : !hal.buffer_view> message("input 0") shape([%0, %1]) type(%c553648160_i32) encoding(%c1_i32)
    %2 = stream.tensor.sizeof tensor<?x?xf32>{%0, %1} : index
    %3 = stream.tensor.import %arg0 : !hal.buffer_view -> tensor<?x?xf32>{%0, %1} in !stream.resource<external>{%2}
    %4 = stream.async.transfer %3 : !stream.resource<external>{%2} -> !stream.resource<*>{%2}
    %c0 = arith.constant 0 : index
    %5 = stream.tensor.sizeof tensor<?x?xf32>{%0, %1} : index
    %6 = stream.async.dispatch @main_dispatch_0::@main_dispatch_0_matmul_DxDxD_f32[%0, %1](%4[%c0 to %2 for %2], %0, %1) : (!stream.resource<*>{%2}, index, index) -> !stream.resource<*>{%5}
    %7 = stream.async.transfer %6 : !stream.resource<*>{%5} -> !stream.resource<external>{%5}
    %8 = stream.tensor.export %7 : tensor<?x?xf32>{%0, %1} in !stream.resource<external>{%5} -> !hal.buffer_view
    return %8 : !hal.buffer_view
  }
}


// -----// IR Dump After VerifyLoweringToTensors (iree-stream-verify-lowering-to-tensors) //----- //
#executable_target_cuda_nvptx_fb = #hal.executable.target<"cuda", "cuda-nvptx-fb", {target_arch = "sm_75"}>
#device_target_cuda = #hal.device.target<"cuda", {executable_targets = [#executable_target_cuda_nvptx_fb], legacy_sync}>
module @LinearModule attributes {hal.device.targets = [#device_target_cuda]} {
  stream.executable private @main_dispatch_0 {
    stream.executable.export public @main_dispatch_0_matmul_DxDxD_f32 workgroups(%arg0: index, %arg1: index) -> (index, index, index) {
      %x, %y, %z = flow.dispatch.workgroup_count_from_slice %arg0, %arg1
      stream.return %x, %y, %z : index, index, index
    }
    builtin.module {
      func.func @main_dispatch_0_matmul_DxDxD_f32(%arg0: !stream.binding, %arg1: index, %arg2: index, %arg3: !stream.binding) {
        %c0 = arith.constant 0 : index
        %cst = arith.constant 0.000000e+00 : f32
        %0 = flow.dispatch.workload.ordinal %arg1, 0 : index
        %1 = flow.dispatch.workload.ordinal %arg2, 1 : index
        %2 = stream.binding.subspan %arg0[%c0] : !stream.binding -> !flow.dispatch.tensor<readonly:tensor<?x?xf32>>{%0, %1}
        %3 = stream.binding.subspan %arg3[%c0] : !stream.binding -> !flow.dispatch.tensor<writeonly:tensor<?x?xf32>>{%0, %1}
        %4 = flow.dispatch.tensor.load %2, offsets = [0, 0], sizes = [%0, %1], strides = [1, 1] : !flow.dispatch.tensor<readonly:tensor<?x?xf32>>{%0, %1} -> tensor<?x?xf32>
        %5 = tensor.empty(%0, %1) : tensor<?x?xf32>
        %6 = linalg.fill ins(%cst : f32) outs(%5 : tensor<?x?xf32>) -> tensor<?x?xf32>
        %7 = linalg.matmul ins(%4, %4 : tensor<?x?xf32>, tensor<?x?xf32>) outs(%6 : tensor<?x?xf32>) -> tensor<?x?xf32>
        flow.dispatch.tensor.store %7, %3, offsets = [0, 0], sizes = [%0, %1], strides = [1, 1] : tensor<?x?xf32> -> !flow.dispatch.tensor<writeonly:tensor<?x?xf32>>{%0, %1}
        return
      }
    }
  }
  func.func @main(%arg0: !hal.buffer_view) -> !hal.buffer_view attributes {iree.abi.stub} {
    %0 = hal.buffer_view.dim<%arg0 : !hal.buffer_view>[0] : index
    %1 = hal.buffer_view.dim<%arg0 : !hal.buffer_view>[1] : index
    %c553648160_i32 = arith.constant 553648160 : i32
    %c1_i32 = arith.constant 1 : i32
    hal.buffer_view.assert<%arg0 : !hal.buffer_view> message("input 0") shape([%0, %1]) type(%c553648160_i32) encoding(%c1_i32)
    %2 = stream.tensor.sizeof tensor<?x?xf32>{%0, %1} : index
    %3 = stream.tensor.import %arg0 : !hal.buffer_view -> tensor<?x?xf32>{%0, %1} in !stream.resource<external>{%2}
    %4 = stream.async.transfer %3 : !stream.resource<external>{%2} -> !stream.resource<*>{%2}
    %c0 = arith.constant 0 : index
    %5 = stream.tensor.sizeof tensor<?x?xf32>{%0, %1} : index
    %6 = stream.async.dispatch @main_dispatch_0::@main_dispatch_0_matmul_DxDxD_f32[%0, %1](%4[%c0 to %2 for %2], %0, %1) : (!stream.resource<*>{%2}, index, index) -> !stream.resource<*>{%5}
    %7 = stream.async.transfer %6 : !stream.resource<*>{%5} -> !stream.resource<external>{%5}
    %8 = stream.tensor.export %7 : tensor<?x?xf32>{%0, %1} in !stream.resource<external>{%5} -> !hal.buffer_view
    return %8 : !hal.buffer_view
  }
}


…
  vm.import private @hal.command_buffer.dispatch(%command_buffer : !vm.ref<!hal.command_buffer>, %executable : !vm.ref<!hal.executable>, %entry_point : i32, %workgroup_x : i32, %workgroup_y : i32, %workgroup_z : i32)
  vm.import private @hal.descriptor_set_layout.create(%device : !vm.ref<!hal.device>, %flags : i32, %bindings : tuple<i32, i32, i32> ...) -> !vm.ref<!hal.descriptor_set_layout> attributes {nosideeffects}
  vm.import private @hal.device.allocator(%device : !vm.ref<!hal.device>) -> !vm.ref<!hal.allocator> attributes {nosideeffects}
  vm.import private @hal.device.query.i64(%device : !vm.ref<!hal.device>, %category : !vm.buffer, %key : !vm.buffer) -> (i32, i64) attributes {nosideeffects}
  vm.import private @hal.device.queue.alloca(%device : !vm.ref<!hal.device>, %queue_affinity : i64, %wait_fence : !vm.ref<!hal.fence>, %signal_fence : !vm.ref<!hal.fence>, %pool : i32, %memory_types : i32, %buffer_usage : i32, %allocation_size : i64) -> !vm.ref<!hal.buffer>
  vm.import private @hal.device.queue.execute(%device : !vm.ref<!hal.device>, %queue_affinity : i64, %wait_fence : !vm.ref<!hal.fence>, %signal_fence : !vm.ref<!hal.fence>, %command_buffers : !vm.ref<!hal.command_buffer> ...)
  vm.import private @hal.executable.create(%device : !vm.ref<!hal.device>, %executable_format : !vm.buffer, %executable_data : !vm.buffer, %constants : !vm.buffer, %pipeline_layouts : !vm.ref<!hal.pipeline_layout> ...) -> !vm.ref<!hal.executable> attributes {nosideeffects}
  vm.import private @hal.fence.create(%device : !vm.ref<!hal.device>, %flags : i32) -> !vm.ref<!hal.fence>
  vm.import private @hal.fence.await(%timeout_millis : i32, %fences : !vm.ref<!hal.fence> ...) -> i32 attributes {vm.yield}
  vm.import private @hal.pipeline_layout.create(%device : !vm.ref<!hal.device>, %push_constants : i32, %set_layouts : !vm.ref<!hal.descriptor_set_layout> ...) -> !vm.ref<!hal.pipeline_layout> attributes {nosideeffects}
  vm.rodata private @_utf8_input_0_5FD512E67BEFDEEC {alignment = 1 : i64} "input 0"
  vm.rodata private @_utf8_tensor_3C6209B4FD120BDC {alignment = 1 : i64} "tensor"
  vm.func private @main(%arg0: !vm.ref<!hal.buffer_view>) -> !vm.ref<!hal.buffer_view> {
    %c13 = vm.const.i32 13
    %c28 = vm.const.i32 28
    %c3 = vm.const.i32 3
    %c17 = vm.const.i32 17
    %c32 = vm.const.i32 32
    %c48 = vm.const.i32 48
    %null = vm.const.ref.zero : !vm.ref<!hal.fence>
    %c3075 = vm.const.i32 3075
    %c16 = vm.const.i32 16
    %zero = vm.const.i32.zero
    %c32_0 = vm.const.i64 32
    %c128 = vm.const.i64 128
    %c553648160 = vm.const.i32 553648160
    %c1 = vm.const.i32 1
    %zero_1 = vm.const.i64.zero
    %c4 = vm.const.i64 4
    %c-1 = vm.const.i64 -1
    %c-1_2 = vm.const.i32 -1
    %c1_3 = vm.const.i64 1
    %_device_query_0 = vm.global.load.i32 @_device_query_0 : i32
    %_pipeline_layout_0 = vm.global.load.ref @_pipeline_layout_0 : !vm.ref<!hal.pipeline_layout>
    %_executable_main_dispatch_0 = vm.global.load.ref @_executable_main_dispatch_0 : !vm.ref<!hal.executable>
    %0 = vm.call @hal.buffer_view.dim(%arg0, %zero) {nosideeffects} : (!vm.ref<!hal.buffer_view>, i32) -> i64
    %1 = vm.call @hal.buffer_view.dim(%arg0, %c1) {nosideeffects} : (!vm.ref<!hal.buffer_view>, i32) -> i64
    %_utf8_input_0_5FD512E67BEFDEEC = vm.const.ref.rodata @_utf8_input_0_5FD512E67BEFDEEC : !vm.buffer
    vm.call.variadic @hal.buffer_view.assert(%arg0, %_utf8_input_0_5FD512E67BEFDEEC, %c553648160, %c1, [%0, %1]) : (!vm.ref<!hal.buffer_view>, !vm.buffer, i32, i32, i64 ...)
    %2 = vm.mul.i64 %0, %c4 : i64
    %3 = vm.mul.i64 %2, %1 : i64
    %ref = vm.call @hal.buffer_view.buffer(%arg0) {nosideeffects} : (!vm.ref<!hal.buffer_view>) -> !vm.ref<!hal.buffer>
    %ref_4 = vm.call @hal.ex.shared_device() {nosideeffects} : () -> !vm.ref<!hal.device>
    %ref_5 = vm.call @hal.device.allocator(%ref_4) {nosideeffects} : (!vm.ref<!hal.device>) -> !vm.ref<!hal.allocator>
    %_utf8_tensor_3C6209B4FD120BDC = vm.const.ref.rodata @_utf8_tensor_3C6209B4FD120BDC : !vm.buffer
    vm.call @hal.buffer.assert(%ref, %_utf8_tensor_3C6209B4FD120BDC, %ref_5, %3, %c16, %c3075) : (!vm.ref<!hal.buffer>, !vm.buffer, !vm.ref<!hal.allocator>, i64, i32, i32) -> ()
    %ref_6 = vm.call @hal.fence.create(%ref_4, %zero) : (!vm.ref<!hal.device>, i32) -> !vm.ref<!hal.fence>
    %ref_7 = vm.call @hal.device.queue.alloca(%ref_4, %c-1, %null, %ref_6, %zero, %c48, %c3075, %3) : (!vm.ref<!hal.device>, i64, !vm.ref<!hal.fence>, !vm.ref<!hal.fence>, i32, i32, i32, i64) -> !vm.ref<!hal.buffer>
    %4 = vm.call.variadic @hal.fence.await(%c-1_2, [%ref_6]) : (i32, !vm.ref<!hal.fence> ...) -> i32
    %5 = vm.trunc.i64.i32 %0 : i64 -> i32
    %6 = vm.shr.i64.u %0, %c32 : i64
    %7 = vm.trunc.i64.i32 %6 : i64 -> i32
    %8 = vm.trunc.i64.i32 %1 : i64 -> i32
    %9 = vm.shr.i64.u %1, %c32 : i64
    %10 = vm.trunc.i64.i32 %9 : i64 -> i32
    %ref_8 = vm.call @hal.command_buffer.create(%ref_4, %c17, %c3, %zero) : (!vm.ref<!hal.device>, i32, i32, i32) -> !vm.ref<!hal.command_buffer>
    %11 = vm.select.i64 %_device_query_0, %zero_1, %c-1 : i64
    %12 = vm.trunc.i64.i32 %11 : i64 -> i32
    vm.br_table %12 {
      default: ^bb2,
      0: ^bb1
    }
  ^bb1:  // pred: ^bb0
    vm.call.variadic @hal.command_buffer.push_constants(%ref_8, %_pipeline_layout_0, %zero, [%5, %7, %8, %10]) : (!vm.ref<!hal.command_buffer>, !vm.ref<!hal.pipeline_layout>, i32, i32 ...)
    vm.call.variadic @hal.command_buffer.push_descriptor_set(%ref_8, %_pipeline_layout_0, %zero, [(%zero, %zero, %ref, %zero_1, %3), (%c1, %zero, %ref_7, %zero_1, %3)]) : (!vm.ref<!hal.command_buffer>, !vm.ref<!hal.pipeline_layout>, i32, tuple<i32, i32, !vm.ref<!hal.buffer>, i64, i64> ...)
    %slt = vm.cmp.lt.i64.s %zero_1, %1 : i64
    %13 = vm.xor.i32 %slt, %c1 : i32
    %14 = vm.sub.i64 %zero_1, %1 : i64
    %15 = vm.sub.i64 %1, %c1_3 : i64
    %16 = vm.select.i64 %13, %14, %15 : i64
    %17 = vm.div.i64.s %16, %c128 : i64
    %18 = vm.sub.i64 %zero_1, %17 : i64
    %19 = vm.add.i64 %17, %c1_3 : i64
    %20 = vm.select.i64 %13, %18, %19 : i64
    %slt_9 = vm.cmp.lt.i64.s %zero_1, %0 : i64
    %21 = vm.xor.i32 %slt_9, %c1 : i32
    %22 = vm.sub.i64 %zero_1, %0 : i64
    %23 = vm.sub.i64 %0, %c1_3 : i64
    %24 = vm.select.i64 %21, %22, %23 : i64
    %25 = vm.div.i64.s %24, %c32_0 : i64
    %26 = vm.sub.i64 %zero_1, %25 : i64
    %27 = vm.add.i64 %25, %c1_3 : i64
    %28 = vm.select.i64 %21, %26, %27 : i64
    %29 = vm.mul.i64 %20, %28 : i64
    %30 = vm.trunc.i64.i32 %29 : i64 -> i32
    vm.call @hal.command_buffer.dispatch(%ref_8, %_executable_main_dispatch_0, %zero, %30, %c1, %c1) : (!vm.ref<!hal.command_buffer>, !vm.ref<!hal.executable>, i32, i32, i32, i32) -> ()
    vm.br ^bb2
  ^bb2:  // 2 preds: ^bb0, ^bb1
    vm.call @hal.command_buffer.execution_barrier(%ref_8, %c28, %c13, %zero) : (!vm.ref<!hal.command_buffer>, i32, i32, i32) -> ()
    vm.call @hal.command_buffer.finalize(%ref_8) : (!vm.ref<!hal.command_buffer>) -> ()
    %ref_10 = vm.call @hal.fence.create(%ref_4, %zero) : (!vm.ref<!hal.device>, i32) -> !vm.ref<!hal.fence>
    %31 = vm.call.variadic @hal.fence.await(%c-1_2, [%ref_6]) : (i32, !vm.ref<!hal.fence> ...) -> i32
    vm.call.variadic @hal.device.queue.execute(%ref_4, %c-1, %null, %ref_10, [%ref_8]) : (!vm.ref<!hal.device>, i64, !vm.ref<!hal.fence>, !vm.ref<!hal.fence>, !vm.ref<!hal.command_buffer> ...)
    %32 = vm.call.variadic @hal.fence.await(%c-1_2, [%ref_10]) : (i32, !vm.ref<!hal.fence> ...) -> i32
    vm.cond_br %32, ^bb4, ^bb3
  ^bb3:  // pred: ^bb2
    %ref_11 = vm.call.variadic @hal.buffer_view.create(%ref_7, %zero_1, %3, %c553648160, %c1, [%0, %1]) {nosideeffects} : (!vm.ref<!hal.buffer>, i64, i64, i32, i32, i64 ...) -> !vm.ref<!hal.buffer_view>
    vm.return %ref_11 : !vm.ref<!hal.buffer_view>
  ^bb4:  // pred: ^bb2
    vm.fail %32, "failed to wait on timepoint"
  }
  vm.export @main attributes {iree.abi.stub}
  vm.export @__init
  vm.func private @__init() {
    %null = vm.const.ref.zero : !vm.ref<!hal.executable>
    %null_0 = vm.const.ref.zero : !vm.buffer
    %c4 = vm.const.i32 4
    %c7 = vm.const.i32 7
    %zero = vm.const.i32.zero
    %c1 = vm.const.i32 1
    %zero_1 = vm.const.i64.zero
    %c-1 = vm.const.i64 -1
    %ref = vm.call @hal.ex.shared_device() {nosideeffects} : () -> !vm.ref<!hal.device>
    %_utf8_hal_executable_format_EAB228F999C2D3A1 = vm.const.ref.rodata @_utf8_hal_executable_format_EAB228F999C2D3A1 : !vm.buffer
    %_utf8_cuda_nvptx_fb_B15B42B96FDBACC = vm.const.ref.rodata @_utf8_cuda_nvptx_fb_B15B42B96FDBACC : !vm.buffer
    %0:2 = vm.call @hal.device.query.i64(%ref, %_utf8_hal_executable_format_EAB228F999C2D3A1, %_utf8_cuda_nvptx_fb_B15B42B96FDBACC) {nosideeffects} : (!vm.ref<!hal.device>, !vm.buffer, !vm.buffer) -> (i32, i64)
    %1 = vm.trunc.i64.i32 %0#1 : i64 -> i32
    %2 = vm.and.i32 %1, %c1 : i32
    %3 = vm.select.i32 %0#0, %2, %zero : i32
    %ref_2 = vm.call.variadic @hal.descriptor_set_layout.create(%ref, %zero, [(%zero, %c7, %c1), (%c1, %c7, %zero)]) {nosideeffects} : (!vm.ref<!hal.device>, i32, tuple<i32, i32, i32> ...) -> !vm.ref<!hal.descriptor_set_layout>
    %ref_3 = vm.call.variadic @hal.pipeline_layout.create(%ref, %c4, [%ref_2]) {nosideeffects} : (!vm.ref<!hal.device>, i32, !vm.ref<!hal.descriptor_set_layout> ...) -> !vm.ref<!hal.pipeline_layout>
    %4 = vm.select.i64 %3, %zero_1, %c-1 : i64
    %5 = vm.trunc.i64.i32 %4 : i64 -> i32
    vm.global.store.i32 %3, @_device_query_0 : i32
    vm.global.store.ref %ref_3, @_pipeline_layout_0 : !vm.ref<!hal.pipeline_layout>
    vm.br_table %5 {
      default: ^bb2,
      0: ^bb1
    }
  ^bb1:  // pred: ^bb0
    %_pipeline_layout_0 = vm.global.load.ref @_pipeline_layout_0 : !vm.ref<!hal.pipeline_layout>
    %main_dispatch_0_cuda_nvptx_fb = vm.const.ref.rodata @main_dispatch_0_cuda_nvptx_fb : !vm.buffer
    %ref_4 = vm.call.variadic @hal.executable.create(%ref, %_utf8_cuda_nvptx_fb_B15B42B96FDBACC, %main_dispatch_0_cuda_nvptx_fb, %null_0, [%_pipeline_layout_0]) {nosideeffects} : (!vm.ref<!hal.device>, !vm.buffer, !vm.buffer, !vm.buffer, !vm.ref<!hal.pipeline_layout> ...) -> !vm.ref<!hal.executable>
    vm.br ^bb3(%ref_4 : !vm.ref<!hal.executable>)
  ^bb2:  // pred: ^bb0
    vm.br ^bb3(%null : !vm.ref<!hal.executable>)
  ^bb3(%6: !vm.ref<!hal.executable>):  // 2 preds: ^bb1, ^bb2
    vm.global.store.ref %6, @_executable_main_dispatch_0 : !vm.ref<!hal.executable>
    vm.return
  }
}

// -----// IR Dump After Canonicalizer (canonicalize) //----- //
vm.module public @LinearModule {
  vm.global.i32 private mutable @_device_query_0 : i32
  vm.global.ref private mutable @_pipeline_layout_0 : !vm.ref<!hal.pipeline_layout>
  vm.global.ref private mutable @_executable_main_dispatch_0 : !vm.ref<!hal.executable>
  vm.rodata private @main_dispatch_0_cuda_nvptx_fb {alignment = 16 : i64, mime_type = "application/x-flatbuffers"} dense<"…"> : vector<6926xi8>
  vm.rodata private @_utf8_hal_executable_format_EAB228F999C2D3A1 {alignment = 1 : i64} "hal.executable.format"
  vm.rodata private @_utf8_cuda_nvptx_fb_B15B42B96FDBACC {alignment = 1 : i64} "cuda-nvptx-fb"
  vm.import private @hal.ex.shared_device() -> !vm.ref<!hal.device> attributes {nosideeffects}
  vm.import private @hal.buffer.assert(%buffer : !vm.ref<!hal.buffer>, %message : !vm.buffer, %allocator : !vm.ref<!hal.allocator>, %minimum_length : i64, %memory_types : i32, %buffer_usage : i32)
  vm.import private @hal.buffer_view.create(%buffer : !vm.ref<!hal.buffer>, %source_offset : i64, %source_length : i64, %element_type : i32, %encoding_type : i32, %shape : i64 ...) -> !vm.ref<!hal.buffer_view> attributes {nosideeffects}
  vm.import private @hal.buffer_view.assert(%buffer_view : !vm.ref<!hal.buffer_view>, %message : !vm.buffer, %element_type : i32, %encoding_type : i32, %shape : i64 ...)
  vm.import private @hal.buffer_view.buffer(%buffer_view : !vm.ref<!hal.buffer_view>) -> !vm.ref<!hal.buffer> attributes {nosideeffects}
  vm.import private @hal.buffer_view.dim(%buffer_view : !vm.ref<!hal.buffer_view>, %index : i32) -> i64 attributes {nosideeffects}
  vm.import private @hal.command_buffer.create(%device : !vm.ref<!hal.device>, %modes : i32, %command_categories : i32, %binding_capacity : i32) -> !vm.ref<!hal.command_buffer>
  vm.import private @hal.command_buffer.finalize(%command_buffer : !vm.ref<!hal.command_buffer>)
  vm.import private @hal.command_buffer.execution_barrier(%command_buffer : !vm.ref<!hal.command_buffer>, %source_stage_mask : i32, %target_stage_mask : i32, %flags : i32)
  vm.import private @hal.command_buffer.push_constants(%command_buffer : !vm.ref<!hal.command_buffer>, %pipeline_layout : !vm.ref<!hal.pipeline_layout>, %offset : i32, %values : i32 ...)
  vm.import private @hal.command_buffer.push_descriptor_set(%command_buffer : !vm.ref<!hal.command_buffer>, %pipeline_layout : !vm.ref<!hal.pipeline_layout>, %set : i32, %bindings : tuple<i32, i32, !vm.ref<!hal.buffer>, i64, i64> ...)
  vm.import private @hal.command_buffer.dispatch(%command_buffer : !vm.ref<!hal.command_buffer>, %executable : !vm.ref<!hal.executable>, %entry_point : i32, %workgroup_x : i32, %workgroup_y : i32, %workgroup_z : i32)
  vm.import private @hal.descriptor_set_layout.create(%device : !vm.ref<!hal.device>, %flags : i32, %bindings : tuple<i32, i32, i32> ...) -> !vm.ref<!hal.descriptor_set_layout> attributes {nosideeffects}
  vm.import private @hal.device.allocator(%device : !vm.ref<!hal.device>) -> !vm.ref<!hal.allocator> attributes {nosideeffects}
  vm.import private @hal.device.query.i64(%device : !vm.ref<!hal.device>, %category : !vm.buffer, %key : !vm.buffer) -> (i32, i64) attributes {nosideeffects}
  vm.import private @hal.device.queue.alloca(%device : !vm.ref<!hal.device>, %queue_affinity : i64, %wait_fence : !vm.ref<!hal.fence>, %signal_fence : !vm.ref<!hal.fence>, %pool : i32, %memory_types : i32, %buffer_usage : i32, %allocation_size : i64) -> !vm.ref<!hal.buffer>
  vm.import private @hal.device.queue.execute(%device : !vm.ref<!hal.device>, %queue_affinity : i64, %wait_fence : !vm.ref<!hal.fence>, %signal_fence : !vm.ref<!hal.fence>, %command_buffers : !vm.ref<!hal.command_buffer> ...)
  vm.import private @hal.executable.create(%device : !vm.ref<!hal.device>, %executable_format : !vm.buffer, %executable_data : !vm.buffer, %constants : !vm.buffer, %pipeline_layouts : !vm.ref<!hal.pipeline_layout> ...) -> !vm.ref<!hal.executable> attributes {nosideeffects}
  vm.import private @hal.fence.create(%device : !vm.ref<!hal.device>, %flags : i32) -> !vm.ref<!hal.fence>
  vm.import private @hal.fence.await(%timeout_millis : i32, %fences : !vm.ref<!hal.fence> ...) -> i32 attributes {vm.yield}
  vm.import private @hal.pipeline_layout.create(%device : !vm.ref<!hal.device>, %push_constants : i32, %set_layouts : !vm.ref<!hal.descriptor_set_layout> ...) -> !vm.ref<!hal.pipeline_layout> attributes {nosideeffects}
  vm.rodata private @_utf8_input_0_5FD512E67BEFDEEC {alignment = 1 : i64} "input 0"
  vm.rodata private @_utf8_tensor_3C6209B4FD120BDC {alignment = 1 : i64} "tensor"
  vm.func private @main(%arg0: !vm.ref<!hal.buffer_view>) -> !vm.ref<!hal.buffer_view> {
    %c13 = vm.const.i32 13
    %c28 = vm.const.i32 28
    %c3 = vm.const.i32 3
    %c17 = vm.const.i32 17
    %c32 = vm.const.i32 32
    %c48 = vm.const.i32 48
    %null = vm.const.ref.zero : !vm.ref<!hal.fence>
    %c3075 = vm.const.i32 3075
    %c16 = vm.const.i32 16
    %zero = vm.const.i32.zero
    %c32_0 = vm.const.i64 32
    %c128 = vm.const.i64 128
    %c553648160 = vm.const.i32 553648160
    %c1 = vm.const.i32 1
    %zero_1 = vm.const.i64.zero
    %c4 = vm.const.i64 4
    %c-1 = vm.const.i64 -1
    %c-1_2 = vm.const.i32 -1
    %c1_3 = vm.const.i64 1
    %_device_query_0 = vm.global.load.i32 @_device_query_0 : i32
    %_pipeline_layout_0 = vm.global.load.ref @_pipeline_layout_0 : !vm.ref<!hal.pipeline_layout>
    %_executable_main_dispatch_0 = vm.global.load.ref @_executable_main_dispatch_0 : !vm.ref<!hal.executable>
    %0 = vm.call @hal.buffer_view.dim(%arg0, %zero) {nosideeffects} : (!vm.ref<!hal.buffer_view>, i32) -> i64
    %1 = vm.call @hal.buffer_view.dim(%arg0, %c1) {nosideeffects} : (!vm.ref<!hal.buffer_view>, i32) -> i64
    %_utf8_input_0_5FD512E67BEFDEEC = vm.const.ref.rodata @_utf8_input_0_5FD512E67BEFDEEC : !vm.buffer
    vm.call.variadic @hal.buffer_view.assert(%arg0, %_utf8_input_0_5FD512E67BEFDEEC, %c553648160, %c1, [%0, %1]) : (!vm.ref<!hal.buffer_view>, !vm.buffer, i32, i32, i64 ...)
    %2 = vm.mul.i64 %0, %c4 : i64
    %3 = vm.mul.i64 %2, %1 : i64
    %ref = vm.call @hal.buffer_view.buffer(%arg0) {nosideeffects} : (!vm.ref<!hal.buffer_view>) -> !vm.ref<!hal.buffer>
    %ref_4 = vm.call @hal.ex.shared_device() {nosideeffects} : () -> !vm.ref<!hal.device>
    %ref_5 = vm.call @hal.device.allocator(%ref_4) {nosideeffects} : (!vm.ref<!hal.device>) -> !vm.ref<!hal.allocator>
    %_utf8_tensor_3C6209B4FD120BDC = vm.const.ref.rodata @_utf8_tensor_3C6209B4FD120BDC : !vm.buffer
    vm.call @hal.buffer.assert(%ref, %_utf8_tensor_3C6209B4FD120BDC, %ref_5, %3, %c16, %c3075) : (!vm.ref<!hal.buffer>, !vm.buffer, !vm.ref<!hal.allocator>, i64, i32, i32) -> ()
    %ref_6 = vm.call @hal.fence.create(%ref_4, %zero) : (!vm.ref<!hal.device>, i32) -> !vm.ref<!hal.fence>
    %ref_7 = vm.call @hal.device.queue.alloca(%ref_4, %c-1, %null, %ref_6, %zero, %c48, %c3075, %3) : (!vm.ref<!hal.device>, i64, !vm.ref<!hal.fence>, !vm.ref<!hal.fence>, i32, i32, i32, i64) -> !vm.ref<!hal.buffer>
    %4 = vm.call.variadic @hal.fence.await(%c-1_2, [%ref_6]) : (i32, !vm.ref<!hal.fence> ...) -> i32
    %5 = vm.trunc.i64.i32 %0 : i64 -> i32
    %6 = vm.shr.i64.u %0, %c32 : i64
    %7 = vm.trunc.i64.i32 %6 : i64 -> i32
    %8 = vm.trunc.i64.i32 %1 : i64 -> i32
    %9 = vm.shr.i64.u %1, %c32 : i64
    %10 = vm.trunc.i64.i32 %9 : i64 -> i32
    %ref_8 = vm.call @hal.command_buffer.create(%ref_4, %c17, %c3, %zero) : (!vm.ref<!hal.device>, i32, i32, i32) -> !vm.ref<!hal.command_buffer>
    %11 = vm.select.i64 %_device_query_0, %zero_1, %c-1 : i64
    %12 = vm.trunc.i64.i32 %11 : i64 -> i32
    vm.br_table %12 {
      default: ^bb2,
      0: ^bb1
    }
  ^bb1:  // pred: ^bb0
    vm.call.variadic @hal.command_buffer.push_constants(%ref_8, %_pipeline_layout_0, %zero, [%5, %7, %8, %10]) : (!vm.ref<!hal.command_buffer>, !vm.ref<!hal.pipeline_layout>, i32, i32 ...)
    vm.call.variadic @hal.command_buffer.push_descriptor_set(%ref_8, %_pipeline_layout_0, %zero, [(%zero, %zero, %ref, %zero_1, %3), (%c1, %zero, %ref_7, %zero_1, %3)]) : (!vm.ref<!hal.command_buffer>, !vm.ref<!hal.pipeline_layout>, i32, tuple<i32, i32, !vm.ref<!hal.buffer>, i64, i64> ...)
    %slt = vm.cmp.lt.i64.s %zero_1, %1 : i64
    %13 = vm.xor.i32 %slt, %c1 : i32
    %14 = vm.sub.i64 %zero_1, %1 : i64
    %15 = vm.sub.i64 %1, %c1_3 : i64
    %16 = vm.select.i64 %13, %14, %15 : i64
    %17 = vm.div.i64.s %16, %c128 : i64
    %18 = vm.sub.i64 %zero_1, %17 : i64
    %19 = vm.add.i64 %17, %c1_3 : i64
    %20 = vm.select.i64 %13, %18, %19 : i64
    %slt_9 = vm.cmp.lt.i64.s %zero_1, %0 : i64
    %21 = vm.xor.i32 %slt_9, %c1 : i32
    %22 = vm.sub.i64 %zero_1, %0 : i64
    %23 = vm.sub.i64 %0, %c1_3 : i64
    %24 = vm.select.i64 %21, %22, %23 : i64
    %25 = vm.div.i64.s %24, %c32_0 : i64
    %26 = vm.sub.i64 %zero_1, %25 : i64
    %27 = vm.add.i64 %25, %c1_3 : i64
    %28 = vm.select.i64 %21, %26, %27 : i64
    %29 = vm.mul.i64 %20, %28 : i64
    %30 = vm.trunc.i64.i32 %29 : i64 -> i32
    vm.call @hal.command_buffer.dispatch(%ref_8, %_executable_main_dispatch_0, %zero, %30, %c1, %c1) : (!vm.ref<!hal.command_buffer>, !vm.ref<!hal.executable>, i32, i32, i32, i32) -> ()
    vm.br ^bb2
  ^bb2:  // 2 preds: ^bb0, ^bb1
    vm.call @hal.command_buffer.execution_barrier(%ref_8, %c28, %c13, %zero) : (!vm.ref<!hal.command_buffer>, i32, i32, i32) -> ()
    vm.call @hal.command_buffer.finalize(%ref_8) : (!vm.ref<!hal.command_buffer>) -> ()
    %ref_10 = vm.call @hal.fence.create(%ref_4, %zero) : (!vm.ref<!hal.device>, i32) -> !vm.ref<!hal.fence>
    %31 = vm.call.variadic @hal.fence.await(%c-1_2, [%ref_6]) : (i32, !vm.ref<!hal.fence> ...) -> i32
    vm.call.variadic @hal.device.queue.execute(%ref_4, %c-1, %null, %ref_10, [%ref_8]) : (!vm.ref<!hal.device>, i64, !vm.ref<!hal.fence>, !vm.ref<!hal.fence>, !vm.ref<!hal.command_buffer> ...)
    %32 = vm.call.variadic @hal.fence.await(%c-1_2, [%ref_10]) : (i32, !vm.ref<!hal.fence> ...) -> i32
    vm.cond_br %32, ^bb4, ^bb3
  ^bb3:  // pred: ^bb2
    %ref_11 = vm.call.variadic @hal.buffer_view.create(%ref_7, %zero_1, %3, %c553648160, %c1, [%0, %1]) {nosideeffects} : (!vm.ref<!hal.buffer>, i64, i64, i32, i32, i64 ...) -> !vm.ref<!hal.buffer_view>
    vm.return %ref_11 : !vm.ref<!hal.buffer_view>
  ^bb4:  // pred: ^bb2
    vm.fail %32, "failed to wait on timepoint"
  }
  vm.export @main attributes {iree.abi.stub}
  vm.export @__init
  vm.func private @__init() {
    %null = vm.const.ref.zero : !vm.ref<!hal.executable>
    %null_0 = vm.const.ref.zero : !vm.buffer
    %c4 = vm.const.i32 4
    %c7 = vm.const.i32 7
    %zero = vm.const.i32.zero
    %c1 = vm.const.i32 1
    %zero_1 = vm.const.i64.zero
    %c-1 = vm.const.i64 -1
    %ref = vm.call @hal.ex.shared_device() {nosideeffects} : () -> !vm.ref<!hal.device>
    %_utf8_hal_executable_format_EAB228F999C2D3A1 = vm.const.ref.rodata @_utf8_hal_executable_format_EAB228F999C2D3A1 : !vm.buffer
    %_utf8_cuda_nvptx_fb_B15B42B96FDBACC = vm.const.ref.rodata @_utf8_cuda_nvptx_fb_B15B42B96FDBACC : !vm.buffer
    %0:2 = vm.call @hal.device.query.i64(%ref, %_utf8_hal_executable_format_EAB228F999C2D3A1, %_utf8_cuda_nvptx_fb_B15B42B96FDBACC) {nosideeffects} : (!vm.ref<!hal.device>, !vm.buffer, !vm.buffer) -> (i32, i64)
    %1 = vm.trunc.i64.i32 %0#1 : i64 -> i32
    %2 = vm.and.i32 %1, %c1 : i32
    %3 = vm.select.i32 %0#0, %2, %zero : i32
    %ref_2 = vm.call.variadic @hal.descriptor_set_layout.create(%ref, %zero, [(%zero, %c7, %c1), (%c1, %c7, %zero)]) {nosideeffects} : (!vm.ref<!hal.device>, i32, tuple<i32, i32, i32> ...) -> !vm.ref<!hal.descriptor_set_layout>
    %ref_3 = vm.call.variadic @hal.pipeline_layout.create(%ref, %c4, [%ref_2]) {nosideeffects} : (!vm.ref<!hal.device>, i32, !vm.ref<!hal.descriptor_set_layout> ...) -> !vm.ref<!hal.pipeline_layout>
    %4 = vm.select.i64 %3, %zero_1, %c-1 : i64
    %5 = vm.trunc.i64.i32 %4 : i64 -> i32
    vm.global.store.i32 %3, @_device_query_0 : i32
    vm.global.store.ref %ref_3, @_pipeline_layout_0 : !vm.ref<!hal.pipeline_layout>
    vm.br_table %5 {
      default: ^bb2,
      0: ^bb1
    }
  ^bb1:  // pred: ^bb0
    %_pipeline_layout_0 = vm.global.load.ref @_pipeline_layout_0 : !vm.ref<!hal.pipeline_layout>
    %main_dispatch_0_cuda_nvptx_fb = vm.const.ref.rodata @main_dispatch_0_cuda_nvptx_fb : !vm.buffer
    %ref_4 = vm.call.variadic @hal.executable.create(%ref, %_utf8_cuda_nvptx_fb_B15B42B96FDBACC, %main_dispatch_0_cuda_nvptx_fb, %null_0, [%_pipeline_layout_0]) {nosideeffects} : (!vm.ref<!hal.device>, !vm.buffer, !vm.buffer, !vm.buffer, !vm.ref<!hal.pipeline_layout> ...) -> !vm.ref<!hal.executable>
    vm.br ^bb3(%ref_4 : !vm.ref<!hal.executable>)
  ^bb2:  // pred: ^bb0
    vm.br ^bb3(%null : !vm.ref<!hal.executable>)
  ^bb3(%6: !vm.ref<!hal.executable>):  // 2 preds: ^bb1, ^bb2
    vm.global.store.ref %6, @_executable_main_dispatch_0 : !vm.ref<!hal.executable>
    vm.return
  }
}

// -----// IR Dump After DropCompilerHints (iree-util-drop-compiler-hints) //----- //
vm.module public @LinearModule {
  vm.global.i32 private mutable @_device_query_0 : i32
  vm.global.ref private mutable @_pipeline_layout_0 : !vm.ref<!hal.pipeline_layout>
  vm.global.ref private mutable @_executable_main_dispatch_0 : !vm.ref<!hal.executable>
  vm.rodata private @main_dispatch_0_cuda_nvptx_fb {alignment = 16 : i64, mime_type = "application/x-flatbuffers"} dense<"…"> : vector<6926xi8>
  vm.rodata private @_utf8_hal_executable_format_EAB228F999C2D3A1 {alignment = 1 : i64} "hal.executable.format"
  vm.rodata private @_utf8_cuda_nvptx_fb_B15B42B96FDBACC {alignment = 1 : i64} "cuda-nvptx-fb"
  vm.import private @hal.ex.shared_device() -> !vm.ref<!hal.device> attributes {nosideeffects}
  vm.import private @hal.buffer.assert(%buffer : !vm.ref<!hal.buffer>, %message : !vm.buffer, %allocator : !vm.ref<!hal.allocator>, %minimum_length : i64, %memory_types : i32, %buffer_usage : i32)
  vm.import private @hal.buffer_view.create(%buffer : !vm.ref<!hal.buffer>, %source_offset : i64, %source_length : i64, %element_type : i32, %encoding_type : i32, %shape : i64 ...) -> !vm.ref<!hal.buffer_view> attributes {nosideeffects}
  vm.import private @hal.buffer_view.assert(%buffer_view : !vm.ref<!hal.buffer_view>, %message : !vm.buffer, %element_type : i32, %encoding_type : i32, %shape : i64 ...)
  vm.import private @hal.buffer_view.buffer(%buffer_view : !vm.ref<!hal.buffer_view>) -> !vm.ref<!hal.buffer> attributes {nosideeffects}
  vm.import private @hal.buffer_view.dim(%buffer_view : !vm.ref<!hal.buffer_view>, %index : i32) -> i64 attributes {nosideeffects}
  vm.import private @hal.command_buffer.create(%device : !vm.ref<!hal.device>, %modes : i32, %command_categories : i32, %binding_capacity : i32) -> !vm.ref<!hal.command_buffer>
  vm.import private @hal.command_buffer.finalize(%command_buffer : !vm.ref<!hal.command_buffer>)
  vm.import private @hal.command_buffer.execution_barrier(%command_buffer : !vm.ref<!hal.command_buffer>, %source_stage_mask : i32, %target_stage_mask : i32, %flags : i32)
  vm.import private @hal.command_buffer.push_constants(%command_buffer : !vm.ref<!hal.command_buffer>, %pipeline_layout : !vm.ref<!hal.pipeline_layout>, %offset : i32, %values : i32 ...)
  vm.import private @hal.command_buffer.push_descriptor_set(%command_buffer : !vm.ref<!hal.command_buffer>, %pipeline_layout : !vm.ref<!hal.pipeline_layout>, %set : i32, %bindings : tuple<i32, i32, !vm.ref<!hal.buffer>, i64, i64> ...)
  vm.import private @hal.command_buffer.dispatch(%command_buffer : !vm.ref<!hal.command_buffer>, %executable : !vm.ref<!hal.executable>, %entry_point : i32, %workgroup_x : i32, %workgroup_y : i32, %workgroup_z : i32)
  vm.import private @hal.descriptor_set_layout.create(%device : !vm.ref<!hal.device>, %flags : i32, %bindings : tuple<i32, i32, i32> ...) -> !vm.ref<!hal.descriptor_set_layout> attributes {nosideeffects}
  vm.import private @hal.device.allocator(%device : !vm.ref<!hal.device>) -> !vm.ref<!hal.allocator> attributes {nosideeffects}
  vm.import private @hal.device.query.i64(%device : !vm.ref<!hal.device>, %category : !vm.buffer, %key : !vm.buffer) -> (i32, i64) attributes {nosideeffects}
  vm.import private @hal.device.queue.alloca(%device : !vm.ref<!hal.device>, %queue_affinity : i64, %wait_fence : !vm.ref<!hal.fence>, %signal_fence : !vm.ref<!hal.fence>, %pool : i32, %memory_types : i32, %buffer_usage : i32, %allocation_size : i64) -> !vm.ref<!hal.buffer>
  vm.import private @hal.device.queue.execute(%device : !vm.ref<!hal.device>, %queue_affinity : i64, %wait_fence : !vm.ref<!hal.fence>, %signal_fence : !vm.ref<!hal.fence>, %command_buffers : !vm.ref<!hal.command_buffer> ...)
  vm.import private @hal.executable.create(%device : !vm.ref<!hal.device>, %executable_format : !vm.buffer, %executable_data : !vm.buffer, %constants : !vm.buffer, %pipeline_layouts : !vm.ref<!hal.pipeline_layout> ...) -> !vm.ref<!hal.executable> attributes {nosideeffects}
  vm.import private @hal.fence.create(%device : !vm.ref<!hal.device>, %flags : i32) -> !vm.ref<!hal.fence>
  vm.import private @hal.fence.await(%timeout_millis : i32, %fences : !vm.ref<!hal.fence> ...) -> i32 attributes {vm.yield}
  vm.import private @hal.pipeline_layout.create(%device : !vm.ref<!hal.device>, %push_constants : i32, %set_layouts : !vm.ref<!hal.descriptor_set_layout> ...) -> !vm.ref<!hal.pipeline_layout> attributes {nosideeffects}
  vm.rodata private @_utf8_input_0_5FD512E67BEFDEEC {alignment = 1 : i64} "input 0"
  vm.rodata private @_utf8_tensor_3C6209B4FD120BDC {alignment = 1 : i64} "tensor"
  vm.func private @main(%arg0: !vm.ref<!hal.buffer_view>) -> !vm.ref<!hal.buffer_view> {
    %c13 = vm.const.i32 13
    %c28 = vm.const.i32 28
    %c3 = vm.const.i32 3
    %c17 = vm.const.i32 17
    %c32 = vm.const.i32 32
    %c48 = vm.const.i32 48
    %null = vm.const.ref.zero : !vm.ref<!hal.fence>
    %c3075 = vm.const.i32 3075
    %c16 = vm.const.i32 16
    %zero = vm.const.i32.zero
    %c32_0 = vm.const.i64 32
    %c128 = vm.const.i64 128
    %c553648160 = vm.const.i32 553648160
    %c1 = vm.const.i32 1
    %zero_1 = vm.const.i64.zero
    %c4 = vm.const.i64 4
    %c-1 = vm.const.i64 -1
    %c-1_2 = vm.const.i32 -1
    %c1_3 = vm.const.i64 1
    %_device_query_0 = vm.global.load.i32 @_device_query_0 : i32
    %_pipeline_layout_0 = vm.global.load.ref @_pipeline_layout_0 : !vm.ref<!hal.pipeline_layout>
    %_executable_main_dispatch_0 = vm.global.load.ref @_executable_main_dispatch_0 : !vm.ref<!hal.executable>
    %0 = vm.call @hal.buffer_view.dim(%arg0, %zero) {nosideeffects} : (!vm.ref<!hal.buffer_view>, i32) -> i64
    %1 = vm.call @hal.buffer_view.dim(%arg0, %c1) {nosideeffects} : (!vm.ref<!hal.buffer_view>, i32) -> i64
    %_utf8_input_0_5FD512E67BEFDEEC = vm.const.ref.rodata @_utf8_input_0_5FD512E67BEFDEEC : !vm.buffer
    vm.call.variadic @hal.buffer_view.assert(%arg0, %_utf8_input_0_5FD512E67BEFDEEC, %c553648160, %c1, [%0, %1]) : (!vm.ref<!hal.buffer_view>, !vm.buffer, i32, i32, i64 ...)
    %2 = vm.mul.i64 %0, %c4 : i64
    %3 = vm.mul.i64 %2, %1 : i64
    %ref = vm.call @hal.buffer_view.buffer(%arg0) {nosideeffects} : (!vm.ref<!hal.buffer_view>) -> !vm.ref<!hal.buffer>
    %ref_4 = vm.call @hal.ex.shared_device() {nosideeffects} : () -> !vm.ref<!hal.device>
    %ref_5 = vm.call @hal.device.allocator(%ref_4) {nosideeffects} : (!vm.ref<!hal.device>) -> !vm.ref<!hal.allocator>
    %_utf8_tensor_3C6209B4FD120BDC = vm.const.ref.rodata @_utf8_tensor_3C6209B4FD120BDC : !vm.buffer
    vm.call @hal.buffer.assert(%ref, %_utf8_tensor_3C6209B4FD120BDC, %ref_5, %3, %c16, %c3075) : (!vm.ref<!hal.buffer>, !vm.buffer, !vm.ref<!hal.allocator>, i64, i32, i32) -> ()
    %ref_6 = vm.call @hal.fence.create(%ref_4, %zero) : (!vm.ref<!hal.device>, i32) -> !vm.ref<!hal.fence>
    %ref_7 = vm.call @hal.device.queue.alloca(%ref_4, %c-1, %null, %ref_6, %zero, %c48, %c3075, %3) : (!vm.ref<!hal.device>, i64, !vm.ref<!hal.fence>, !vm.ref<!hal.fence>, i32, i32, i32, i64) -> !vm.ref<!hal.buffer>
    %4 = vm.call.variadic @hal.fence.await(%c-1_2, [%ref_6]) : (i32, !vm.ref<!hal.fence> ...) -> i32
    %5 = vm.trunc.i64.i32 %0 : i64 -> i32
    %6 = vm.shr.i64.u %0, %c32 : i64
    %7 = vm.trunc.i64.i32 %6 : i64 -> i32
    %8 = vm.trunc.i64.i32 %1 : i64 -> i32
    %9 = vm.shr.i64.u %1, %c32 : i64
    %10 = vm.trunc.i64.i32 %9 : i64 -> i32
    %ref_8 = vm.call @hal.command_buffer.create(%ref_4, %c17, %c3, %zero) : (!vm.ref<!hal.device>, i32, i32, i32) -> !vm.ref<!hal.command_buffer>
    %11 = vm.select.i64 %_device_query_0, %zero_1, %c-1 : i64
    %12 = vm.trunc.i64.i32 %11 : i64 -> i32
    vm.br_table %12 {
      default: ^bb2,
      0: ^bb1
    }
  ^bb1:  // pred: ^bb0
    vm.call.variadic @hal.command_buffer.push_constants(%ref_8, %_pipeline_layout_0, %zero, [%5, %7, %8, %10]) : (!vm.ref<!hal.command_buffer>, !vm.ref<!hal.pipeline_layout>, i32, i32 ...)
    vm.call.variadic @hal.command_buffer.push_descriptor_set(%ref_8, %_pipeline_layout_0, %zero, [(%zero, %zero, %ref, %zero_1, %3), (%c1, %zero, %ref_7, %zero_1, %3)]) : (!vm.ref<!hal.command_buffer>, !vm.ref<!hal.pipeline_layout>, i32, tuple<i32, i32, !vm.ref<!hal.buffer>, i64, i64> ...)
    %slt = vm.cmp.lt.i64.s %zero_1, %1 : i64
    %13 = vm.xor.i32 %slt, %c1 : i32
    %14 = vm.sub.i64 %zero_1, %1 : i64
    %15 = vm.sub.i64 %1, %c1_3 : i64
    %16 = vm.select.i64 %13, %14, %15 : i64
    %17 = vm.div.i64.s %16, %c128 : i64
    %18 = vm.sub.i64 %zero_1, %17 : i64
    %19 = vm.add.i64 %17, %c1_3 : i64
    %20 = vm.select.i64 %13, %18, %19 : i64
    %slt_9 = vm.cmp.lt.i64.s %zero_1, %0 : i64
    %21 = vm.xor.i32 %slt_9, %c1 : i32
    %22 = vm.sub.i64 %zero_1, %0 : i64
    %23 = vm.sub.i64 %0, %c1_3 : i64
    %24 = vm.select.i64 %21, %22, %23 : i64
    %25 = vm.div.i64.s %24, %c32_0 : i64
    %26 = vm.sub.i64 %zero_1, %25 : i64
    %27 = vm.add.i64 %25, %c1_3 : i64
    %28 = vm.select.i64 %21, %26, %27 : i64
    %29 = vm.mul.i64 %20, %28 : i64
    %30 = vm.trunc.i64.i32 %29 : i64 -> i32
    vm.call @hal.command_buffer.dispatch(%ref_8, %_executable_main_dispatch_0, %zero, %30, %c1, %c1) : (!vm.ref<!hal.command_buffer>, !vm.ref<!hal.executable>, i32, i32, i32, i32) -> ()
    vm.br ^bb2
  ^bb2:  // 2 preds: ^bb0, ^bb1
    vm.call @hal.command_buffer.execution_barrier(%ref_8, %c28, %c13, %zero) : (!vm.ref<!hal.command_buffer>, i32, i32, i32) -> ()
    vm.call @hal.command_buffer.finalize(%ref_8) : (!vm.ref<!hal.command_buffer>) -> ()
    %ref_10 = vm.call @hal.fence.create(%ref_4, %zero) : (!vm.ref<!hal.device>, i32) -> !vm.ref<!hal.fence>
    %31 = vm.call.variadic @hal.fence.await(%c-1_2, [%ref_6]) : (i32, !vm.ref<!hal.fence> ...) -> i32
    vm.call.variadic @hal.device.queue.execute(%ref_4, %c-1, %null, %ref_10, [%ref_8]) : (!vm.ref<!hal.device>, i64, !vm.ref<!hal.fence>, !vm.ref<!hal.fence>, !vm.ref<!hal.command_buffer> ...)
    %32 = vm.call.variadic @hal.fence.await(%c-1_2, [%ref_10]) : (i32, !vm.ref<!hal.fence> ...) -> i32
    vm.cond_br %32, ^bb4, ^bb3
  ^bb3:  // pred: ^bb2
    %ref_11 = vm.call.variadic @hal.buffer_view.create(%ref_7, %zero_1, %3, %c553648160, %c1, [%0, %1]) {nosideeffects} : (!vm.ref<!hal.buffer>, i64, i64, i32, i32, i64 ...) -> !vm.ref<!hal.buffer_view>
    vm.return %ref_11 : !vm.ref<!hal.buffer_view>
  ^bb4:  // pred: ^bb2
    vm.fail %32, "failed to wait on timepoint"
  }
  vm.export @main attributes {iree.abi.stub}
  vm.export @__init
  vm.func private @__init() {
    %null = vm.const.ref.zero : !vm.ref<!hal.executable>
    %null_0 = vm.const.ref.zero : !vm.buffer
    %c4 = vm.const.i32 4
    %c7 = vm.const.i32 7
    %zero = vm.const.i32.zero
    %c1 = vm.const.i32 1
    %zero_1 = vm.const.i64.zero
    %c-1 = vm.const.i64 -1
    %ref = vm.call @hal.ex.shared_device() {nosideeffects} : () -> !vm.ref<!hal.device>
    %_utf8_hal_executable_format_EAB228F999C2D3A1 = vm.const.ref.rodata @_utf8_hal_executable_format_EAB228F999C2D3A1 : !vm.buffer
    %_utf8_cuda_nvptx_fb_B15B42B96FDBACC = vm.const.ref.rodata @_utf8_cuda_nvptx_fb_B15B42B96FDBACC : !vm.buffer
    %0:2 = vm.call @hal.device.query.i64(%ref, %_utf8_hal_executable_format_EAB228F999C2D3A1, %_utf8_cuda_nvptx_fb_B15B42B96FDBACC) {nosideeffects} : (!vm.ref<!hal.device>, !vm.buffer, !vm.buffer) -> (i32, i64)
    %1 = vm.trunc.i64.i32 %0#1 : i64 -> i32
    %2 = vm.and.i32 %1, %c1 : i32
    %3 = vm.select.i32 %0#0, %2, %zero : i32
    %ref_2 = vm.call.variadic @hal.descriptor_set_layout.create(%ref, %zero, [(%zero, %c7, %c1), (%c1, %c7, %zero)]) {nosideeffects} : (!vm.ref<!hal.device>, i32, tuple<i32, i32, i32> ...) -> !vm.ref<!hal.descriptor_set_layout>
    %ref_3 = vm.call.variadic @hal.pipeline_layout.create(%ref, %c4, [%ref_2]) {nosideeffects} : (!vm.ref<!hal.device>, i32, !vm.ref<!hal.descriptor_set_layout> ...) -> !vm.ref<!hal.pipeline_layout>
    %4 = vm.select.i64 %3, %zero_1, %c-1 : i64
    %5 = vm.trunc.i64.i32 %4 : i64 -> i32
    vm.global.store.i32 %3, @_device_query_0 : i32
    vm.global.store.ref %ref_3, @_pipeline_layout_0 : !vm.ref<!hal.pipeline_layout>
    vm.br_table %5 {
      default: ^bb2,
      0: ^bb1
    }
  ^bb1:  // pred: ^bb0
    %_pipeline_layout_0 = vm.global.load.ref @_pipeline_layout_0 : !vm.ref<!hal.pipeline_layout>
    %main_dispatch_0_cuda_nvptx_fb = vm.const.ref.rodata @main_dispatch_0_cuda_nvptx_fb : !vm.buffer
    %ref_4 = vm.call.variadic @hal.executable.create(%ref, %_utf8_cuda_nvptx_fb_B15B42B96FDBACC, %main_dispatch_0_cuda_nvptx_fb, %null_0, [%_pipeline_layout_0]) {nosideeffects} : (!vm.ref<!hal.device>, !vm.buffer, !vm.buffer, !vm.buffer, !vm.ref<!hal.pipeline_layout> ...) -> !vm.ref<!hal.executable>
    vm.br ^bb3(%ref_4 : !vm.ref<!hal.executable>)
  ^bb2:  // pred: ^bb0
    vm.br ^bb3(%null : !vm.ref<!hal.executable>)
  ^bb3(%6: !vm.ref<!hal.executable>):  // 2 preds: ^bb1, ^bb2
    vm.global.store.ref %6, @_executable_main_dispatch_0 : !vm.ref<!hal.executable>
    vm.return
  }
}

// -----// IR Dump After mlir::iree_compiler::IREE::VM::OrdinalAllocationPass (iree-vm-ordinal-allocation) //----- //
vm.module public @LinearModule attributes {ordinal_counts = #vm.ordinal_counts<import_funcs = 21, export_funcs = 2, internal_funcs = 2, global_bytes = 4, global_refs = 2, rodatas = 5, rwdatas = 0>} {
  vm.global.i32 private mutable @_device_query_0 {ordinal = 0 : i32} : i32
  vm.global.ref private mutable @_pipeline_layout_0 {ordinal = 0 : i32} : !vm.ref<!hal.pipeline_layout>
  vm.global.ref private mutable @_executable_main_dispatch_0 {ordinal = 1 : i32} : !vm.ref<!hal.executable>
  vm.rodata private @main_dispatch_0_cuda_nvptx_fb {alignment = 16 : i64, mime_type = "application/x-flatbuffers", ordinal = 0 : i32} dense<"…"> : vector<6926xi8>
  vm.rodata private @_utf8_hal_executable_format_EAB228F999C2D3A1 {alignment = 1 : i64, ordinal = 1 : i32} "hal.executable.format"
  vm.rodata private @_utf8_cuda_nvptx_fb_B15B42B96FDBACC {alignment = 1 : i64, ordinal = 2 : i32} "cuda-nvptx-fb"
  vm.import private @hal.ex.shared_device() -> !vm.ref<!hal.device> attributes {nosideeffects, ordinal = 0 : i32}
  vm.import private @hal.buffer.assert(%buffer : !vm.ref<!hal.buffer>, %message : !vm.buffer, %allocator : !vm.ref<!hal.allocator>, %minimum_length : i64, %memory_types : i32, %buffer_usage : i32) attributes {ordinal = 1 : i32}
  vm.import private @hal.buffer_view.create(%buffer : !vm.ref<!hal.buffer>, %source_offset : i64, %source_length : i64, %element_type : i32, %encoding_type : i32, %shape : i64 ...) -> !vm.ref<!hal.buffer_view> attributes {nosideeffects, ordinal = 2 : i32}
  vm.import private @hal.buffer_view.assert(%buffer_view : !vm.ref<!hal.buffer_view>, %message : !vm.buffer, %element_type : i32, %encoding_type : i32, %shape : i64 ...) attributes {ordinal = 3 : i32}
  vm.import private @hal.buffer_view.buffer(%buffer_view : !vm.ref<!hal.buffer_view>) -> !vm.ref<!hal.buffer> attributes {nosideeffects, ordinal = 4 : i32}
  vm.import private @hal.buffer_view.dim(%buffer_view : !vm.ref<!hal.buffer_view>, %index : i32) -> i64 attributes {nosideeffects, ordinal = 5 : i32}
  vm.import private @hal.command_buffer.create(%device : !vm.ref<!hal.device>, %modes : i32, %command_categories : i32, %binding_capacity : i32) -> !vm.ref<!hal.command_buffer> attributes {ordinal = 6 : i32}
  vm.import private @hal.command_buffer.finalize(%command_buffer : !vm.ref<!hal.command_buffer>) attributes {ordinal = 7 : i32}
  vm.import private @hal.command_buffer.execution_barrier(%command_buffer : !vm.ref<!hal.command_buffer>, %source_stage_mask : i32, %target_stage_mask : i32, %flags : i32) attributes {ordinal = 8 : i32}
  vm.import private @hal.command_buffer.push_constants(%command_buffer : !vm.ref<!hal.command_buffer>, %pipeline_layout : !vm.ref<!hal.pipeline_layout>, %offset : i32, %values : i32 ...) attributes {ordinal = 9 : i32}
  vm.import private @hal.command_buffer.push_descriptor_set(%command_buffer : !vm.ref<!hal.command_buffer>, %pipeline_layout : !vm.ref<!hal.pipeline_layout>, %set : i32, %bindings : tuple<i32, i32, !vm.ref<!hal.buffer>, i64, i64> ...) attributes {ordinal = 10 : i32}
  vm.import private @hal.command_buffer.dispatch(%command_buffer : !vm.ref<!hal.command_buffer>, %executable : !vm.ref<!hal.executable>, %entry_point : i32, %workgroup_x : i32, %workgroup_y : i32, %workgroup_z : i32) attributes {ordinal = 11 : i32}
  vm.import private @hal.descriptor_set_layout.create(%device : !vm.ref<!hal.device>, %flags : i32, %bindings : tuple<i32, i32, i32> ...) -> !vm.ref<!hal.descriptor_set_layout> attributes {nosideeffects, ordinal = 12 : i32}
  vm.import private @hal.device.allocator(%device : !vm.ref<!hal.device>) -> !vm.ref<!hal.allocator> attributes {nosideeffects, ordinal = 13 : i32}
  vm.import private @hal.device.query.i64(%device : !vm.ref<!hal.device>, %category : !vm.buffer, %key : !vm.buffer) -> (i32, i64) attributes {nosideeffects, ordinal = 14 : i32}
  vm.import private @hal.device.queue.alloca(%device : !vm.ref<!hal.device>, %queue_affinity : i64, %wait_fence : !vm.ref<!hal.fence>, %signal_fence : !vm.ref<!hal.fence>, %pool : i32, %memory_types : i32, %buffer_usage : i32, %allocation_size : i64) -> !vm.ref<!hal.buffer> attributes {ordinal = 15 : i32}
  vm.import private @hal.device.queue.execute(%device : !vm.ref<!hal.device>, %queue_affinity : i64, %wait_fence : !vm.ref<!hal.fence>, %signal_fence : !vm.ref<!hal.fence>, %command_buffers : !vm.ref<!hal.command_buffer> ...) attributes {ordinal = 16 : i32}
  vm.import private @hal.executable.create(%device : !vm.ref<!hal.device>, %executable_format : !vm.buffer, %executable_data : !vm.buffer, %constants : !vm.buffer, %pipeline_layouts : !vm.ref<!hal.pipeline_layout> ...) -> !vm.ref<!hal.executable> attributes {nosideeffects, ordinal = 17 : i32}
  vm.import private @hal.fence.create(%device : !vm.ref<!hal.device>, %flags : i32) -> !vm.ref<!hal.fence> attributes {ordinal = 18 : i32}
  vm.import private @hal.fence.await(%timeout_millis : i32, %fences : !vm.ref<!hal.fence> ...) -> i32 attributes {ordinal = 19 : i32, vm.yield}
  vm.import private @hal.pipeline_layout.create(%device : !vm.ref<!hal.device>, %push_constants : i32, %set_layouts : !vm.ref<!hal.descriptor_set_layout> ...) -> !vm.ref<!hal.pipeline_layout> attributes {nosideeffects, ordinal = 20 : i32}
  vm.rodata private @_utf8_input_0_5FD512E67BEFDEEC {alignment = 1 : i64, ordinal = 3 : i32} "input 0"
  vm.rodata private @_utf8_tensor_3C6209B4FD120BDC {alignment = 1 : i64, ordinal = 4 : i32} "tensor"
  vm.func private @main(%arg0: !vm.ref<!hal.buffer_view>) -> !vm.ref<!hal.buffer_view> attributes {ordinal = 0 : i32} {
    %c13 = vm.const.i32 13
    %c28 = vm.const.i32 28
    %c3 = vm.const.i32 3
    %c17 = vm.const.i32 17
    %c32 = vm.const.i32 32
    %c48 = vm.const.i32 48
    %null = vm.const.ref.zero : !vm.ref<!hal.fence>
    %c3075 = vm.const.i32 3075
    %c16 = vm.const.i32 16
    %zero = vm.const.i32.zero
    %c32_0 = vm.const.i64 32
    %c128 = vm.const.i64 128
    %c553648160 = vm.const.i32 553648160
    %c1 = vm.const.i32 1
    %zero_1 = vm.const.i64.zero
    %c4 = vm.const.i64 4
    %c-1 = vm.const.i64 -1
    %c-1_2 = vm.const.i32 -1
    %c1_3 = vm.const.i64 1
    %_device_query_0 = vm.global.load.i32 @_device_query_0 : i32
    %_pipeline_layout_0 = vm.global.load.ref @_pipeline_layout_0 : !vm.ref<!hal.pipeline_layout>
    %_executable_main_dispatch_0 = vm.global.load.ref @_executable_main_dispatch_0 : !vm.ref<!hal.executable>
    %0 = vm.call @hal.buffer_view.dim(%arg0, %zero) {nosideeffects} : (!vm.ref<!hal.buffer_view>, i32) -> i64
    %1 = vm.call @hal.buffer_view.dim(%arg0, %c1) {nosideeffects} : (!vm.ref<!hal.buffer_view>, i32) -> i64
    %_utf8_input_0_5FD512E67BEFDEEC = vm.const.ref.rodata @_utf8_input_0_5FD512E67BEFDEEC : !vm.buffer
    vm.call.variadic @hal.buffer_view.assert(%arg0, %_utf8_input_0_5FD512E67BEFDEEC, %c553648160, %c1, [%0, %1]) : (!vm.ref<!hal.buffer_view>, !vm.buffer, i32, i32, i64 ...)
    %2 = vm.mul.i64 %0, %c4 : i64
    %3 = vm.mul.i64 %2, %1 : i64
    %ref = vm.call @hal.buffer_view.buffer(%arg0) {nosideeffects} : (!vm.ref<!hal.buffer_view>) -> !vm.ref<!hal.buffer>
    %ref_4 = vm.call @hal.ex.shared_device() {nosideeffects} : () -> !vm.ref<!hal.device>
    %ref_5 = vm.call @hal.device.allocator(%ref_4) {nosideeffects} : (!vm.ref<!hal.device>) -> !vm.ref<!hal.allocator>
    %_utf8_tensor_3C6209B4FD120BDC = vm.const.ref.rodata @_utf8_tensor_3C6209B4FD120BDC : !vm.buffer
    vm.call @hal.buffer.assert(%ref, %_utf8_tensor_3C6209B4FD120BDC, %ref_5, %3, %c16, %c3075) : (!vm.ref<!hal.buffer>, !vm.buffer, !vm.ref<!hal.allocator>, i64, i32, i32) -> ()
    %ref_6 = vm.call @hal.fence.create(%ref_4, %zero) : (!vm.ref<!hal.device>, i32) -> !vm.ref<!hal.fence>
    %ref_7 = vm.call @hal.device.queue.alloca(%ref_4, %c-1, %null, %ref_6, %zero, %c48, %c3075, %3) : (!vm.ref<!hal.device>, i64, !vm.ref<!hal.fence>, !vm.ref<!hal.fence>, i32, i32, i32, i64) -> !vm.ref<!hal.buffer>
    %4 = vm.call.variadic @hal.fence.await(%c-1_2, [%ref_6]) : (i32, !vm.ref<!hal.fence> ...) -> i32
    %5 = vm.trunc.i64.i32 %0 : i64 -> i32
    %6 = vm.shr.i64.u %0, %c32 : i64
    %7 = vm.trunc.i64.i32 %6 : i64 -> i32
    %8 = vm.trunc.i64.i32 %1 : i64 -> i32
    %9 = vm.shr.i64.u %1, %c32 : i64
    %10 = vm.trunc.i64.i32 %9 : i64 -> i32
    %ref_8 = vm.call @hal.command_buffer.create(%ref_4, %c17, %c3, %zero) : (!vm.ref<!hal.device>, i32, i32, i32) -> !vm.ref<!hal.command_buffer>
    %11 = vm.select.i64 %_device_query_0, %zero_1, %c-1 : i64
    %12 = vm.trunc.i64.i32 %11 : i64 -> i32
    vm.br_table %12 {
      default: ^bb2,
      0: ^bb1
    }
  ^bb1:  // pred: ^bb0
    vm.call.variadic @hal.command_buffer.push_constants(%ref_8, %_pipeline_layout_0, %zero, [%5, %7, %8, %10]) : (!vm.ref<!hal.command_buffer>, !vm.ref<!hal.pipeline_layout>, i32, i32 ...)
    vm.call.variadic @hal.command_buffer.push_descriptor_set(%ref_8, %_pipeline_layout_0, %zero, [(%zero, %zero, %ref, %zero_1, %3), (%c1, %zero, %ref_7, %zero_1, %3)]) : (!vm.ref<!hal.command_buffer>, !vm.ref<!hal.pipeline_layout>, i32, tuple<i32, i32, !vm.ref<!hal.buffer>, i64, i64> ...)
    %slt = vm.cmp.lt.i64.s %zero_1, %1 : i64
    %13 = vm.xor.i32 %slt, %c1 : i32
    %14 = vm.sub.i64 %zero_1, %1 : i64
    %15 = vm.sub.i64 %1, %c1_3 : i64
    %16 = vm.select.i64 %13, %14, %15 : i64
    %17 = vm.div.i64.s %16, %c128 : i64
    %18 = vm.sub.i64 %zero_1, %17 : i64
    %19 = vm.add.i64 %17, %c1_3 : i64
    %20 = vm.select.i64 %13, %18, %19 : i64
    %slt_9 = vm.cmp.lt.i64.s %zero_1, %0 : i64
    %21 = vm.xor.i32 %slt_9, %c1 : i32
    %22 = vm.sub.i64 %zero_1, %0 : i64
    %23 = vm.sub.i64 %0, %c1_3 : i64
    %24 = vm.select.i64 %21, %22, %23 : i64
    %25 = vm.div.i64.s %24, %c32_0 : i64
    %26 = vm.sub.i64 %zero_1, %25 : i64
    %27 = vm.add.i64 %25, %c1_3 : i64
    %28 = vm.select.i64 %21, %26, %27 : i64
    %29 = vm.mul.i64 %20, %28 : i64
    %30 = vm.trunc.i64.i32 %29 : i64 -> i32
    vm.call @hal.command_buffer.dispatch(%ref_8, %_executable_main_dispatch_0, %zero, %30, %c1, %c1) : (!vm.ref<!hal.command_buffer>, !vm.ref<!hal.executable>, i32, i32, i32, i32) -> ()
    vm.br ^bb2
  ^bb2:  // 2 preds: ^bb0, ^bb1
    vm.call @hal.command_buffer.execution_barrier(%ref_8, %c28, %c13, %zero) : (!vm.ref<!hal.command_buffer>, i32, i32, i32) -> ()
    vm.call @hal.command_buffer.finalize(%ref_8) : (!vm.ref<!hal.command_buffer>) -> ()
    %ref_10 = vm.call @hal.fence.create(%ref_4, %zero) : (!vm.ref<!hal.device>, i32) -> !vm.ref<!hal.fence>
    %31 = vm.call.variadic @hal.fence.await(%c-1_2, [%ref_6]) : (i32, !vm.ref<!hal.fence> ...) -> i32
    vm.call.variadic @hal.device.queue.execute(%ref_4, %c-1, %null, %ref_10, [%ref_8]) : (!vm.ref<!hal.device>, i64, !vm.ref<!hal.fence>, !vm.ref<!hal.fence>, !vm.ref<!hal.command_buffer> ...)
    %32 = vm.call.variadic @hal.fence.await(%c-1_2, [%ref_10]) : (i32, !vm.ref<!hal.fence> ...) -> i32
    vm.cond_br %32, ^bb4, ^bb3
  ^bb3:  // pred: ^bb2
    %ref_11 = vm.call.variadic @hal.buffer_view.create(%ref_7, %zero_1, %3, %c553648160, %c1, [%0, %1]) {nosideeffects} : (!vm.ref<!hal.buffer>, i64, i64, i32, i32, i64 ...) -> !vm.ref<!hal.buffer_view>
    vm.return %ref_11 : !vm.ref<!hal.buffer_view>
  ^bb4:  // pred: ^bb2
    vm.fail %32, "failed to wait on timepoint"
  }
  vm.export @main attributes {iree.abi.stub, ordinal = 0 : i32}
  vm.export @__init attributes {ordinal = 1 : i32}
  vm.func private @__init() attributes {ordinal = 1 : i32} {
    %null = vm.const.ref.zero : !vm.ref<!hal.executable>
    %null_0 = vm.const.ref.zero : !vm.buffer
    %c4 = vm.const.i32 4
    %c7 = vm.const.i32 7
    %zero = vm.const.i32.zero
    %c1 = vm.const.i32 1
    %zero_1 = vm.const.i64.zero
    %c-1 = vm.const.i64 -1
    %ref = vm.call @hal.ex.shared_device() {nosideeffects} : () -> !vm.ref<!hal.device>
    %_utf8_hal_executable_format_EAB228F999C2D3A1 = vm.const.ref.rodata @_utf8_hal_executable_format_EAB228F999C2D3A1 : !vm.buffer
    %_utf8_cuda_nvptx_fb_B15B42B96FDBACC = vm.const.ref.rodata @_utf8_cuda_nvptx_fb_B15B42B96FDBACC : !vm.buffer
    %0:2 = vm.call @hal.device.query.i64(%ref, %_utf8_hal_executable_format_EAB228F999C2D3A1, %_utf8_cuda_nvptx_fb_B15B42B96FDBACC) {nosideeffects} : (!vm.ref<!hal.device>, !vm.buffer, !vm.buffer) -> (i32, i64)
    %1 = vm.trunc.i64.i32 %0#1 : i64 -> i32
    %2 = vm.and.i32 %1, %c1 : i32
    %3 = vm.select.i32 %0#0, %2, %zero : i32
    %ref_2 = vm.call.variadic @hal.descriptor_set_layout.create(%ref, %zero, [(%zero, %c7, %c1), (%c1, %c7, %zero)]) {nosideeffects} : (!vm.ref<!hal.device>, i32, tuple<i32, i32, i32> ...) -> !vm.ref<!hal.descriptor_set_layout>
    %ref_3 = vm.call.variadic @hal.pipeline_layout.create(%ref, %c4, [%ref_2]) {nosideeffects} : (!vm.ref<!hal.device>, i32, !vm.ref<!hal.descriptor_set_layout> ...) -> !vm.ref<!hal.pipeline_layout>
    %4 = vm.select.i64 %3, %zero_1, %c-1 : i64
    %5 = vm.trunc.i64.i32 %4 : i64 -> i32
    vm.global.store.i32 %3, @_device_query_0 : i32
    vm.global.store.ref %ref_3, @_pipeline_layout_0 : !vm.ref<!hal.pipeline_layout>
    vm.br_table %5 {
      default: ^bb2,
      0: ^bb1
    }
  ^bb1:  // pred: ^bb0
    %_pipeline_layout_0 = vm.global.load.ref @_pipeline_layout_0 : !vm.ref<!hal.pipeline_layout>
    %main_dispatch_0_cuda_nvptx_fb = vm.const.ref.rodata @main_dispatch_0_cuda_nvptx_fb : !vm.buffer
    %ref_4 = vm.call.variadic @hal.executable.create(%ref, %_utf8_cuda_nvptx_fb_B15B42B96FDBACC, %main_dispatch_0_cuda_nvptx_fb, %null_0, [%_pipeline_layout_0]) {nosideeffects} : (!vm.ref<!hal.device>, !vm.buffer, !vm.buffer, !vm.buffer, !vm.ref<!hal.pipeline_layout> ...) -> !vm.ref<!hal.executable>
    vm.br ^bb3(%ref_4 : !vm.ref<!hal.executable>)
  ^bb2:  // pred: ^bb0
    vm.br ^bb3(%null : !vm.ref<!hal.executable>)
  ^bb3(%6: !vm.ref<!hal.executable>):  // 2 preds: ^bb1, ^bb2
    vm.global.store.ref %6, @_executable_main_dispatch_0 : !vm.ref<!hal.executable>
    vm.return
  }
}

