Args: ../../iree-build-2/tools/iree-compile --iree-input-type=torch --iree-hal-target-backends=cuda input.mlir -o tmp.vmfb --mlir-print-ir-after-all --iree-hal-cuda-dump-ptx --iree-hal-cuda-llvm-target-arch=sm_75 --iree-hal-cuda-llvm-target-feature=+ptx75 -debug 
Load new dialect in Context builtin
ImplicitTypeIDRegistry::lookupOrInsert(mlir::ShapedType)
ImplicitTypeIDRegistry::lookupOrInsert(mlir::MemRefLayoutAttrInterface)
ImplicitTypeIDRegistry::lookupOrInsert(mlir::TypedAttr)
ImplicitTypeIDRegistry::lookupOrInsert(mlir::ElementsAttr)
ImplicitTypeIDRegistry::lookupOrInsert(mlir::DistinctAttr)
ImplicitTypeIDRegistry::lookupOrInsert(mlir::BytecodeOpInterface)
ImplicitTypeIDRegistry::lookupOrInsert(mlir::SymbolOpInterface)
ImplicitTypeIDRegistry::lookupOrInsert(mlir::OpAsmOpInterface)
ImplicitTypeIDRegistry::lookupOrInsert(mlir::RegionKindInterface)
ImplicitTypeIDRegistry::lookupOrInsert(mlir::ConditionallySpeculatable)
ImplicitTypeIDRegistry::lookupOrInsert(mlir::MemoryEffectOpInterface)
ImplicitTypeIDRegistry::lookupOrInsert(mlir::ResourceBlobManagerDialectInterface)
ImplicitTypeIDRegistry::lookupOrInsert(mlir::OpAsmDialectInterface)
ImplicitTypeIDRegistry::lookupOrInsert(mlir::BytecodeDialectInterface)
ImplicitTypeIDRegistry::lookupOrInsert(mlir::detail::AffineBinaryOpExprStorage)
ImplicitTypeIDRegistry::lookupOrInsert(mlir::detail::AffineConstantExprStorage)
ImplicitTypeIDRegistry::lookupOrInsert(mlir::detail::AffineDimExprStorage)
ImplicitTypeIDRegistry::lookupOrInsert(mlir::detail::AffineMapStorage)
ImplicitTypeIDRegistry::lookupOrInsert(mlir::detail::IntegerSetStorage)
ImplicitTypeIDRegistry::lookupOrInsert(mlir::LLVMTranslationDialectInterface)
ImplicitTypeIDRegistry::lookupOrInsert(mlir::OpTrait::ZeroOperands<Empty>)
ImplicitTypeIDRegistry::lookupOrInsert(mlir::OpTrait::OneRegion<Empty>)
ImplicitTypeIDRegistry::lookupOrInsert(mlir::OpTrait::ZeroResults<Empty>)
ImplicitTypeIDRegistry::lookupOrInsert(mlir::OpTrait::ZeroSuccessors<Empty>)
ImplicitTypeIDRegistry::lookupOrInsert(mlir::OpTrait::NoRegionArguments<Empty>)
ImplicitTypeIDRegistry::lookupOrInsert(mlir::OpTrait::NoTerminator<Empty>)
ImplicitTypeIDRegistry::lookupOrInsert(mlir::OpTrait::SingleBlock<Empty>)
ImplicitTypeIDRegistry::lookupOrInsert(mlir::OpTrait::OpInvariants<Empty>)
ImplicitTypeIDRegistry::lookupOrInsert(mlir::BytecodeOpInterface::Trait<Empty>)
ImplicitTypeIDRegistry::lookupOrInsert(mlir::OpTrait::AffineScope<Empty>)
ImplicitTypeIDRegistry::lookupOrInsert(mlir::OpTrait::IsIsolatedFromAbove<Empty>)
ImplicitTypeIDRegistry::lookupOrInsert(mlir::OpTrait::SymbolTable<Empty>)
ImplicitTypeIDRegistry::lookupOrInsert(mlir::SymbolOpInterface::Trait<Empty>)
ImplicitTypeIDRegistry::lookupOrInsert(mlir::OpAsmOpInterface::Trait<Empty>)
ImplicitTypeIDRegistry::lookupOrInsert(mlir::RegionKindInterface::Trait<Empty>)
ImplicitTypeIDRegistry::lookupOrInsert(mlir::OpTrait::HasOnlyGraphRegion<Empty>)
ImplicitTypeIDRegistry::lookupOrInsert(mlir::detail::ModuleOpGenericAdaptorBase::Properties)
Load new dialect in Context util
ImplicitTypeIDRegistry::lookupOrInsert(mlir::DialectInlinerInterface)
ImplicitTypeIDRegistry::lookupOrInsert(mlir::iree_compiler::IREE::Util::SizedStorageAttr)
ImplicitTypeIDRegistry::lookupOrInsert(mlir::iree_compiler::IREE::Util::SerializableAttrInterface)
Ignoring repeated interface registration
Ignoring repeated interface registration
ImplicitTypeIDRegistry::lookupOrInsert(mlir::iree_compiler::IREE::Util::ReferenceTypeInterface)
ImplicitTypeIDRegistry::lookupOrInsert(mlir::iree_compiler::IREE::Util::SizeAwareTypeInterface)
ImplicitTypeIDRegistry::lookupOrInsert(mlir::iree_compiler::IREE::Util::GlobalTypeInterface)
ImplicitTypeIDRegistry::lookupOrInsert(mlir::iree_compiler::IREE::Util::InferTypeSizeInterface)
ImplicitTypeIDRegistry::lookupOrInsert(mlir::iree_compiler::IREE::Util::SubrangeTypeInterface)
ImplicitTypeIDRegistry::lookupOrInsert(mlir::InferTypeOpInterface)
ImplicitTypeIDRegistry::lookupOrInsert(mlir::iree_compiler::IREE::Util::SizeAwareOpInterface)
ImplicitTypeIDRegistry::lookupOrInsert(mlir::iree_compiler::IREE::Util::SubrangeOperandOpInterface)
ImplicitTypeIDRegistry::lookupOrInsert(mlir::ViewLikeOpInterface)
ImplicitTypeIDRegistry::lookupOrInsert(mlir::iree_compiler::IREE::Util::SubrangeOpInterface)
ImplicitTypeIDRegistry::lookupOrInsert(mlir::iree_compiler::IREE::Util::TiedOpInterface)
ImplicitTypeIDRegistry::lookupOrInsert(mlir::CastOpInterface)
ImplicitTypeIDRegistry::lookupOrInsert(mlir::SymbolUserOpInterface)
ImplicitTypeIDRegistry::lookupOrInsert(mlir::iree_compiler::IREE::Util::GlobalAddressOpInterface)
ImplicitTypeIDRegistry::lookupOrInsert(mlir::iree_compiler::IREE::Util::GlobalLoadIndirectOpInterface)
ImplicitTypeIDRegistry::lookupOrInsert(mlir::iree_compiler::IREE::Util::GlobalLoadOpInterface)
ImplicitTypeIDRegistry::lookupOrInsert(mlir::iree_compiler::IREE::Util::GlobalOpInterface)
ImplicitTypeIDRegistry::lookupOrInsert(mlir::iree_compiler::IREE::Util::GlobalStoreIndirectOpInterface)
ImplicitTypeIDRegistry::lookupOrInsert(mlir::iree_compiler::IREE::Util::GlobalStoreOpInterface)
ImplicitTypeIDRegistry::lookupOrInsert(mlir::CallableOpInterface)
ImplicitTypeIDRegistry::lookupOrInsert(mlir::FunctionOpInterface)
ImplicitTypeIDRegistry::lookupOrInsert(mlir::iree_compiler::IREE::Util::InitializerOpInterface)
ImplicitTypeIDRegistry::lookupOrInsert(mlir::RegionBranchTerminatorOpInterface)
ImplicitTypeIDRegistry::lookupOrInsert(mlir::OpTrait::ZeroRegions<Empty>)
ImplicitTypeIDRegistry::lookupOrInsert(mlir::iree_compiler::IREE::Util::GlobalOpInterface::Trait<Empty>)
ImplicitTypeIDRegistry::lookupOrInsert(mlir::iree_compiler::IREE::Util::detail::GlobalOpGenericAdaptorBase::Properties)
Load new dialect in Context func
ImplicitTypeIDRegistry::lookupOrInsert(mlir::CallOpInterface)
Load new dialect in Context cf
Load new dialect in Context arith
ImplicitTypeIDRegistry::lookupOrInsert(mlir::arith::ArithFastMathInterface)
ImplicitTypeIDRegistry::lookupOrInsert(mlir::VectorUnrollOpInterface)
ImplicitTypeIDRegistry::lookupOrInsert(mlir::InferIntRangeInterface)
ImplicitTypeIDRegistry::lookupOrInsert(mlir::iree_compiler::IREE::Util::NumericCastOpInterface)
ImplicitTypeIDRegistry::lookupOrInsert(mlir::bufferization::BufferizableOpInterface)
ImplicitTypeIDRegistry::lookupOrInsert(mlir::ValueBoundsOpInterface)
ImplicitTypeIDRegistry::lookupOrInsert(mlir::BranchOpInterface)
ImplicitTypeIDRegistry::lookupOrInsert(mlir::OpTrait::AutomaticAllocationScope<Empty>)
ImplicitTypeIDRegistry::lookupOrInsert(mlir::CallableOpInterface::Trait<Empty>)
ImplicitTypeIDRegistry::lookupOrInsert(mlir::FunctionOpInterface::Trait<Empty>)
Load new dialect in Context torch
ImplicitTypeIDRegistry::lookupOrInsert(mlir::RegionBranchOpInterface)
Load new dialect in Context torch_c
ImplicitTypeIDRegistry::lookupOrInsert(mlir::OpTrait::OneResult<Empty>)
ImplicitTypeIDRegistry::lookupOrInsert(mlir::OpTrait::OneTypedResult<mlir::torch::Torch::ValueTensorType>::Impl<Empty>)
ImplicitTypeIDRegistry::lookupOrInsert(mlir::OpTrait::OneOperand<Empty>)
ImplicitTypeIDRegistry::lookupOrInsert(mlir::ConditionallySpeculatable::Trait<Empty>)
ImplicitTypeIDRegistry::lookupOrInsert(mlir::OpTrait::AlwaysSpeculatableImplTrait<Empty>)
ImplicitTypeIDRegistry::lookupOrInsert(mlir::MemoryEffectOpInterface::Trait<Empty>)
ImplicitTypeIDRegistry::lookupOrInsert(mlir::OpTrait::VariadicResults<Empty>)
ImplicitTypeIDRegistry::lookupOrInsert(mlir::OpTrait::VariadicOperands<Empty>)
ImplicitTypeIDRegistry::lookupOrInsert(mlir::CallOpInterface::Trait<Empty>)
ImplicitTypeIDRegistry::lookupOrInsert(mlir::OpTrait::MemRefsNormalizable<Empty>)
ImplicitTypeIDRegistry::lookupOrInsert(mlir::SymbolUserOpInterface::Trait<Empty>)
ImplicitTypeIDRegistry::lookupOrInsert(mlir::func::detail::CallOpGenericAdaptorBase::Properties)
ImplicitTypeIDRegistry::lookupOrInsert(mlir::OpTrait::OneTypedResult<mlir::TensorType>::Impl<Empty>)
ImplicitTypeIDRegistry::lookupOrInsert(mlir::InferTypeOpInterface::Trait<Empty>)
ImplicitTypeIDRegistry::lookupOrInsert(mlir::OpTrait::HasParent<mlir::func::FuncOp>::Impl<Empty>)
ImplicitTypeIDRegistry::lookupOrInsert(mlir::RegionBranchTerminatorOpInterface::Trait<Empty>)
ImplicitTypeIDRegistry::lookupOrInsert(mlir::OpTrait::ReturnLike<Empty>)
ImplicitTypeIDRegistry::lookupOrInsert(mlir::OpTrait::IsTerminator<Empty>)
ImplicitTypeIDRegistry::lookupOrInsert(mlir::OpTrait::OneTypedResult<mlir::torch::Torch::IntType>::Impl<Empty>)
ImplicitTypeIDRegistry::lookupOrInsert(mlir::OpTrait::ConstantLike<Empty>)
ImplicitTypeIDRegistry::lookupOrInsert(mlir::torch::Torch::OpTrait::AllowedInModuleInitializer<Empty>)
ImplicitTypeIDRegistry::lookupOrInsert(mlir::OpTrait::OneTypedResult<mlir::Type>::Impl<Empty>)
ImplicitTypeIDRegistry::lookupOrInsert(mlir::OpTrait::NOperands<2>::Impl<Empty>)
ImplicitTypeIDRegistry::lookupOrInsert(mlir::torch::Torch::OpTrait::AllowsTypeRefinement<Empty>)
ImplicitTypeIDRegistry::lookupOrInsert(mlir::torch::Torch::OpTrait::ReadOnly<Empty>)
ImplicitTypeIDRegistry::lookupOrInsert(mlir::iree_compiler::IREE::Util::GlobalLoadOpInterface::Trait<Empty>)
ImplicitTypeIDRegistry::lookupOrInsert(mlir::iree_compiler::IREE::Util::detail::GlobalLoadOpGenericAdaptorBase::Properties)
ImplicitTypeIDRegistry::lookupOrInsert(mlir::torch::Torch::OpTrait::HasValueSemantics<Empty>)
ImplicitTypeIDRegistry::lookupOrInsert(mlir::OpTrait::NOperands<3>::Impl<Empty>)
ImplicitTypeIDRegistry::lookupOrInsert(mlir::DataLayoutSpecInterface)

Features:+64bit-mode,-32bit-mode,-16bit-mode,+sse2
CPU:generic
TuneCPU:generic

Subtarget features: SSELevel 2, 3DNowLevel 0, 64bit 1
G_ADD (opcode 47): 1 type index, 0 imm indices
.. type index coverage check SKIPPED: user-defined predicate detected
.. imm index coverage check SKIPPED: user-defined predicate detected
G_SUB (opcode 48): 1 type index, 0 imm indices
.. opcode 48 is aliased to 47
.. type index coverage check SKIPPED: user-defined predicate detected
.. imm index coverage check SKIPPED: user-defined predicate detected
G_MUL (opcode 49): 1 type index, 0 imm indices
.. type index coverage check SKIPPED: user-defined predicate detected
.. imm index coverage check SKIPPED: user-defined predicate detected
G_SDIV (opcode 50): 1 type index, 0 imm indices
.. type index coverage check SKIPPED: user-defined predicate detected
.. imm index coverage check SKIPPED: user-defined predicate detected
G_UDIV (opcode 51): 1 type index, 0 imm indices
.. opcode 51 is aliased to 50
.. type index coverage check SKIPPED: user-defined predicate detected
.. imm index coverage check SKIPPED: user-defined predicate detected
G_SREM (opcode 52): 1 type index, 0 imm indices
.. opcode 52 is aliased to 50
.. type index coverage check SKIPPED: user-defined predicate detected
.. imm index coverage check SKIPPED: user-defined predicate detected
G_UREM (opcode 53): 1 type index, 0 imm indices
.. opcode 53 is aliased to 50
.. type index coverage check SKIPPED: user-defined predicate detected
.. imm index coverage check SKIPPED: user-defined predicate detected
G_SDIVREM (opcode 54): 1 type index, 0 imm indices
.. type index coverage check SKIPPED: no rules defined
.. imm index coverage check SKIPPED: no rules defined
G_UDIVREM (opcode 55): 1 type index, 0 imm indices
.. type index coverage check SKIPPED: no rules defined
.. imm index coverage check SKIPPED: no rules defined
G_AND (opcode 56): 1 type index, 0 imm indices
.. type index coverage check SKIPPED: user-defined predicate detected
.. imm index coverage check SKIPPED: user-defined predicate detected
G_OR (opcode 57): 1 type index, 0 imm indices
.. opcode 57 is aliased to 56
.. type index coverage check SKIPPED: user-defined predicate detected
.. imm index coverage check SKIPPED: user-defined predicate detected
G_XOR (opcode 58): 1 type index, 0 imm indices
.. opcode 58 is aliased to 56
.. type index coverage check SKIPPED: user-defined predicate detected
.. imm index coverage check SKIPPED: user-defined predicate detected
G_IMPLICIT_DEF (opcode 59): 1 type index, 0 imm indices
.. type index coverage check SKIPPED: user-defined predicate detected
.. imm index coverage check SKIPPED: user-defined predicate detected
G_PHI (opcode 60): 1 type index, 0 imm indices
.. type index coverage check SKIPPED: user-defined predicate detected
.. imm index coverage check SKIPPED: user-defined predicate detected
G_FRAME_INDEX (opcode 61): 1 type index, 0 imm indices
.. the first uncovered type index: 1, OK
.. the first uncovered imm index: 0, OK
G_GLOBAL_VALUE (opcode 62): 1 type index, 0 imm indices
.. opcode 62 is aliased to 61
.. the first uncovered type index: 1, OK
.. the first uncovered imm index: 0, OK
G_CONSTANT_POOL (opcode 63): 1 type index, 0 imm indices
.. type index coverage check SKIPPED: no rules defined
.. imm index coverage check SKIPPED: no rules defined
G_EXTRACT (opcode 64): 2 type indices, 1 imm index
.. type index coverage check SKIPPED: user-defined predicate detected
.. imm index coverage check SKIPPED: user-defined predicate detected
G_UNMERGE_VALUES (opcode 65): 2 type indices, 0 imm indices
.. type index coverage check SKIPPED: user-defined predicate detected
.. imm index coverage check SKIPPED: user-defined predicate detected
G_INSERT (opcode 66): 2 type indices, 1 imm index
.. opcode 66 is aliased to 64
.. type index coverage check SKIPPED: user-defined predicate detected
.. imm index coverage check SKIPPED: user-defined predicate detected
G_MERGE_VALUES (opcode 67): 2 type indices, 0 imm indices
.. type index coverage check SKIPPED: user-defined predicate detected
.. imm index coverage check SKIPPED: user-defined predicate detected
G_BUILD_VECTOR (opcode 68): 2 type indices, 0 imm indices
.. type index coverage check SKIPPED: no rules defined
.. imm index coverage check SKIPPED: no rules defined
G_BUILD_VECTOR_TRUNC (opcode 69): 2 type indices, 0 imm indices
.. type index coverage check SKIPPED: no rules defined
.. imm index coverage check SKIPPED: no rules defined
G_CONCAT_VECTORS (opcode 70): 2 type indices, 0 imm indices
.. type index coverage check SKIPPED: user-defined predicate detected
.. imm index coverage check SKIPPED: user-defined predicate detected
G_PTRTOINT (opcode 71): 2 type indices, 0 imm indices
.. the first uncovered type index: 2, OK
.. the first uncovered imm index: 0, OK
G_INTTOPTR (opcode 72): 2 type indices, 0 imm indices
.. the first uncovered type index: 2, OK
.. the first uncovered imm index: 0, OK
G_BITCAST (opcode 73): 2 type indices, 0 imm indices
.. type index coverage check SKIPPED: no rules defined
.. imm index coverage check SKIPPED: no rules defined
G_FREEZE (opcode 74): 1 type index, 0 imm indices
.. the first uncovered type index: 1, OK
.. the first uncovered imm index: 0, OK
G_CONSTANT_FOLD_BARRIER (opcode 75): 1 type index, 0 imm indices
.. opcode 75 is aliased to 74
.. the first uncovered type index: 1, OK
.. the first uncovered imm index: 0, OK
G_INTRINSIC_FPTRUNC_ROUND (opcode 76): 2 type indices, 0 imm indices
.. type index coverage check SKIPPED: no rules defined
.. imm index coverage check SKIPPED: no rules defined
G_INTRINSIC_TRUNC (opcode 77): 1 type index, 0 imm indices
.. type index coverage check SKIPPED: no rules defined
.. imm index coverage check SKIPPED: no rules defined
G_INTRINSIC_ROUND (opcode 78): 1 type index, 0 imm indices
.. type index coverage check SKIPPED: no rules defined
.. imm index coverage check SKIPPED: no rules defined
G_INTRINSIC_LRINT (opcode 79): 2 type indices, 0 imm indices
.. type index coverage check SKIPPED: no rules defined
.. imm index coverage check SKIPPED: no rules defined
G_INTRINSIC_ROUNDEVEN (opcode 80): 1 type index, 0 imm indices
.. type index coverage check SKIPPED: user-defined predicate detected
.. imm index coverage check SKIPPED: user-defined predicate detected
G_READCYCLECOUNTER (opcode 81): 1 type index, 0 imm indices
.. type index coverage check SKIPPED: no rules defined
.. imm index coverage check SKIPPED: no rules defined
G_LOAD (opcode 82): 2 type indices, 0 imm indices
.. the first uncovered type index: 2, OK
.. the first uncovered imm index: 0, OK
G_SEXTLOAD (opcode 83): 2 type indices, 0 imm indices
.. the first uncovered type index: 2, OK
.. the first uncovered imm index: 0, OK
G_ZEXTLOAD (opcode 84): 2 type indices, 0 imm indices
.. the first uncovered type index: 2, OK
.. the first uncovered imm index: 0, OK
G_INDEXED_LOAD (opcode 85): 3 type indices, 0 imm indices
.. type index coverage check SKIPPED: no rules defined
.. imm index coverage check SKIPPED: no rules defined
G_INDEXED_SEXTLOAD (opcode 86): 3 type indices, 0 imm indices
.. type index coverage check SKIPPED: no rules defined
.. imm index coverage check SKIPPED: no rules defined
G_INDEXED_ZEXTLOAD (opcode 87): 3 type indices, 0 imm indices
.. type index coverage check SKIPPED: no rules defined
.. imm index coverage check SKIPPED: no rules defined
G_STORE (opcode 88): 2 type indices, 0 imm indices
.. the first uncovered type index: 2, OK
.. the first uncovered imm index: 0, OK
G_INDEXED_STORE (opcode 89): 3 type indices, 0 imm indices
.. type index coverage check SKIPPED: no rules defined
.. imm index coverage check SKIPPED: no rules defined
G_ATOMIC_CMPXCHG_WITH_SUCCESS (opcode 90): 3 type indices, 0 imm indices
.. type index coverage check SKIPPED: no rules defined
.. imm index coverage check SKIPPED: no rules defined
G_ATOMIC_CMPXCHG (opcode 91): 2 type indices, 0 imm indices
.. type index coverage check SKIPPED: no rules defined
.. imm index coverage check SKIPPED: no rules defined
G_ATOMICRMW_XCHG (opcode 92): 2 type indices, 0 imm indices
.. type index coverage check SKIPPED: no rules defined
.. imm index coverage check SKIPPED: no rules defined
G_ATOMICRMW_ADD (opcode 93): 2 type indices, 0 imm indices
.. type index coverage check SKIPPED: no rules defined
.. imm index coverage check SKIPPED: no rules defined
G_ATOMICRMW_SUB (opcode 94): 2 type indices, 0 imm indices
.. type index coverage check SKIPPED: no rules defined
.. imm index coverage check SKIPPED: no rules defined
G_ATOMICRMW_AND (opcode 95): 2 type indices, 0 imm indices
.. type index coverage check SKIPPED: no rules defined
.. imm index coverage check SKIPPED: no rules defined
G_ATOMICRMW_NAND (opcode 96): 2 type indices, 0 imm indices
.. type index coverage check SKIPPED: no rules defined
.. imm index coverage check SKIPPED: no rules defined
G_ATOMICRMW_OR (opcode 97): 2 type indices, 0 imm indices
.. type index coverage check SKIPPED: no rules defined
.. imm index coverage check SKIPPED: no rules defined
G_ATOMICRMW_XOR (opcode 98): 2 type indices, 0 imm indices
.. type index coverage check SKIPPED: no rules defined
.. imm index coverage check SKIPPED: no rules defined
G_ATOMICRMW_MAX (opcode 99): 2 type indices, 0 imm indices
.. type index coverage check SKIPPED: no rules defined
.. imm index coverage check SKIPPED: no rules defined
G_ATOMICRMW_MIN (opcode 100): 2 type indices, 0 imm indices
.. type index coverage check SKIPPED: no rules defined
.. imm index coverage check SKIPPED: no rules defined
G_ATOMICRMW_UMAX (opcode 101): 2 type indices, 0 imm indices
.. type index coverage check SKIPPED: no rules defined
.. imm index coverage check SKIPPED: no rules defined
G_ATOMICRMW_UMIN (opcode 102): 2 type indices, 0 imm indices
.. type index coverage check SKIPPED: no rules defined
.. imm index coverage check SKIPPED: no rules defined
G_ATOMICRMW_FADD (opcode 103): 2 type indices, 0 imm indices
.. type index coverage check SKIPPED: no rules defined
.. imm index coverage check SKIPPED: no rules defined
G_ATOMICRMW_FSUB (opcode 104): 2 type indices, 0 imm indices
.. type index coverage check SKIPPED: no rules defined
.. imm index coverage check SKIPPED: no rules defined
G_ATOMICRMW_FMAX (opcode 105): 2 type indices, 0 imm indices
.. type index coverage check SKIPPED: no rules defined
.. imm index coverage check SKIPPED: no rules defined
G_ATOMICRMW_FMIN (opcode 106): 2 type indices, 0 imm indices
.. type index coverage check SKIPPED: no rules defined
.. imm index coverage check SKIPPED: no rules defined
G_ATOMICRMW_UINC_WRAP (opcode 107): 2 type indices, 0 imm indices
.. type index coverage check SKIPPED: no rules defined
.. imm index coverage check SKIPPED: no rules defined
G_ATOMICRMW_UDEC_WRAP (opcode 108): 2 type indices, 0 imm indices
.. type index coverage check SKIPPED: no rules defined
.. imm index coverage check SKIPPED: no rules defined
G_FENCE (opcode 109): 0 type indices, 0 imm indices
.. type index coverage check SKIPPED: no rules defined
.. imm index coverage check SKIPPED: no rules defined
G_BRCOND (opcode 110): 1 type index, 0 imm indices
.. the first uncovered type index: 1, OK
.. the first uncovered imm index: 0, OK
G_BRINDIRECT (opcode 111): 1 type index, 0 imm indices
.. type index coverage check SKIPPED: no rules defined
.. imm index coverage check SKIPPED: no rules defined
G_INVOKE_REGION_START (opcode 112): 0 type indices, 0 imm indices
.. type index coverage check SKIPPED: no rules defined
.. imm index coverage check SKIPPED: no rules defined
G_INTRINSIC (opcode 113): 0 type indices, 0 imm indices
.. type index coverage check SKIPPED: no rules defined
.. imm index coverage check SKIPPED: no rules defined
G_INTRINSIC_W_SIDE_EFFECTS (opcode 114): 0 type indices, 0 imm indices
.. type index coverage check SKIPPED: no rules defined
.. imm index coverage check SKIPPED: no rules defined
G_INTRINSIC_CONVERGENT (opcode 115): 0 type indices, 0 imm indices
.. type index coverage check SKIPPED: no rules defined
.. imm index coverage check SKIPPED: no rules defined
G_INTRINSIC_CONVERGENT_W_SIDE_EFFECTS (opcode 116): 0 type indices, 0 imm indices
.. type index coverage check SKIPPED: no rules defined
.. imm index coverage check SKIPPED: no rules defined
G_ANYEXT (opcode 117): 2 type indices, 0 imm indices
.. opcode 117 is aliased to 123
.. type index coverage check SKIPPED: user-defined predicate detected
.. imm index coverage check SKIPPED: user-defined predicate detected
G_TRUNC (opcode 118): 2 type indices, 0 imm indices
.. type index coverage check SKIPPED: no rules defined
.. imm index coverage check SKIPPED: no rules defined
G_CONSTANT (opcode 119): 1 type index, 0 imm indices
.. type index coverage check SKIPPED: user-defined predicate detected
.. imm index coverage check SKIPPED: user-defined predicate detected
G_FCONSTANT (opcode 120): 1 type index, 0 imm indices
.. type index coverage check SKIPPED: user-defined predicate detected
.. imm index coverage check SKIPPED: user-defined predicate detected
G_VASTART (opcode 121): 1 type index, 0 imm indices
.. type index coverage check SKIPPED: no rules defined
.. imm index coverage check SKIPPED: no rules defined
G_VAARG (opcode 122): 2 type indices, 0 imm indices
.. type index coverage check SKIPPED: no rules defined
.. imm index coverage check SKIPPED: no rules defined
G_SEXT (opcode 123): 2 type indices, 0 imm indices
.. type index coverage check SKIPPED: user-defined predicate detected
.. imm index coverage check SKIPPED: user-defined predicate detected
G_SEXT_INREG (opcode 124): 1 type index, 1 imm index
.. type index coverage check SKIPPED: user-defined predicate detected
.. imm index coverage check SKIPPED: user-defined predicate detected
G_ZEXT (opcode 125): 2 type indices, 0 imm indices
.. opcode 125 is aliased to 123
.. type index coverage check SKIPPED: user-defined predicate detected
.. imm index coverage check SKIPPED: user-defined predicate detected
G_SHL (opcode 126): 2 type indices, 0 imm indices
.. type index coverage check SKIPPED: user-defined predicate detected
.. imm index coverage check SKIPPED: user-defined predicate detected
G_LSHR (opcode 127): 2 type indices, 0 imm indices
.. opcode 127 is aliased to 126
.. type index coverage check SKIPPED: user-defined predicate detected
.. imm index coverage check SKIPPED: user-defined predicate detected
G_ASHR (opcode 128): 2 type indices, 0 imm indices
.. opcode 128 is aliased to 126
.. type index coverage check SKIPPED: user-defined predicate detected
.. imm index coverage check SKIPPED: user-defined predicate detected
G_FSHL (opcode 129): 2 type indices, 0 imm indices
.. type index coverage check SKIPPED: no rules defined
.. imm index coverage check SKIPPED: no rules defined
G_FSHR (opcode 130): 2 type indices, 0 imm indices
.. type index coverage check SKIPPED: no rules defined
.. imm index coverage check SKIPPED: no rules defined
G_ROTR (opcode 131): 2 type indices, 0 imm indices
.. type index coverage check SKIPPED: no rules defined
.. imm index coverage check SKIPPED: no rules defined
G_ROTL (opcode 132): 2 type indices, 0 imm indices
.. type index coverage check SKIPPED: no rules defined
.. imm index coverage check SKIPPED: no rules defined
G_ICMP (opcode 133): 2 type indices, 0 imm indices
.. type index coverage check SKIPPED: user-defined predicate detected
.. imm index coverage check SKIPPED: user-defined predicate detected
G_FCMP (opcode 134): 2 type indices, 0 imm indices
.. type index coverage check SKIPPED: user-defined predicate detected
.. imm index coverage check SKIPPED: user-defined predicate detected
G_SELECT (opcode 135): 2 type indices, 0 imm indices
.. the first uncovered type index: 2, OK
.. the first uncovered imm index: 0, OK
G_UADDO (opcode 136): 2 type indices, 0 imm indices
.. opcode 136 is aliased to 137
.. type index coverage check SKIPPED: user-defined predicate detected
.. imm index coverage check SKIPPED: user-defined predicate detected
G_UADDE (opcode 137): 2 type indices, 0 imm indices
.. type index coverage check SKIPPED: user-defined predicate detected
.. imm index coverage check SKIPPED: user-defined predicate detected
G_USUBO (opcode 138): 2 type indices, 0 imm indices
.. opcode 138 is aliased to 137
.. type index coverage check SKIPPED: user-defined predicate detected
.. imm index coverage check SKIPPED: user-defined predicate detected
G_USUBE (opcode 139): 2 type indices, 0 imm indices
.. opcode 139 is aliased to 137
.. type index coverage check SKIPPED: user-defined predicate detected
.. imm index coverage check SKIPPED: user-defined predicate detected
G_SADDO (opcode 140): 2 type indices, 0 imm indices
.. type index coverage check SKIPPED: no rules defined
.. imm index coverage check SKIPPED: no rules defined
G_SADDE (opcode 141): 2 type indices, 0 imm indices
.. type index coverage check SKIPPED: no rules defined
.. imm index coverage check SKIPPED: no rules defined
G_SSUBO (opcode 142): 2 type indices, 0 imm indices
.. type index coverage check SKIPPED: no rules defined
.. imm index coverage check SKIPPED: no rules defined
G_SSUBE (opcode 143): 2 type indices, 0 imm indices
.. type index coverage check SKIPPED: no rules defined
.. imm index coverage check SKIPPED: no rules defined
G_UMULO (opcode 144): 2 type indices, 0 imm indices
.. type index coverage check SKIPPED: no rules defined
.. imm index coverage check SKIPPED: no rules defined
G_SMULO (opcode 145): 2 type indices, 0 imm indices
.. type index coverage check SKIPPED: no rules defined
.. imm index coverage check SKIPPED: no rules defined
G_UMULH (opcode 146): 1 type index, 0 imm indices
.. opcode 146 is aliased to 147
.. type index coverage check SKIPPED: user-defined predicate detected
.. imm index coverage check SKIPPED: user-defined predicate detected
G_SMULH (opcode 147): 1 type index, 0 imm indices
.. type index coverage check SKIPPED: user-defined predicate detected
.. imm index coverage check SKIPPED: user-defined predicate detected
G_UADDSAT (opcode 148): 1 type index, 0 imm indices
.. type index coverage check SKIPPED: no rules defined
.. imm index coverage check SKIPPED: no rules defined
G_SADDSAT (opcode 149): 1 type index, 0 imm indices
.. type index coverage check SKIPPED: no rules defined
.. imm index coverage check SKIPPED: no rules defined
G_USUBSAT (opcode 150): 1 type index, 0 imm indices
.. type index coverage check SKIPPED: no rules defined
.. imm index coverage check SKIPPED: no rules defined
G_SSUBSAT (opcode 151): 1 type index, 0 imm indices
.. type index coverage check SKIPPED: no rules defined
.. imm index coverage check SKIPPED: no rules defined
G_USHLSAT (opcode 152): 2 type indices, 0 imm indices
.. type index coverage check SKIPPED: no rules defined
.. imm index coverage check SKIPPED: no rules defined
G_SSHLSAT (opcode 153): 2 type indices, 0 imm indices
.. type index coverage check SKIPPED: no rules defined
.. imm index coverage check SKIPPED: no rules defined
G_SMULFIX (opcode 154): 1 type index, 1 imm index
.. type index coverage check SKIPPED: no rules defined
.. imm index coverage check SKIPPED: no rules defined
G_UMULFIX (opcode 155): 1 type index, 1 imm index
.. type index coverage check SKIPPED: no rules defined
.. imm index coverage check SKIPPED: no rules defined
G_SMULFIXSAT (opcode 156): 1 type index, 1 imm index
.. type index coverage check SKIPPED: no rules defined
.. imm index coverage check SKIPPED: no rules defined
G_UMULFIXSAT (opcode 157): 1 type index, 1 imm index
.. type index coverage check SKIPPED: no rules defined
.. imm index coverage check SKIPPED: no rules defined
G_SDIVFIX (opcode 158): 1 type index, 1 imm index
.. type index coverage check SKIPPED: no rules defined
.. imm index coverage check SKIPPED: no rules defined
G_UDIVFIX (opcode 159): 1 type index, 1 imm index
.. type index coverage check SKIPPED: no rules defined
.. imm index coverage check SKIPPED: no rules defined
G_SDIVFIXSAT (opcode 160): 1 type index, 1 imm index
.. type index coverage check SKIPPED: no rules defined
.. imm index coverage check SKIPPED: no rules defined
G_UDIVFIXSAT (opcode 161): 1 type index, 1 imm index
.. type index coverage check SKIPPED: no rules defined
.. imm index coverage check SKIPPED: no rules defined
G_FADD (opcode 162): 1 type index, 0 imm indices
.. type index coverage check SKIPPED: user-defined predicate detected
.. imm index coverage check SKIPPED: user-defined predicate detected
G_FSUB (opcode 163): 1 type index, 0 imm indices
.. opcode 163 is aliased to 162
.. type index coverage check SKIPPED: user-defined predicate detected
.. imm index coverage check SKIPPED: user-defined predicate detected
G_FMUL (opcode 164): 1 type index, 0 imm indices
.. opcode 164 is aliased to 162
.. type index coverage check SKIPPED: user-defined predicate detected
.. imm index coverage check SKIPPED: user-defined predicate detected
G_FMA (opcode 165): 1 type index, 0 imm indices
.. type index coverage check SKIPPED: no rules defined
.. imm index coverage check SKIPPED: no rules defined
G_FMAD (opcode 166): 1 type index, 0 imm indices
.. type index coverage check SKIPPED: no rules defined
.. imm index coverage check SKIPPED: no rules defined
G_FDIV (opcode 167): 1 type index, 0 imm indices
.. opcode 167 is aliased to 162
.. type index coverage check SKIPPED: user-defined predicate detected
.. imm index coverage check SKIPPED: user-defined predicate detected
G_FREM (opcode 168): 1 type index, 0 imm indices
.. type index coverage check SKIPPED: no rules defined
.. imm index coverage check SKIPPED: no rules defined
G_FPOW (opcode 169): 1 type index, 0 imm indices
.. type index coverage check SKIPPED: no rules defined
.. imm index coverage check SKIPPED: no rules defined
G_FPOWI (opcode 170): 2 type indices, 0 imm indices
.. type index coverage check SKIPPED: no rules defined
.. imm index coverage check SKIPPED: no rules defined
G_FEXP (opcode 171): 1 type index, 0 imm indices
.. type index coverage check SKIPPED: no rules defined
.. imm index coverage check SKIPPED: no rules defined
G_FEXP2 (opcode 172): 1 type index, 0 imm indices
.. type index coverage check SKIPPED: no rules defined
.. imm index coverage check SKIPPED: no rules defined
G_FEXP10 (opcode 173): 1 type index, 0 imm indices
.. type index coverage check SKIPPED: no rules defined
.. imm index coverage check SKIPPED: no rules defined
G_FLOG (opcode 174): 1 type index, 0 imm indices
.. type index coverage check SKIPPED: no rules defined
.. imm index coverage check SKIPPED: no rules defined
G_FLOG2 (opcode 175): 1 type index, 0 imm indices
.. type index coverage check SKIPPED: no rules defined
.. imm index coverage check SKIPPED: no rules defined
G_FLOG10 (opcode 176): 1 type index, 0 imm indices
.. type index coverage check SKIPPED: no rules defined
.. imm index coverage check SKIPPED: no rules defined
G_FLDEXP (opcode 177): 2 type indices, 0 imm indices
.. type index coverage check SKIPPED: no rules defined
.. imm index coverage check SKIPPED: no rules defined
G_FFREXP (opcode 178): 2 type indices, 0 imm indices
.. type index coverage check SKIPPED: no rules defined
.. imm index coverage check SKIPPED: no rules defined
G_FNEG (opcode 179): 1 type index, 0 imm indices
.. type index coverage check SKIPPED: no rules defined
.. imm index coverage check SKIPPED: no rules defined
G_FPEXT (opcode 180): 2 type indices, 0 imm indices
.. type index coverage check SKIPPED: user-defined predicate detected
.. imm index coverage check SKIPPED: user-defined predicate detected
G_FPTRUNC (opcode 181): 2 type indices, 0 imm indices
.. type index coverage check SKIPPED: user-defined predicate detected
.. imm index coverage check SKIPPED: user-defined predicate detected
G_FPTOSI (opcode 182): 2 type indices, 0 imm indices
.. type index coverage check SKIPPED: user-defined predicate detected
.. imm index coverage check SKIPPED: user-defined predicate detected
G_FPTOUI (opcode 183): 2 type indices, 0 imm indices
.. type index coverage check SKIPPED: no rules defined
.. imm index coverage check SKIPPED: no rules defined
G_SITOFP (opcode 184): 2 type indices, 0 imm indices
.. type index coverage check SKIPPED: user-defined predicate detected
.. imm index coverage check SKIPPED: user-defined predicate detected
G_UITOFP (opcode 185): 2 type indices, 0 imm indices
.. type index coverage check SKIPPED: no rules defined
.. imm index coverage check SKIPPED: no rules defined
G_FABS (opcode 186): 1 type index, 0 imm indices
.. type index coverage check SKIPPED: no rules defined
.. imm index coverage check SKIPPED: no rules defined
G_FCOPYSIGN (opcode 187): 2 type indices, 0 imm indices
.. type index coverage check SKIPPED: no rules defined
.. imm index coverage check SKIPPED: no rules defined
G_IS_FPCLASS (opcode 188): 2 type indices, 0 imm indices
.. type index coverage check SKIPPED: no rules defined
.. imm index coverage check SKIPPED: no rules defined
G_FCANONICALIZE (opcode 189): 1 type index, 0 imm indices
.. type index coverage check SKIPPED: no rules defined
.. imm index coverage check SKIPPED: no rules defined
G_FMINNUM (opcode 190): 1 type index, 0 imm indices
.. type index coverage check SKIPPED: no rules defined
.. imm index coverage check SKIPPED: no rules defined
G_FMAXNUM (opcode 191): 1 type index, 0 imm indices
.. type index coverage check SKIPPED: no rules defined
.. imm index coverage check SKIPPED: no rules defined
G_FMINNUM_IEEE (opcode 192): 1 type index, 0 imm indices
.. type index coverage check SKIPPED: no rules defined
.. imm index coverage check SKIPPED: no rules defined
G_FMAXNUM_IEEE (opcode 193): 1 type index, 0 imm indices
.. type index coverage check SKIPPED: no rules defined
.. imm index coverage check SKIPPED: no rules defined
G_FMINIMUM (opcode 194): 1 type index, 0 imm indices
.. type index coverage check SKIPPED: no rules defined
.. imm index coverage check SKIPPED: no rules defined
G_FMAXIMUM (opcode 195): 1 type index, 0 imm indices
.. type index coverage check SKIPPED: no rules defined
.. imm index coverage check SKIPPED: no rules defined
G_GET_FPMODE (opcode 196): 1 type index, 0 imm indices
.. type index coverage check SKIPPED: no rules defined
.. imm index coverage check SKIPPED: no rules defined
G_SET_FPMODE (opcode 197): 1 type index, 0 imm indices
.. type index coverage check SKIPPED: no rules defined
.. imm index coverage check SKIPPED: no rules defined
G_RESET_FPMODE (opcode 198): 0 type indices, 0 imm indices
.. type index coverage check SKIPPED: no rules defined
.. imm index coverage check SKIPPED: no rules defined
G_PTR_ADD (opcode 199): 2 type indices, 0 imm indices
.. type index coverage check SKIPPED: user-defined predicate detected
.. imm index coverage check SKIPPED: user-defined predicate detected
G_PTRMASK (opcode 200): 2 type indices, 0 imm indices
.. type index coverage check SKIPPED: no rules defined
.. imm index coverage check SKIPPED: no rules defined
G_SMIN (opcode 201): 1 type index, 0 imm indices
.. type index coverage check SKIPPED: no rules defined
.. imm index coverage check SKIPPED: no rules defined
G_SMAX (opcode 202): 1 type index, 0 imm indices
.. type index coverage check SKIPPED: no rules defined
.. imm index coverage check SKIPPED: no rules defined
G_UMIN (opcode 203): 1 type index, 0 imm indices
.. type index coverage check SKIPPED: no rules defined
.. imm index coverage check SKIPPED: no rules defined
G_UMAX (opcode 204): 1 type index, 0 imm indices
.. type index coverage check SKIPPED: no rules defined
.. imm index coverage check SKIPPED: no rules defined
G_ABS (opcode 205): 1 type index, 0 imm indices
.. type index coverage check SKIPPED: no rules defined
.. imm index coverage check SKIPPED: no rules defined
G_LROUND (opcode 206): 2 type indices, 0 imm indices
.. type index coverage check SKIPPED: no rules defined
.. imm index coverage check SKIPPED: no rules defined
G_LLROUND (opcode 207): 2 type indices, 0 imm indices
.. type index coverage check SKIPPED: no rules defined
.. imm index coverage check SKIPPED: no rules defined
G_BR (opcode 208): 0 type indices, 0 imm indices
.. type index coverage check SKIPPED: no rules defined
.. imm index coverage check SKIPPED: no rules defined
G_BRJT (opcode 209): 2 type indices, 0 imm indices
.. type index coverage check SKIPPED: no rules defined
.. imm index coverage check SKIPPED: no rules defined
G_INSERT_VECTOR_ELT (opcode 210): 3 type indices, 0 imm indices
.. type index coverage check SKIPPED: no rules defined
.. imm index coverage check SKIPPED: no rules defined
G_EXTRACT_VECTOR_ELT (opcode 211): 3 type indices, 0 imm indices
.. type index coverage check SKIPPED: no rules defined
.. imm index coverage check SKIPPED: no rules defined
G_SHUFFLE_VECTOR (opcode 212): 2 type indices, 0 imm indices
.. type index coverage check SKIPPED: no rules defined
.. imm index coverage check SKIPPED: no rules defined
G_CTTZ (opcode 213): 2 type indices, 0 imm indices
.. opcode 213 is aliased to 214
.. type index coverage check SKIPPED: user-defined predicate detected
.. imm index coverage check SKIPPED: user-defined predicate detected
G_CTTZ_ZERO_UNDEF (opcode 214): 2 type indices, 0 imm indices
.. type index coverage check SKIPPED: user-defined predicate detected
.. imm index coverage check SKIPPED: user-defined predicate detected
G_CTLZ (opcode 215): 2 type indices, 0 imm indices
.. type index coverage check SKIPPED: user-defined predicate detected
.. imm index coverage check SKIPPED: user-defined predicate detected
G_CTLZ_ZERO_UNDEF (opcode 216): 2 type indices, 0 imm indices
.. type index coverage check SKIPPED: no rules defined
.. imm index coverage check SKIPPED: no rules defined
G_CTPOP (opcode 217): 2 type indices, 0 imm indices
.. type index coverage check SKIPPED: user-defined predicate detected
.. imm index coverage check SKIPPED: user-defined predicate detected
G_BSWAP (opcode 218): 1 type index, 0 imm indices
.. type index coverage check SKIPPED: user-defined predicate detected
.. imm index coverage check SKIPPED: user-defined predicate detected
G_BITREVERSE (opcode 219): 1 type index, 0 imm indices
.. type index coverage check SKIPPED: no rules defined
.. imm index coverage check SKIPPED: no rules defined
G_FCEIL (opcode 220): 1 type index, 0 imm indices
.. type index coverage check SKIPPED: no rules defined
.. imm index coverage check SKIPPED: no rules defined
G_FCOS (opcode 221): 1 type index, 0 imm indices
.. type index coverage check SKIPPED: no rules defined
.. imm index coverage check SKIPPED: no rules defined
G_FSIN (opcode 222): 1 type index, 0 imm indices
.. type index coverage check SKIPPED: no rules defined
.. imm index coverage check SKIPPED: no rules defined
G_FSQRT (opcode 223): 1 type index, 0 imm indices
.. type index coverage check SKIPPED: no rules defined
.. imm index coverage check SKIPPED: no rules defined
G_FFLOOR (opcode 224): 1 type index, 0 imm indices
.. type index coverage check SKIPPED: no rules defined
.. imm index coverage check SKIPPED: no rules defined
G_FRINT (opcode 225): 1 type index, 0 imm indices
.. type index coverage check SKIPPED: no rules defined
.. imm index coverage check SKIPPED: no rules defined
G_FNEARBYINT (opcode 226): 1 type index, 0 imm indices
.. type index coverage check SKIPPED: no rules defined
.. imm index coverage check SKIPPED: no rules defined
G_ADDRSPACE_CAST (opcode 227): 2 type indices, 0 imm indices
.. type index coverage check SKIPPED: no rules defined
.. imm index coverage check SKIPPED: no rules defined
G_BLOCK_ADDR (opcode 228): 1 type index, 0 imm indices
.. type index coverage check SKIPPED: no rules defined
.. imm index coverage check SKIPPED: no rules defined
G_JUMP_TABLE (opcode 229): 1 type index, 0 imm indices
.. type index coverage check SKIPPED: no rules defined
.. imm index coverage check SKIPPED: no rules defined
G_DYN_STACKALLOC (opcode 230): 2 type indices, 0 imm indices
.. type index coverage check SKIPPED: user-defined predicate detected
.. imm index coverage check SKIPPED: user-defined predicate detected
G_STACKSAVE (opcode 231): 1 type index, 0 imm indices
.. opcode 231 is aliased to 230
.. type index coverage check SKIPPED: user-defined predicate detected
.. imm index coverage check SKIPPED: user-defined predicate detected
G_STACKRESTORE (opcode 232): 1 type index, 0 imm indices
.. opcode 232 is aliased to 230
.. type index coverage check SKIPPED: user-defined predicate detected
.. imm index coverage check SKIPPED: user-defined predicate detected
G_STRICT_FADD (opcode 233): 1 type index, 0 imm indices
.. type index coverage check SKIPPED: no rules defined
.. imm index coverage check SKIPPED: no rules defined
G_STRICT_FSUB (opcode 234): 1 type index, 0 imm indices
.. type index coverage check SKIPPED: no rules defined
.. imm index coverage check SKIPPED: no rules defined
G_STRICT_FMUL (opcode 235): 1 type index, 0 imm indices
.. type index coverage check SKIPPED: no rules defined
.. imm index coverage check SKIPPED: no rules defined
G_STRICT_FDIV (opcode 236): 1 type index, 0 imm indices
.. type index coverage check SKIPPED: no rules defined
.. imm index coverage check SKIPPED: no rules defined
G_STRICT_FREM (opcode 237): 1 type index, 0 imm indices
.. type index coverage check SKIPPED: no rules defined
.. imm index coverage check SKIPPED: no rules defined
G_STRICT_FMA (opcode 238): 1 type index, 0 imm indices
.. type index coverage check SKIPPED: no rules defined
.. imm index coverage check SKIPPED: no rules defined
G_STRICT_FSQRT (opcode 239): 1 type index, 0 imm indices
.. type index coverage check SKIPPED: no rules defined
.. imm index coverage check SKIPPED: no rules defined
G_STRICT_FLDEXP (opcode 240): 2 type indices, 0 imm indices
.. type index coverage check SKIPPED: no rules defined
.. imm index coverage check SKIPPED: no rules defined
G_READ_REGISTER (opcode 241): 1 type index, 0 imm indices
.. type index coverage check SKIPPED: no rules defined
.. imm index coverage check SKIPPED: no rules defined
G_WRITE_REGISTER (opcode 242): 1 type index, 0 imm indices
.. type index coverage check SKIPPED: no rules defined
.. imm index coverage check SKIPPED: no rules defined
G_MEMCPY (opcode 243): 3 type indices, 1 imm index
.. type index coverage check SKIPPED: user-defined predicate detected
.. imm index coverage check SKIPPED: user-defined predicate detected
G_MEMCPY_INLINE (opcode 244): 3 type indices, 0 imm indices
.. type index coverage check SKIPPED: no rules defined
.. imm index coverage check SKIPPED: no rules defined
G_MEMMOVE (opcode 245): 3 type indices, 1 imm index
.. opcode 245 is aliased to 243
.. type index coverage check SKIPPED: user-defined predicate detected
.. imm index coverage check SKIPPED: user-defined predicate detected
G_MEMSET (opcode 246): 3 type indices, 1 imm index
.. opcode 246 is aliased to 243
.. type index coverage check SKIPPED: user-defined predicate detected
.. imm index coverage check SKIPPED: user-defined predicate detected
G_BZERO (opcode 247): 2 type indices, 1 imm index
.. type index coverage check SKIPPED: no rules defined
.. imm index coverage check SKIPPED: no rules defined
G_VECREDUCE_SEQ_FADD (opcode 248): 3 type indices, 0 imm indices
.. type index coverage check SKIPPED: no rules defined
.. imm index coverage check SKIPPED: no rules defined
G_VECREDUCE_SEQ_FMUL (opcode 249): 3 type indices, 0 imm indices
.. type index coverage check SKIPPED: no rules defined
.. imm index coverage check SKIPPED: no rules defined
G_VECREDUCE_FADD (opcode 250): 2 type indices, 0 imm indices
.. type index coverage check SKIPPED: no rules defined
.. imm index coverage check SKIPPED: no rules defined
G_VECREDUCE_FMUL (opcode 251): 2 type indices, 0 imm indices
.. type index coverage check SKIPPED: no rules defined
.. imm index coverage check SKIPPED: no rules defined
G_VECREDUCE_FMAX (opcode 252): 2 type indices, 0 imm indices
.. type index coverage check SKIPPED: no rules defined
.. imm index coverage check SKIPPED: no rules defined
G_VECREDUCE_FMIN (opcode 253): 2 type indices, 0 imm indices
.. type index coverage check SKIPPED: no rules defined
.. imm index coverage check SKIPPED: no rules defined
G_VECREDUCE_FMAXIMUM (opcode 254): 2 type indices, 0 imm indices
.. type index coverage check SKIPPED: no rules defined
.. imm index coverage check SKIPPED: no rules defined
G_VECREDUCE_FMINIMUM (opcode 255): 2 type indices, 0 imm indices
.. type index coverage check SKIPPED: no rules defined
.. imm index coverage check SKIPPED: no rules defined
G_VECREDUCE_ADD (opcode 256): 2 type indices, 0 imm indices
.. type index coverage check SKIPPED: no rules defined
.. imm index coverage check SKIPPED: no rules defined
G_VECREDUCE_MUL (opcode 257): 2 type indices, 0 imm indices
.. type index coverage check SKIPPED: no rules defined
.. imm index coverage check SKIPPED: no rules defined
G_VECREDUCE_AND (opcode 258): 2 type indices, 0 imm indices
.. type index coverage check SKIPPED: no rules defined
.. imm index coverage check SKIPPED: no rules defined
G_VECREDUCE_OR (opcode 259): 2 type indices, 0 imm indices
.. type index coverage check SKIPPED: no rules defined
.. imm index coverage check SKIPPED: no rules defined
G_VECREDUCE_XOR (opcode 260): 2 type indices, 0 imm indices
.. type index coverage check SKIPPED: no rules defined
.. imm index coverage check SKIPPED: no rules defined
G_VECREDUCE_SMAX (opcode 261): 2 type indices, 0 imm indices
.. type index coverage check SKIPPED: no rules defined
.. imm index coverage check SKIPPED: no rules defined
G_VECREDUCE_SMIN (opcode 262): 2 type indices, 0 imm indices
.. type index coverage check SKIPPED: no rules defined
.. imm index coverage check SKIPPED: no rules defined
G_VECREDUCE_UMAX (opcode 263): 2 type indices, 0 imm indices
.. type index coverage check SKIPPED: no rules defined
.. imm index coverage check SKIPPED: no rules defined
G_VECREDUCE_UMIN (opcode 264): 2 type indices, 0 imm indices
.. type index coverage check SKIPPED: no rules defined
.. imm index coverage check SKIPPED: no rules defined
G_SBFX (opcode 265): 2 type indices, 0 imm indices
.. type index coverage check SKIPPED: no rules defined
.. imm index coverage check SKIPPED: no rules defined
G_UBFX (opcode 266): 2 type indices, 0 imm indices
.. type index coverage check SKIPPED: no rules defined
.. imm index coverage check SKIPPED: no rules defined
CPU : generic
Target Triple : x86_64-unknown-unknown-eabi-elf
Target Feature string : 
Data Layout : e-m:e-p270:32:32-p271:32:32-p272:64:64-i64:64-i128:128-f80:128-n8:16:32:64-S128
Vector Width : 16
[dialect] repeated interface registration for dialect builtin[dialect] repeated interface registration for dialect builtin[dialect] repeated interface registration for dialect builtin[dialect] repeated interface registration for dialect builtin[dialect] repeated interface registration for dialect builtin[dialect] repeated interface registration for dialect builtin[dialect] repeated interface registration for dialect builtin[dialect] repeated interface registration for dialect builtin[dialect] repeated interface registration for dialect builtin[dialect] repeated interface registration for dialect builtin[dialect] repeated interface registration for dialect builtin[dialect] repeated interface registration for dialect builtin[dialect] repeated interface registration for dialect builtin[dialect] repeated interface registration for dialect builtin[dialect] repeated interface registration for dialect builtin[dialect] repeated interface registration for dialect builtin[dialect] repeated interface registration for dialect builtin[dialect] repeated interface registration for dialect builtinLoad new dialect in Context affine
ImplicitTypeIDRegistry::lookupOrInsert(mlir::affine::AffineDmaStartOp)
ImplicitTypeIDRegistry::lookupOrInsert(mlir::affine::AffineMapAccessInterface)
ImplicitTypeIDRegistry::lookupOrInsert(mlir::affine::AffineDmaWaitOp)
ImplicitTypeIDRegistry::lookupOrInsert(mlir::LoopLikeOpInterface)
ImplicitTypeIDRegistry::lookupOrInsert(mlir::affine::AffineReadOpInterface)
ImplicitTypeIDRegistry::lookupOrInsert(mlir::affine::AffineWriteOpInterface)
Load new dialect in Context arm_neon
Load new dialect in Context bufferization
Load new dialect in Context memref
ImplicitTypeIDRegistry::lookupOrInsert(mlir::CopyOpInterface)
ImplicitTypeIDRegistry::lookupOrInsert(mlir::PromotableMemOpInterface)
ImplicitTypeIDRegistry::lookupOrInsert(mlir::DestructurableAccessorOpInterface)
ImplicitTypeIDRegistry::lookupOrInsert(mlir::PromotableAllocationOpInterface)
ImplicitTypeIDRegistry::lookupOrInsert(mlir::DestructurableAllocationOpInterface)
ImplicitTypeIDRegistry::lookupOrInsert(mlir::ShapedDimOpInterface)
ImplicitTypeIDRegistry::lookupOrInsert(mlir::OffsetSizeAndStrideOpInterface)
Load new dialect in Context tensor
Load new dialect in Context complex
ImplicitTypeIDRegistry::lookupOrInsert(mlir::ReifyRankedShapedTypeOpInterface)
ImplicitTypeIDRegistry::lookupOrInsert(mlir::DestinationStyleOpInterface)
ImplicitTypeIDRegistry::lookupOrInsert(mlir::TilingInterface)
Load new dialect in Context linalg
Load new dialect in Context math
ImplicitTypeIDRegistry::lookupOrInsert(mlir::linalg::AggregatedOpInterface)
ImplicitTypeIDRegistry::lookupOrInsert(mlir::linalg::LinalgOp)
ImplicitTypeIDRegistry::lookupOrInsert(mlir::linalg::ContractionOpInterface)
ImplicitTypeIDRegistry::lookupOrInsert(mlir::linalg::ConvolutionOpInterface)
ImplicitTypeIDRegistry::lookupOrInsert(mlir::linalg::FillOpInterface)
ImplicitTypeIDRegistry::lookupOrInsert(mlir::iree_compiler::PartitionableLoopsInterface)
ImplicitTypeIDRegistry::lookupOrInsert(mlir::PartialReductionOpInterface)
Ignoring repeated interface registration
Ignoring repeated interface registration
ImplicitTypeIDRegistry::lookupOrInsert(mlir::SubsetInsertionOpInterface)
ImplicitTypeIDRegistry::lookupOrInsert(mlir::bufferization::AllocationOpInterface)
Load new dialect in Context chlo
ImplicitTypeIDRegistry::lookupOrInsert(mlir::InferShapedTypeOpInterface)
Load new dialect in Context flow
ImplicitTypeIDRegistry::lookupOrInsert(mlir::iree_compiler::IREE::Flow::DispatchTensorType)
ImplicitTypeIDRegistry::lookupOrInsert(mlir::iree_compiler::IREE::Flow::StreamableOpInterface)
ImplicitTypeIDRegistry::lookupOrInsert(mlir::iree_compiler::IREE::Util::ShapeAwareOpInterface)
ImplicitTypeIDRegistry::lookupOrInsert(mlir::iree_compiler::IREE::Util::ClosureOpInterface)
ImplicitTypeIDRegistry::lookupOrInsert(mlir::DialectFoldInterface)
Load new dialect in Context gpu
ImplicitTypeIDRegistry::lookupOrInsert(mlir::gpu::AsyncTokenType)
ImplicitTypeIDRegistry::lookupOrInsert(mlir::gpu::MMAMatrixType)
ImplicitTypeIDRegistry::lookupOrInsert(mlir::gpu::SparseHandleType<mlir::gpu::SparseHandleKind::DnTensor>)
ImplicitTypeIDRegistry::lookupOrInsert(mlir::gpu::SparseHandleType<mlir::gpu::SparseHandleKind::SpMat>)
ImplicitTypeIDRegistry::lookupOrInsert(mlir::gpu::SparseHandleType<mlir::gpu::SparseHandleKind::SpGEMMOp>)
ImplicitTypeIDRegistry::lookupOrInsert(mlir::gpu::AsyncOpInterface)
ImplicitTypeIDRegistry::lookupOrInsert(mlir::DataLayoutOpInterface)
ImplicitTypeIDRegistry::lookupOrInsert(mlir::DeviceMappingAttrInterface)
ImplicitTypeIDRegistry::lookupOrInsert(mlir::iree_compiler::ProcessorIDInterface)
ImplicitTypeIDRegistry::lookupOrInsert(mlir::iree_compiler::ProcessorCountInterface)
Load new dialect in Context hal
Load new dialect in Context scf
ImplicitTypeIDRegistry::lookupOrInsert(mlir::ParallelCombiningOpInterface)
ImplicitTypeIDRegistry::lookupOrInsert(mlir::iree_compiler::IREE::Stream::AffinityAttr)
ImplicitTypeIDRegistry::lookupOrInsert(mlir::iree_compiler::IREE::HAL::MatchAttrInterface)
ImplicitTypeIDRegistry::lookupOrInsert(mlir::iree_compiler::IREE::HAL::AllocatorType)
ImplicitTypeIDRegistry::lookupOrInsert(mlir::iree_compiler::IREE::HAL::BufferType)
ImplicitTypeIDRegistry::lookupOrInsert(mlir::iree_compiler::IREE::HAL::BufferViewType)
ImplicitTypeIDRegistry::lookupOrInsert(mlir::iree_compiler::IREE::HAL::ChannelType)
ImplicitTypeIDRegistry::lookupOrInsert(mlir::iree_compiler::IREE::HAL::CommandBufferType)
ImplicitTypeIDRegistry::lookupOrInsert(mlir::iree_compiler::IREE::HAL::DescriptorSetLayoutType)
ImplicitTypeIDRegistry::lookupOrInsert(mlir::iree_compiler::IREE::HAL::DeviceType)
ImplicitTypeIDRegistry::lookupOrInsert(mlir::iree_compiler::IREE::HAL::EventType)
ImplicitTypeIDRegistry::lookupOrInsert(mlir::iree_compiler::IREE::HAL::ExecutableType)
ImplicitTypeIDRegistry::lookupOrInsert(mlir::iree_compiler::IREE::HAL::FenceType)
ImplicitTypeIDRegistry::lookupOrInsert(mlir::iree_compiler::IREE::HAL::FileType)
ImplicitTypeIDRegistry::lookupOrInsert(mlir::iree_compiler::IREE::HAL::PipelineLayoutType)
ImplicitTypeIDRegistry::lookupOrInsert(mlir::iree_compiler::IREE::HAL::SemaphoreType)
ImplicitTypeIDRegistry::lookupOrInsert(mlir::iree_compiler::VMConversionDialectInterface)
ImplicitTypeIDRegistry::lookupOrInsert(mlir::iree_compiler::ProcessorTileSizeInterface)
Load new dialect in Context io_parameters
ImplicitTypeIDRegistry::lookupOrInsert(mlir::iree_compiler::HALConversionDialectInterface)
Load new dialect in Context iree_codegen
ImplicitTypeIDRegistry::lookupOrInsert(mlir::iree_compiler::IREE::Codegen::UKernelOpInterface)
Load new dialect in Context iree_input
ImplicitTypeIDRegistry::lookupOrInsert(mlir::iree_compiler::IREE::Input::TiedOpInterface)
Load new dialect in Context iree_linalg_ext
ImplicitTypeIDRegistry::lookupOrInsert(mlir::iree_compiler::IREE::LinalgExt::LinalgExtOp)
Load new dialect in Context llvm
ImplicitTypeIDRegistry::lookupOrInsert(mlir::LLVM::LLVMVoidType)
ImplicitTypeIDRegistry::lookupOrInsert(mlir::LLVM::LLVMPPCFP128Type)
ImplicitTypeIDRegistry::lookupOrInsert(mlir::LLVM::LLVMX86MMXType)
ImplicitTypeIDRegistry::lookupOrInsert(mlir::LLVM::LLVMTokenType)
ImplicitTypeIDRegistry::lookupOrInsert(mlir::LLVM::LLVMLabelType)
ImplicitTypeIDRegistry::lookupOrInsert(mlir::LLVM::LLVMMetadataType)
ImplicitTypeIDRegistry::lookupOrInsert(mlir::LLVM::LLVMStructType)
ImplicitTypeIDRegistry::lookupOrInsert(mlir::DataLayoutTypeInterface)
ImplicitTypeIDRegistry::lookupOrInsert(mlir::DestructurableTypeInterface)
ImplicitTypeIDRegistry::lookupOrInsert(mlir::PromotableOpInterface)
ImplicitTypeIDRegistry::lookupOrInsert(mlir::LLVM::GetResultPtrElementType)
ImplicitTypeIDRegistry::lookupOrInsert(mlir::LLVM::AccessGroupOpInterface)
ImplicitTypeIDRegistry::lookupOrInsert(mlir::LLVM::AliasAnalysisOpInterface)
ImplicitTypeIDRegistry::lookupOrInsert(mlir::LLVM::FastmathFlagsInterface)
ImplicitTypeIDRegistry::lookupOrInsert(mlir::LLVM::BranchWeightOpInterface)
ImplicitTypeIDRegistry::lookupOrInsert(mlir::SafeMemorySlotAccessOpInterface)
[dialect] repeated interface registration for dialect llvm[dialect] repeated interface registration for dialect llvm[dialect] repeated interface registration for dialect llvm[dialect] repeated interface registration for dialect llvm[dialect] repeated interface registration for dialect llvm[dialect] repeated interface registration for dialect llvm[dialect] repeated interface registration for dialect llvm[dialect] repeated interface registration for dialect llvm[dialect] repeated interface registration for dialect llvm[dialect] repeated interface registration for dialect llvm[dialect] repeated interface registration for dialect llvm[dialect] repeated interface registration for dialect llvm[dialect] repeated interface registration for dialect llvm[dialect] repeated interface registration for dialect llvm[dialect] repeated interface registration for dialect llvm[dialect] repeated interface registration for dialect llvm[dialect] repeated interface registration for dialect llvm[dialect] repeated interface registration for dialect llvmLoad new dialect in Context ml_program
Load new dialect in Context nvgpu
Load new dialect in Context nvvm
ImplicitTypeIDRegistry::lookupOrInsert(mlir::NVVM::BasicPtxBuilderInterface)
ImplicitTypeIDRegistry::lookupOrInsert(mlir::ConvertToLLVMPatternInterface)
ImplicitTypeIDRegistry::lookupOrInsert(mlir::gpu::TargetAttrInterface)
[dialect] repeated interface registration for dialect nvvm[dialect] repeated interface registration for dialect nvvm[dialect] repeated interface registration for dialect nvvm[dialect] repeated interface registration for dialect nvvm[dialect] repeated interface registration for dialect nvvmLoad new dialect in Context pdl
Load new dialect in Context pdl_interp
Load new dialect in Context rocdl
[dialect] repeated interface registration for dialect rocdl[dialect] repeated interface registration for dialect rocdl[dialect] repeated interface registration for dialect rocdl[dialect] repeated interface registration for dialect rocdl[dialect] repeated interface registration for dialect rocdlLoad new dialect in Context shape
Load new dialect in Context spirv
ImplicitTypeIDRegistry::lookupOrInsert(mlir::spirv::InterfaceVarABIAttr)
ImplicitTypeIDRegistry::lookupOrInsert(mlir::spirv::TargetEnvAttr)
ImplicitTypeIDRegistry::lookupOrInsert(mlir::spirv::VerCapExtAttr)
ImplicitTypeIDRegistry::lookupOrInsert(mlir::spirv::ArrayType)
ImplicitTypeIDRegistry::lookupOrInsert(mlir::spirv::CooperativeMatrixType)
ImplicitTypeIDRegistry::lookupOrInsert(mlir::spirv::CooperativeMatrixNVType)
ImplicitTypeIDRegistry::lookupOrInsert(mlir::spirv::ImageType)
ImplicitTypeIDRegistry::lookupOrInsert(mlir::spirv::JointMatrixINTELType)
ImplicitTypeIDRegistry::lookupOrInsert(mlir::spirv::MatrixType)
ImplicitTypeIDRegistry::lookupOrInsert(mlir::spirv::PointerType)
ImplicitTypeIDRegistry::lookupOrInsert(mlir::spirv::RuntimeArrayType)
ImplicitTypeIDRegistry::lookupOrInsert(mlir::spirv::SampledImageType)
ImplicitTypeIDRegistry::lookupOrInsert(mlir::spirv::StructType)
ImplicitTypeIDRegistry::lookupOrInsert(mlir::spirv::QueryMinVersionInterface)
ImplicitTypeIDRegistry::lookupOrInsert(mlir::spirv::QueryMaxVersionInterface)
ImplicitTypeIDRegistry::lookupOrInsert(mlir::spirv::QueryExtensionInterface)
ImplicitTypeIDRegistry::lookupOrInsert(mlir::spirv::QueryCapabilityInterface)
Load new dialect in Context stablehlo
ImplicitTypeIDRegistry::lookupOrInsert(mlir::hlo::HloDialectInterface)
ImplicitTypeIDRegistry::lookupOrInsert(mlir::stablehlo::TokenType)
ImplicitTypeIDRegistry::lookupOrInsert(mlir::VerifiableTensorEncoding)
ImplicitTypeIDRegistry::lookupOrInsert(mlir::hlo::BoundedAttrInterface)
Load new dialect in Context stream
ImplicitTypeIDRegistry::lookupOrInsert(mlir::iree_compiler::IREE::Stream::AffinityOpInterface)
ImplicitTypeIDRegistry::lookupOrInsert(mlir::iree_compiler::IREE::Stream::StreamableOpInterface)
ImplicitTypeIDRegistry::lookupOrInsert(mlir::iree_compiler::IREE::Stream::AsyncAccessOpInterface)
ImplicitTypeIDRegistry::lookupOrInsert(mlir::iree_compiler::IREE::Stream::TimelineOpInterface)
ImplicitTypeIDRegistry::lookupOrInsert(mlir::iree_compiler::IREE::Stream::SubviewEffectOpInterface)
Load new dialect in Context tm_tensor
ImplicitTypeIDRegistry::lookupOrInsert(mlir::torch::TMTensor::TMTensorOp)
ImplicitTypeIDRegistry::lookupOrInsert(mlir::torch::TMTensor::ScalarLoopOpInterface)
Load new dialect in Context tosa
Load new dialect in Context quant
ImplicitTypeIDRegistry::lookupOrInsert(mlir::quant::AnyQuantizedType)
ImplicitTypeIDRegistry::lookupOrInsert(mlir::quant::CalibratedQuantizedType)
ImplicitTypeIDRegistry::lookupOrInsert(mlir::quant::UniformQuantizedType)
ImplicitTypeIDRegistry::lookupOrInsert(mlir::quant::UniformQuantizedPerAxisType)
ImplicitTypeIDRegistry::lookupOrInsert(mlir::tosa::TosaOp)
Load new dialect in Context transform
ImplicitTypeIDRegistry::lookupOrInsert(mlir::transform::TransformOpInterface)
ImplicitTypeIDRegistry::lookupOrInsert(mlir::transform::PatternDescriptorOpInterface)
ImplicitTypeIDRegistry::lookupOrInsert(mlir::transform::ConversionPatternDescriptorOpInterface)
ImplicitTypeIDRegistry::lookupOrInsert(mlir::transform::TypeConverterBuilderOpInterface)
ImplicitTypeIDRegistry::lookupOrInsert(mlir::transform::MatchOpInterface)
ImplicitTypeIDRegistry::lookupOrInsert(mlir::transform::TransformParamTypeInterface)
ImplicitTypeIDRegistry::lookupOrInsert(mlir::transform::TransformHandleTypeInterface)
ImplicitTypeIDRegistry::lookupOrInsert(mlir::transform::TransformValueHandleTypeInterface)
Load new dialect in Context async
Load new dialect in Context vector
ImplicitTypeIDRegistry::lookupOrInsert(mlir::vector::MaskableOpInterface)
ImplicitTypeIDRegistry::lookupOrInsert(mlir::vector::MaskingOpInterface)
ImplicitTypeIDRegistry::lookupOrInsert(mlir::VectorTransferOpInterface)
Load new dialect in Context index
Load new dialect in Context vk
ImplicitTypeIDRegistry::lookupOrInsert(mlir::iree_compiler::IREE::Vulkan::TargetEnvAttr)
Load new dialect in Context vm
ImplicitTypeIDRegistry::lookupOrInsert(mlir::iree_compiler::IREE::VM::BufferType)
ImplicitTypeIDRegistry::lookupOrInsert(mlir::iree_compiler::IREE::VM::ListType)
ImplicitTypeIDRegistry::lookupOrInsert(mlir::iree_compiler::IREE::VM::OpaqueType)
ImplicitTypeIDRegistry::lookupOrInsert(mlir::iree_compiler::IREE::VM::RefType)
ImplicitTypeIDRegistry::lookupOrInsert(mlir::iree_compiler::IREE::VM::VMSerializableOp)
ImplicitTypeIDRegistry::lookupOrInsert(mlir::iree_compiler::IREE::VM::VMOp)
Load new dialect in Context vmvx
ImplicitTypeIDRegistry::lookupOrInsert(mlir::detail::PreservedAnalyses::AllAnalysesType)
// -----// IR Dump After mlir::iree_compiler::IREE::HAL::AssignTargetDevicesPass (iree-hal-assign-target-devices) //----- //
mlir-asm-printer: Verifying operation: builtin.module
#executable_target_cuda_nvptx_fb = ImplicitTypeIDRegistry::lookupOrInsert(mlir::detail::StorageUserTrait::IsMutable<Empty>)
#hal.executable.target<"cuda", "cuda-nvptx-fb", {target_arch = "sm_75"}>
#device_target_cuda = #hal.device.target<"cuda", {executable_targets = [#executable_target_cuda_nvptx_fb], legacy_sync}>
module @LinearModule attributes {hal.device.targets = [#device_target_cuda]} {
  util.global private @_params.weight {noinline} = dense<[[1.54099607, -0.293428898, -2.17878938], [0.568431258, -1.08452237, -1.39859545], [0.403346837, 0.838026344, -0.719257593], [-0.403343529, -0.596635341, 0.182036489]]> : tensor<4x3xf32>
  util.global private @_params.bias {noinline} = dense<[-0.856674611, 1.10060418, -1.07118738]> : tensor<3xf32>
  func.func @main(%arg0: tensor<4xf32>) -> tensor<3xf32> attributes {torch.args_schema = "[1, {\22type\22: \22builtins.tuple\22, \22context\22: \22null\22, \22children_spec\22: [{\22type\22: \22builtins.list\22, \22context\22: \22null\22, \22children_spec\22: [{\22type\22: null, \22context\22: null, \22children_spec\22: []}]}, {\22type\22: \22builtins.dict\22, \22context\22: \22[]\22, \22children_spec\22: []}]}]", torch.return_schema = "[1, {\22type\22: null, \22context\22: null, \22children_spec\22: []}]"} {
    %0 = torch_c.from_builtin_tensor %arg0 : tensor<4xf32> -> !torch.vtensor<[4],f32>
    %1 = call @forward(%0) : (!torch.vtensor<[4],f32>) -> !torch.vtensor<[3],f32>
    %2 = torch_c.to_builtin_tensor %1 : !torch.vtensor<[3],f32> -> tensor<3xf32>
    return %2 : tensor<3xf32>
  }
  func.func private @forward(%arg0: !torch.vtensor<[4],f32>) -> !torch.vtensor<[3],f32> {
    %int0 = torch.constant.int 0
    %0 = torch.aten.unsqueeze %arg0, %int0 : !torch.vtensor<[4],f32>, !torch.int -> !torch.vtensor<[1,4],f32>
    %_params.weight = util.global.load @_params.weight : tensor<4x3xf32>
    %1 = torch_c.from_builtin_tensor %_params.weight : tensor<4x3xf32> -> !torch.vtensor<[4,3],f32>
    %2 = torch.aten.mm %0, %1 : !torch.vtensor<[1,4],f32>, !torch.vtensor<[4,3],f32> -> !torch.vtensor<[1,3],f32>
    %int0_0 = torch.constant.int 0
    %3 = torch.aten.squeeze.dim %2, %int0_0 : !torch.vtensor<[1,3],f32>, !torch.int -> !torch.vtensor<[3],f32>
    %_params.bias = util.global.load @_params.bias : tensor<3xf32>
    %4 = torch_c.from_builtin_tensor %_params.bias : tensor<3xf32> -> !torch.vtensor<[3],f32>
    %int1 = torch.constant.int 1
    %5 = torch.aten.add.Tensor %3, %4, %int1 : !torch.vtensor<[3],f32>, !torch.vtensor<[3],f32>, !torch.int -> !torch.vtensor<[3],f32>
    return %5 : !torch.vtensor<[3],f32>
  }
}


// -----// IR Dump After SetStrictSymbolicShapesPass (torch-iree-set-strict-symbolic-shapes) //----- //
mlir-asm-printer: Verifying operation: func.func
func.func @main(%arg0: tensor<4xf32>) -> tensor<3xf32> attributes {torch.args_schema = "[1, {\22type\22: \22builtins.tuple\22, \22context\22: \22null\22, \22children_spec\22: [{\22type\22: \22builtins.list\22, \22context\22: \22null\22, \22children_spec\22: [{\22type\22: null, \22context\22: null, \22children_spec\22: []}]}, {\22type\22: \22builtins.dict\22, \22context\22: \22[]\22, \22children_spec\22: []}]}]", torch.assume_strict_symbolic_shapes, torch.return_schema = "[1, {\22type\22: null, \22context\22: null, \22children_spec\22: []}]"} {
  %0 = torch_c.from_builtin_tensor %arg0 : tensor<4xf32> -> !torch.vtensor<[4],f32>
  %1 = call @forward(%0) : (!torch.vtensor<[4],f32>) -> !torch.vtensor<[3],f32>
  %2 = torch_c.to_builtin_tensor %1 : !torch.vtensor<[3],f32> -> tensor<3xf32>
  return %2 : tensor<3xf32>
}

// -----// IR Dump After SetStrictSymbolicShapesPass (torch-iree-set-strict-symbolic-shapes) //----- //
mlir-asm-printer: Verifying operation: func.func
func.func private @forward(%arg0: !torch.vtensor<[4],f32>) -> !torch.vtensor<[3],f32> attributes {torch.assume_strict_symbolic_shapes} {
  %int0 = torch.constant.int 0
  %0 = torch.aten.unsqueeze %arg0, %int0 : !torch.vtensor<[4],f32>, !torch.int -> !torch.vtensor<[1,4],f32>
  %_params.weight = util.global.load @_params.weight : tensor<4x3xf32>
  %1 = torch_c.from_builtin_tensor %_params.weight : tensor<4x3xf32> -> !torch.vtensor<[4,3],f32>
  %2 = torch.aten.mm %0, %1 : !torch.vtensor<[1,4],f32>, !torch.vtensor<[4,3],f32> -> !torch.vtensor<[1,3],f32>
  %int0_0 = torch.constant.int 0
  %3 = torch.aten.squeeze.dim %2, %int0_0 : !torch.vtensor<[1,3],f32>, !torch.int -> !torch.vtensor<[3],f32>
  %_params.bias = util.global.load @_params.bias :
 //===-------------------------------------------===//
Processing operation : 'tensor<torch_c.from_builtin_tensor3'(x0x56223b0d2950f32) {
>  
  %4 = torch_c.from_builtin_tensor %_params.bias : tensor<3xf32> -> !torch.vtensor<[3],f32>
  %int1 = torch.constant.int 1%0 = "tor
c  h%_5c = .ftorch.aten.add.Tensorr o%m3_, b%u4i, l%tint1i : n_tensor"!(torch%.arg0vtensor<[3],f32>),  : (tensor<!4torchx.f32vtensor<[3],f32>>, ) -> !torch.int -> !torch.!vtensor<[4],f32>torch.vtensor<[3],f32>
  

return %5 : } -> failure : !pattern failed to matchtorch
.//===-------------------------------------------===//
vtensor<[3],f32>

//===-------------------------------------------===//
}Processing operation : 'func.call'(0x56223b0d3470) {
  

%1 = "func.call"(%0) <{callee = @forward}> : (!torch.vtensor<[4],f32>) -> !torch.vtensor<[3],f32>

} -> failure : pattern failed to match
//===-------------------------------------------===//

//===-------------------------------------------===//
Processing operation : 'torch_c.to_builtin_tensor'(0x56223b0d3540) {
  %2 = "torch_c.to_builtin_tensor"(%1) : (!torch.vtensor<[3],f32>) -> tensor<3xf32>

} -> failure : pattern failed to match
//===-------------------------------------------===//

//===-------------------------------------------===//
Processing operation : 'func.return'(0x56223b0d3620) {
  "func.return"(%2) : (tensor<3xf32>) -> ()

} -> failure : pattern failed to match
//===-------------------------------------------===//
ImplicitTypeIDRegistry::lookupOrInsert(mlir::OpTrait::HasRecursiveMemoryEffects<Empty>)
// -----// IR Dump After Canonicalizer (canonicalize) //----- //
mlir-asm-printer: Verifying operation: func.func
** Replace : 'torch.constant.int'(0x56223b0be280)
** Modified: 'torch.aten.squeeze.dim'(0x56223b0be7c0)
** Erase   : 'torch.constant.int'(0x56223b0be280func.func)
 @main(%arg0: tensor<4xf32>) -> 
tensor<//===-------------------------------------------===//
3Processing operation : 'xtorch.constant.intf32'(>0x56223b0d2180) {
   attributes {torch.args_schema = "[1, {\22type\22: \22builtins.%t1u = p"lteo\r2c2h,. c\o2n2sctoanntte.xitn\t2"2(:) \22nul <l{\value2 = 2, \022 : chiil64d}r>e : n(_) -> spec\!2torch2.:int [{\22

typ} -> efailure\ : 2pattern failed to match2
://===-------------------------------------------===//
 
\//===-------------------------------------------===//
2Processing operation : '2torch.aten.unsqueezeb'(u0x56223b0bd670i) {
l  tins.list\22, \22context\22: \22null\22, \22ch%i2l = d"rteonr_cshp.eact\e2n2.:u n[s{q\u2e2etzyep"e(\%2arg02, :% 1n)u : l(l, \22conte!xtorcht.\vtensor<[4],f32>2, 2: n!utorchl.lint,) ->  \22chi!ltorchd.rvtensor<[1,4],f32>en_sp

ec\22: []}]}} -> ,failure  : {pattern failed to match\
2//===-------------------------------------------===//
2
t//===-------------------------------------------===//
yProcessing operation : 'putil.global.loade'(\0x56223b0bdb302) {
2  : \22builtins.dict\22, \22context\22: \22[]\2%23, =  "\u2t2iclh.iglldorbeanl_.slpoeacd\"2(2): []}]} <]{"global = , @torch.assume_strict_symbolic_shapes_params.weight, }torch.return_schema> =  : "([) -> 1, tensor<{4\x232xtf32y>pe\22: 

null, } -> \failure2 : 2pattern failed to matchc
o//===-------------------------------------------===//
n
t//===-------------------------------------------===//
eProcessing operation : 'xtorch_c.from_builtin_tensort'(\0x56223b0bdb902) {
2  : null, \22children_spec\22: []}]"} {
  %0 = torch_c.from_builtin_tensor %arg0 : %tensor<44 = x"f32t>o r->c h_c.fro!mtorch_.bvtensor<[4],f32>u
i  l%t1i = ncall_ te@nforwards(o%r0")(%3) :  (: (tensor<4x3x!f32torch>.) -> vtensor<[4],f32>) -> !!torchtorch..vtensor<[3],f32>vtensor<[4,3],f32>
  %2 = 

torch_c.to_builtin_tensor %1 :} ->  failure : pattern failed to match
//===-------------------------------------------===//
!
torch//===-------------------------------------------===//
.Processing operation : 'vtensor<[3],f32>torch.aten.mm '(->0x56223b0be170 ) {
  tensor<3xf32>
  return %2 : tensor<3xf32>
}

%5 = "torch.aten.mm"(%2, %4
)//===-------------------------------------------===//
 : Processing operation : '(func.return'(0x56223b0d3620) {
  !torch.vtensor<[1,4],f32>, !torch.vtensor<[4,3],f32>) -> !torch."vtensor<[1,3],f32>func.r

eturn"(%2)} ->  : failure( : pattern failed to matchtensor<
3//===-------------------------------------------===//
x
f32//===-------------------------------------------===//
>Processing operation : ') -> torch.aten.squeeze.dim('()0x56223b0be7c0) {
  

} -> failure : pattern failed to match
//===-------------------------------------------===//

//===-------------------------------------------===//
Processing operation : 'torch_c.to_builtin_tensor'(0x56223b0d3540) {
  %6 = "to%r2c = h".taotrecnh._scq.uteoe_zbeu.idlitmi"n(_%t5e, n%s1o)r : "((%1) : (!torch.!vtensor<[1,3],f32>torch, .vtensor<[3],f32>) -> !tensor<torch3.xintf32) -> >

!torch} -> .failurevtensor<[3],f32> : pattern failed to match
//===-------------------------------------------===//



//===-------------------------------------------===//
Processing operation : 'func.call'(0x56223b0d3470) {
  } -> failure : pattern failed to match
//===-------------------------------------------===//

//===-------------------------------------------===//
Processing operation : 'util.global.load'(0x56223b0bed00) {
  %1 = "func.call"(%0) <{callee = @forward}> : (%7! = torch".uvtensor<[4],f32>t) -> il.gl!otorchb.avtensor<[3],f32>l.lo

ad"()} -> failure : pattern failed to match
//===-------------------------------------------===//

 <//===-------------------------------------------===//
{Processing operation : 'globaltorch_c.from_builtin_tensor = '(0x56223b0d2950@) {
_params.bias  }> : () -> tensor<3xf32>

} -> failure : pattern failed to match
//===-------------------------------------------===//
%
0//===-------------------------------------------===//
 = Processing operation : '"torch_c.from_builtin_tensort'(o0x56223b0beda0r) {
c  h_c.from_builtin_tensor"(%arg0) : (tensor<4xf32>) -> !torch.vtensor<[4],f32>%8

 = "t} -> ofailurer : cpattern failed to matchh
_//===-------------------------------------------===//
c.from_builtin_tensor"(%7) : (tensor<3xf32>) -> !torch.vtensor<[3],f32>

} -> failure : pattern failed to match
//===-------------------------------------------===//

//===-------------------------------------------===//
Processing operation : 'torch.constant.int'(0x56223b0bef00) {
  // -----// IR Dump After BitCastQuantTensorPass (torch-iree-bitcast-quant-tensor) //----- //
mlir-asm-printer: Verifying operation: func.func
%0 = "torch.constant.int"() <{value = 1 : i64}> : () -> func.func !@torchmain.(int%arg0: 

tensor<4} -> xfailuref32 : >pattern failed to match)
 -> //===-------------------------------------------===//
tensor<
3//===-------------------------------------------===//
xProcessing operation : 'f32torch.aten.add.Tensor>'(0x56223b0ece80) {
   attributes {torch.args_schema = "[1, {\22type\22: \22builtins.tuple\22,% 9\ = 2"2tcoorncthe.xatt\e2n2.:a d\d2.2Tneunlslo\r2"2(,% 6\, 2%28c, h%i0l)d : r(en_spec\22: ![torch{.\vtensor<[3],f32>2, 2type\22!:torch .\vtensor<[3],f32>2, 2bui!ltorcht.iintn) -> s.list\22!,torch .\vtensor<[3],f32>22cont

ext\22: \22null\2
2  ,* Pattern   : '\torch.aten.add.Tensor2 -> (2)' {
chiTrying to match "l"
dren_spec\22: [  {  \** Failure : 22tonly int scalar lhs or rhs is supportedy
pe\2"2" result :0 
n  u} -> lfailurel : ,pattern failed to match 
\} -> 2failure2 : cpattern failed to matcho
n//===-------------------------------------------===//
t
e//===-------------------------------------------===//
xProcessing operation : 'tfunc.return\'(20x56223b0d37302) {
:   null, \22children_spec\22: []}]}, {\22type\22: \22builtins."dfiucntc\.2r2e,t u\r2n2"c(o%n9t)e : x(t\22: \22[]\2!2torch,. vtensor<[3],f32>\) -> 2(2)childre

n_spec\22:} ->  failure[ : ]pattern failed to match}
]//===-------------------------------------------===//
}]", torch.assume_strict_symbolic_shapes, torch.return_schema = "[1, {\22type\22: null, \22context\22: null, \22children_spec\22: []}]"} {
  %0 = torch_c.from_builtin_tensor %arg0 : tensor<4xf32> -> !torch.vtensor<[4],f32>
  %1 = call @forward(%0) : (!torch.vtensor<[4],f32>) -> !torch.vtensor<[3],f32>
  %2 = torch_c.to_builtin_tensor %1 : !torch.vtensor<[3],f32> -> tensor<3xf32>
  return %2 : tensor<3xf32>
}

// -----// IR Dump After Canonicalizer (canonicalize) //----- //
mlir-asm-printer: Verifying operation: func.func

//===-------------------------------------------===//
Legalizing operation : 'func.func'(0x56223b0d36a0) {
} -> SUCCESS : operation marked legal by the target
//===-------------------------------------------===//

//===-------------------------------------------===//
Legalizing operation : 'torch_c.from_builtin_tensor'(0x56223b0d2950) {
  %0 = "torch_c.from_builtin_tensor"(%arg0) : (tensor<4xf32>) -> !torch.func.funcvtensor<[4],f32> private

 } -> SUCCESS@ : forwardoperation marked legal by the target(
%//===-------------------------------------------===//
arg0
: //===-------------------------------------------===//
Legalizing operation : 'func.call'(0x56223b0d3470) {
  !torch.vtensor<[4],f32>) -> !torch.vtensor<[3],f32>%1 = "func.cal attributesl {"torch.assume_strict_symbolic_shapes(}% 0{)
   <%{int1callee =  = @torch.constant.intforward }1> : (
  !%torchint0. = vtensor<[4],f32>torch.constant.int) ->  0!torch.vtensor<[3],f32>
  %

0 = } -> SUCCESS : torch.aten.unsqueeze operation marked legal by the target%
arg0//===-------------------------------------------===//
, 
%//===-------------------------------------------===//
int0Legalizing operation : ' : torch_c.to_builtin_tensor'(0x56223b0d3540) {
  !torch.vtensor<[4],f32>, !torch.int -> !torch.vtensor<[1,4],f32>
%  2% = _params.weight" = toutil.global.loadr ch_@c_params.weight.to_builti n:_ tentensor<s4oxr3"x(f32%>1
)   : %(1 = torch_c.from_builtin_tensor !%torch_params.weight. vtensor<[3],f32>:) ->  tensor<3tensor<x4f32x>3xf32

>} -> SUCCESS  : -> operation marked legal by the target
//===-------------------------------------------===//

//===-------------------------------------------===//
Legalizing operation : 'func.return'(0x56223b0d3620!) {
torch  .vtensor<[4,3],f32>
  %2 = torch.aten.mm %0, %1 : !torch".fvtensor<[1,4],f32>u, nc.retur!ntorch".(vtensor<[4,3],f32>% -> 2) : (tensor<!3torchx.f32vtensor<[1,3],f32>>
) ->   (%)3 = 

torch.aten.squeeze.dim} -> SUCCESS  : %2operation marked legal by the target, 
%//===-------------------------------------------===//
int0 : !torch.vtensor<[1,3],f32>, !torch.int -> !torch.vtensor<[3],f32>
  %_params.bias = util.global.load @_params.bias : tensor<3xf32>
  %4 = torch_c.from_builtin_tensor %_params.bias : tensor<3xf32> -> !torch.vtensor<[3],f32>
  %5 = torch.aten.add.Tensor %3, %4, %int1 : !torch.vtensor<[3],f32>, !torch.vtensor<[3],f32>, !torch.int -> !torch.vtensor<[3],f32>
  return %5 : !torch.vtensor<[3],f32>
}

// -----// IR Dump After ConvertCustomQuantOp (torch-convert-custom-quant-op) //----- //
mlir-asm-printer: Verifying operation: func.func

//===-------------------------------------------===//
Processing operation : 'func.return'(0x56223b0d3730) {
  "ffunc.funcun c@.mainr(e%targ0u: rn"tensor<(4%x9f32)> : )( -> tensor<3xf32>!torch.vtensor<[3],f32>) -> () attributes {

torch.args_schema = "[1, {\} -> 2failure2 : tpattern failed to matchy
p//===-------------------------------------------===//
e
\//===-------------------------------------------===//
2Processing operation : '2torch.aten.add.Tensor:'( 0x56223b0ece80\) {
2  2builtins.tuple\22, \22context\22: \22null\22, \22children_s%p9e = c"\t2o2r:c h[.{a\t2e2nt.yapded\.2T2e:n s\o2r2"b(u%i6l, t%i8n, s%.0l)i : s(t\22, \22cont!etorchx.tvtensor<[3],f32>\, 22: \22nu!ltorchl.\vtensor<[3],f32>2, 2, \!2torch2.cinth) -> ildren_s!ptorche.cvtensor<[3],f32>\22: [{

\22type\22: n} -> ufailurel : lpattern failed to match,
 //===-------------------------------------------===//
\
2//===-------------------------------------------===//
2Processing operation : 'ctorch_c.from_builtin_tensoro'(n0x56223b0beda0t) {
e  xt\22: null, \22children_spec\22: []}]}, {\22type\22: %\82 = 2"btuoirlcthi_ncs..fdriocmt_\b2u2i,l t\i2n2_ctoenntseoxrt"\(2%27:)  : \(22[tensor<]3\x2f322>,) ->  \22childr!etorchn._vtensor<[3],f32>spec\2

2: []}]} -> }failure] : "pattern failed to match
, //===-------------------------------------------===//
torch.assume_strict_symbolic_shapes
, //===-------------------------------------------===//
torch.return_schemaProcessing operation : ' = util.global.load"'([0x56223b0bed001) {
,   {\22type\22: null, \22context\22: null, \22children_s%p7e = c"\u2t2i:l .[g]l}o]b"a}l .{l
oad  "%(0) = torch_c.from_builtin_tensor %arg0 < {:global  = tensor<@4_params.biasx}f32>> :  (->) ->  tensor<3xf32>!torch.vtensor<[4],f32>


  %1} ->  = failurecall :  pattern failed to match@
forward//===-------------------------------------------===//
(
%//===-------------------------------------------===//
0Processing operation : ')torch.aten.squeeze.dim'(0x56223b0be7c0) {
   : (!torch.vtensor<[4],f32>) -> !torch.vtensor<[3],f32>
  %2 = torch_c.to_builtin_tensor %1 : %6 = "!ttorcho.rvtensor<[3],f32>c h->. attensor<e3nx.f32s>q
u  eereturnz e%.2d i:m "tensor<(3%x5f32, >%
1}) : (

!torch.vtensor<[1,3],f32>, !torch.int) -> !torch.vtensor<[3],f32>

} -> failure : pattern failed to match
//===-------------------------------------------===//

//===-------------------------------------------===//
Processing operation : 'torch.aten.mm'(0x56223b0be170) {
  %5 = "torch.aten.mm"(%2, %4) : (!torch.vtensor<[1,4],f32>, !torch.vtensor<[4,3],f32>) -> !torch.vtensor<[1,3],f32>

} -> failure : pattern failed to match
//===-------------------------------------------===//

//===-------------------------------------------===//
Processing operation : 'torch_c.from_builtin_tensor'(0x56223b0bdb90) {
  %4 = "torch_c.from_builtin_tensor"(%3) : (tensor<4x3xf32>) -> !torch.vtensor<[4,3],f32>

} -> failure : pattern failed to match
//===-------------------------------------------===//

//===-------------------------------------------===//
Processing operation : 'util.global.load'(0x56223b0bdb30) {
  %3 = "util.glob
a//===-------------------------------------------===//
lProcessing operation : '.torch_c.from_builtin_tensorl'(o0x56223b0d2950a) {
d  "() <{global = @_params.weight}> : () -> tensor<4x3xf32>%0 = "

torch} -> _failurec : .pattern failed to matchf
r//===-------------------------------------------===//
o
m//===-------------------------------------------===//
_Processing operation : 'btorch.aten.unsqueezeu'(i0x56223b0bd670l) {
t  in_tensor"(%arg0) : (tensor<4xf32>) -> !torch.vtensor<[4],f32>

%2 = } -> "failuret : opattern failed to matchr
c//===-------------------------------------------===//
h
.//===-------------------------------------------===//
aProcessing operation : 'tfunc.calle'(n0x56223b0d3470.) {
u  nsqueeze"(%arg0, %1) : (!torch.vtensor<[4],f32>%, 1 = "!ftorchu.nintc) -> .call"(!%torch0.)vtensor<[1,4],f32>

 <{callee = @forward} -> }failure> :  : pattern failed to match(
//===-------------------------------------------===//

//===-------------------------------------------===//
Processing operation : 'torch.constant.int'(!0x56223b0d2180torch) {
.  vtensor<[4],f32>) -> !torch.vtensor<[3],f32>

} -> failure : pattern failed to match
//===-------------------------------------------===//

//===-------------------------------------------===//
Processing operation : 'torch_c.to_builtin_tensor'(0x56223b0d3540) {
  %1 = "torch.constant.int"()% <2{ = value" = tor0ch : _ci.64t}o>_ : b(u) -> iltin!_torcht.eintnsor"(

%1} -> )failure :  : (pattern failed to match
//===-------------------------------------------===//

//===-------------------------------------------===//
Processing operation : '!torch.constant.inttorch'(.0x56223b0bef00vtensor<[3],f32>) {
) ->   tensor<3xf32>

} -> failure : pattern failed to match
//===-------------------------------------------===//

//===-------------------------------------------===//
Processing operation : 'func.return'(0x56223b0d3620) {
  %0 = "torch.constant.i"nftu"n(c).return <"{(value% = 2)1 : ( : tensor<i364x}f32>> : ) -> (() -> )!

torch.int} -> failure : 

pattern failed to match
} -> //===-------------------------------------------===//
failure : pattern failed to match
//===-------------------------------------------===//
// -----// IR Dump After DecomposeComplexOps (torch-decompose-complex-ops) //----- //
mlir-asm-printer: Verifying operation: func.func
func.func @main(%arg0: tensor<4xf32>) -> tensor<3xf32> attributes {torch.args_schema = "[1, {\22type\22: \22builtins.tuple\22, \22context\22: \22null\22, \22children_spec\22: [{\22type\22: \22builtins.list\22, \22context\22: \22null\22, \22children_spec\22: [{\22type\22: null, \22context\22: null, \22children_spec\22: []}]}, {\22type\22: \22builtins.dict\22, \22context\22: \22[]\22, \22children_spec\22: []}]}]", torch.assume_strict_symbolic_shapes, torch.return_schema = "[1, {\22type\22: null, \22context\22: null, \22children_spec\22: []}]"} {
  %0 = torch_c.from_builtin_tensor %arg0 : tensor<4xf32> -> !torch.vtensor<[4],f32>
  %1 = call @forward(%0) : (!torch.vtensor<[4],f32>) -> !torch.vtensor<[3],f32>
  %2 = torch_c.to_builtin_tensor %1 : !torch.vtensor<[3],f32> -> tensor<3xf32>
  return %2 : tensor<3xf32>
}

// -----// IR Dump After BitCastQuantTensorPass (torch-iree-bitcast-quant-tensor) //----- //
mlir-asm-printer: Verifying operation: func.func

//===-------------------------------------------===//
Legalizing operation : 'func.func'(0x56223b0d36a0) {
} -> SUCCESS : operation marked legal by the target
//===-------------------------------------------===//

//===-------------------------------------------===//
Legalizing operation : 'torch_c.from_builtin_tensor'(0x56223b0d2950) {
  %0 = "torch_c.from_builtin_tensor"(%arg0) : (tensor<4xf32>) -> !torch.vtensor<[4],f32>

} -> SUCCESS : operation marked legal by the target
//===-------------------------------------------===//

//===-------------------------------------------===//
Legalizing operation : 'func.call'(0x56223b0d3470) {
  func.func private @forward(%arg0: %1! = torch".fvtensor<[4],f32>u)n -> c.call"(%!0torch).vtensor<[3],f32> <{callee = @forward}> : ( attributes {torch.assume_strict_symbolic_shapes!}torch .{vtensor<[4],f32>
) ->   %!int1torch = .vtensor<[3],f32>torch.constant.int 1

} -> SUCCESS : operation marked legal by the target

  //===-------------------------------------------===//
%
int0//===-------------------------------------------===//
 = Legalizing operation : 'torch_c.to_builtin_tensortorch.constant.int'( 0x56223b0d35400) {
  
  %0 = torch.aten.unsqueeze %arg0, %int0 : !torch%.2vtensor<[4],f32> = , "tor!ctorchh._intc -> .to_built!itorchn._vtensor<[1,4],f32>t
e  n%s_params.weighto = r"util.global.load( %1@)_params.weight : ( !:torch .vtensor<[3],f32>) -> tensor<tensor<43xx3f32x>f32>


  } -> SUCCESS% : 1 = operation marked legal by the target
torch_c.from_builtin_tensor//===-------------------------------------------===//
 
%//===-------------------------------------------===//
_params.weightLegalizing operation : ' func.return:'( 0x56223b0d3620) {
tensor<  4x3xf32> -> !torch.vtensor<[4,3],f32>
  %2 = torch.aten.mm" f%u0n, c%.1r : eturn"(%!2torch). : vtensor<[1,4],f32>(, tensor<3xf32>!) -> torch(.)vtensor<[4,3],f32> -> 

} -> SUCCESS : !operation marked legal by the targettorch
.//===-------------------------------------------===//
vtensor<[1,3],f32>
  %3 = torch.aten.squeeze.dim %2, %int0 : !torch.vtensor<[1,3],f32>, !torch.int -> !torch.vtensor<[3],f32>
  %_params.bias = util.global.load @_params.bias : tensor<3xf32>
  %4 = torch_c.from_builtin_tensor %_params.bias : tensor<3xf32> -> !torch.vtensor<[3],f32>
  %5 = torch.aten.add.Tensor %3, %4, %int1 : !torch.vtensor<[3],f32>, !torch.vtensor<[3],f32>, !torch.int -> !torch.vtensor<[3],f32>
  return %5 : !torch.vtensor<[3],f32>
}

// -----// IR Dump After ConvertTorchToTMTensor (convert-torch-to-tmtensor) //----- //
mlir-asm-printer: Verifying operation: func.func
func.func @main(%arg0: tensor<4xf32>) -> tensor<3xf32> attributes {torch.args_schema = "[1, {\22type\22: \22builtins.tuple\22, \22context\22: \22null\22, \22children_spec\22: [{\22type\22: \22builtins.list\22, \22context\22: \22null\22, \22children_spec\22: [{\22type\22: null, \22context\22: null, \22children_spec\22: []}]}, {\22type\22: \22builtins.dict\22, \22context\22: \22[]\22, \22children_spec\22: []}]}]", torch.assume_strict_symbolic_shapes, torch.return_schema = "[1, {\22type\22: null, \22context\22: null, \22children_spec\22: []}]"} {
  %0 = torch_c.from_builtin_tensor %arg0 : tensor<4xf32> -> !torch.vtensor<[4],f32>
  %1 = call @forward(%0) : (!torch.vtensor<[4],f32>) -> !torch.vtensor<[3],f32>
  %2 = torch_c.to_builtin_tensor %1 : !torch.vtensor<[3],f32> -> tensor<3xf32>
  return %2 : tensor<3xf32>
}


//===-------------------------------------------===//
Legalizing operation : 'func.func'(0x56223b0bcbc0) {
} -> SUCCESS : operation marked legal by the target
//===-------------------------------------------===//

//===-------------------------------------------===//
Legalizing operation : 'torch.constant.int'(0x56223b0bef00) {
  %0 = "torch.constant.int"() <{value = 1 : i64}> : () -> !torch.int

} -> SUCCESS : operation marked legal by the target
//===-------------------------------------------===//

//===-------------------------------------------===//
Legalizing operation : 'torch.constant.int'(0x56223b0d2180) {
  %
1//===-------------------------------------------===//
 = Legalizing operation : '"func.funct'(o0x56223b0d36a0r) {
c} -> SUCCESSh : .conoperation marked legal by the targets
t//===-------------------------------------------===//
a
n//===-------------------------------------------===//
tLegalizing operation : '.torch_c.from_builtin_tensori'(n0x56223b0d2950t) {
"  () <{value = 0 : i64}> : () -> !torch.int%0 = 

"t} -> SUCCESSo : rch_operation marked legal by the targetc
.//===-------------------------------------------===//
f
r//===-------------------------------------------===//
oLegalizing operation : 'mtorch.aten.unsqueeze_'(b0x56223b0bd670u) {
i  ltin_tensor"(%arg0) : (tensor<4xf32>) -> !torch.vtensor<[4],f32>

%} -> SUCCESS2 :  = "operation marked legal by the targett
o//===-------------------------------------------===//
r
c//===-------------------------------------------===//
hLegalizing operation : '.func.calla'(t0x56223b0d3470e) {
n  .unsqueeze"(%arg0, %1) : (!%torch1. = vtensor<[4],f32>", func!.torchc.aintl) -> l"(%0)!torch.vtensor<[1,4],f32> <{callee = 

@forward} -> SUCCESS} : > : (operation marked legal by the target
//===-------------------------------------------===//

//===-------------------------------------------===//
Legalizing operation : 'util.global.load!'(torch0x56223b0bdb30.) {
vtensor<[4],f32>  ) -> !torch.vtensor<[3],f32>

} -> SUCCESS : operation marked legal by the target
//===-------------------------------------------===//

//===-------------------------------------------===//
Legalizing operation : 'torch_c.to_builtin_tensor'(0x56223b0d3540) {
  %3 = "util.global.load"()%2 = "to <r{cglobalh = _c@._params.weightt}o>_ : b(u) -> ilttensor<i4nx_3txef32n>sor"(

%1)   : * Fold {
(  !} -> FAILURE : torch.vtensor<[3],f32>) -> unable to foldtensor<
3x} -> FAILURE : f32no matched legalization pattern>
//===-------------------------------------------===//



} -> SUCCESS//===-------------------------------------------===//
 : Legalizing operation : 'torch_c.from_builtin_tensoroperation marked legal by the target'(
0x56223b0bdb90//===-------------------------------------------===//
) {

  //===-------------------------------------------===//
Legalizing operation : 'func.return'(0x56223b0d3620) {
  "func.return"(%2) : (%tensor<43 = x"f32t>o) -> r(c)h_c

.} -> SUCCESSf : rooperation marked legal by the targetm
_//===-------------------------------------------===//
builtin_tensor"(%3) : (tensor<4x3xf32>) -> !torch.vtensor<[4,3],f32>

} -> SUCCESS : operation marked legal by the target
//===-------------------------------------------===//

//===-------------------------------------------===//
Legalizing operation : 'torch.aten.mm'(0x56223b0be170) {
// -----// IR Dump After   ConvertTorchToLinalg (convert-torch-to-linalg) //----- //
mlir-asm-printer: Verifying operation: func.func
%5 = "torch.aten.mm"(%2, %4) : (func.func! torch@.mainvtensor<[1,4],f32>(, %arg0: tensor<4!xtorchf32.>vtensor<[4,3],f32>)) ->  -> tensor<3xf32>!torch.vtensor<[1,3],f32>

 attributes} -> SUCCESS { : torch.args_schema = "operation marked legal by the target[
1//===-------------------------------------------===//
,
 //===-------------------------------------------===//
{Legalizing operation : '\torch.aten.squeeze.dim2'(20x56223b0be7c0t) {
y  pe\22: \22builtins.tuple\22, \22context\22: \22null\22, \22chil%d6r = e"nt_osrpcehc.\a2t2e:n .[s{q\u2e2etzyep.ed\i2m2":( %\52, 2%b1u)i : l(tins.list\22, !\torch2.2vtensor<[1,3],f32>c, ontex!ttorch\.2int2) -> : \22nul!ltorch\.2vtensor<[3],f32>2, \22c

hi} -> SUCCESSl : drenoperation marked legal by the target_
s//===-------------------------------------------===//
p
e//===-------------------------------------------===//
cLegalizing operation : '\util.global.load2'(20x56223b0bed00:) {
   [{\22type\22: null, \22context\22: null, \22children_spec\22: [%]7} = ]"}u,t i{l\.2g2ltoybpael\.2l2o:a d\"2(2)builtins.di <c{tglobal\ = 22@,_params.bias }\>2 : 2(c) -> ontetensor<x3tx\f322>2: \22[

]\2  2* Fold {
, \22  c} -> FAILURE : hunable to foldi
ld} -> FAILURE : rno matched legalization patterne
n//===-------------------------------------------===//
_
s//===-------------------------------------------===//
pLegalizing operation : 'etorch_c.from_builtin_tensorc'(\0x56223b0beda02) {
2  : []}]}]", torch.assume_strict_symbolic_shapes, torch.return_schema = "[1, {\22type\22: null, \22context\22: null, \2%28c = h"itlodrrcehn__cs.pferco\m2_2b:u i[l]t}i]n"_}t e{n
so  r%"0( = %torch_c.from_builtin_tensor7 )% : arg0( : tensor<tensor<34xxf32f32>>) ->  -> !!torchtorch..vtensor<[3],f32>vtensor<[4],f32>
  %1

 = } -> SUCCESScall :  @operation marked legal by the targetforward
(//===-------------------------------------------===//
%
0//===-------------------------------------------===//
)Legalizing operation : 'torch.aten.add.Tensor'(0x56223b0ece80 ) {
:   (!torch.vtensor<[4],f32>) -> !torch.vtensor<[3],f32>
  %2 = torch_c.to_builtin_tensor %1 : !torch.vtensor<[3],f32> -> %tensor<93 = x"f32t>o
r  creturnh .%a2t e:n .tensor<a3dxdf32.>T
e}nso

r"(%6, %8, %0) : (!torch.vtensor<[3],f32>, !torch.vtensor<[3],f32>, !torch
.//===-------------------------------------------===//
intLegalizing operation : ') -> func.func'(0x56223b0d36a0) {
  !* Fold {
torch.vtensor<[3],f32>  } -> FAILURE : unable to fold


} -> FAILURE : no matched legalization pattern} -> SUCCESS
 : //===-------------------------------------------===//

//===-------------------------------------------===//
operation marked legal by the targetLegalizing operation : '
torch_c.from_builtin_tensor//===-------------------------------------------===//
'(
0x56223b0d2950//===-------------------------------------------===//
) {
Legalizing operation : '  func.return'(0x56223b0d3730) {
  %0 = "torch_c.from"_fbuunicl.trient_utrenn"s(o%r9")( : %(arg0) : (tensor<4x!f32torch>.) -> vtensor<[3],f32>) -> ()!torch.vtensor<[4],f32>

} -> SUCCESS

 : } -> SUCCESS : operation marked legal by the targetoperation marked legal by the target

//===-------------------------------------------===//
//===-------------------------------------------===//

//===-------------------------------------------===//
Legalizing operation : 'func.call'(0x56223b0d3470) {
  %1 = "func.call"(%0) <{callee = @forward}> : (!torch.vtensor<[4],f32>) -> !torch.vtensor<[3],f32>

  * Fold {
  } -> FAILURE : unable to fold
} -> FAILURE : no matched legalization pattern
//===-------------------------------------------===//

//===-------------------------------------------===//
Legalizing operation : 'torch_c.to_builtin_tensor'(0x56223b0d3540) {
  // -----// IR Dump After ConvertCustomQuantOp (torch-convert-custom-quant-op) //----- //
mlir-asm-printer: Verifying operation: func.func%
2 = "torch_c.to_builtin_tensor"(%1) : (!torch.vtensor<[3],f32>) -> tensor<3xf32>

} -> SUCCESS : operation marked legal by the target
//===-------------------------------------------===//

//===-------------------------------------------===//
Legalizing operation : 'func.return'(0x56223b0d3620) {
  "func.return"(%2) : (tensor<3xf32>) -> ()

  * Fold {
  } -> FAILURE : unable to fold
} -> FAILURE : no matched legalization pattern
//===-------------------------------------------===//
func.func private @forward(%arg0: !torch.vtensor<[4],f32>) -> !torch.vtensor<[3],f32> attributes {torch.assume_strict_symbolic_shapes} {
  %int1 = torch.constant.int 1
  %int0 = torch.constant.int 0
  %0 = torch.aten.unsqueeze %arg0, %int0 : !torch.vtensor<[4],f32>, !torch.int -> !torch.vtensor<[1,4],f32>
  %_params.weight = util.global.load @_params.weight : tensor<4x3xf32>
  %1 = torch_c.from_builtin_tensor %_params.weight : tensor<4x3xf32> -> !torch.vtensor<[4,3],f32>
  %2 = torch.aten.mm %0, %1 : !torch.vtensor<[1,4],f32>, !torch.vtensor<[4,3],f32> -> !torch.vtensor<[1,3],f32>
  %3 = torch.aten.squeeze.dim %2, %int0 : !torch.vtensor<[1,3],f32>, !torch.int -> !torch.vtensor<[3],f32>
  %_params.bias = util.global.load @_params.bias : tensor<3xf32>
  %4 = torch_c.from_builtin_tensor %_params.bias : tensor<3xf32> -> !torch.vtensor<[3],f32>
  %5 = torch.aten.add.Tensor %3, %4, %int1 : !torch.vtensor<[3],f32>, !torch.vtensor<[3],f32>, !torch.int -> !torch.vtensor<[3],f32>
  return %5 : !torch.vtensor<[3],f32>
}

// -----// IR Dump After ConvertTorchToSCF (convert-torch-to-scf) //----- //
mlir-asm-printer: Verifying operation: func.func
func.func @main(%arg0: tensor<4xf32>) -> tensor<3xf32> attributes {torch.args_schema = "[1, {\22type\22: \22builtins.tuple\22, \22context\22: \22null\22, \22children_spec\22: [{\22type\22: \22builtins.list\22, \22context\22: \22null\22, \22children_spec\22: [{\22type\22: null, \22context\22: null, \22children_spec\22: []}]}, {\22type\22: \22builtins.dict\22, \22context\22: \22[]\22, \22children_spec\22: []}]}]", torch.assume_strict_symbolic_shapes, torch.return_schema = "[1, {\22type\22: null, \22context\22: null, \22children_spec\22: []}]"} {
  %0 = torch_c.from_builtin_tensor %arg0 : tensor<4xf32> -> !torch.vtensor<[4],f32>
  %1 = call @forward(%0) : (!torch.vtensor<[4],f32>) -> !torch.vtensor<[3],f32>
  %2 = torch_c.to_builtin_tensor %1 : !torch.vtensor<[3],f32> -> tensor<3xf32>
  return %2 : tensor<3xf32>
}


//===-------------------------------------------===//
Legalizing operation : 'func.func'(0x56223b0d36a0) {
} -> SUCCESS : operation marked legal by the target
//===-------------------------------------------===//

//===-------------------------------------------===//
Legalizing operation : 'torch_c.from_builtin_tensor'(0x56223b0d2950) {
  %0 = "torch_c.from_builtin_tensor"(%arg0) : (tensor<4xf32>) -> !torch.vtensor<[4],f32>

} -> SUCCESS : operation marked legal by the target
//===-------------------------------------------===//

//===-------------------------------------------===//
Legalizing operation : 'func.call'(0x56223b0d3470) {
  %1 = "func.call"(%0) <{callee = @forward}> : (!torch.vtensor<[4],f32>) -> !torch.vtensor<[3],f32>

} -> SUCCESS : operation marked legal by the target
//===-------------------------------------------===//

//===-------------------------------------------===//
Legalizing operation : 'torch_c.to_builtin_tensor'(0x56223b0d3540) {
  %2 = "torch_c.to_builtin_tensor"(%1) : (!torch.vtensor<[3],f32>) -> tensor<3xf32>

} -> SUCCESS : operation marked legal by the target
//===-------------------------------------------===//

//===-------------------------------------------===//
Legalizing operation : 'func.return'(0x56223b0d3620) {
  "func.return"(%2) : (tensor<
3//===-------------------------------------------===//
xProcessing operation : 'f32torch.constant.int>'() -> 0x56223b0bef00() {
)  

} -> SUCCESS : operation marked legal by the target
//===-------------------------------------------===//
%0 = "torch.constant.in// -----// IR Dump After tConvertTorchToArith" ((convert-torch-to-arith)) //----- //
mlir-asm-printer: Verifying operation: func.func
 <{value = 1 : i64}> : () -> !torch.int

} -> failure : pattern failed to match
//===-------------------------------------------===//

//===-------------------------------------------===//
Processing operation : 'torch.constant.int'(0x56223b0d2180) {
  func.func @main(%arg0: tensor<4xf32>) -> tensor<3xf32>%1 = " attributest {otorch.args_schemar = c"h[.1c,o n{s\t2a2ntty.pien\t2"2(:) \22buil <t{ivaluen = s.0tu : plei\642}2>, :  (\) -> 22conte!xtorcht.\int22: \

22n} -> ufailurel : lpattern failed to match\
2//===-------------------------------------------===//
2
,//===-------------------------------------------===//
 Processing operation : '\torch.aten.unsqueeze2'(20x56223b0bd670c) {
h  ildren_spec\22: [{\22type\22: \22builtins.list\22, \22context\22:% 2\ = 2"2tnourlclh\.2a2t,e n\.2u2ncshqiulederzeen"_(s%parg0e, c%\12)2 : :( [{\22type\22: n!utorchl.lvtensor<[4],f32>,,  \22!ctorcho.nintt) -> ext\22: nu!ltorchl.,vtensor<[1,4],f32> \22ch

ildren_spec\22} -> :failure  : [pattern failed to match]
}//===-------------------------------------------===//
]
}//===-------------------------------------------===//
,Processing operation : ' util.global.load{'(\0x56223b0bdb302) {
2  type\22: \22builtins.dict\22, \22context\22: \22[]\22, \22children%_3s = p"euct\i2l2.:g l[o]b}a]l}.]l"oa, dtorch.assume_strict_symbolic_shapes", (torch.return_schema) = "[1, {\2 <2{tglobaly = pe@\_params.weight2}2>: :  (n) -> ulltensor<,4 x\32x2f32c>ontext\

22: n} -> ufailurel : lpattern failed to match,
 //===-------------------------------------------===//
\
2//===-------------------------------------------===//
2Processing operation : 'ctorch_c.from_builtin_tensorh'(i0x56223b0bdb90l) {
d  ren_spec\22: []}]"} {
  %0 = torch_c.from_builtin_tensor %arg0 : tensor<4xf32> -> %!4torch = ."vtensor<[4],f32>t
o  r%c1h = _callc .@fforwardr(o%m0_)built i:n _(tenso!rtorch".(vtensor<[4],f32>%)3 -> ) : (!torchtensor<.4vtensor<[3],f32>x
3  x%f322> = ) -> torch_c.to_builtin_tensor %1 : !!torchtorch..vtensor<[4,3],f32>vtensor<[3],f32> -> tensor<

3xf32>
  } -> returnfailure  : %pattern failed to match2
 //===-------------------------------------------===//
:
 //===-------------------------------------------===//
tensor<Processing operation : '3torch.aten.mmx'(f320x56223b0be170>) {

  }

%5 = "torch.aten.mm"(%2, %4) : (!torch.vtensor<[1,4],f32>, !torch.vtensor<[4,3],f32>) -> !torch.vtensor<[1,3],f32>

} -> failure : pattern failed to match
//===-------------------------------------------===//

//===-------------------------------------------===//
Processing operation : 'torch.aten.squeeze.dim'(0x56223b0be7c0) {
  %6 = "torch.aten.squeeze.dim"(%5, %1) : (!torch.vtensor<[1,3],f32>, !torch.int) -> !torch.vtensor<[3],f32>

} -> failure : pattern failed to match
//===-------------------------------------------===//

//===-------------------------------------------===//
Processing operation : 'util.global.load'(0x56223b0bed00) {
  %7 = "util.global.load"() <{global = @_params.bias}> : () -> tensor<3xf32>

} -> failure : pattern failed to match
//===-------------------------------------------===//

//===-------------------------------------------===//
Processing operation : 'torch_c.from_builtin_tensor'(0x56223b0beda0) {
  %8 = "torch_c.from_builtin_tensor"(%7) : (tensor<3xf32>) -> !torch.vtensor<[3],f32>

} -> failure : pattern failed to match
//===-------------------------------------------===//

//===-------------------------------------------===//
Processing operation : 'torch.aten.add.Tensor'(0x56223b0ece80) {
  %9 = "torch.aten.add.Tensor"(%6, %8, %0) : (!torch.vtensor<[3],f32>, !torch.vtensor<[3],f32>, !torch.int) -> !torch.vtensor<[3],f32>

} -> failure : pattern failed to match
//===-------------------------------------------===//

//===-------------------------------------------===//
Processing operation : 'func.return'(0x56223b0d3730) {
  "func.return"(%9) : (!torch.vtensor<[3],f32>) -> ()

} -> failure : pattern failed to match
//===-------------------------------------------===//
// -----// IR Dump After DecomposeComplexOps (torch-decompose-complex-ops) //----- //
mlir-asm-printer: Verifying operation: func.func
func.func private @forward(%arg0: !torch.vtensor<[4],f32>) -> !torch.vtensor<[3],f32> attributes {torch.assume_strict_symbolic_shapes} {
  %int1 = torch.constant.int 1
  %int0 = torch.constant.int 0
  %0 = torch.aten.unsqueeze %arg0, %int0 : !torch.vtensor<[4],f32>, !torch.int -> !torch.vtensor<[1,4],f32>
  %_params.weight = util.global.load @_params.weight : tensor<4x3xf32>
  %1 = torch_c.from_builtin_tensor %_params.weight : tensor<4x3xf32> -> !torch.vtensor<[4,3],f32>
  %2 = torch.aten.mm %0, %1 : !torch.vtensor<[1,4],f32>, !torch.vtensor<[4,3],f32> -> !torch.vtensor<[1,3],f32>
  %3 = torch.aten.squeeze.dim %2, %int0 : !torch.vtensor<[1,3],f32>, !torch.int -> !torch.vtensor<[3],f32>
  %_params.bias = util.global.load @_params.bias : tensor<3xf32>
  %4 = torch_c.from_builtin_tensor %_params.bias : tensor<3xf32> -> !torch.vtensor<[3],f32>
  %5 = torch.aten.add.Tensor %3, %4, %int1 : !torch.vtensor<[3],f32>, !torch.vtensor<[3],f32>, !torch.int -> !torch.vtensor<[3],f32>
  return %5 : !torch.vtensor<[3],f32>
}


//===-------------------------------------------===//
Legalizing operation : 'func.func'(0x56223b0bcbc0) {
} -> SUCCESS : operation marked legal by the target
//===-------------------------------------------===//

//===-------------------------------------------===//
Legalizing operation : 'torch.constant.int'(0x56223b0bef00) {
  %0 = "torch.constant.int"() <{value = 1 : i64}> : () -> !torch.int

} -> SUCCESS : operation marked legal by the target
//===-------------------------------------------===//

//===-------------------------------------------===//
Legalizing operation : 'torch.constant.int'(0x56223b0d2180) {
  %1 = "torch.constant.int"() <{value = 0 : i64}> : () -> !torch.int

} -> SUCCESS : operation marked legal by the target
//===-------------------------------------------===//

//===-------------------------------------------===//
Legalizing operation : 'torch.aten.unsqueeze'(0x56223b0bd670) {
  %2 = "torch.aten.unsqueeze"(%arg0, %1) : (!torch.vtensor<[4],f32>, !torch.int) -> !torch.vtensor<[1,4],f32>

} -> SUCCESS : operation marked legal by the target
//===-------------------------------------------===//

//===-------------------------------------------===//
Legalizing operation : 'util.global.load'(0x56223b0bdb30) {
  %3 = "util.global.load"() <{global = @_params.weight}> : () -> tensor<4x3xf32>

  * Fold {
  } -> FAILURE : unable to fold
} -> FAILURE : no matched legalization pattern
//===-------------------------------------------===//

//===-------------------------------------------===//
Legalizing operation : 'torch_c.from_builtin_tensor'(0x56223b0bdb90) {
  %4 = "torch_c.from_builtin_tensor"(%3) : (tensor<4x3xf32>) -> !torch.vtensor<[4,3],f32>

} -> SUCCESS : operation marked legal by the target
//===-------------------------------------------===//

//===-------------------------------------------===//
Legalizing operation : 'torch.aten.mm'(0x56223b0be170) {
  %5 = "torch.aten.mm"(%2, %4) : (!torch.vtensor<[1,4],f32>, !torch.vtensor<[4,3],f32>) -> !torch.vtensor<[1,3],f32>

} -> SUCCESS : operation marked legal by the target
//===-------------------------------------------===//

//===-------------------------------------------===//
Legalizing operation : 'torch.aten.squeeze.dim'(0x56223b0be7c0) {
  %6 = "torch.aten.squeeze.dim"(%5, %1) : (!torch.vtensor<[1,3],f32>, !torch.int) -> !torch.vtensor<[3],f32>

} -> SUCCESS : operation marked legal by the target
//===-------------------------------------------===//

//===-------------------------------------------===//
Legalizing operation : 'util.global.load'(0x56223b0bed00) {
  %7 = "util.global.load"() <{global = @_params.bias}> : () -> tensor<3xf32>

  * Fold {
  } -> FAILURE : unable to fold
} -> FAILURE : no matched legalization pattern
//===-------------------------------------------===//

//===-------------------------------------------===//
Legalizing operation : 'torch_c.from_builtin_tensor'(0x56223b0beda0) {
  %8 = "torch_c.from_builtin_tensor"(%7) : (tensor<3xf32>) -> !torch.vtensor<[3],f32>

} -> SUCCESS : operation marked legal by the target
//===-------------------------------------------===//

//===-------------------------------------------===//
Legalizing operation : 'torch.aten.add.Tensor'(0x56223b0ece80) {
  %9 = "torch.aten.add.Tensor"(%6, %8, %0) : (!torch.vtensor<[3],f32>, !torch.vtensor<[3],f32>, !torch.int) -> !torch.vtensor<[3],f32>

} -> SUCCESS : operation marked legal by the target
//===-------------------------------------------===//

//===-------------------------------------------===//
Legalizing operation : 'func.return'(0x56223b0d3730) {
  "func.return"(%9) : (!torch.vtensor<[3],f32>) -> ()

} -> SUCCESS : operation marked legal by the target
//===-------------------------------------------===//
// -----// IR Dump After ConvertTorchToTMTensor (convert-torch-to-tmtensor) //----- //
mlir-asm-printer: Verifying operation: func.func
func.func private @forward(%arg0: !torch.vtensor<[4],f32>) -> !torch.vtensor<[3],f32> attributes {torch.assume_strict_symbolic_shapes} {
  %int1 = torch.constant.int 1
  %int0 = torch.constant.int 0
  %0 = torch.aten.unsqueeze %arg0, %int0 : !torch.vtensor<[4],f32>, !torch.int -> !torch.vtensor<[1,4],f32>
  %_params.weight = util.global.load @_params.weight : tensor<4x3xf32>
  %1 = torch_c.from_builtin_tensor %_params.weight : tensor<4x3xf32> -> !torch.vtensor<[4,3],f32>
  %2 = torch.aten.mm %0, %1 : !torch.vtensor<[1,4],f32>, !torch.vtensor<[4,3],f32> -> !torch.vtensor<[1,3],f32>
  %3 = torch.aten.squeeze.dim %2, %int0 : !torch.vtensor<[1,3],f32>, !torch.int -> !torch.vtensor<[3],f32>
  %_params.bias = util.global.load @_params.bias : tensor<3xf32>
  %4 = torch_c.from_builtin_tensor %_params.bias : tensor<3xf32> -> !torch.vtensor<[3],f32>
  %5 = torch.aten.add.Tensor %3, %4, %int1 : !torch.vtensor<[3],f32>, !torch.vtensor<[3],f32>, !torch.int -> !torch.vtensor<[3],f32>
  return %5 : !torch.vtensor<[3],f32>
}


//===-------------------------------------------===//
Legalizing operation : 'func.func'(0x56223b0bcbc0) {
} -> SUCCESS : operation marked legal by the target
//===-------------------------------------------===//

//===-------------------------------------------===//
Legalizing operation : 'torch.constant.int'(0x56223b0bef00) {
  %0 = "torch.constant.int"() <{value = 1 : i64}> : () -> !torch.int

  * Fold {
  } -> FAILURE : unable to fold

  * Pattern : 'torch.constant.int -> ()' {
Trying to match "(anonymous namespace)::ConvertAtenScalarToTensorLike"
    ** Failure : not a supported Scalar to Tensor like op
"(anonymous namespace)::ConvertAtenScalarToTensorLike" result 0
  } -> FAILURE : pattern failed to match

  * Pattern : 'torch.constant.int -> ()' {
Trying to match "(anonymous namespace)::ConvertElementwiseOp"
    ** Failure : not a supported elementwise op
"(anonymous namespace)::ConvertElementwiseOp" result 0
  } -> FAILURE : pattern failed to match

  * Pattern : 'torch.constant.int -> ()' {
Trying to match "(anonymous namespace)::ConvertReductionOp"
    ** Failure : not a supported reduce op
"(anonymous namespace)::ConvertReductionOp" result 0
  } -> FAILURE : pattern failed to match
} -> FAILURE : no matched legalization pattern
//===-------------------------------------------===//

//===-------------------------------------------===//
Legalizing operation : 'torch.constant.int'(0x56223b0d2180) {
  %1 = "torch.constant.int"() <{value = 0 : i64}> : () -> !torch.int

  * Fold {
  } -> FAILURE : unable to fold

  * Pattern : 'torch.constant.int -> ()' {
Trying to match "(anonymous namespace)::ConvertAtenScalarToTensorLike"
    ** Failure : not a supported Scalar to Tensor like op
"(anonymous namespace)::ConvertAtenScalarToTensorLike" result 0
  } -> FAILURE : pattern failed to match

  * Pattern : 'torch.constant.int -> ()' {
Trying to match "(anonymous namespace)::ConvertElementwiseOp"
    ** Failure : not a supported elementwise op
"(anonymous namespace)::ConvertElementwiseOp" result 0
  } -> FAILURE : pattern failed to match

  * Pattern : 'torch.constant.int -> ()' {
Trying to match "(anonymous namespace)::ConvertReductionOp"
    ** Failure : not a supported reduce op
"(anonymous namespace)::ConvertReductionOp" result 0
  } -> FAILURE : pattern failed to match
} -> FAILURE : no matched legalization pattern
//===-------------------------------------------===//

//===-------------------------------------------===//
Legalizing operation : 'torch.aten.unsqueeze'(0x56223b0bd670) {
  %2 = "torch.aten.unsqueeze"(%arg0, %1) : (!torch.vtensor<[4],f32>, !torch.int) -> !torch.vtensor<[1,4],f32>

  * Fold {
  } -> FAILURE : unable to fold

  * Pattern : 'torch.aten.unsqueeze -> ()' {
Trying to match "(anonymous namespace)::ConvertAtenUnsqueezeOp"
    ** Insert  : 'tensor.expand_shape'(0x7f71f0008560)
    ** Replace : 'torch.aten.unsqueeze'(0x56223b0bd670)
"(anonymous namespace)::ConvertAtenUnsqueezeOp" result 1

    //===-------------------------------------------===//
    Legalizing operation : 'tensor.expand_shape'(0x7f71f0008560) {
      %4 = "tensor.expand_shape"(%0) <{reassociation = [[0, 1]]}> : (tensor<4xf32>) -> tensor<1x4xf32>

    } -> SUCCESS : operation marked legal by the target
    //===-------------------------------------------===//
  } -> SUCCESS : pattern applied successfully
// *** IR Dump After Pattern Application ***
mlir-asm-printer: Verifying operation: func.func
func.func private @forward(%arg0: !torch.vtensor<[4],f32>) -> !torch.vtensor<[3],f32> attributes {torch.assume_strict_symbolic_shapes} {
  %0 = builtin.unrealized_conversion_cast %arg0 : !torch.vtensor<[4],f32> to tensor<4xf32>
  %int1 = torch.constant.int 1
  %int0 = torch.constant.int 0
  %1 = builtin.unrealized_conversion_cast %int0 : !torch.int to i64
  %expanded = tensor.expand_shape %0 [[0, 1]] : tensor<4xf32> into tensor<1x4xf32>
  %2 = torch.aten.unsqueeze %arg0, %int0 : !torch.vtensor<[4],f32>, !torch.int -> !torch.vtensor<[1,4],f32>
  %_params.weight = util.global.load @_params.weight : tensor<4x3xf32>
  %3 = torch_c.from_builtin_tensor %_params.weight : tensor<4x3xf32> -> !torch.vtensor<[4,3],f32>
  %4 = torch.aten.mm %2, %3 : !torch.vtensor<[1,4],f32>, !torch.vtensor<[4,3],f32> -> !torch.vtensor<[1,3],f32>
  %5 = torch.aten.squeeze.dim %4, %int0 : !torch.vtensor<[1,3],f32>, !torch.int -> !torch.vtensor<[3],f32>
  %_params.bias = util.global.load @_params.bias : tensor<3xf32>
  %6 = torch_c.from_builtin_tensor %_params.bias : tensor<3xf32> -> !torch.vtensor<[3],f32>
  %7 = torch.aten.add.Tensor %5, %6, %int1 : !torch.vtensor<[3],f32>, !torch.vtensor<[3],f32>, !torch.int -> !torch.vtensor<[3],f32>
  return %7 : !torch.vtensor<[3],f32>
}


} -> SUCCESS
//===-------------------------------------------===//

//===-------------------------------------------===//
Legalizing operation : 'util.global.load'(0x56223b0bdb30) {
  %6 = "util.global.load"() <{global = @_params.weight}> : () -> tensor<4x3xf32>

  * Fold {
  } -> FAILURE : unable to fold

  * Pattern : 'util.global.load -> ()' {
Trying to match "(anonymous namespace)::ConvertAtenScalarToTensorLike"
    ** Failure : not a supported Scalar to Tensor like op
"(anonymous namespace)::ConvertAtenScalarToTensorLike" result 0
  } -> FAILURE : pattern failed to match

  * Pattern : 'util.global.load -> ()' {
Trying to match "(anonymous namespace)::ConvertElementwiseOp"
    ** Failure : not a supported elementwise op
"(anonymous namespace)::ConvertElementwiseOp" result 0
  } -> FAILURE : pattern failed to match

  * Pattern : 'util.global.load -> ()' {
Trying to match "(anonymous namespace)::ConvertReductionOp"
    ** Failure : not a supported reduce op
"(anonymous namespace)::ConvertReductionOp" result 0
  } -> FAILURE : pattern failed to match
} -> FAILURE : no matched legalization pattern
//===-------------------------------------------===//

//===-------------------------------------------===//
Legalizing operation : 'torch_c.from_builtin_tensor'(0x56223b0bdb90) {
  %7 = "torch_c.from_builtin_tensor"(%6) : (tensor<4x3xf32>) -> !torch.vtensor<[4,3],f32>

} -> SUCCESS : operation marked legal by the target
//===-------------------------------------------===//

//===-------------------------------------------===//
Legalizing operation : 'torch.aten.mm'(0x56223b0be170) {
  %8 = "torch.aten.mm"(%5, %7) : (!torch.vtensor<[1,4],f32>, !torch.vtensor<[4,3],f32>) -> !torch.vtensor<[1,3],f32>

  * Fold {
  } -> FAILURE : unable to fold

  * Pattern : 'torch.aten.mm -> ()' {
Trying to match "(anonymous namespace)::ConvertAtenMmOp"
ImplicitTypeIDRegistry::lookupOrInsert(mlir::arith::detail::ConstantOpGenericAdaptorBase::Properties)
ImplicitTypeIDRegistry::lookupOrInsert(mlir::InferIntRangeInterface::Trait<Empty>)
    ** Insert  : 'arith.constant'(0x7f71f00150c0)
    ** Insert  : 'tensor.dim'(0x7f71f0015130)
    ** Insert  : 'arith.constant'(0x7f71f00151e0)
    ** Insert  : 'tensor.dim'(0x7f71f0015250)
    ** Insert  : 'tensor.empty'(0x7f71f0015780)
    ** Insert  : 'arith.constant'(0x7f71f00160c0)
    ** Insert  : 'linalg.fill'(0x7f71f0016a30)
ImplicitTypeIDRegistry::lookupOrInsert(mlir::arith::detail::MulFOpGenericAdaptorBase::Properties)
ImplicitTypeIDRegistry::lookupOrInsert(mlir::arith::detail::AddFOpGenericAdaptorBase::Properties)
    ** Insert  : 'linalg.matmul'(0x7f71f0017a70)
    ** Insert  : 'tensor.cast'(0x7f71f0017b60)
    ** Replace : 'torch.aten.mm'(0x56223b0be170)
"(anonymous namespace)::ConvertAtenMmOp" result 1

    //===-------------------------------------------===//
    Legalizing operation : 'arith.constant'(0x7f71f00150c0) {
      %9 = "arith.constant"() <{value = 0 : index}> : () -> index

    } -> SUCCESS : operation marked legal by the target
    //===-------------------------------------------===//

    //===-------------------------------------------===//
    Legalizing operation : 'tensor.dim'(0x7f71f0015130) {
      %10 = "tensor.dim"(%4, %9) : (tensor<1x4xf32>, index) -> index

    } -> SUCCESS : operation marked legal by the target
    //===-------------------------------------------===//

    //===-------------------------------------------===//
    Legalizing operation : 'arith.constant'(0x7f71f00151e0) {
      %11 = "arith.constant"() <{value = 1 : index}> : () -> index

    } -> SUCCESS : operation marked legal by the target
    //===-------------------------------------------===//

    //===-------------------------------------------===//
    Legalizing operation : 'tensor.dim'(0x7f71f0015250) {
      %12 = "tensor.dim"(%8, %11) : (tensor<4x3xf32>, index) -> index

    } -> SUCCESS : operation marked legal by the target
    //===-------------------------------------------===//

    //===-------------------------------------------===//
    Legalizing operation : 'tensor.empty'(0x7f71f0015780) {
      %13 = "tensor.empty"(%10, %12) : (index, index) -> tensor<?x?xf32>

    } -> SUCCESS : operation marked legal by the target
    //===-------------------------------------------===//

    //===-------------------------------------------===//
    Legalizing operation : 'arith.constant'(0x7f71f00160c0) {
      %14 = "arith.constant"() <{value = 0.000000e+00 : f32}> : () -> f32

    } -> SUCCESS : operation marked legal by the target
    //===-------------------------------------------===//

    //===-------------------------------------------===//
    Legalizing operation : 'linalg.fill'(0x7f71f0016a30) {
    } -> SUCCESS : operation marked legal by the target
    //===-------------------------------------------===//

    //===-------------------------------------------===//
    Legalizing operation : 'linalg.matmul'(0x7f71f0017a70) {
    } -> SUCCESS : operation marked legal by the target
    //===-------------------------------------------===//

    //===-------------------------------------------===//
    Legalizing operation : 'tensor.cast'(0x7f71f0017b60) {
      %17 = "tensor.cast"(%16) : (tensor<?x?xf32>) -> tensor<1x3xf32>

    } -> SUCCESS : operation marked legal by the target
    //===-------------------------------------------===//
  } -> SUCCESS : pattern applied successfully
// *** IR Dump After Pattern Application ***
mlir-asm-printer: Verifying operation: func.func
ImplicitTypeIDRegistry::lookupOrInsert(mlir::OpTrait::SingleBlockImplicitTerminator<mlir::linalg::YieldOp>::Impl<Empty>)
ImplicitTypeIDRegistry::lookupOrInsert(mlir::OpTrait::AttrSizedOperandSegments<Empty>)
ImplicitTypeIDRegistry::lookupOrInsert(mlir::DestinationStyleOpInterface::Trait<Empty>)
ImplicitTypeIDRegistry::lookupOrInsert(mlir::linalg::LinalgOp::Trait<Empty>)
ImplicitTypeIDRegistry::lookupOrInsert(mlir::ReifyRankedShapedTypeOpInterface::Trait<Empty>)
ImplicitTypeIDRegistry::lookupOrInsert(mlir::linalg::ContractionOpInterface::Trait<Empty>)
ImplicitTypeIDRegistry::lookupOrInsert(mlir::linalg::FillOpInterface::Trait<Empty>)
func.func private @forward(%arg0: !torch.vtensor<[4],f32>) -> !torch.vtensor<[3],f32> attributes {torch.assume_strict_symbolic_shapes} {
  %0 = builtin.unrealized_conversion_cast %arg0 : !torch.vtensor<[4],f32> to tensor<4xf32>
  %int1 = torch.constant.int 1
  %int0 = torch.constant.int 0
  %1 = builtin.unrealized_conversion_cast %int0 : !torch.int to i64
  %expanded = tensor.expand_shape %0 [[0, 1]] : tensor<4xf32> into tensor<1x4xf32>
  %2 = torch.aten.unsqueeze %arg0, %int0 : !torch.vtensor<[4],f32>, !torch.int -> !torch.vtensor<[1,4],f32>
  %_params.weight = util.global.load @_params.weight : tensor<4x3xf32>
  %3 = torch_c.from_builtin_tensor %_params.weight : tensor<4x3xf32> -> !torch.vtensor<[4,3],f32>
  %4 = builtin.unrealized_conversion_cast %3 : !torch.vtensor<[4,3],f32> to tensor<4x3xf32>
  %c0 = arith.constant 0 : index
  %dim = tensor.dim %expanded, %c0 : tensor<1x4xf32>
  %c1 = arith.constant 1 : index
  %dim_0 = tensor.dim %4, %c1 : tensor<4x3xf32>
  %5 = tensor.empty(%dim, %dim_0) : tensor<?x?xf32>
  %cst = arith.constant 0.000000e+00 : f32
  %6 = linalg.fill ins(%cst : f32) outs(%5 : tensor<?x?xf32>) -> tensor<?x?xf32>
  %7 = linalg.matmul ins(%expanded, %4 : tensor<1x4xf32>, tensor<4x3xf32>) outs(%6 : tensor<?x?xf32>) -> tensor<?x?xf32>
  %cast = tensor.cast %7 : tensor<?x?xf32> to tensor<1x3xf32>
  %8 = torch.aten.mm %2, %3 : !torch.vtensor<[1,4],f32>, !torch.vtensor<[4,3],f32> -> !torch.vtensor<[1,3],f32>
  %9 = torch.aten.squeeze.dim %8, %int0 : !torch.vtensor<[1,3],f32>, !torch.int -> !torch.vtensor<[3],f32>
  %_params.bias = util.global.load @_params.bias : tensor<3xf32>
  %10 = torch_c.from_builtin_tensor %_params.bias : tensor<3xf32> -> !torch.vtensor<[3],f32>
  %11 = torch.aten.add.Tensor %9, %10, %int1 : !torch.vtensor<[3],f32>, !torch.vtensor<[3],f32>, !torch.int -> !torch.vtensor<[3],f32>
  return %11 : !torch.vtensor<[3],f32>
}


} -> SUCCESS
//===-------------------------------------------===//

//===-------------------------------------------===//
Legalizing operation : 'torch.aten.squeeze.dim'(0x56223b0be7c0) {
  %19 = "torch.aten.squeeze.dim"(%18, %2) : (!torch.vtensor<[1,3],f32>, !torch.int) -> !torch.vtensor<[3],f32>

  * Fold {
  } -> FAILURE : unable to fold

  * Pattern : 'torch.aten.squeeze.dim -> ()' {
Trying to match "(anonymous namespace)::ConvertAtenSqueezeDimOp"
    ** Insert  : 'tensor.collapse_shape'(0x7f71f001e6f0)
    ** Replace : 'torch.aten.squeeze.dim'(0x56223b0be7c0)
"(anonymous namespace)::ConvertAtenSqueezeDimOp" result 1

    //===-------------------------------------------===//
    Legalizing operation : 'tensor.collapse_shape'(0x7f71f001e6f0) {
      %19 = "tensor.collapse_shape"(%17) <{reassociation = [[0, 1]]}> : (tensor<1x3xf32>) -> tensor<3xf32>

    } -> SUCCESS : operation marked legal by the target
    //===-------------------------------------------===//
  } -> SUCCESS : pattern applied successfully
// *** IR Dump After Pattern Application ***
mlir-asm-printer: Verifying operation: func.func
func.func private @forward(%arg0: !torch.vtensor<[4],f32>) -> !torch.vtensor<[3],f32> attributes {torch.assume_strict_symbolic_shapes} {
  %0 = builtin.unrealized_conversion_cast %arg0 : !torch.vtensor<[4],f32> to tensor<4xf32>
  %int1 = torch.constant.int 1
  %int0 = torch.constant.int 0
  %1 = builtin.unrealized_conversion_cast %int0 : !torch.int to i64
  %expanded = tensor.expand_shape %0 [[0, 1]] : tensor<4xf32> into tensor<1x4xf32>
  %2 = torch.aten.unsqueeze %arg0, %int0 : !torch.vtensor<[4],f32>, !torch.int -> !torch.vtensor<[1,4],f32>
  %_params.weight = util.global.load @_params.weight : tensor<4x3xf32>
  %3 = torch_c.from_builtin_tensor %_params.weight : tensor<4x3xf32> -> !torch.vtensor<[4,3],f32>
  %4 = builtin.unrealized_conversion_cast %3 : !torch.vtensor<[4,3],f32> to tensor<4x3xf32>
  %c0 = arith.constant 0 : index
  %dim = tensor.dim %expanded, %c0 : tensor<1x4xf32>
  %c1 = arith.constant 1 : index
  %dim_0 = tensor.dim %4, %c1 : tensor<4x3xf32>
  %5 = tensor.empty(%dim, %dim_0) : tensor<?x?xf32>
  %cst = arith.constant 0.000000e+00 : f32
  %6 = linalg.fill ins(%cst : f32) outs(%5 : tensor<?x?xf32>) -> tensor<?x?xf32>
  %7 = linalg.matmul ins(%expanded, %4 : tensor<1x4xf32>, tensor<4x3xf32>) outs(%6 : tensor<?x?xf32>) -> tensor<?x?xf32>
  %cast = tensor.cast %7 : tensor<?x?xf32> to tensor<1x3xf32>
  %8 = torch.aten.mm %2, %3 : !torch.vtensor<[1,4],f32>, !torch.vtensor<[4,3],f32> -> !torch.vtensor<[1,3],f32>
  %collapsed = tensor.collapse_shape %cast [[0, 1]] : tensor<1x3xf32> into tensor<3xf32>
  %9 = torch.aten.squeeze.dim %8, %int0 : !torch.vtensor<[1,3],f32>, !torch.int -> !torch.vtensor<[3],f32>
  %_params.bias = util.global.load @_params.bias : tensor<3xf32>
  %10 = torch_c.from_builtin_tensor %_params.bias : tensor<3xf32> -> !torch.vtensor<[3],f32>
  %11 = torch.aten.add.Tensor %9, %10, %int1 : !torch.vtensor<[3],f32>, !torch.vtensor<[3],f32>, !torch.int -> !torch.vtensor<[3],f32>
  return %11 : !torch.vtensor<[3],f32>
}


} -> SUCCESS
//===-------------------------------------------===//

//===-------------------------------------------===//
Legalizing operation : 'util.global.load'(0x56223b0bed00) {
  %21 = "util.global.load"() <{global = @_params.bias}> : () -> tensor<3xf32>

  * Fold {
  } -> FAILURE : unable to fold

  * Pattern : 'util.global.load -> ()' {
Trying to match "(anonymous namespace)::ConvertAtenScalarToTensorLike"
    ** Failure : not a supported Scalar to Tensor like op
"(anonymous namespace)::ConvertAtenScalarToTensorLike" result 0
  } -> FAILURE : pattern failed to match

  * Pattern : 'util.global.load -> ()' {
Trying to match "(anonymous namespace)::ConvertElementwiseOp"
    ** Failure : not a supported elementwise op
"(anonymous namespace)::ConvertElementwiseOp" result 0
  } -> FAILURE : pattern failed to match

  * Pattern : 'util.global.load -> ()' {
Trying to match "(anonymous namespace)::ConvertReductionOp"
    ** Failure : not a supported reduce op
"(anonymous namespace)::ConvertReductionOp" result 0
  } -> FAILURE : pattern failed to match
} -> FAILURE : no matched legalization pattern
//===-------------------------------------------===//

//===-------------------------------------------===//
Legalizing operation : 'torch_c.from_builtin_tensor'(0x56223b0beda0) {
  %22 = "torch_c.from_builtin_tensor"(%21) : (tensor<3xf32>) -> !torch.vtensor<[3],f32>

} -> SUCCESS : operation marked legal by the target
//===-------------------------------------------===//

//===-------------------------------------------===//
Legalizing operation : 'torch.aten.add.Tensor'(0x56223b0ece80) {
  %23 = "torch.aten.add.Tensor"(%20, %22, %1) : (!torch.vtensor<[3],f32>, !torch.vtensor<[3],f32>, !torch.int) -> !torch.vtensor<[3],f32>

  * Fold {
  } -> FAILURE : unable to fold

  * Pattern : 'torch.aten.add.Tensor -> ()' {
Trying to match "(anonymous namespace)::ConvertAtenScalarToTensorLike"
    ** Failure : not a supported Scalar to Tensor like op
"(anonymous namespace)::ConvertAtenScalarToTensorLike" result 0
  } -> FAILURE : pattern failed to match

  * Pattern : 'torch.aten.add.Tensor -> ()' {
Trying to match "(anonymous namespace)::ConvertElementwiseOp"
    ** Insert  : 'arith.constant'(0x7f71f001e810)
    ** Insert  : 'arith.constant'(0x7f71f001e880)
ImplicitTypeIDRegistry::lookupOrInsert(mlir::OpTrait::OneTypedResult<mlir::IndexType>::Impl<Empty>)
ImplicitTypeIDRegistry::lookupOrInsert(mlir::ShapedDimOpInterface::Trait<Empty>)
ImplicitTypeIDRegistry::lookupOrInsert(mlir::OpTrait::OneTypedResult<mlir::RankedTensorType>::Impl<Empty>)
    ** Insert  : 'arith.constant'(0x7f71f001e9a0)
    ** Insert  : 'arith.constant'(0x7f71f0016130)
    ** Insert  : 'arith.constant'(0x7f71f001eaf0)
    ** Insert  : 'tensor.empty'(0x7f71f001eb60)
ImplicitTypeIDRegistry::lookupOrInsert(mlir::linalg::detail::GenericOpGenericAdaptorBase::Properties)
    ** Insert  : 'arith.sitofp'(0x7f71f001fdd0)
    ** Insert  : 'arith.mulf'(0x7f71f001e8f0)
    ** Insert  : 'arith.addf'(0x7f71f001fe60)
    ** Insert  : 'linalg.yield'(0x7f71f001ff00)
    ** Insert  : 'linalg.generic'(0x7f71f0006060)
    ** Insert  : 'tensor.cast'(0x7f71f001ff90)
    ** Replace : 'torch.aten.add.Tensor'(0x56223b0ece80)
"(anonymous namespace)::ConvertElementwiseOp" result 1

    //===-------------------------------------------===//
    Legalizing operation : 'arith.constant'(0x7f71f001e810) {
      %25 = "arith.constant"() <{value = 1 : index}> : () -> index

    } -> SUCCESS : operation marked legal by the target
    //===-------------------------------------------===//

    //===-------------------------------------------===//
    Legalizing operation : 'arith.constant'(0x7f71f001e880) {
      %26 = "arith.constant"() <{value = 0 : index}> : () -> index

    } -> SUCCESS : operation marked legal by the target
    //===-------------------------------------------===//

    //===-------------------------------------------===//
    Legalizing operation : 'arith.constant'(0x7f71f001e9a0) {
      %27 = "arith.constant"() <{value = 3 : index}> : () -> index

    } -> SUCCESS : operation marked legal by the target
    //===-------------------------------------------===//

    //===-------------------------------------------===//
    Legalizing operation : 'arith.constant'(0x7f71f0016130) {
      %28 = "arith.constant"() <{value = 0 : index}> : () -> index

    } -> SUCCESS : operation marked legal by the target
    //===-------------------------------------------===//

    //===-------------------------------------------===//
    Legalizing operation : 'arith.constant'(0x7f71f001eaf0) {
      %29 = "arith.constant"() <{value = 3 : index}> : () -> index

    } -> SUCCESS : operation marked legal by the target
    //===-------------------------------------------===//

    //===-------------------------------------------===//
    Legalizing operation : 'tensor.empty'(0x7f71f001eb60) {
      %30 = "tensor.empty"() : () -> tensor<3xf32>

    } -> SUCCESS : operation marked legal by the target
    //===-------------------------------------------===//

    //===-------------------------------------------===//
    Legalizing operation : 'arith.sitofp'(0x7f71f001fdd0) {
      %34 = "arith.sitofp"(%2) : (i64) -> f32

    } -> SUCCESS : operation marked legal by the target
    //===-------------------------------------------===//

    //===-------------------------------------------===//
    Legalizing operation : 'arith.mulf'(0x7f71f001e8f0) {
      %35 = "arith.mulf"(%arg2, %34) <{fastmath = #arith.fastmath<none>}> : (f32, f32) -> f32

    } -> SUCCESS : operation marked legal by the target
    //===-------------------------------------------===//

    //===-------------------------------------------===//
    Legalizing operation : 'arith.addf'(0x7f71f001fe60) {
      %36 = "arith.addf"(%arg1, %35) <{fastmath = #arith.fastmath<none>}> : (f32, f32) -> f32

    } -> SUCCESS : operation marked legal by the target
    //===-------------------------------------------===//

    //===-------------------------------------------===//
    Legalizing operation : 'linalg.yield'(0x7f71f001ff00) {
      "linalg.yield"(%36) : (f32) -> ()

    } -> SUCCESS : operation marked legal by the target
    //===-------------------------------------------===//

    //===-------------------------------------------===//
    Legalizing operation : 'linalg.generic'(0x7f71f0006060) {
    } -> SUCCESS : operation marked legal by the target
    //===-------------------------------------------===//

    //===-------------------------------------------===//
    Legalizing operation : 'tensor.cast'(0x7f71f001ff90) {
      %32 = "tensor.cast"(%31) : (tensor<3xf32>) -> tensor<3xf32>

    } -> SUCCESS : operation marked legal by the target
    //===-------------------------------------------===//
  } -> SUCCESS : pattern applied successfully
// *** IR Dump After Pattern Application ***
mlir-asm-printer: Verifying operation: func.func
func.func private @forward(%arg0: !torch.vtensor<[4],f32>) -> !torch.vtensor<[3],f32> attributes {torch.assume_strict_symbolic_shapes} {
  %0 = builtin.unrealized_conversion_cast %arg0 : !torch.vtensor<[4],f32> to tensor<4xf32>
  %int1 = torch.constant.int 1
  %1 = builtin.unrealized_conversion_cast %int1 : !torch.int to i64
  %int0 = torch.constant.int 0
  %2 = builtin.unrealized_conversion_cast %int0 : !torch.int to i64
  %expanded = tensor.expand_shape %0 [[0, 1]] : tensor<4xf32> into tensor<1x4xf32>
  %3 = torch.aten.unsqueeze %arg0, %int0 : !torch.vtensor<[4],f32>, !torch.int -> !torch.vtensor<[1,4],f32>
  %_params.weight = util.global.load @_params.weight : tensor<4x3xf32>
  %4 = torch_c.from_builtin_tensor %_params.weight : tensor<4x3xf32> -> !torch.vtensor<[4,3],f32>
  %5 = builtin.unrealized_conversion_cast %4 : !torch.vtensor<[4,3],f32> to tensor<4x3xf32>
  %c0 = arith.constant 0 : index
  %dim = tensor.dim %expanded, %c0 : tensor<1x4xf32>
  %c1 = arith.constant 1 : index
  %dim_0 = tensor.dim %5, %c1 : tensor<4x3xf32>
  %6 = tensor.empty(%dim, %dim_0) : tensor<?x?xf32>
  %cst = arith.constant 0.000000e+00 : f32
  %7 = linalg.fill ins(%cst : f32) outs(%6 : tensor<?x?xf32>) -> tensor<?x?xf32>
  %8 = linalg.matmul ins(%expanded, %5 : tensor<1x4xf32>, tensor<4x3xf32>) outs(%7 : tensor<?x?xf32>) -> tensor<?x?xf32>
  %cast = tensor.cast %8 : tensor<?x?xf32> to tensor<1x3xf32>
  %9 = torch.aten.mm %3, %4 : !torch.vtensor<[1,4],f32>, !torch.vtensor<[4,3],f32> -> !torch.vtensor<[1,3],f32>
  %collapsed = tensor.collapse_shape %cast [[0, 1]] : tensor<1x3xf32> into tensor<3xf32>
  %10 = torch.aten.squeeze.dim %9, %int0 : !torch.vtensor<[1,3],f32>, !torch.int -> !torch.vtensor<[3],f32>
  %_params.bias = util.global.load @_params.bias : tensor<3xf32>
  %11 = torch_c.from_builtin_tensor %_params.bias : tensor<3xf32> -> !torch.vtensor<[3],f32>
  %12 = builtin.unrealized_conversion_cast %11 : !torch.vtensor<[3],f32> to tensor<3xf32>
  %c1_1 = arith.constant 1 : index
  %c0_2 = arith.constant 0 : index
  %c3 = arith.constant 3 : index
  %c0_3 = arith.constant 0 : index
  %c3_4 = arith.constant 3 : index
  %13 = tensor.empty() : tensor<3xf32>
  %14 = linalg.generic liuyinuo generic{indexing_maps = [affine_map<(d0) -> (d0)>, affine_map<(d0) -> (d0)>, affine_map<(d0) -> (d0)>], iterator_types = ["parallel"]} ins(%collapsed, %12 : tensor<3xf32>, tensor<3xf32>) outs(%13 : tensor<3xf32>) {
  ^bb0(%in: f32, %in_6: f32, %out: f32):
    %16 = arith.sitofp %1 : i64 to f32
    %17 = arith.mulf %in_6, %16 : f32
    %18 = arith.addf %in, %17 : f32
    linalg.yield %18 : f32
  } -> tensor<3xf32>
  %cast_5 = tensor.cast %14 : tensor<3xf32> to tensor<3xf32>
  %15 = torch.aten.add.Tensor %10, %11, %int1 : !torch.vtensor<[3],f32>, !torch.vtensor<[3],f32>, !torch.int -> !torch.vtensor<[3],f32>
  return %15 : !torch.vtensor<[3],f32>
}


} -> SUCCESS
//===-------------------------------------------===//

//===-------------------------------------------===//
Legalizing operation : 'func.return'(0x56223b0d3730) {
  "func.return"(%33) : (!torch.vtensor<[3],f32>) -> ()

} -> SUCCESS : operation marked legal by the target
//===-------------------------------------------===//
** Insert  : 'torch_c.to_i64'(0x7f71f00216e0)
** Insert  : 'torch_c.to_builtin_tensor'(0x7f71f0021770)
** Insert  : 'torch_c.to_builtin_tensor'(0x7f71f0023020)
** Insert  : 'torch_c.to_builtin_tensor'(0x7f71f00230b0)
** Insert  : 'torch_c.from_builtin_tensor'(0x7f71f0023140)
// -----// IR Dump After ConvertTorchToLinalg (convert-torch-to-linalg) //----- //
mlir-asm-printer: Verifying operation: func.func
func.func private @forward(%arg0: !torch.vtensor<[4],f32>) -> !torch.vtensor<[3],f32> attributes {torch.assume_strict_symbolic_shapes} {
  %0 = torch_c.to_builtin_tensor %arg0 : !torch.vtensor<[4],f32> -> tensor<4xf32>
  %int1 = torch.constant.int 1
  %1 = torch_c.to_i64 %int1
  %int0 = torch.constant.int 0
  %expanded = tensor.expand_shape %0 [[0, 1]] : tensor<4xf32> into tensor<1x4xf32>
  %_params.weight = util.global.load @_params.weight : tensor<4x3xf32>
  %2 = torch_c.from_builtin_tensor %_params.weight : tensor<4x3xf32> -> !torch.vtensor<[4,3],f32>
  %3 = torch_c.to_builtin_tensor %2 : !torch.vtensor<[4,3],f32> -> tensor<4x3xf32>
  %c0 = arith.constant 0 : index
  %dim = tensor.dim %expanded, %c0 : tensor<1x4xf32>
  %c1 = arith.constant 1 : index
  %dim_0 = tensor.dim %3, %c1 : tensor<4x3xf32>
  %4 = tensor.empty(%dim, %dim_0) : tensor<?x?xf32>
  %cst = arith.constant 0.000000e+00 : f32
  %5 = linalg.fill ins(%cst : f32) outs(%4 : tensor<?x?xf32>) -> tensor<?x?xf32>
  %6 = linalg.matmul ins(%expanded, %3 : tensor<1x4xf32>, tensor<4x3xf32>) outs(%5 : tensor<?x?xf32>) -> tensor<?x?xf32>
  %cast = tensor.cast %6 : tensor<?x?xf32> to tensor<1x3xf32>
  %collapsed = tensor.collapse_shape %cast [[0, 1]] : tensor<1x3xf32> into tensor<3xf32>
  %_params.bias = util.global.load @_params.bias : tensor<3xf32>
  %7 = torch_c.from_builtin_tensor %_params.bias : tensor<3xf32> -> !torch.vtensor<[3],f32>
  %8 = torch_c.to_builtin_tensor %7 : !torch.vtensor<[3],f32> -> tensor<3xf32>
  %c1_1 = arith.constant 1 : index
  %c0_2 = arith.constant 0 : index
  %c3 = arith.constant 3 : index
  %c0_3 = arith.constant 0 : index
  %c3_4 = arith.constant 3 : index
  %9 = tensor.empty() : tensor<3xf32>
  %10 = linalg.generic liuyinuo generic{indexing_maps = [affine_map<(d0) -> (d0)>, affine_map<(d0) -> (d0)>, affine_map<(d0) -> (d0)>], iterator_types = ["parallel"]} ins(%collapsed, %8 : tensor<3xf32>, tensor<3xf32>) outs(%9 : tensor<3xf32>) {
  ^bb0(%in: f32, %in_6: f32, %out: f32):
    %12 = arith.sitofp %1 : i64 to f32
    %13 = arith.mulf %in_6, %12 : f32
    %14 = arith.addf %in, %13 : f32
    linalg.yield %14 : f32
  } -> tensor<3xf32>
  %cast_5 = tensor.cast %10 : tensor<3xf32> to tensor<3xf32>
  %11 = torch_c.from_builtin_tensor %cast_5 : tensor<3xf32> -> !torch.vtensor<[3],f32>
  return %11 : !torch.vtensor<[3],f32>
}


//===-------------------------------------------===//
Legalizing operation : 'func.func'(0x56223b0bcbc0) {
  * Fold {
  } -> FAILURE : unable to fold
} -> FAILURE : no matched legalization pattern
//===-------------------------------------------===//

//===-------------------------------------------===//
Legalizing operation : 'torch_c.to_builtin_tensor'(0x7f71f00230b0) {
  %0 = "torch_c.to_builtin_tensor"(%arg0) : (!torch.vtensor<[4],f32>) -> tensor<4xf32>

} -> SUCCESS : operation marked legal by the target
//===-------------------------------------------===//

//===-------------------------------------------===//
Legalizing operation : 'torch.constant.int'(0x56223b0bef00) {
  %1 = "torch.constant.int"() <{value = 1 : i64}> : () -> !torch.int

} -> SUCCESS : operation marked legal by the target
//===-------------------------------------------===//

//===-------------------------------------------===//
Legalizing operation : 'torch_c.to_i64'(0x7f71f00216e0) {
  %2 = "torch_c.to_i64"(%1) : (!torch.int) -> i64

} -> SUCCESS : operation marked legal by the target
//===-------------------------------------------===//

//===-------------------------------------------===//
Legalizing operation : 'torch.constant.int'(0x56223b0d2180) {
  %3 = "torch.constant.int"() <{value = 0 : i64}> : () -> !torch.int

} -> SUCCESS : operation marked legal by the target
//===-------------------------------------------===//

//===-------------------------------------------===//
Legalizing operation : 'tensor.expand_shape'(0x7f71f0008560) {
  %4 = "tensor.expand_shape"(%0) <{reassociation = [[0, 1]]}> : (tensor<4xf32>) -> tensor<1x4xf32>

  * Fold {
  } -> FAILURE : unable to fold
} -> FAILURE : no matched legalization pattern
//===-------------------------------------------===//

//===-------------------------------------------===//
Legalizing operation : 'util.global.load'(0x56223b0bdb30) {
  %5 = "util.global.load"() <{global = @_params.weight}> : () -> tensor<4x3xf32>

  * Fold {
  } -> FAILURE : unable to fold
} -> FAILURE : no matched legalization pattern
//===-------------------------------------------===//

//===-------------------------------------------===//
Legalizing operation : 'torch_c.from_builtin_tensor'(0x56223b0bdb90) {
  %6 = "torch_c.from_builtin_tensor"(%5) : (tensor<4x3xf32>) -> !torch.vtensor<[4,3],f32>

} -> SUCCESS : operation marked legal by the target
//===-------------------------------------------===//

//===-------------------------------------------===//
Legalizing operation : 'torch_c.to_builtin_tensor'(0x7f71f0023020) {
  %7 = "torch_c.to_builtin_tensor"(%6) : (!torch.vtensor<[4,3],f32>) -> tensor<4x3xf32>

} -> SUCCESS : operation marked legal by the target
//===-------------------------------------------===//

//===-------------------------------------------===//
Legalizing operation : 'arith.constant'(0x7f71f00150c0) {
  %8 = "arith.constant"() <{value = 0 : index}> : () -> index

} -> SUCCESS : operation marked legal by the target
//===-------------------------------------------===//

//===-------------------------------------------===//
Legalizing operation : 'tensor.dim'(0x7f71f0015130) {
  %9 = "tensor.dim"(%4, %8) : (tensor<1x4xf32>, index) -> index

  * Fold {
    ** Insert  : 'arith.constant'(0x7f71f0009910)
    ** Replace : 'tensor.dim'(0x7f71f0015130)

    //===-------------------------------------------===//
    Legalizing operation : 'arith.constant'(0x7f71f0009910) {
      %9 = "arith.constant"() <{value = 1 : index}> : () -> index

    } -> SUCCESS : operation marked legal by the target
    //===-------------------------------------------===//
  } -> SUCCESS
} -> SUCCESS : operation was folded
//===-------------------------------------------===//

//===-------------------------------------------===//
Legalizing operation : 'arith.constant'(0x7f71f00151e0) {
  %11 = "arith.constant"() <{value = 1 : index}> : () -> index

} -> SUCCESS : operation marked legal by the target
//===-------------------------------------------===//

//===-------------------------------------------===//
Legalizing operation : 'tensor.dim'(0x7f71f0015250) {
  %12 = "tensor.dim"(%7, %11) : (tensor<4x3xf32>, index) -> index

  * Fold {
    ** Insert  : 'arith.constant'(0x7f71f0021510)
    ** Replace : 'tensor.dim'(0x7f71f0015250)

    //===-------------------------------------------===//
    Legalizing operation : 'arith.constant'(0x7f71f0021510) {
      %12 = "arith.constant"() <{value = 3 : index}> : () -> index

    } -> SUCCESS : operation marked legal by the target
    //===-------------------------------------------===//
  } -> SUCCESS
} -> SUCCESS : operation was folded
//===-------------------------------------------===//

//===-------------------------------------------===//
Legalizing operation : 'tensor.empty'(0x7f71f0015780) {
  %14 = "tensor.empty"(%10, %13) : (index, index) -> tensor<?x?xf32>

  * Fold {
  } -> FAILURE : unable to fold
} -> FAILURE : no matched legalization pattern
//===-------------------------------------------===//

//===-------------------------------------------===//
Legalizing operation : 'arith.constant'(0x7f71f00160c0) {
  %15 = "arith.constant"() <{value = 0.000000e+00 : f32}> : () -> f32

} -> SUCCESS : operation marked legal by the target
//===-------------------------------------------===//

//===-------------------------------------------===//
Legalizing operation : 'linalg.fill'(0x7f71f0016a30) {
  * Fold {
  } -> FAILURE : unable to fold
} -> FAILURE : no matched legalization pattern
//===-------------------------------------------===//

//===-------------------------------------------===//
Legalizing operation : 'linalg.yield'(0x7f71f000a430) {
  "linalg.yield"(%arg1) : (f32) -> ()

  * Fold {
  } -> FAILURE : unable to fold
} -> FAILURE : no matched legalization pattern
//===-------------------------------------------===//

//===-------------------------------------------===//
Legalizing operation : 'linalg.matmul'(0x7f71f0017a70) {
  * Fold {
  } -> FAILURE : unable to fold
} -> FAILURE : no matched legalization pattern
//===-------------------------------------------===//

//===-------------------------------------------===//
Legalizing operation : 'arith.mulf'(0x7f71f0017890) {
  %32 = "arith.mulf"(%arg1, %arg2) <{fastmath = #arith.fastmath<none>}> : (f32, f32) -> f32

} -> SUCCESS : operation marked legal by the target
//===-------------------------------------------===//

//===-------------------------------------------===//
Legalizing operation : 'arith.addf'(0x7f71f0017940) {
  %33 = "arith.addf"(%arg3, %32) <{fastmath = #arith.fastmath<none>}> : (f32, f32) -> f32

} -> SUCCESS : operation marked legal by the target
//===-------------------------------------------===//

//===-------------------------------------------===//
Legalizing operation : 'linalg.yield'(0x7f71f00179e0) {
  "linalg.yield"(%33) : (f32) -> ()

  * Fold {
ImplicitTypeIDRegistry::lookupOrInsert(mlir::arith::ArithFastMathInterface::Trait<Empty>)
ImplicitTypeIDRegistry::lookupOrInsert(mlir::OpTrait::IsCommutative<Empty>)
ImplicitTypeIDRegistry::lookupOrInsert(mlir::OpTrait::SameOperandsAndResultType<Empty>)
ImplicitTypeIDRegistry::lookupOrInsert(mlir::VectorUnrollOpInterface::Trait<Empty>)
ImplicitTypeIDRegistry::lookupOrInsert(mlir::OpTrait::Elementwise<Empty>)
ImplicitTypeIDRegistry::lookupOrInsert(mlir::OpTrait::Scalarizable<Empty>)
ImplicitTypeIDRegistry::lookupOrInsert(mlir::OpTrait::Vectorizable<Empty>)
ImplicitTypeIDRegistry::lookupOrInsert(mlir::OpTrait::Tensorizable<Empty>)
  } -> FAILURE : unable to fold
} -> FAILURE : no matched legalization pattern
//===-------------------------------------------===//

//===-------------------------------------------===//
Legalizing operation : 'tensor.cast'(0x7f71f0017b60) {
  %18 = "tensor.cast"(%17) : (tensor<?x?xf32>) -> tensor<1x3xf32>

  * Fold {
ImplicitTypeIDRegistry::lookupOrInsert(mlir::CastOpInterface::Trait<Empty>)
  } -> FAILURE : unable to fold
} -> FAILURE : no matched legalization pattern
//===-------------------------------------------===//

//===-------------------------------------------===//
Legalizing operation : 'tensor.collapse_shape'(0x7f71f001e6f0) {
  %19 = "tensor.collapse_shape"(%18) <{reassociation = [[0, 1]]}> : (tensor<1x3xf32>) -> tensor<3xf32>

  * Fold {
  } -> FAILURE : unable to fold
} -> FAILURE : no matched legalization pattern
//===-------------------------------------------===//

//===-------------------------------------------===//
Legalizing operation : 'util.global.load'(0x56223b0bed00) {
  %20 = "util.global.load"() <{global = @_params.bias}> : () -> tensor<3xf32>

  * Fold {
  } -> FAILURE : unable to fold
} -> FAILURE : no matched legalization pattern
//===-------------------------------------------===//

//===-------------------------------------------===//
Legalizing operation : 'torch_c.from_builtin_tensor'(0x56223b0beda0) {
  %21 = "torch_c.from_builtin_tensor"(%20) : (tensor<3xf32>) -> !torch.vtensor<[3],f32>

} -> SUCCESS : operation marked legal by the target
//===-------------------------------------------===//

//===-------------------------------------------===//
Legalizing operation : 'torch_c.to_builtin_tensor'(0x7f71f0021770) {
  %22 = "torch_c.to_builtin_tensor"(%21) : (!torch.vtensor<[3],f32>) -> tensor<3xf32>

} -> SUCCESS : operation marked legal by the target
//===-------------------------------------------===//

//===-------------------------------------------===//
Legalizing operation : 'arith.constant'(0x7f71f001e810) {
  %23 = "arith.constant"() <{value = 1 : index}> : () -> index

} -> SUCCESS : operation marked legal by the target
//===-------------------------------------------===//

//===-------------------------------------------===//
Legalizing operation : 'arith.constant'(0x7f71f001e880) {
  %24 = "arith.constant"() <{value = 0 : index}> : () -> index

} -> SUCCESS : operation marked legal by the target
//===-------------------------------------------===//

//===-------------------------------------------===//
Legalizing operation : 'arith.constant'(0x7f71f001e9a0) {
  %25 = "arith.constant"() <{value = 3 : index}> : () -> index

} -> SUCCESS : operation marked legal by the target
//===-------------------------------------------===//

//===-------------------------------------------===//
Legalizing operation : 'arith.constant'(0x7f71f0016130) {
  %26 = "arith.constant"() <{value = 0 : index}> : () -> index

} -> SUCCESS : operation marked legal by the target
//===-------------------------------------------===//

//===-------------------------------------------===//
Legalizing operation : 'arith.constant'(0x7f71f001eaf0) {
  %27 = "arith.constant"() <{value = 3 : index}> : () -> index

} -> SUCCESS : operation marked legal by the target
//===-------------------------------------------===//

//===-------------------------------------------===//
Legalizing operation : 'tensor.empty'(0x7f71f001eb60) {
  %28 = "tensor.empty"() : () -> tensor<3xf32>

  * Fold {
  } -> FAILURE : unable to fold
} -> FAILURE : no matched legalization pattern
//===-------------------------------------------===//

//===-------------------------------------------===//
Legalizing operation : 'linalg.generic'(0x7f71f0006060) {
  * Fold {
  } -> FAILURE : unable to fold
} -> FAILURE : no matched legalization pattern
//===-------------------------------------------===//

//===-------------------------------------------===//
Legalizing operation : 'arith.sitofp'(0x7f71f001fdd0) {
  %32 = "arith.sitofp"(%2) : (i64) -> f32

…
  util.global private @_params.weight : !stream.resource<constant>
  util.global private @_params.bias : !stream.resource<constant>
  util.initializer {
    %c48 = arith.constant 48 : index
    %c12 = arith.constant 12 : index
    %cst = stream.async.constant : !stream.resource<constant>{%c48} = dense<[[1.54099607, -0.293428898, -2.17878938], [0.568431258, -1.08452237, -1.39859545], [0.403346837, 0.838026344, -0.719257593], [-0.403343529, -0.596635341, 0.182036489]]> : tensor<4x3xf32>
    %cst_0 = stream.async.constant : !stream.resource<constant>{%c12} = dense<[-0.856674611, 1.10060418, -1.07118738]> : tensor<3xf32>
    util.global.store %cst_0, @_params.bias : !stream.resource<constant>
    util.global.store %cst, @_params.weight : !stream.resource<constant>
    util.initializer.return
  }
  stream.executable private @main_dispatch_0 {
    stream.executable.export public @main_dispatch_0_matmul_1x3x4_f32 workgroups() -> (index, index, index) {
      %x, %y, %z = flow.dispatch.workgroup_count_from_slice 
      stream.return %x, %y, %z : index, index, index
    }
    builtin.module {
      func.func @main_dispatch_0_matmul_1x3x4_f32(%arg0: !stream.binding, %arg1: !stream.binding, %arg2: !stream.binding, %arg3: !stream.binding) {
        %cst = arith.constant 0.000000e+00 : f32
        %c0 = arith.constant 0 : index
        %0 = stream.binding.subspan %arg0[%c0] : !stream.binding -> !flow.dispatch.tensor<readonly:tensor<1x4xf32>>
        %1 = stream.binding.subspan %arg1[%c0] : !stream.binding -> !flow.dispatch.tensor<readonly:tensor<4x3xf32>>
        %2 = stream.binding.subspan %arg2[%c0] : !stream.binding -> !flow.dispatch.tensor<readonly:tensor<1x3xf32>>
        %3 = stream.binding.subspan %arg3[%c0] : !stream.binding -> !flow.dispatch.tensor<writeonly:tensor<1x3xf32>>
        %4 = flow.dispatch.tensor.load %0, offsets = [0, 0], sizes = [1, 4], strides = [1, 1] : !flow.dispatch.tensor<readonly:tensor<1x4xf32>> -> tensor<1x4xf32>
        %5 = flow.dispatch.tensor.load %1, offsets = [0, 0], sizes = [4, 3], strides = [1, 1] : !flow.dispatch.tensor<readonly:tensor<4x3xf32>> -> tensor<4x3xf32>
        %6 = flow.dispatch.tensor.load %2, offsets = [0, 0], sizes = [1, 3], strides = [1, 1] : !flow.dispatch.tensor<readonly:tensor<1x3xf32>> -> tensor<1x3xf32>
        %7 = tensor.empty() : tensor<1x3xf32>
        %8 = linalg.fill ins(%cst : f32) outs(%7 : tensor<1x3xf32>) -> tensor<1x3xf32>
        %9 = linalg.matmul ins(%4, %5 : tensor<1x4xf32>, tensor<4x3xf32>) outs(%8 : tensor<1x3xf32>) -> tensor<1x3xf32>
        %10 = linalg.generic liuyinuo generic{indexing_maps = [#map, #map, #map], iterator_types = ["parallel", "parallel"]} ins(%9, %6 : tensor<1x3xf32>, tensor<1x3xf32>) outs(%7 : tensor<1x3xf32>) {
        ^bb0(%in: f32, %in_0: f32, %out: f32):
          %11 = arith.addf %in, %in_0 : f32
          linalg.yield %11 : f32
        } -> tensor<1x3xf32>
        flow.dispatch.tensor.store %10, %3, offsets = [0, 0], sizes = [1, 3], strides = [1, 1] : tensor<1x3xf32> -> !flow.dispatch.tensor<writeonly:tensor<1x3xf32>>
        return
      }
    }
  }
  func.func @main(%arg0: !hal.buffer_view) -> !hal.buffer_view attributes {iree.abi.stub} {
    %c16 = arith.constant 16 : index
    %c12 = arith.constant 12 : index
    %c553648160_i32 = arith.constant 553648160 : i32
    %c1_i32 = arith.constant 1 : i32
    %c4 = arith.constant 4 : index
    %c0 = arith.constant 0 : index
    %c48 = arith.constant 48 : index
    %_params.weight = util.global.load @_params.weight : !stream.resource<constant>
    %_params.bias = util.global.load @_params.bias : !stream.resource<constant>
    hal.buffer_view.assert<%arg0 : !hal.buffer_view> message("input 0") shape([%c4]) type(%c553648160_i32) encoding(%c1_i32)
    %0 = stream.tensor.import %arg0 : !hal.buffer_view -> tensor<4xf32> in !stream.resource<external>{%c16}
    %1 = stream.async.dispatch @main_dispatch_0::@main_dispatch_0_matmul_1x3x4_f32(%0[%c0 to %c16 for %c16], %_params.weight[%c0 to %c48 for %c48], %_params.bias[%c0 to %c12 for %c12]) : (!stream.resource<external>{%c16}, !stream.resource<constant>{%c48}, !stream.resource<constant>{%c12}) -> !stream.resource<external>{%c12}
    %2 = stream.tensor.export %1 : tensor<3xf32> in !stream.resource<external>{%c12} -> !hal.buffer_view
    return %2 : !hal.buffer_view
  }
}


// -----// IR Dump After VerifyAsyncAccessRanges (iree-stream-verify-async-access-ranges) //----- //
mlir-asm-printer: Verifying operation: builtin.module
#executable_target_cuda_nvptx_fb = #hal.executable.target<"cuda", "cuda-nvptx-fb", {target_arch = "sm_75"}>
#map = affine_map<(d0, d1) -> (d0, d1)>
#device_target_cuda = #hal.device.target<"cuda", {executable_targets = [#executable_target_cuda_nvptx_fb], legacy_sync}>
module @LinearModule attributes {hal.device.targets = [#device_target_cuda]} {
  util.global private @_params.weight : !stream.resource<constant>
  util.global private @_params.bias : !stream.resource<constant>
  util.initializer {
    %c48 = arith.constant 48 : index
    %c12 = arith.constant 12 : index
    %cst = stream.async.constant : !stream.resource<constant>{%c48} = dense<[[1.54099607, -0.293428898, -2.17878938], [0.568431258, -1.08452237, -1.39859545], [0.403346837, 0.838026344, -0.719257593], [-0.403343529, -0.596635341, 0.182036489]]> : tensor<4x3xf32>
    %cst_0 = stream.async.constant : !stream.resource<constant>{%c12} = dense<[-0.856674611, 1.10060418, -1.07118738]> : tensor<3xf32>
    util.global.store %cst_0, @_params.bias : !stream.resource<constant>
    util.global.store %cst, @_params.weight : !stream.resource<constant>
    util.initializer.return
  }
  stream.executable private @main_dispatch_0 {
    stream.executable.export public @main_dispatch_0_matmul_1x3x4_f32 workgroups() -> (index, index, index) {
      %x, %y, %z = flow.dispatch.workgroup_count_from_slice 
      stream.return %x, %y, %z : index, index, index
    }
    builtin.module {
      func.func @main_dispatch_0_matmul_1x3x4_f32(%arg0: !stream.binding, %arg1: !stream.binding, %arg2: !stream.binding, %arg3: !stream.binding) {
        %cst = arith.constant 0.000000e+00 : f32
        %c0 = arith.constant 0 : index
        %0 = stream.binding.subspan %arg0[%c0] : !stream.binding -> !flow.dispatch.tensor<readonly:tensor<1x4xf32>>
        %1 = stream.binding.subspan %arg1[%c0] : !stream.binding -> !flow.dispatch.tensor<readonly:tensor<4x3xf32>>
        %2 = stream.binding.subspan %arg2[%c0] : !stream.binding -> !flow.dispatch.tensor<readonly:tensor<1x3xf32>>
        %3 = stream.binding.subspan %arg3[%c0] : !stream.binding -> !flow.dispatch.tensor<writeonly:tensor<1x3xf32>>
        %4 = flow.dispatch.tensor.load %0, offsets = [0, 0], sizes = [1, 4], strides = [1, 1] : !flow.dispatch.tensor<readonly:tensor<1x4xf32>> -> tensor<1x4xf32>
        %5 = flow.dispatch.tensor.load %1, offsets = [0, 0], sizes = [4, 3], strides = [1, 1] : !flow.dispatch.tensor<readonly:tensor<4x3xf32>> -> tensor<4x3xf32>
        %6 = flow.dispatch.tensor.load %2, offsets = [0, 0], sizes = [1, 3], strides = [1, 1] : !flow.dispatch.tensor<readonly:tensor<1x3xf32>> -> tensor<1x3xf32>
        %7 = tensor.empty() : tensor<1x3xf32>
        %8 = linalg.fill ins(%cst : f32) outs(%7 : tensor<1x3xf32>) -> tensor<1x3xf32>
        %9 = linalg.matmul ins(%4, %5 : tensor<1x4xf32>, tensor<4x3xf32>) outs(%8 : tensor<1x3xf32>) -> tensor<1x3xf32>
        %10 = linalg.generic liuyinuo generic{indexing_maps = [#map, #map, #map], iterator_types = ["parallel", "parallel"]} ins(%9, %6 : tensor<1x3xf32>, tensor<1x3xf32>) outs(%7 : tensor<1x3xf32>) {
        ^bb0(%in: f32, %in_0: f32, %out: f32):
          %11 = arith.addf %in, %in_0 : f32
          linalg.yield %11 : f32
        } -> tensor<1x3xf32>
        flow.dispatch.tensor.store %10, %3, offsets = [0, 0], sizes = [1, 3], strides = [1, 1] : tensor<1x3xf32> -> !flow.dispatch.tensor<writeonly:tensor<1x3xf32>>
        return
      }
    }
  }
  func.func @main(%arg0: !hal.buffer_view) -> !hal.buffer_view attributes {iree.abi.stub} {
    %c16 = arith.constant 16 : index
    %c12 = arith.constant 12 : index
    %c553648160_i32 = arith.constant 553648160 : i32
    %c1_i32 = arith.constant 1 : i32
    %c4 = arith.constant 4 : index
    %c0 = arith.constant 0 : index
    %c48 = arith.constant 48 : index
    %_params.weight = util.global.load @_params.weight : !stream.resource<constant>
    %_params.bias = util.global.load @_params.bias : !stream.resource<constant>
    hal.buffer_view.assert<%arg0 : !hal.buffer_view> message("input 0") shape([%c4]) type(%c553648160_i32) encoding(%c1_i32)
    %0 = stream.tensor.import %arg0 : !hal.buffer_view -> tensor<4xf32> in !stream.resource<external>{%c16}
    %1 = stream.async.dispatch @main_dispatch_0::@main_dispatch_0_matmul_1x3x4_f32(%0[%c0 to %c16 for %c16], %_params.weight[%c0 to %c48 for %c48], %_params.bias[%c0 to %c12 for %c12]) : (!stream.resource<external>{%c16}, !stream.resource<constant>{%c48}, !stream.resource<constant>{%c12}) -> !stream.resource<external>{%c12}
    %2 = stream.tensor.export %1 : tensor<3xf32> in !stream.resource<external>{%c12} -> !hal.buffer_view
    return %2 : !hal.buffer_view
  }
}


mlir-asm-printermlir-asm-printer: Verifying operation: : Verifying operation: builtin.modulebuiltin.module

Side-effecting op forcing flush and freeze:
util.initializer.return
====
Partitioning op:
util.initializer.return
Not streamable (skip)
(ignoring global store)
(ignoring global store)
====
Partitioning op:
%cst_0 = stream.async.constant : Side-effecting op forcing flush and freeze:
!stream.resource<constant>func.return{ %%c122}  :=  dense<!hal.buffer_view
[====
Partitioning op:
func.return %2 : -0.856674611!, hal.buffer_view
Not streamable (skip)
1.10060418, ====
Partitioning op:
%-1.071187382] = >stream.tensor.export :  %tensor<13 x:f32 >tensor<3xf32>
 in Created partition 0!
stream.resource<external>{====
Partitioning op:
%c12%}cst  = -> stream.async.constant :! hal.buffer_view!stream.resource<constant>{%c48} 
= Testing user:
dense<func.return %2[ [: !hal.buffer_view
1.54099607Not streamable (skip)
, ====
Partitioning op:
%1 = -0.293428898, stream.async.dispatch @main_dispatch_0::@-2.17878938main_dispatch_0_matmul_1x3x4_f32], [(%0[%c0 to 0.568431258%, c16 for %c16], %_params.weight-1.08452237[, %c0 to %c48 for %c48-1.39859545]], , %[_params.bias[%c0 to %c12 for 0.403346837%, c12])0.838026344, -0.719257593], [ : (-0.403343529, !stream.resource<external>-0.596635341, {%c16}, 0.182036489]!]stream>.resource<constant> : {tensor<%4c48x}3, xf32>!stream.resource<constant>{%
c12}) -> Moving to first candidate partition 0 (continue)
(ignoring constant)
!(ignoring constant)
stream.resource<external>{%c12}PARTITION[
0]:
Testing user:
 INS:
  %%2c48 = , %stream.tensor.exportc12 
 OUTS:
  %%1cst , :% cst_0
 OPS:
  tensor<%3cstx = f32>stream.async.constant  in:  !stream!.streamresource<external>.{resource<constant>%{c12%}c48 }->  = !haldense<.buffer_view[[
Created partition 1.540996070, 
-0.293428898====
Partitioning op:
, %0 = stream.tensor.import %-2.17878938arg0] , :[ !hal.buffer_view0.568431258 , -> tensor<4x-1.08452237f32, > in !-1.39859545stream]., resource<external>[{%c16}0.403346837, 
Testing user:
0.838026344%, 1 = stream.async.dispatch @-0.719257593main_dispatch_0]::, @[main_dispatch_0_matmul_1x3x4_f32(%0[%-0.403343529c0,  to %c16 for %c16], -0.596635341%, _params.weight[%c0 to %c48 for 0.182036489%]c48]]>,  : %_params.biastensor<[4%xc03 to x%f32c12> for %c12])
  %cst_0 = stream.async.constant :  :! stream.resource<constant>({%c12} !=stream .resource<external>dense<{%c16}[, !stream.resource<constant>{-0.856674611%, c48}, !stream1.10060418., resource<constant>{%c12}) -> -1.07118738]> : !streamtensor<.3resource<external>x{f32%>c12}
  member of partition 0

Not streamable (skip)
Side-effecting op forcing flush and freeze:
hal.buffer_view.assert<%arg0 : !hal.buffer_view> message("input 0") shape([%c4]) type(%c553648160_i32) encoding(%c1_i32)
====
Partitioning op:
hal.buffer_view.assert<%arg0 : !hal.buffer_view> message("Cloned op into partition i0n: put 0") ImplicitTypeIDRegistry::lookupOrInsert(shapemlir::OpTrait::AtLeastNResults<1>::Impl<Empty>()
[%ImplicitTypeIDRegistry::lookupOrInsert(c4mlir::OpTrait::SingleBlockImplicitTerminator<mlir::iree_compiler::IREE::Stream::YieldOp>::Impl<Empty>])
) typeImplicitTypeIDRegistry::lookupOrInsert((mlir::RegionBranchOpInterface::Trait<Empty>%)
c553648160_i32)ImplicitTypeIDRegistry::lookupOrInsert( mlir::iree_compiler::IREE::Stream::TimelineOpInterface::Trait<Empty>encoding)
(%mlir-asm-printerc1_i32: Verifying operation: )util.initializer

Not streamable (skip)
====
Partitioning op:
%_params.bias = util.global.load @_params.bias : !stream.resource<constant>
Testing user:
%1 = stream.async.dispatch @main_dispatch_0::@main_dispatch_0_matmul_1x3x4_f32(%0[%c0 to %c16 for %c16], %_params.weight[%c0 to %c48 for %c48], %_params.bias[%c0 to %c12 for %c12]) : (!stream.resource<external>{%c16}, !stream.resource<constant>{%c48}, !stream.resource<constant>{%c12}) -> !stream.resource<external>{%c12}
  member of partition 0
Not streamable (skip)
====
Partitioning op:
%_params.weight = util.global.load @_params.weight : !stream.resource<constant>
Testing user:
%1 = stream.async.dispatch @main_dispatch_0::@main_dispatch_0_matmul_1x3x4_f32(%0[%c0 to %c16 for %c16], %_params.weight[%c0 to %c48 for %c48], %_params.bias[%c0 to %c12 for %c12]) : (!stream.resource<external>{%c16}, !stream.resource<constant>{%c48}, !stream.resource<constant>{%c12}) -> !stream.resource<external>{%c12}
  member of partition 0
Not streamable (skip)
(ignoring constant)
(ignoring constant)
(ignoring constant)
(ignoring constant)
(ignoring constant)
(ignoring constant)
(ignoring constant)
PARTITION[0block with no terminator, has ]:
%5 = "stream.async.constant"(%0) <{value = dense<[[1.54099607, -0.293428898, -2.17878938], [0.568431258, -1.08452237, -1.39859545], [0.403346837, 0.838026344, -0.719257593], [-0.403343529, -0.596635341, 0.182036489]]> : tensor<4x3xf32>}> : (index) -> !stream.resource<constant> INS:
  
%0, mlir-asm-printer%: '_params.weightutil.initializer, ' failed to verify and will be printed in generic form
%_params.bias, %c16, %c48, %c12, %c0
 OUTS:
  %1
 OPS:
  %1 = stream.async.dispatch @main_dispatch_0::@%main_dispatch_0_matmul_1x3x4_f325 = ("%s0t[r%ec0a to m%.c16a for s%yc16n]c, .%c_params.weighto[n%sc0t to a%nc48t for "%(c48%]0, )%_params.bias[%c0 to  <%{c12value for  = %c12]dense<)[[ 1.54099607:,  (-0.293428898!, stream.resource<external>{%c16-2.17878938}], , [!stream.resource<constant>{0.568431258%, c48}, !stream-1.08452237., resource<constant>{%c12}) -> -1.39859545], [!stream.resource<external>0.403346837{, %c12}
0.838026344, -0.719257593], [-0.403343529, -0.596635341, 0.182036489]]> : tensor<4x3xf32>}> : (index) -> !stream.resource<constant>
Cloned op into partition 0: mlir-asm-printer: Verifying operation: util.initializer
Cloned op into partition 0: mlir-asm-printer: Verifying operation: func.func
block with no terminator, has %6 = "stream.async.constant"(%1) <{value = dense<[-0.856674611, 1.10060418, -1.07118738]> : tensor<3xf32>}> : (index) -> !stream.resource<constant>
mlir-asm-printer: 'util.initializer' failed to verify and will be printed in generic form
%6 = "stream.async.constant"(%1) <{value = dense<[-0.856674611, 1.10060418, -1.07118738]> : tensor<3xf32>}> : (index) -> block with no terminator, has !%13 = "stream.async.dispatch"(%arg1, %arg2, %arg3, %0, %6, %1, %5, %5, %5, %0, %6, %1, %0, %6, %1, %1) <{entry_points = [@main_dispatch_0::@main_dispatch_0_matmul_1x3x4_f32], operandSegmentSizes = array<i32: 0, 3, 3, 3, 3, 3, 1>, tied_operands = [-1 : index]}> : (!stream.resource<external>, !stream.resource<constant>, !stream.resource<constant>, index, index, index, index, index, index, index, index, index, index, index, index, index) -> !stream.resource<external>stream
.resource<constant>mlir-asm-printer: '
func.func' failed to verify and will be printed in generic form
%13 = "stream.async.dispatch"(%arg1, %arg2, %arg3, %0, %6, %1, %5, %
Partitions constructed:
5mlir-asm-printer, : Verifying operation: %builtin.module5
, %0, %6, %1, %0, %6, %1, %1) <{entry_points = [@main_dispatch_0::@main_dispatch_0_matmul_1x3x4_f32], operandSegmentSizes = array<i32: 0, 3, 3, 3, 3, 3, 1>, tied_operands = [-1 : index]}> : (!stream.resource<external>, !stream.resource<constant>, !stream.resource<constant>, index, ImplicitTypeIDRegistry::lookupOrInsert(indexmlir::OpTrait::HasParent<mlir::iree_compiler::IREE::Stream::AsyncExecuteOp, mlir::iree_compiler::IREE::Stream::AsyncConcurrentOp, mlir::iree_compiler::IREE::Stream::CmdExecuteOp, mlir::iree_compiler::IREE::Stream::CmdSerialOp, mlir::iree_compiler::IREE::Stream::CmdConcurrentOp>::Impl<Empty>, )
index, index, index, index, index, index, index, index, index, index, index) -> !stream.resource<external>

Partitions constructed:
mlir-asm-printer: Verifying operation: builtin.module
Please report issues to https://github.com/openxla/iree/issues and include the crash backtrace.
^bb0(%arg0: !hal.buffer_view):
  %c16 = arith.constant 16 : index
  %c12 = arith.constant 12 : index
  %c553648160_i32 = arith.constant 553648160 : i32
  %c1_i32 = arith.constant 1 : i32
  %c4 = arith.constant 4 : index
  %c0 = arith.constant 0 : index
  %c48 = arith.constant 48 : index
  %_params.weight = util.global.load @_params.weight : !stream.resource<constant>
  %_params.bias = util.global.load @_params.bias : !stream.resource<constant>
  hal.buffer_view.assert<%arg0 : !hal.buffer_view> message("input 0") shape([%c4]) type(%c553648160_i32) encoding(%c1_i32)
  %0 = stream.tensor.import %arg0 : !hal.buffer_view -> tensor<4xf32> in !stream.resource<external>{%c16}
  %results, %result_timepoint = stream.async.execute with(%0 as %arg1: !stream.resource<external>{%c16}, %_params.weight as %arg2: !stream.resource<constant>{%c48}, %_params.bias as %arg3: !stream.resource<constant>{%c12}) -> !stream.resource<external>{%c12} {
    %3 = stream.async.dispatch @main_dispatch_0::@main_dispatch_0_matmul_1x3x4_f32(%arg1[%c0 to %c16 for %c16], %arg2[%c0 to %c48 for %c48], %arg3[%c0 to %c12 for %c12]) : (!stream.resource<external>{%c16}, !stream.resource<constant>{%c48}, !stream.resource<constant>{%c12}) -> !stream.resource<external>{%c12}
    stream.yield %3 : !stream.resource<external>{%c12}
  } => !stream.timepoint
  %1 = stream.timepoint.await %result_timepoint => %results : !stream.resource<external>{%c12}
  %2 = stream.tensor.export %1 : tensor<3xf32> in !stream.resource<external>{%c12} -> !hal.buffer_view
  func.return %2 : !hal.buffer_view

//===-------------------------------------------===//
Processing operation : 'func.return'(0x56223b8f73c0) {
  "func.return"(%12) : (!hal.buffer_view) -> ()

} -> failure : pattern failed to match
//===-------------------------------------------===//

//===-------------------------------------------===//
Processing operation : 'stream.tensor.export'(0x56223bb83690) {
  %12 = "stream.tensor.export"(%11, %1) <{source_encoding = tensor<3xf32>}> : (!stream.resource<external>, index) -> !hal.buffer_view

} -> failure : pattern failed to match
//===-------------------------------------------===//

//===-------------------------------------------===//
Processing operation : 'stream.timepoint.await'(0x7f71d4008f50) {
  %11 = "stream.timepoint.await"(%10#0, %1, %10#1) <{operandSegmentSizes = array<i32: 1, 1, 1>}> : (!stream.resource<external>, index, !stream.timepoint) -> !stream.resource<external>


  * Pattern mlir::iree_compiler::IREE::Stream::(anonymous namespace)::ElideUnusedOp<mlir::iree_compiler::IREE::Stream::TimepointAwaitOp> : 'stream.timepoint.await -> ()' {
Trying to match "mlir::iree_compiler::IREE::Stream::(anonymous namespace)::ElideUnusedOp<mlir::iree_compiler::IREE::Stream::TimepointAwaitOp>"
"mlir::iree_compiler::IREE::Stream::(anonymous namespace)::ElideUnusedOp<mlir::iree_compiler::IREE::Stream::TimepointAwaitOp>" result 0
  } -> failure : pattern failed to match

  * Pattern mlir::iree_compiler::IREE::Stream::(anonymous namespace)::ElideImmediateHostAwaits : 'stream.timepoint.await -> ()' {
Trying to match "mlir::iree_compiler::IREE::Stream::(anonymous namespace)::ElideImmediateHostAwaits"
"mlir::iree_compiler::IREE::Stream::(anonymous namespace)::ElideImmediateHostAwaits" result 0
  } -> failure : pattern failed to match

  * Pattern mlir::iree_compiler::IREE::Stream::(anonymous namespace)::SinkAwaitToFirstConsumer : 'stream.timepoint.await -> ()' {
Trying to match "mlir::iree_compiler::IREE::Stream::(anonymous namespace)::SinkAwaitToFirstConsumer"
"mlir::iree_compiler::IREE::Stream::(anonymous namespace)::SinkAwaitToFirstConsumer" result 0
  } -> failure : pattern failed to match

  * Pattern mlir::iree_compiler::IREE::Stream::(anonymous namespace)::SinkSubviewsAcrossAwaits : 'stream.timepoint.await -> ()' {
Trying to match "mlir::iree_compiler::IREE::Stream::(anonymous namespace)::SinkSubviewsAcrossAwaits"
"mlir::iree_compiler::IREE::Stream::(anonymous namespace)::SinkSubviewsAcrossAwaits" result 0
  } -> failure : pattern failed to match

  * Pattern mlir::iree_compiler::IREE::Stream::(anonymous namespace)::GroupAwaitsByTimepoint : 'stream.timepoint.await -> ()' {
Trying to match "mlir::iree_compiler::IREE::Stream::(anonymous namespace)::GroupAwaitsByTimepoint"
"mlir::iree_compiler::IREE::Stream::(anonymous namespace)::GroupAwaitsByTimepoint" result 0
  } -> failure : pattern failed to match

  * Pattern mlir::iree_compiler::IREE::Stream::(anonymous namespace)::FoldDuplicateAwaitResources : 'stream.timepoint.await -> ()' {
Trying to match "mlir::iree_compiler::IREE::Stream::(anonymous namespace)::FoldDuplicateAwaitResources"
"mlir::iree_compiler::IREE::Stream::(anonymous namespace)::FoldDuplicateAwaitResources" result 0
  } -> failure : pattern failed to match
} -> failure : pattern failed to match
//===-------------------------------------------===//

//===-------------------------------------------===//
Processing operation : 'stream.yield'(0x7f71d4008ea0) {
  "stream.yield"(%13, %1) : (!stream.resource<external>, index) -> ()

} -> failure : pattern failed to match
//===-------------------------------------------===//

//===-------------------------------------------===//
Processing operation : 'stream.async.execute'(0x7f71d40082d0) {

  * Pattern mlir::iree_compiler::IREE::Stream::(anonymous namespace)::ElideUnusedOp<mlir::iree_compiler::IREE::Stream::AsyncExecuteOp> : 'stream.async.execute -> ()' {
Trying to match "mlir::iree_compiler::IREE::Stream::(anonymous namespace)::ElideUnusedOp<mlir::iree_compiler::IREE::Stream::AsyncExecuteOp>"
"mlir::iree_compiler::IREE::Stream::(anonymous namespace)::ElideUnusedOp<mlir::iree_compiler::IREE::Stream::AsyncExecuteOp>" result 0
  } -> failure : pattern failed to match

  * Pattern mlir::iree_compiler::IREE::Stream::(anonymous namespace)::ElideImmediateTimepointWait<mlir::iree_compiler::IREE::Stream::AsyncExecuteOp> : 'stream.async.execute -> ()' {
Trying to match "mlir::iree_compiler::IREE::Stream::(anonymous namespace)::ElideImmediateTimepointWait<mlir::iree_compiler::IREE::Stream::AsyncExecuteOp>"
"mlir::iree_compiler::IREE::Stream::(anonymous namespace)::ElideImmediateTimepointWait<mlir::iree_compiler::IREE::Stream::AsyncExecuteOp>" result 0
  } -> failure : pattern failed to match

  * Pattern mlir::iree_compiler::IREE::Stream::(anonymous namespace)::ChainDependentAwaits<mlir::iree_compiler::IREE::Stream::AsyncExecuteOp> : 'stream.async.execute -> ()' {
Trying to match "mlir::iree_compiler::IREE::Stream::(anonymous namespace)::ChainDependentAwaits<mlir::iree_compiler::IREE::Stream::AsyncExecuteOp>"
"mlir::iree_compiler::IREE::Stream::(anonymous namespace)::ChainDependentAwaits<mlir::iree_compiler::IREE::Stream::AsyncExecuteOp>" result 0
  } -> failure : pattern failed to match

  * Pattern mlir::iree_compiler::IREE::Stream::(anonymous namespace)::CloneCapturedAsyncExecuteSubviewOps : 'stream.async.execute -> ()' {
Trying to match "mlir::iree_compiler::IREE::Stream::(anonymous namespace)::CloneCapturedAsyncExecuteSubviewOps"
"mlir::iree_compiler::IREE::Stream::(anonymous namespace)::CloneCapturedAsyncExecuteSubviewOps" result 0
  } -> failure : pattern failed to match

  * Pattern mlir::iree_compiler::IREE::Stream::(anonymous namespace)::ElideNoOpAsyncExecuteOp : 'stream.async.execute -> ()' {
Trying to match "mlir::iree_compiler::IREE::Stream::(anonymous namespace)::ElideNoOpAsyncExecuteOp"
"mlir::iree_compiler::IREE::Stream::(anonymous namespace)::ElideNoOpAsyncExecuteOp" result 0
  } -> failure : pattern failed to match

  * Pattern mlir::iree_compiler::IREE::Util::ClosureOptimizationPattern<mlir::iree_compiler::IREE::Stream::AsyncExecuteOp> : 'stream.async.execute -> ()' {
Trying to match "mlir::iree_compiler::IREE::Util::ClosureOptimizationPattern<mlir::iree_compiler::IREE::Stream::AsyncExecuteOp>"
"mlir::iree_compiler::IREE::Util::ClosureOptimizationPattern<mlir::iree_compiler::IREE::Stream::AsyncExecuteOp>" result 0
  } -> failure : pattern failed to match

  * Pattern mlir::iree_compiler::IREE::Stream::(anonymous namespace)::TieRegionResults<mlir::iree_compiler::IREE::Stream::AsyncExecuteOp> : 'stream.async.execute -> ()' {
Trying to match "mlir::iree_compiler::IREE::Stream::(anonymous namespace)::TieRegionResults<mlir::iree_compiler::IREE::Stream::AsyncExecuteOp>"
"mlir::iree_compiler::IREE::Stream::(anonymous namespace)::TieRegionResults<mlir::iree_compiler::IREE::Stream::AsyncExecuteOp>" result 0
  } -> failure : pattern failed to match
} -> failure : pattern failed to match
//===-------------------------------------------===//

//===-------------------------------------------===//
Processing operation : 'stream.async.dispatch'(0x7f71d4008460) {
  %13 = "stream.async.dispatch"(%arg1, %arg2, %arg3, %0, %6, %1, %5, %5, %5, %0, %6, %1, %0, %6, %1, %1) <{entry_points = [@main_dispatch_0::@main_dispatch_0_matmul_1x3x4_f32], operandSegmentSizes = array<i32: 0, 3, 3, 3, 3, 3, 1>, tied_operands = [-1 : index]}> : (!stream.resource<external>, !stream.resource<constant>, !stream.resource<constant>, index, index, index, index, index, index, index, index, index, index, index, index, index) -> !stream.resource<external>


  * Pattern mlir::iree_compiler::IREE::Stream::(anonymous namespace)::ElideUnusedOp<mlir::iree_compiler::IREE::Stream::AsyncDispatchOp> : 'stream.async.dispatch -> ()' {
Trying to match "mlir::iree_compiler::IREE::Stream::(anonymous namespace)::ElideUnusedOp<mlir::iree_compiler::IREE::Stream::AsyncDispatchOp>"
"mlir::iree_compiler::IREE::Stream::(anonymous namespace)::ElideUnusedOp<mlir::iree_compiler::IREE::Stream::AsyncDispatchOp>" result 0
  } -> failure : pattern failed to match

  * Pattern mlir::iree_compiler::IREE::Stream::(anonymous namespace)::DeduplicateAsyncDispatchEntryRefs : 'stream.async.dispatch -> ()' {
Trying to match "mlir::iree_compiler::IREE::Stream::(anonymous namespace)::DeduplicateAsyncDispatchEntryRefs"
"mlir::iree_compiler::IREE::Stream::(anonymous namespace)::DeduplicateAsyncDispatchEntryRefs" result 0
  } -> failure : pattern failed to match
} -> failure : pattern failed to match
//===-------------------------------------------===//

//===-------------------------------------------===//
Processing operation : 'stream.tensor.import'(0x7f71f000adc0) {
  %9 = "stream.tensor.import"(%arg0, %0) <{result_encoding = tensor<4xf32>}> : (!hal.buffer_view, index) -> !stream.resource<external>

} -> failure : pattern failed to match
//===-------------------------------------------===//

//===-------------------------------------------===//
Processing operation : 'hal.buffer_view.assert'(0x56223be1f320) {
  "hal.buffer_view.assert"(%arg0, %2, %3, %4) {message = "input 0"} : (!hal.buffer_view, i32, i32, index) -> ()

} -> failure : pattern failed to match
//===-------------------------------------------===//

//===-------------------------------------------===//
Processing operation : 'util.global.load'(0x56223c021cd0) {
  %8 = "util.global.load"() <{global = @_params.bias}> : () -> !stream.resource<constant>

} -> failure : pattern failed to match
//===-------------------------------------------===//

//===-------------------------------------------===//
Processing operation : 'util.global.load'(0x56223c022060) {
  %7 = "util.global.load"() <{global = @_params.weight}> : () -> !stream.resource<constant>

} -> failure : pattern failed to match
//===-------------------------------------------===//

//===-------------------------------------------===//
Processing operation : 'arith.constant'(0x56223c131400) {
  %6 = "arith.constant"() <{value = 48 : index}> : () -> index

} -> failure : pattern failed to match
//===-------------------------------------------===//

//===-------------------------------------------===//
Processing operation : 'arith.constant'(0x56223c042b90) {
  %5 = "arith.constant"() <{value = 0 : index}> : () -> index

} -> failure : pattern failed to match
//===-------------------------------------------===//

//===-------------------------------------------===//
Processing operation : 'arith.constant'(0x56223c03c9f0) {
  %4 = "arith.constant"() <{value = 4 : index}> : () -> index

} -> failure : pattern failed to match
//===-------------------------------------------===//

//===-------------------------------------------===//
Processing operation : 'arith.constant'(0x56223c03c980) {
  %3 = "arith.constant"() <{value = 1 : i32}> : () -> i32

} -> failure : pattern failed to match
//===-------------------------------------------===//

//===-------------------------------------------===//
Processing operation : 'arith.constant'(0x56223c04eaa0) {
  %2 = "arith.constant"() <{value = 553648160 : i32}> : () -> i32

} -> failure : pattern failed to match
//===-------------------------------------------===//

//===-------------------------------------------===//
Processing operation : 'arith.constant'(0x7f71f8007c00) {
  %1 = "arith.constant"() <{value = 12 : index}> : () -> index

} -> failure : pattern failed to match
//===-------------------------------------------===//

//===-------------------------------------------===//
Processing operation : 'arith.constant'(0x7f71f8009630) {
  %0 = "arith.constant"() <{value = 16 : index}> : () -> index

} -> failure : pattern failed to match
//===-------------------------------------------===//
// -----// IR Dump After ScheduleExecution (iree-stream-schedule-execution) //----- //
mlir-asm-printer: Verifying operation: func.func
func.func @main(%arg0: !hal.buffer_view) -> !hal.buffer_view attributes {iree.abi.stub} {
  %c16 = arith.constant 16 : index
  %c12 = arith.constant 12 : index
  %c553648160_i32 = arith.constant 553648160 : i32
  %c1_i32 = arith.constant 1 : i32
  %c4 = arith.constant 4 : index
  %c0 = arith.constant 0 : index
  %c48 = arith.constant 48 : index
  %_params.weight = util.global.load @_params.weight : !stream.resource<constant>
  %_params.bias = util.global.load @_params.bias : !stream.resource<constant>
  hal.buffer_view.assert<%arg0 : !hal.buffer_view> message("input 0") shape([%c4]) type(%c553648160_i32) encoding(%c1_i32)
  %0 = stream.tensor.import %arg0 : !hal.buffer_view -> tensor<4xf32> in !stream.resource<external>{%c16}
  %results, %result_timepoint = stream.async.execute with(%0 as %arg1: !stream.resource<external>{%c16}, %_params.weight as %arg2: !stream.resource<constant>{%c48}, %_params.bias as %arg3: !stream.resource<constant>{%c12}) -> !stream.resource<external>{%c12} {
    %3 = stream.async.dispatch @main_dispatch_0::@main_dispatch_0_matmul_1x3x4_f32(%arg1[%c0 to %c16 for %c16], %arg2[%c0 to %c48 for %c48], %arg3[%c0 to %c12 for %c12]) : (!stream.resource<external>{%c16}, !stream.resource<constant>{%c48}, !stream.resource<constant>{%c12}) -> !stream.resource<external>{%c12}
    stream.yield %3 : !stream.resource<external>{%c12}
  } => !stream.timepoint
  %1 = stream.timepoint.await %result_timepoint => %results : !stream.resource<external>{%c12}
  %2 = stream.tensor.export %1 : tensor<3xf32> in !stream.resource<external>{%c12} -> !hal.buffer_view
  return %2 : !hal.buffer_view
}

mlir-asm-printer: Verifying operation: func.func
mlir-asm-printer: Verifying operation: func.func
====
Partitioning op:
stream.yield %3 : !stream.resource<external>{%c12}
Not streamable/is subview (skip)
====
Partitioning op:
%3 = stream.async.dispatch @main_dispatch_0::@main_dispatch_0_matmul_1x3x4_f32(%arg1[%c0 to %c16 for %c16], %arg2[%c0 to %c48 for %c48], %arg3[%c0 to %c12 for %c12]) : (!stream.resource<external>{%c16}, !stream.resource<constant>{%c48}, !stream.resource<constant>{%c12}) -> !stream.resource<external>{%c12}
Testing user:
stream.yield %3 : !stream.resource<external>{%c12}
Created wave 0
PARTITION[0]:
 INS:
  %arg1, %arg2, %arg3, %c16, %c48, %c12, %c0
 OUTS:
  %3
 OPS:
  %3 = stream.async.dispatch @main_dispatch_0::@main_dispatch_0_matmul_1x3x4_f32(%arg1[%c0 to %c16 for %c16], %arg2[%c0 to %c48 for %c48], %arg3[%c0 to %c12 for %c12]) : (!stream.resource<external>{%c16}, !stream.resource<constant>{%c48}, !stream.resource<constant>{%c12}) -> !stream.resource<external>{%c12}

Waves constructed:
mlir-asm-printer: Verifying operation: builtin.module
^bb0(%arg1: !stream.resource<external>, %arg2: !stream.resource<constant>, %arg3: !stream.resource<constant>):
  %3 = stream.async.dispatch @main_dispatch_0::@main_dispatch_0_matmul_1x3x4_f32(%arg1[%c0 to %c16 for %c16], %arg2[%c0 to %c48 for %c48], %arg3[%c0 to %c12 for %c12]) : (!stream.resource<external>{%c16}, !stream.resource<constant>{%c48}, !stream.resource<constant>{%c12}) -> !stream.resource<external>{%c12}
  stream.yield %3 : !stream.resource<external>{%c12}
// -----// IR Dump After ScheduleConcurrency (iree-stream-schedule-concurrency) //----- //
mlir-asm-printer: Verifying operation: func.func
func.func @main(%arg0: !hal.buffer_view) -> !hal.buffer_view attributes {iree.abi.stub} {
  %c16 = arith.constant 16 : index
  %c12 = arith.constant 12 : index
  %c553648160_i32 = arith.constant 553648160 : i32
  %c1_i32 = arith.constant 1 : i32
  %c4 = arith.constant 4 : index
  %c0 = arith.constant 0 : index
  %c48 = arith.constant 48 : index
  %_params.weight = util.global.load @_params.weight : !stream.resource<constant>
  %_params.bias = util.global.load @_params.bias : !stream.resource<constant>
  hal.buffer_view.assert<%arg0 : !hal.buffer_view> message("input 0") shape([%c4]) type(%c553648160_i32) encoding(%c1_i32)
  %0 = stream.tensor.import %arg0 : !hal.buffer_view -> tensor<4xf32> in !stream.resource<external>{%c16}
  %results, %result_timepoint = stream.async.execute with(%0 as %arg1: !stream.resource<external>{%c16}, %_params.weight as %arg2: !stream.resource<constant>{%c48}, %_params.bias as %arg3: !stream.resource<constant>{%c12}) -> !stream.resource<external>{%c12} {
    %3 = stream.async.dispatch @main_dispatch_0::@main_dispatch_0_matmul_1x3x4_f32(%arg1[%c0 to %c16 for %c16], %arg2[%c0 to %c48 for %c48], %arg3[%c0 to %c12 for %c12]) : (!stream.resource<external>{%c16}, !stream.resource<constant>{%c48}, !stream.resource<constant>{%c12}) -> !stream.resource<external>{%c12}
    stream.yield %3 : !stream.resource<external>{%c12}
  } => !stream.timepoint
  %1 = stream.timepoint.await %result_timepoint => %results : !stream.resource<external>{%c12}
  %2 = stream.tensor.export %1 : tensor<3xf32> in !stream.resource<external>{%c12} -> !hal.buffer_view
  return %2 : !hal.buffer_view
}

 #0 0x00007f720503006d llvm::sys::PrintStackTrace(llvm::raw_ostream&, int) /home/data/liuyn/code/iree/third_party/llvm-project/llvm/lib/Support/Unix/Signals.inc:723:11
 #1 0x00007f720503055b PrintStackTraceSignalHandler(void*) /home/data/liuyn/code/iree/third_party/llvm-project/llvm/lib/Support/Unix/Signals.inc:798:1
 #2 0x00007f720502e5c6 llvm::sys::RunSignalHandlers() /home/data/liuyn/code/iree/third_party/llvm-project/llvm/lib/Support/Signals.cpp:105:5
 #3 0x00007f7205030d15 SignalHandler(int) /home/data/liuyn/code/iree/third_party/llvm-project/llvm/lib/Support/Unix/Signals.inc:413:1
 #4 0x00007f7201b69980 __restore_rt (/lib/x86_64-linux-gnu/libpthread.so.0+0x12980)
 #5 0x00007f7204e65a8c mlir::AbstractType::getTypeID() const /home/data/liuyn/code/iree/third_party/llvm-project/mlir/include/mlir/IR/TypeSupport.h:101:37
 #6 0x00007f7204e657e0 mlir::Type::getTypeID() /home/data/liuyn/code/iree/third_party/llvm-project/mlir/include/mlir/IR/Types.h:112:55
 #7 0x00007f72069ca015 bool mlir::detail::StorageUserBase<mlir::iree_compiler::IREE::Stream::ResourceType, mlir::Type, mlir::iree_compiler::IREE::Stream::detail::ResourceTypeStorage, mlir::detail::TypeUniquer, mlir::iree_compiler::IREE::Util::ReferenceTypeInterface::Trait, mlir::iree_compiler::IREE::Util::SizeAwareTypeInterface::Trait, mlir::iree_compiler::IREE::Util::GlobalTypeInterface::Trait, mlir::iree_compiler::IREE::Util::InferTypeSizeInterface::Trait, mlir::iree_compiler::IREE::Util::SubrangeTypeInterface::Trait>::classof<mlir::Type>(mlir::Type) /home/data/liuyn/code/iree/third_party/llvm-project/mlir/include/mlir/IR/StorageUniquerSupport.h:114:16
 #8 0x00007f72069df1cd llvm::CastInfo<mlir::iree_compiler::IREE::Stream::ResourceType, mlir::Type const, void>::isPossible(mlir::Type) /home/data/liuyn/code/iree/third_party/llvm-project/mlir/include/mlir/IR/Types.h:411:7
 #9 0x00007f72069ded10 bool llvm::isa<mlir::iree_compiler::IREE::Stream::ResourceType, mlir::Type>(mlir::Type const&) /home/data/liuyn/code/iree/third_party/llvm-project/llvm/include/llvm/Support/Casting.h:549:3
#10 0x00007f7207ac5c95 bool mlir::Type::isa<mlir::iree_compiler::IREE::Stream::ResourceType>() const /home/data/liuyn/code/iree/third_party/llvm-project/mlir/include/mlir/IR/Types.h:320:3
#11 0x00007f720b50f118 mlir::iree_compiler::IREE::Stream::__mlir_ods_local_type_constraint_StreamOps8(mlir::Operation*, mlir::Type, llvm::StringRef, unsigned int) /home/data/liuyn/code/iree/iree-build-2/compiler/src/iree/compiler/../../iree/compiler/Dialect/Stream/IR/StreamOps.cpp.inc:252:53
#12 0x00007f720b50f00f mlir::iree_compiler::IREE::Stream::AsyncDispatchOp::verifyInvariantsImpl() /home/data/liuyn/code/iree/iree-build-2/compiler/src/iree/compiler/../../iree/compiler/Dialect/Stream/IR/StreamOps.cpp.inc:5272:26
#13 0x00007f720b39adc2 mlir::OpTrait::OpInvariants<mlir::iree_compiler::IREE::Stream::AsyncDispatchOp>::verifyTrait(mlir::Operation*) /home/data/liuyn/code/iree/third_party/llvm-project/mlir/include/mlir/IR/OpDefinition.h:427:35
#14 0x00007f720b39ab35 std::enable_if<detect_has_verify_trait<mlir::OpTrait::OpInvariants<mlir::iree_compiler::IREE::Stream::AsyncDispatchOp>>::value, mlir::LogicalResult>::type mlir::op_definition_impl::verifyTrait<mlir::OpTrait::OpInvariants<mlir::iree_compiler::IREE::Stream::AsyncDispatchOp>>(mlir::Operation*) /home/data/liuyn/code/iree/third_party/llvm-project/mlir/include/mlir/IR/OpDefinition.h:1615:10
#15 0x00007f720b39a7f9 mlir::LogicalResult mlir::op_definition_impl::verifyTraits<mlir::OpTrait::ZeroRegions<mlir::iree_compiler::IREE::Stream::AsyncDispatchOp>, mlir::OpTrait::VariadicResults<mlir::iree_compiler::IREE::Stream::AsyncDispatchOp>, mlir::OpTrait::ZeroSuccessors<mlir::iree_compiler::IREE::Stream::AsyncDispatchOp>, mlir::OpTrait::VariadicOperands<mlir::iree_compiler::IREE::Stream::AsyncDispatchOp>, mlir::OpTrait::AttrSizedOperandSegments<mlir::iree_compiler::IREE::Stream::AsyncDispatchOp>, mlir::OpTrait::OpInvariants<mlir::iree_compiler::IREE::Stream::AsyncDispatchOp>, mlir::BytecodeOpInterface::Trait<mlir::iree_compiler::IREE::Stream::AsyncDispatchOp>, mlir::SymbolUserOpInterface::Trait<mlir::iree_compiler::IREE::Stream::AsyncDispatchOp>, mlir::iree_compiler::IREE::Stream::AffinityOpInterface::Trait<mlir::iree_compiler::IREE::Stream::AsyncDispatchOp>, mlir::OpTrait::IREE::Stream::AsyncPhaseOp<mlir::iree_compiler::IREE::Stream::AsyncDispatchOp>, mlir::iree_compiler::IREE::Stream::StreamableOpInterface::Trait<mlir::iree_compiler::IREE::Stream::AsyncDispatchOp>, mlir::iree_compiler::IREE::Stream::AsyncAccessOpInterface::Trait<mlir::iree_compiler::IREE::Stream::AsyncDispatchOp>, mlir::iree_compiler::IREE::Util::SizeAwareOpInterface::Trait<mlir::iree_compiler::IREE::Stream::AsyncDispatchOp>, mlir::iree_compiler::IREE::Util::TiedOpInterface::Trait<mlir::iree_compiler::IREE::Stream::AsyncDispatchOp>>(mlir::Operation*) /home/data/liuyn/code/iree/third_party/llvm-project/mlir/include/mlir/IR/OpDefinition.h:1626:29
#16 0x00007f720b39a6a5 mlir::Op<mlir::iree_compiler::IREE::Stream::AsyncDispatchOp, mlir::OpTrait::ZeroRegions, mlir::OpTrait::VariadicResults, mlir::OpTrait::ZeroSuccessors, mlir::OpTrait::VariadicOperands, mlir::OpTrait::AttrSizedOperandSegments, mlir::OpTrait::OpInvariants, mlir::BytecodeOpInterface::Trait, mlir::SymbolUserOpInterface::Trait, mlir::iree_compiler::IREE::Stream::AffinityOpInterface::Trait, mlir::OpTrait::IREE::Stream::AsyncPhaseOp, mlir::iree_compiler::IREE::Stream::StreamableOpInterface::Trait, mlir::iree_compiler::IREE::Stream::AsyncAccessOpInterface::Trait, mlir::iree_compiler::IREE::Util::SizeAwareOpInterface::Trait, mlir::iree_compiler::IREE::Util::TiedOpInterface::Trait>::verifyInvariants(mlir::Operation*) /home/data/liuyn/code/iree/third_party/llvm-project/mlir/include/mlir/IR/OpDefinition.h:2007:16
#17 0x00007f72051bea85 mlir::LogicalResult llvm::detail::UniqueFunctionBase<mlir::LogicalResult, mlir::Operation*>::CallImpl<mlir::LogicalResult (* const)(mlir::Operation*)>(void*, mlir::Operation*) /home/data/liuyn/code/iree/third_party/llvm-project/llvm/include/llvm/ADT/FunctionExtras.h:220:12
#18 0x00007f72051bda67 llvm::unique_function<mlir::LogicalResult (mlir::Operation*) const>::operator()(mlir::Operation*) const /home/data/liuyn/code/iree/third_party/llvm-project/llvm/include/llvm/ADT/FunctionExtras.h:408:12
#19 0x00007f720b398d16 mlir::RegisteredOperationName::Model<mlir::iree_compiler::IREE::Stream::AsyncDispatchOp>::verifyInvariants(mlir::Operation*) /home/data/liuyn/code/iree/third_party/llvm-project/mlir/include/mlir/IR/OperationSupport.h:558:14
#20 0x00007f72052aa4f6 mlir::OperationName::verifyInvariants(mlir::Operation*) const /home/data/liuyn/code/iree/third_party/llvm-project/mlir/include/mlir/IR/OperationSupport.h:317:23
#21 0x00007f72052a291d (anonymous namespace)::OperationVerifier::verifyOnEntrance(mlir::Operation&) /home/data/liuyn/code/iree/third_party/llvm-project/mlir/lib/IR/Verifier.cpp:179:48
#22 0x00007f72052a2670 auto (anonymous namespace)::OperationVerifier::verifyOperation(mlir::Operation&)::$_2::operator()<mlir::Operation>(mlir::Operation*) const /home/data/liuyn/code/iree/third_party/llvm-project/mlir/lib/IR/Verifier.cpp:293:45
#23 0x00007f72052a1557 auto (anonymous namespace)::OperationVerifier::verifyOperation(mlir::Operation&)::$_1::operator()<(anonymous namespace)::OperationVerifier::verifyOperation(mlir::Operation&)::$_2>((anonymous namespace)::OperationVerifier::verifyOperation(mlir::Operation&)::$_2&&, llvm::PointerUnion<mlir::Operation*, mlir::Block*>) const /home/data/liuyn/code/iree/third_party/llvm-project/mlir/lib/IR/Verifier.cpp:277:16
#24 0x00007f72052a0e1f (anonymous namespace)::OperationVerifier::verifyOperation(mlir::Operation&) /home/data/liuyn/code/iree/third_party/llvm-project/mlir/lib/IR/Verifier.cpp:292:16
#25 0x00007f72052a0be1 (anonymous namespace)::OperationVerifier::verifyOpAndDominance(mlir::Operation&) /home/data/liuyn/code/iree/third_party/llvm-project/mlir/lib/IR/Verifier.cpp:85:14
#26 0x00007f72052a1d70 (anonymous namespace)::OperationVerifier::verifyOnExit(mlir::Operation&)::$_0::operator()(mlir::Operation*) const /home/data/liuyn/code/iree/third_party/llvm-project/mlir/lib/IR/Verifier.cpp:229:38
#27 0x00007f72052a2214 mlir::LogicalResult mlir::failableParallelForEach<mlir::Operation**, (anonymous namespace)::OperationVerifier::verifyOnExit(mlir::Operation&)::$_0>(mlir::MLIRContext*, mlir::Operation**, mlir::Operation**, (anonymous namespace)::OperationVerifier::verifyOnExit(mlir::Operation&)::$_0&&)::'lambda'()::operator()() const /home/data/liuyn/code/iree/third_party/llvm-project/mlir/include/mlir/IR/Threading.h:62:18
#28 0x00007f72052a2175 mlir::Operation** std::__invoke_impl<void, mlir::LogicalResult mlir::failableParallelForEach<mlir::Operation**, (anonymous namespace)::OperationVerifier::verifyOnExit(mlir::Operation&)::$_0>(mlir::MLIRContext*, mlir::Operation**, mlir::Operation**, (anonymous namespace)::OperationVerifier::verifyOnExit(mlir::Operation&)::$_0&&)::'lambda'()&>(std::__invoke_other, (anonymous namespace)::OperationVerifier::verifyOnExit(mlir::Operation&)::$_0&&) /usr/lib/gcc/x86_64-linux-gnu/11/../../../../include/c++/11/bits/invoke.h:61:7
#29 0x00007f72052a2135 std::enable_if<is_invocable_r_v<mlir::Operation**, (anonymous namespace)::OperationVerifier::verifyOnExit(mlir::Operation&)::$_0>, mlir::Operation**>::type std::__invoke_r<void, mlir::LogicalResult mlir::failableParallelForEach<mlir::Operation**, (anonymous namespace)::OperationVerifier::verifyOnExit(mlir::Operation&)::$_0>(mlir::MLIRContext*, mlir::Operation**, mlir::Operation**, (anonymous namespace)::OperationVerifier::verifyOnExit(mlir::Operation&)::$_0&&)::'lambda'()&>((anonymous namespace)::OperationVerifier::verifyOnExit(mlir::Operation&)::$_0&&) /usr/lib/gcc/x86_64-linux-gnu/11/../../../../include/c++/11/bits/invoke.h:117:5
#30 0x00007f72052a202d std::_Function_handler<void (), mlir::LogicalResult mlir::failableParallelForEach<mlir::Operation**, (anonymous namespace)::OperationVerifier::verifyOnExit(mlir::Operation&)::$_0>(mlir::MLIRContext*, mlir::Operation**, mlir::Operation**, (anonymous namespace)::OperationVerifier::verifyOnExit(mlir::Operation&)::$_0&&)::'lambda'()>::_M_invoke(std::_Any_data const&) /usr/lib/gcc/x86_64-linux-gnu/11/../../../../include/c++/11/bits/std_function.h:291:2
#31 0x00007f7204fb4dd5 std::function<void ()>::operator()() const /usr/lib/gcc/x86_64-linux-gnu/11/../../../../include/c++/11/bits/std_function.h:560:2
#32 0x00007f72052a890d llvm::ThreadPool::createTaskAndFuture(std::function<void ()>)::'lambda'()::operator()() const /home/data/liuyn/code/iree/third_party/llvm-project/llvm/include/llvm/Support/ThreadPool.h:135:15
#33 0x00007f72052a88e5 void std::__invoke_impl<void, llvm::ThreadPool::createTaskAndFuture(std::function<void ()>)::'lambda'()&>(std::__invoke_other, llvm::ThreadPool::createTaskAndFuture(std::function<void ()>)::'lambda'()&) /usr/lib/gcc/x86_64-linux-gnu/11/../../../../include/c++/11/bits/invoke.h:61:7
#34 0x00007f72052a88a5 std::enable_if<is_invocable_r_v<void, llvm::ThreadPool::createTaskAndFuture(std::function<void ()>)::'lambda'()&>, void>::type std::__invoke_r<void, llvm::ThreadPool::createTaskAndFuture(std::function<void ()>)::'lambda'()&>(llvm::ThreadPool::createTaskAndFuture(std::function<void ()>)::'lambda'()&) /usr/lib/gcc/x86_64-linux-gnu/11/../../../../include/c++/11/bits/invoke.h:117:5
#35 0x00007f72052a87ad std::_Function_handler<void (), llvm::ThreadPool::createTaskAndFuture(std::function<void ()>)::'lambda'()>::_M_invoke(std::_Any_data const&) /usr/lib/gcc/x86_64-linux-gnu/11/../../../../include/c++/11/bits/std_function.h:291:2
#36 0x00007f7204fb4dd5 std::function<void ()>::operator()() const /usr/lib/gcc/x86_64-linux-gnu/11/../../../../include/c++/11/bits/std_function.h:560:2
#37 0x00007f7204fb2f52 llvm::ThreadPool::processTasks(llvm::ThreadPoolTaskGroup*) /home/data/liuyn/code/iree/third_party/llvm-project/llvm/lib/Support/ThreadPool.cpp:104:5
#38 0x00007f7204fb4045 llvm::ThreadPool::grow(int)::$_0::operator()() const /home/data/liuyn/code/iree/third_party/llvm-project/llvm/lib/Support/ThreadPool.cpp:50:5
#39 0x00007f7204fb3fc9 auto void llvm::thread::GenericThreadProxy<std::tuple<llvm::ThreadPool::grow(int)::$_0>>(void*)::'lambda'(auto&&, auto&&...)::operator()<llvm::ThreadPool::grow(int)::$_0&>(auto&&, auto&&...) const /home/data/liuyn/code/iree/third_party/llvm-project/llvm/include/llvm/Support/thread.h:44:9
#40 0x00007f7204fb3f9d auto std::__invoke_impl<void, void llvm::thread::GenericThreadProxy<std::tuple<llvm::ThreadPool::grow(int)::$_0>>(void*)::'lambda'(auto&&, auto&&...), llvm::ThreadPool::grow(int)::$_0&>(std::__invoke_other, void llvm::thread::GenericThreadProxy<std::tuple<llvm::ThreadPool::grow(int)::$_0>>(void*)::'lambda'(auto&&, auto&&...)&&, llvm::ThreadPool::grow(int)::$_0&) /usr/lib/gcc/x86_64-linux-gnu/11/../../../../include/c++/11/bits/invoke.h:61:7
#41 0x00007f7204fb3f4d std::__invoke_result<auto, auto...>::type std::__invoke<void llvm::thread::GenericThreadProxy<std::tuple<llvm::ThreadPool::grow(int)::$_0>>(void*)::'lambda'(auto&&, auto&&...), llvm::ThreadPool::grow(int)::$_0&>(auto&&, auto&&...) /usr/lib/gcc/x86_64-linux-gnu/11/../../../../include/c++/11/bits/invoke.h:96:7
#42 0x00007f7204fb3f1d decltype(auto) std::__apply_impl<void llvm::thread::GenericThreadProxy<std::tuple<llvm::ThreadPool::grow(int)::$_0>>(void*)::'lambda'(auto&&, auto&&...), std::tuple<llvm::ThreadPool::grow(int)::$_0>&, 0ul>(auto&&, std::tuple<llvm::ThreadPool::grow(int)::$_0>&, std::integer_sequence<unsigned long, 0ul>) /usr/lib/gcc/x86_64-linux-gnu/11/../../../../include/c++/11/tuple:1806:7
#43 0x00007f7204fb3e6d decltype(auto) std::apply<void llvm::thread::GenericThreadProxy<std::tuple<llvm::ThreadPool::grow(int)::$_0>>(void*)::'lambda'(auto&&, auto&&...), std::tuple<llvm::ThreadPool::grow(int)::$_0>&>(auto&&, std::tuple<llvm::ThreadPool::grow(int)::$_0>&) /usr/lib/gcc/x86_64-linux-gnu/11/../../../../include/c++/11/tuple:1817:7
#44 0x00007f7204fb3e3e void llvm::thread::GenericThreadProxy<std::tuple<llvm::ThreadPool::grow(int)::$_0>>(void*) /home/data/liuyn/code/iree/third_party/llvm-project/llvm/include/llvm/Support/thread.h:46:3
#45 0x00007f7204fb3b65 void* llvm::thread::ThreadProxy<std::tuple<llvm::ThreadPool::grow(int)::$_0>>(void*) /home/data/liuyn/code/iree/third_party/llvm-project/llvm/include/llvm/Support/thread.h:56:5
#46 0x00007f7201b5e6db start_thread /build/glibc-CVJwZb/glibc-2.27/nptl/pthread_create.c:463:0
#47 0x00007f720126261f __clone /build/glibc-CVJwZb/glibc-2.27/misc/../sysdeps/unix/sysv/linux/x86_64/clone.S:97:0
