// -----// IR Dump After mlir::iree_compiler::IREE::HAL::AssignTargetDevicesPass (iree-hal-assign-target-devices) //----- //
#executable_target_embedded_elf_x86_64_ = #hal.executable.target<"llvm-cpu", "embedded-elf-x86_64", {cpu = "generic", cpu_features = "", data_layout = "e-m:e-p270:32:32-p271:32:32-p272:64:64-i64:64-i128:128-f80:128-n8:16:32:64-S128", native_vector_size = 16 : index, target_triple = "x86_64-unknown-unknown-eabi-elf", ukernels = false}>
#device_target_llvm_cpu = #hal.device.target<"llvm-cpu", {executable_targets = [#executable_target_embedded_elf_x86_64_]}>
module attributes {hal.device.targets = [#device_target_llvm_cpu], tf.versions = {bad_consumers = [], min_consumer = 0 : i32, producer = 27 : i32}} {
  func.func @main(%arg0: tensor<10xi32>, %arg1: tensor<10xi32>) -> tensor<10xi32> attributes {tf.entry_function = {control_outputs = "", inputs = "input0,input1", outputs = "Mul"}} {
    %0 = stablehlo.multiply %arg0, %arg1 : tensor<10xi32>
    %1 = stablehlo.add %0, %arg1 : tensor<10xi32>
    return %1 : tensor<10xi32>
  }
}


// -----// IR Dump After Canonicalizer (canonicalize) //----- //
func.func @main(%arg0: tensor<10xi32>, %arg1: tensor<10xi32>) -> tensor<10xi32> attributes {tf.entry_function = {control_outputs = "", inputs = "input0,input1", outputs = "Mul"}} {
  %0 = stablehlo.multiply %arg0, %arg1 : tensor<10xi32>
  %1 = stablehlo.add %0, %arg1 : tensor<10xi32>
  return %1 : tensor<10xi32>
}

// -----// IR Dump After StableHLOCanonicalize (iree-stablehlo-canonicalize) //----- //
func.func @main(%arg0: tensor<10xi32>, %arg1: tensor<10xi32>) -> tensor<10xi32> attributes {tf.entry_function = {control_outputs = "", inputs = "input0,input1", outputs = "Mul"}} {
  %0 = stablehlo.multiply %arg0, %arg1 : tensor<10xi32>
  %1 = stablehlo.add %0, %arg1 : tensor<10xi32>
  return %1 : tensor<10xi32>
}

// -----// IR Dump After CSE (cse) //----- //
func.func @main(%arg0: tensor<10xi32>, %arg1: tensor<10xi32>) -> tensor<10xi32> attributes {tf.entry_function = {control_outputs = "", inputs = "input0,input1", outputs = "Mul"}} {
  %0 = stablehlo.multiply %arg0, %arg1 : tensor<10xi32>
  %1 = stablehlo.add %0, %arg1 : tensor<10xi32>
  return %1 : tensor<10xi32>
}

// -----// IR Dump After LegalizeControlFlow (iree-stablehlo-legalize-control-flow) //----- //
func.func @main(%arg0: tensor<10xi32>, %arg1: tensor<10xi32>) -> tensor<10xi32> attributes {tf.entry_function = {control_outputs = "", inputs = "input0,input1", outputs = "Mul"}} {
  %0 = stablehlo.multiply %arg0, %arg1 : tensor<10xi32>
  %1 = stablehlo.add %0, %arg1 : tensor<10xi32>
  return %1 : tensor<10xi32>
}

// -----// IR Dump After LegalizeControlFlow2 (iree-stablehlo-legalize-control-flow2) //----- //
func.func @main(%arg0: tensor<10xi32>, %arg1: tensor<10xi32>) -> tensor<10xi32> attributes {tf.entry_function = {control_outputs = "", inputs = "input0,input1", outputs = "Mul"}} {
  %0 = stablehlo.add %arg0, %arg1 : tensor<10xi32>
  %1 = stablehlo.multiply %0, %arg1 : tensor<10xi32>
  return %1 : tensor<10xi32>
}

// -----// IR Dump After FlattenTuplesInSCF (iree-stablehlo-preprocessing-flatten-scf-tuples) //----- //
#executable_target_embedded_elf_x86_64_ = #hal.executable.target<"llvm-cpu", "embedded-elf-x86_64", {cpu = "generic", cpu_features = "", data_layout = "e-m:e-p270:32:32-p271:32:32-p272:64:64-i64:64-i128:128-f80:128-n8:16:32:64-S128", native_vector_size = 16 : index, target_triple = "x86_64-unknown-unknown-eabi-elf", ukernels = false}>
#device_target_llvm_cpu = #hal.device.target<"llvm-cpu", {executable_targets = [#executable_target_embedded_elf_x86_64_]}>
module attributes {hal.device.targets = [#device_target_llvm_cpu], tf.versions = {bad_consumers = [], min_consumer = 0 : i32, producer = 27 : i32}} {
  func.func @main(%arg0: tensor<10xi32>, %arg1: tensor<10xi32>) -> tensor<10xi32> attributes {tf.entry_function = {control_outputs = "", inputs = "input0,input1", outputs = "Mul"}} {
    %0 = stablehlo.add %arg0, %arg1 : tensor<10xi32>
    %1 = stablehlo.multiply %0, %arg1 : tensor<10xi32>
    return %1 : tensor<10xi32>
  }
}


// -----// IR Dump After StableHLOToStableHLOPreprocessing (iree-stablehlo-to-stablehlo-preprocessing) //----- //
#executable_target_embedded_elf_x86_64_ = #hal.executable.target<"llvm-cpu", "embedded-elf-x86_64", {cpu = "generic", cpu_features = "", data_layout = "e-m:e-p270:32:32-p271:32:32-p272:64:64-i64:64-i128:128-f80:128-n8:16:32:64-S128", native_vector_size = 16 : index, target_triple = "x86_64-unknown-unknown-eabi-elf", ukernels = false}>
#device_target_llvm_cpu = #hal.device.target<"llvm-cpu", {executable_targets = [#executable_target_embedded_elf_x86_64_]}>
module attributes {hal.device.targets = [#device_target_llvm_cpu], tf.versions = {bad_consumers = [], min_consumer = 0 : i32, producer = 27 : i32}} {
  func.func @main(%arg0: tensor<10xi32>, %arg1: tensor<10xi32>) -> tensor<10xi32> attributes {tf.entry_function = {control_outputs = "", inputs = "input0,input1", outputs = "Mul"}} {
    %0 = stablehlo.add %arg0, %arg1 : tensor<10xi32>
    %1 = stablehlo.multiply %0, %arg1 : tensor<10xi32>
    return %1 : tensor<10xi32>
  }
}


// -----// IR Dump After StableHLOCanonicalize (iree-stablehlo-canonicalize) //----- //
func.func @main(%arg0: tensor<10xi32>, %arg1: tensor<10xi32>) -> tensor<10xi32> attributes {tf.entry_function = {control_outputs = "", inputs = "input0,input1", outputs = "Mul"}} {
  %0 = stablehlo.add %arg0, %arg1 : tensor<10xi32>
  %1 = stablehlo.multiply %0, %arg1 : tensor<10xi32>
  return %1 : tensor<10xi32>
}

// -----// IR Dump After ShapeToShapeLowering (shape-to-shape-lowering) //----- //
func.func @main(%arg0: tensor<10xi32>, %arg1: tensor<10xi32>) -> tensor<10xi32> attributes {tf.entry_function = {control_outputs = "", inputs = "input0,input1", outputs = "Mul"}} {
  %0 = stablehlo.add %arg0, %arg1 : tensor<10xi32>
  %1 = stablehlo.multiply %0, %arg1 : tensor<10xi32>
  return %1 : tensor<10xi32>
}

// -----// IR Dump After ConvertShapeToStandard (convert-shape-to-std) //----- //
#executable_target_embedded_elf_x86_64_ = #hal.executable.target<"llvm-cpu", "embedded-elf-x86_64", {cpu = "generic", cpu_features = "", data_layout = "e-m:e-p270:32:32-p271:32:32-p272:64:64-i64:64-i128:128-f80:128-n8:16:32:64-S128", native_vector_size = 16 : index, target_triple = "x86_64-unknown-unknown-eabi-elf", ukernels = false}>
#device_target_llvm_cpu = #hal.device.target<"llvm-cpu", {executable_targets = [#executable_target_embedded_elf_x86_64_]}>
module attributes {hal.device.targets = [#device_target_llvm_cpu], tf.versions = {bad_consumers = [], min_consumer = 0 : i32, producer = 27 : i32}} {
  func.func @main(%arg0: tensor<10xi32>, %arg1: tensor<10xi32>) -> tensor<10xi32> attributes {tf.entry_function = {control_outputs = "", inputs = "input0,input1", outputs = "Mul"}} {
    %0 = stablehlo.add %arg0, %arg1 : tensor<10xi32>
    %1 = stablehlo.multiply %0, %arg1 : tensor<10xi32>
    return %1 : tensor<10xi32>
  }
}


// -----// IR Dump After Canonicalizer (canonicalize) //----- //
func.func @main(%arg0: tensor<10xi32>, %arg1: tensor<10xi32>) -> tensor<10xi32> attributes {tf.entry_function = {control_outputs = "", inputs = "input0,input1", outputs = "Mul"}} {
  %0 = stablehlo.add %arg0, %arg1 : tensor<10xi32>
  %1 = stablehlo.multiply %0, %arg1 : tensor<10xi32>
  return %1 : tensor<10xi32>
}

// -----// IR Dump After StableHLOCanonicalize (iree-stablehlo-canonicalize) //----- //
func.func @main(%arg0: tensor<10xi32>, %arg1: tensor<10xi32>) -> tensor<10xi32> attributes {tf.entry_function = {control_outputs = "", inputs = "input0,input1", outputs = "Mul"}} {
  %0 = stablehlo.add %arg0, %arg1 : tensor<10xi32>
  %1 = stablehlo.multiply %0, %arg1 : tensor<10xi32>
  return %1 : tensor<10xi32>
}

// -----// IR Dump After Canonicalizer (canonicalize) //----- //
func.func @main(%arg0: tensor<10xi32>, %arg1: tensor<10xi32>) -> tensor<10xi32> attributes {tf.entry_function = {control_outputs = "", inputs = "input0,input1", outputs = "Mul"}} {
  %0 = stablehlo.add %arg0, %arg1 : tensor<10xi32>
  %1 = stablehlo.multiply %0, %arg1 : tensor<10xi32>
  return %1 : tensor<10xi32>
}

// -----// IR Dump After Inliner (inline) //----- //
#executable_target_embedded_elf_x86_64_ = #hal.executable.target<"llvm-cpu", "embedded-elf-x86_64", {cpu = "generic", cpu_features = "", data_layout = "e-m:e-p270:32:32-p271:32:32-p272:64:64-i64:64-i128:128-f80:128-n8:16:32:64-S128", native_vector_size = 16 : index, target_triple = "x86_64-unknown-unknown-eabi-elf", ukernels = false}>
#device_target_llvm_cpu = #hal.device.target<"llvm-cpu", {executable_targets = [#executable_target_embedded_elf_x86_64_]}>
module attributes {hal.device.targets = [#device_target_llvm_cpu], tf.versions = {bad_consumers = [], min_consumer = 0 : i32, producer = 27 : i32}} {
  func.func @main(%arg0: tensor<10xi32>, %arg1: tensor<10xi32>) -> tensor<10xi32> attributes {tf.entry_function = {control_outputs = "", inputs = "input0,input1", outputs = "Mul"}} {
    %0 = stablehlo.add %arg0, %arg1 : tensor<10xi32>
    %1 = stablehlo.multiply %0, %arg1 : tensor<10xi32>
    return %1 : tensor<10xi32>
  }
}


// -----// IR Dump After DemoteI64ToI32 (iree-util-demote-i64-to-i32) //----- //
#executable_target_embedded_elf_x86_64_ = #hal.executable.target<"llvm-cpu", "embedded-elf-x86_64", {cpu = "generic", cpu_features = "", data_layout = "e-m:e-p270:32:32-p271:32:32-p272:64:64-i64:64-i128:128-f80:128-n8:16:32:64-S128", native_vector_size = 16 : index, target_triple = "x86_64-unknown-unknown-eabi-elf", ukernels = false}>
#device_target_llvm_cpu = #hal.device.target<"llvm-cpu", {executable_targets = [#executable_target_embedded_elf_x86_64_]}>
module attributes {hal.device.targets = [#device_target_llvm_cpu], tf.versions = {bad_consumers = [], min_consumer = 0 : i32, producer = 27 : i32}} {
  func.func @main(%arg0: tensor<10xi32>, %arg1: tensor<10xi32>) -> tensor<10xi32> attributes {tf.entry_function = {control_outputs = "", inputs = "input0,input1", outputs = "Mul"}} {
    %0 = stablehlo.add %arg0, %arg1 : tensor<10xi32>
    %1 = stablehlo.multiply %0, %arg1 : tensor<10xi32>
    return %1 : tensor<10xi32>
  }
}


// -----// IR Dump After DemoteF64ToF32 (iree-util-demote-f64-to-f32) //----- //
#executable_target_embedded_elf_x86_64_ = #hal.executable.target<"llvm-cpu", "embedded-elf-x86_64", {cpu = "generic", cpu_features = "", data_layout = "e-m:e-p270:32:32-p271:32:32-p272:64:64-i64:64-i128:128-f80:128-n8:16:32:64-S128", native_vector_size = 16 : index, target_triple = "x86_64-unknown-unknown-eabi-elf", ukernels = false}>
#device_target_llvm_cpu = #hal.device.target<"llvm-cpu", {executable_targets = [#executable_target_embedded_elf_x86_64_]}>
module attributes {hal.device.targets = [#device_target_llvm_cpu], tf.versions = {bad_consumers = [], min_consumer = 0 : i32, producer = 27 : i32}} {
  func.func @main(%arg0: tensor<10xi32>, %arg1: tensor<10xi32>) -> tensor<10xi32> attributes {tf.entry_function = {control_outputs = "", inputs = "input0,input1", outputs = "Mul"}} {
    %0 = stablehlo.add %arg0, %arg1 : tensor<10xi32>
    %1 = stablehlo.multiply %0, %arg1 : tensor<10xi32>
    return %1 : tensor<10xi32>
  }
}


// -----// IR Dump After Canonicalizer (canonicalize) //----- //
func.func @main(%arg0: tensor<10xi32>, %arg1: tensor<10xi32>) -> tensor<10xi32> attributes {tf.entry_function = {control_outputs = "", inputs = "input0,input1", outputs = "Mul"}} {
  %0 = stablehlo.add %arg0, %arg1 : tensor<10xi32>
  %1 = stablehlo.multiply %0, %arg1 : tensor<10xi32>
  return %1 : tensor<10xi32>
}

// -----// IR Dump After StableHLOCanonicalize (iree-stablehlo-canonicalize) //----- //
func.func @main(%arg0: tensor<10xi32>, %arg1: tensor<10xi32>) -> tensor<10xi32> attributes {tf.entry_function = {control_outputs = "", inputs = "input0,input1", outputs = "Mul"}} {
  %0 = stablehlo.add %arg0, %arg1 : tensor<10xi32>
  %1 = stablehlo.multiply %0, %arg1 : tensor<10xi32>
  return %1 : tensor<10xi32>
}

// -----// IR Dump After CSE (cse) //----- //
func.func @main(%arg0: tensor<10xi32>, %arg1: tensor<10xi32>) -> tensor<10xi32> attributes {tf.entry_function = {control_outputs = "", inputs = "input0,input1", outputs = "Mul"}} {
  %0 = stablehlo.add %arg0, %arg1 : tensor<10xi32>
  %1 = stablehlo.multiply %0, %arg1 : tensor<10xi32>
  return %1 : tensor<10xi32>
}

// -----// IR Dump After LegalizeShapeComputations (iree-stablehlo-legalize-shape-computations) //----- //
func.func @main(%arg0: tensor<10xi32>, %arg1: tensor<10xi32>) -> tensor<10xi32> attributes {tf.entry_function = {control_outputs = "", inputs = "input0,input1", outputs = "Mul"}} {
  %0 = stablehlo.add %arg0, %arg1 : tensor<10xi32>
  %1 = stablehlo.multiply %0, %arg1 : tensor<10xi32>
  return %1 : tensor<10xi32>
}

// -----// IR Dump After ConvertStableHloToLinalgExt (iree-stablehlo-to-linalg-ext) //----- //
func.func @main(%arg0: tensor<10xi32>, %arg1: tensor<10xi32>) -> tensor<10xi32> attributes {tf.entry_function = {control_outputs = "", inputs = "input0,input1", outputs = "Mul"}} {
  %0 = stablehlo.add %arg0, %arg1 : tensor<10xi32>
  %1 = stablehlo.multiply %0, %arg1 : tensor<10xi32>
  return %1 : tensor<10xi32>
}

// -----// IR Dump After LegalizeChlo (iree-stablehlo-legalize-chlo) //----- //
func.func @main(%arg0: tensor<10xi32>, %arg1: tensor<10xi32>) -> tensor<10xi32> attributes {tf.entry_function = {control_outputs = "", inputs = "input0,input1", outputs = "Mul"}} {
  %0 = stablehlo.add %arg0, %arg1 : tensor<10xi32>
  %1 = stablehlo.multiply %0, %arg1 : tensor<10xi32>
  return %1 : tensor<10xi32>
}

// -----// IR Dump After ConvertStableHloToIreeInputDialects (iree-stablehlo-to-iree-input) //----- //
#executable_target_embedded_elf_x86_64_ = #hal.executable.target<"llvm-cpu", "embedded-elf-x86_64", {cpu = "generic", cpu_features = "", data_layout = "e-m:e-p270:32:32-p271:32:32-p272:64:64-i64:64-i128:128-f80:128-n8:16:32:64-S128", native_vector_size = 16 : index, target_triple = "x86_64-unknown-unknown-eabi-elf", ukernels = false}>
#map = affine_map<(d0) -> (d0)>
#device_target_llvm_cpu = #hal.device.target<"llvm-cpu", {executable_targets = [#executable_target_embedded_elf_x86_64_]}>
module attributes {hal.device.targets = [#device_target_llvm_cpu]} {
  func.func @main(%arg0: tensor<10xi32>, %arg1: tensor<10xi32>) -> tensor<10xi32> {
    %0 = tensor.empty() : tensor<10xi32>
    %1 = linalg.generic {indexing_maps = [#map, #map, #map], iterator_types = ["parallel"]} ins(%arg0, %arg1 : tensor<10xi32>, tensor<10xi32>) outs(%0 : tensor<10xi32>) {
    ^bb0(%in: i32, %in_0: i32, %out: i32):
      %4 = arith.addi %in, %in_0 : i32
      linalg.yield %4 : i32
    } -> tensor<10xi32>
    %2 = tensor.empty() : tensor<10xi32>
    %3 = linalg.generic {indexing_maps = [#map, #map, #map], iterator_types = ["parallel"]} ins(%1, %arg1 : tensor<10xi32>, tensor<10xi32>) outs(%2 : tensor<10xi32>) {
    ^bb0(%in: i32, %in_0: i32, %out: i32):
      %4 = arith.muli %in, %in_0 : i32
      linalg.yield %4 : i32
    } -> tensor<10xi32>
    return %3 : tensor<10xi32>
  }
}


// -----// IR Dump After ReconcileUnrealizedCasts (reconcile-unrealized-casts) //----- //
#executable_target_embedded_elf_x86_64_ = #hal.executable.target<"llvm-cpu", "embedded-elf-x86_64", {cpu = "generic", cpu_features = "", data_layout = "e-m:e-p270:32:32-p271:32:32-p272:64:64-i64:64-i128:128-f80:128-n8:16:32:64-S128", native_vector_size = 16 : index, target_triple = "x86_64-unknown-unknown-eabi-elf", ukernels = false}>
#map = affine_map<(d0) -> (d0)>
#device_target_llvm_cpu = #hal.device.target<"llvm-cpu", {executable_targets = [#executable_target_embedded_elf_x86_64_]}>
module attributes {hal.device.targets = [#device_target_llvm_cpu]} {
  func.func @main(%arg0: tensor<10xi32>, %arg1: tensor<10xi32>) -> tensor<10xi32> {
    %0 = tensor.empty() : tensor<10xi32>
    %1 = linalg.generic {indexing_maps = [#map, #map, #map], iterator_types = ["parallel"]} ins(%arg0, %arg1 : tensor<10xi32>, tensor<10xi32>) outs(%0 : tensor<10xi32>) {
    ^bb0(%in: i32, %in_0: i32, %out: i32):
      %4 = arith.addi %in, %in_0 : i32
      linalg.yield %4 : i32
    } -> tensor<10xi32>
    %2 = tensor.empty() : tensor<10xi32>
    %3 = linalg.generic {indexing_maps = [#map, #map, #map], iterator_types = ["parallel"]} ins(%1, %arg1 : tensor<10xi32>, tensor<10xi32>) outs(%2 : tensor<10xi32>) {
    ^bb0(%in: i32, %in_0: i32, %out: i32):
      %4 = arith.muli %in, %in_0 : i32
      linalg.yield %4 : i32
    } -> tensor<10xi32>
    return %3 : tensor<10xi32>
  }
}


// -----// IR Dump After Canonicalizer (canonicalize) //----- //
func.func @main(%arg0: tensor<10xi32>, %arg1: tensor<10xi32>) -> tensor<10xi32> {
  %0 = tensor.empty() : tensor<10xi32>
  %1 = linalg.generic {indexing_maps = [affine_map<(d0) -> (d0)>, affine_map<(d0) -> (d0)>, affine_map<(d0) -> (d0)>], iterator_types = ["parallel"]} ins(%arg0, %arg1 : tensor<10xi32>, tensor<10xi32>) outs(%0 : tensor<10xi32>) {
  ^bb0(%in: i32, %in_0: i32, %out: i32):
    %4 = arith.addi %in, %in_0 : i32
    linalg.yield %4 : i32
  } -> tensor<10xi32>
  %2 = tensor.empty() : tensor<10xi32>
  %3 = linalg.generic {indexing_maps = [affine_map<(d0) -> (d0)>, affine_map<(d0) -> (d0)>, affine_map<(d0) -> (d0)>], iterator_types = ["parallel"]} ins(%1, %arg1 : tensor<10xi32>, tensor<10xi32>) outs(%2 : tensor<10xi32>) {
  ^bb0(%in: i32, %in_0: i32, %out: i32):
    %4 = arith.muli %in, %in_0 : i32
    linalg.yield %4 : i32
  } -> tensor<10xi32>
  return %3 : tensor<10xi32>
}

// -----// IR Dump After StableHLOCanonicalize (iree-stablehlo-canonicalize) //----- //
func.func @main(%arg0: tensor<10xi32>, %arg1: tensor<10xi32>) -> tensor<10xi32> {
  %0 = tensor.empty() : tensor<10xi32>
  %1 = linalg.generic {indexing_maps = [affine_map<(d0) -> (d0)>, affine_map<(d0) -> (d0)>, affine_map<(d0) -> (d0)>], iterator_types = ["parallel"]} ins(%arg0, %arg1 : tensor<10xi32>, tensor<10xi32>) outs(%0 : tensor<10xi32>) {
  ^bb0(%in: i32, %in_0: i32, %out: i32):
    %4 = arith.addi %in, %in_0 : i32
    linalg.yield %4 : i32
  } -> tensor<10xi32>
  %2 = tensor.empty() : tensor<10xi32>
  %3 = linalg.generic {indexing_maps = [affine_map<(d0) -> (d0)>, affine_map<(d0) -> (d0)>, affine_map<(d0) -> (d0)>], iterator_types = ["parallel"]} ins(%1, %arg1 : tensor<10xi32>, tensor<10xi32>) outs(%2 : tensor<10xi32>) {
  ^bb0(%in: i32, %in_0: i32, %out: i32):
    %4 = arith.muli %in, %in_0 : i32
    linalg.yield %4 : i32
  } -> tensor<10xi32>
  return %3 : tensor<10xi32>
}

// -----// IR Dump After VerifyCompilerStableHloInputLegality (iree-stablehlo-verify-compiler-input-legality) //----- //
#executable_target_embedded_elf_x86_64_ = #hal.executable.target<"llvm-cpu", "embedded-elf-x86_64", {cpu = "generic", cpu_features = "", data_layout = "e-m:e-p270:32:32-p271:32:32-p272:64:64-i64:64-i128:128-f80:128-n8:16:32:64-S128", native_vector_size = 16 : index, target_triple = "x86_64-unknown-unknown-eabi-elf", ukernels = false}>
#map = affine_map<(d0) -> (d0)>
#device_target_llvm_cpu = #hal.device.target<"llvm-cpu", {executable_targets = [#executable_target_embedded_elf_x86_64_]}>
module attributes {hal.device.targets = [#device_target_llvm_cpu]} {
  func.func @main(%arg0: tensor<10xi32>, %arg1: tensor<10xi32>) -> tensor<10xi32> {
    %0 = tensor.empty() : tensor<10xi32>
    %1 = linalg.generic {indexing_maps = [#map, #map, #map], iterator_types = ["parallel"]} ins(%arg0, %arg1 : tensor<10xi32>, tensor<10xi32>) outs(%0 : tensor<10xi32>) {
    ^bb0(%in: i32, %in_0: i32, %out: i32):
      %4 = arith.addi %in, %in_0 : i32
      linalg.yield %4 : i32
    } -> tensor<10xi32>
    %2 = tensor.empty() : tensor<10xi32>
    %3 = linalg.generic {indexing_maps = [#map, #map, #map], iterator_types = ["parallel"]} ins(%1, %arg1 : tensor<10xi32>, tensor<10xi32>) outs(%2 : tensor<10xi32>) {
    ^bb0(%in: i32, %in_0: i32, %out: i32):
      %4 = arith.muli %in, %in_0 : i32
      linalg.yield %4 : i32
    } -> tensor<10xi32>
    return %3 : tensor<10xi32>
  }
}


// -----// IR Dump After AutoInputConversionPipeline (iree-auto-input-conversion) //----- //
#executable_target_embedded_elf_x86_64_ = #hal.executable.target<"llvm-cpu", "embedded-elf-x86_64", {cpu = "generic", cpu_features = "", data_layout = "e-m:e-p270:32:32-p271:32:32-p272:64:64-i64:64-i128:128-f80:128-n8:16:32:64-S128", native_vector_size = 16 : index, target_triple = "x86_64-unknown-unknown-eabi-elf", ukernels = false}>
#map = affine_map<(d0) -> (d0)>
#device_target_llvm_cpu = #hal.device.target<"llvm-cpu", {executable_targets = [#executable_target_embedded_elf_x86_64_]}>
module attributes {hal.device.targets = [#device_target_llvm_cpu]} {
  func.func @main(%arg0: tensor<10xi32>, %arg1: tensor<10xi32>) -> tensor<10xi32> {
    %0 = tensor.empty() : tensor<10xi32>
    %1 = linalg.generic {indexing_maps = [#map, #map, #map], iterator_types = ["parallel"]} ins(%arg0, %arg1 : tensor<10xi32>, tensor<10xi32>) outs(%0 : tensor<10xi32>) {
    ^bb0(%in: i32, %in_0: i32, %out: i32):
      %4 = arith.addi %in, %in_0 : i32
      linalg.yield %4 : i32
    } -> tensor<10xi32>
    %2 = tensor.empty() : tensor<10xi32>
    %3 = linalg.generic {indexing_maps = [#map, #map, #map], iterator_types = ["parallel"]} ins(%1, %arg1 : tensor<10xi32>, tensor<10xi32>) outs(%2 : tensor<10xi32>) {
    ^bb0(%in: i32, %in_0: i32, %out: i32):
      %4 = arith.muli %in, %in_0 : i32
      linalg.yield %4 : i32
    } -> tensor<10xi32>
    return %3 : tensor<10xi32>
  }
}


// -----// IR Dump After IREEImportPublic (iree-import-public) //----- //
#executable_target_embedded_elf_x86_64_ = #hal.executable.target<"llvm-cpu", "embedded-elf-x86_64", {cpu = "generic", cpu_features = "", data_layout = "e-m:e-p270:32:32-p271:32:32-p272:64:64-i64:64-i128:128-f80:128-n8:16:32:64-S128", native_vector_size = 16 : index, target_triple = "x86_64-unknown-unknown-eabi-elf", ukernels = false}>
#map = affine_map<(d0) -> (d0)>
#device_target_llvm_cpu = #hal.device.target<"llvm-cpu", {executable_targets = [#executable_target_embedded_elf_x86_64_]}>
module attributes {hal.device.targets = [#device_target_llvm_cpu]} {
  func.func @main(%arg0: tensor<10xi32>, %arg1: tensor<10xi32>) -> tensor<10xi32> {
    %0 = tensor.empty() : tensor<10xi32>
    %1 = linalg.generic {indexing_maps = [#map, #map, #map], iterator_types = ["parallel"]} ins(%arg0, %arg1 : tensor<10xi32>, tensor<10xi32>) outs(%0 : tensor<10xi32>) {
    ^bb0(%in: i32, %in_0: i32, %out: i32):
      %4 = arith.addi %in, %in_0 : i32
      linalg.yield %4 : i32
    } -> tensor<10xi32>
    %2 = tensor.empty() : tensor<10xi32>
    %3 = linalg.generic {indexing_maps = [#map, #map, #map], iterator_types = ["parallel"]} ins(%1, %arg1 : tensor<10xi32>, tensor<10xi32>) outs(%2 : tensor<10xi32>) {
    ^bb0(%in: i32, %in_0: i32, %out: i32):
      %4 = arith.muli %in, %in_0 : i32
      linalg.yield %4 : i32
    } -> tensor<10xi32>
    return %3 : tensor<10xi32>
  }
}


// -----// IR Dump After ImportMLProgram (iree-import-ml-program) //----- //
#executable_target_embedded_elf_x86_64_ = #hal.executable.target<"llvm-cpu", "embedded-elf-x86_64", {cpu = "generic", cpu_features = "", data_layout = "e-m:e-p270:32:32-p271:32:32-p272:64:64-i64:64-i128:128-f80:128-n8:16:32:64-S128", native_vector_size = 16 : index, target_triple = "x86_64-unknown-unknown-eabi-elf", ukernels = false}>
#map = affine_map<(d0) -> (d0)>
#device_target_llvm_cpu = #hal.device.target<"llvm-cpu", {executable_targets = [#executable_target_embedded_elf_x86_64_]}>
module attributes {hal.device.targets = [#device_target_llvm_cpu]} {
  func.func @main(%arg0: tensor<10xi32>, %arg1: tensor<10xi32>) -> tensor<10xi32> {
    %0 = tensor.empty() : tensor<10xi32>
    %1 = linalg.generic {indexing_maps = [#map, #map, #map], iterator_types = ["parallel"]} ins(%arg0, %arg1 : tensor<10xi32>, tensor<10xi32>) outs(%0 : tensor<10xi32>) {
    ^bb0(%in: i32, %in_0: i32, %out: i32):
      %4 = arith.addi %in, %in_0 : i32
      linalg.yield %4 : i32
    } -> tensor<10xi32>
    %2 = tensor.empty() : tensor<10xi32>
    %3 = linalg.generic {indexing_maps = [#map, #map, #map], iterator_types = ["parallel"]} ins(%1, %arg1 : tensor<10xi32>, tensor<10xi32>) outs(%2 : tensor<10xi32>) {
    ^bb0(%in: i32, %in_0: i32, %out: i32):
      %4 = arith.muli %in, %in_0 : i32
      linalg.yield %4 : i32
    } -> tensor<10xi32>
    return %3 : tensor<10xi32>
  }
}


// -----// IR Dump After SanitizeModuleNames (iree-sanitize-module-names) //----- //
#executable_target_embedded_elf_x86_64_ = #hal.executable.target<"llvm-cpu", "embedded-elf-x86_64", {cpu = "generic", cpu_features = "", data_layout = "e-m:e-p270:32:32-p271:32:32-p272:64:64-i64:64-i128:128-f80:128-n8:16:32:64-S128", native_vector_size = 16 : index, target_triple = "x86_64-unknown-unknown-eabi-elf", ukernels = false}>
#map = affine_map<(d0) -> (d0)>
#device_target_llvm_cpu = #hal.device.target<"llvm-cpu", {executable_targets = [#executable_target_embedded_elf_x86_64_]}>
module attributes {hal.device.targets = [#device_target_llvm_cpu]} {
  func.func @main(%arg0: tensor<10xi32>, %arg1: tensor<10xi32>) -> tensor<10xi32> {
    %0 = tensor.empty() : tensor<10xi32>
    %1 = linalg.generic {indexing_maps = [#map, #map, #map], iterator_types = ["parallel"]} ins(%arg0, %arg1 : tensor<10xi32>, tensor<10xi32>) outs(%0 : tensor<10xi32>) {
    ^bb0(%in: i32, %in_0: i32, %out: i32):
      %4 = arith.addi %in, %in_0 : i32
      linalg.yield %4 : i32
    } -> tensor<10xi32>
    %2 = tensor.empty() : tensor<10xi32>
    %3 = linalg.generic {indexing_maps = [#map, #map, #map], iterator_types = ["parallel"]} ins(%1, %arg1 : tensor<10xi32>, tensor<10xi32>) outs(%2 : tensor<10xi32>) {
    ^bb0(%in: i32, %in_0: i32, %out: i32):
      %4 = arith.muli %in, %in_0 : i32
      linalg.yield %4 : i32
    } -> tensor<10xi32>
    return %3 : tensor<10xi32>
  }
}


// -----// IR Dump After mlir::iree_compiler::IREE::ABI::ConvertStreamableOpsPass (iree-abi-convert-streamable-ops) //----- //
#executable_target_embedded_elf_x86_64_ = #hal.executable.target<"llvm-cpu", "embedded-elf-x86_64", {cpu = "generic", cpu_features = "", data_layout = "e-m:e-p270:32:32-p271:32:32-p272:64:64-i64:64-i128:128-f80:128-n8:16:32:64-S128", native_vector_size = 16 : index, target_triple = "x86_64-unknown-unknown-eabi-elf", ukernels = false}>
#map = affine_map<(d0) -> (d0)>
#device_target_llvm_cpu = #hal.device.target<"llvm-cpu", {executable_targets = [#executable_target_embedded_elf_x86_64_]}>
module attributes {hal.device.targets = [#device_target_llvm_cpu]} {
  func.func @main(%arg0: tensor<10xi32>, %arg1: tensor<10xi32>) -> tensor<10xi32> {
    %0 = tensor.empty() : tensor<10xi32>
    %1 = linalg.generic {indexing_maps = [#map, #map, #map], iterator_types = ["parallel"]} ins(%arg0, %arg1 : tensor<10xi32>, tensor<10xi32>) outs(%0 : tensor<10xi32>) {
    ^bb0(%in: i32, %in_0: i32, %out: i32):
      %4 = arith.addi %in, %in_0 : i32
      linalg.yield %4 : i32
    } -> tensor<10xi32>
    %2 = tensor.empty() : tensor<10xi32>
    %3 = linalg.generic {indexing_maps = [#map, #map, #map], iterator_types = ["parallel"]} ins(%1, %arg1 : tensor<10xi32>, tensor<10xi32>) outs(%2 : tensor<10xi32>) {
    ^bb0(%in: i32, %in_0: i32, %out: i32):
      %4 = arith.muli %in, %in_0 : i32
      linalg.yield %4 : i32
    } -> tensor<10xi32>
    return %3 : tensor<10xi32>
  }
}


// -----// IR Dump After mlir::iree_compiler::IREE::ABI::WrapEntryPointsPass (iree-abi-wrap-entry-points) //----- //
#executable_target_embedded_elf_x86_64_ = #hal.executable.target<"llvm-cpu", "embedded-elf-x86_64", {cpu = "generic", cpu_features = "", data_layout = "e-m:e-p270:32:32-p271:32:32-p272:64:64-i64:64-i128:128-f80:128-n8:16:32:64-S128", native_vector_size = 16 : index, target_triple = "x86_64-unknown-unknown-eabi-elf", ukernels = false}>
#map = affine_map<(d0) -> (d0)>
#device_target_llvm_cpu = #hal.device.target<"llvm-cpu", {executable_targets = [#executable_target_embedded_elf_x86_64_]}>
module attributes {hal.device.targets = [#device_target_llvm_cpu]} {
  func.func @main(%arg0: !hal.buffer_view, %arg1: !hal.buffer_view) -> !hal.buffer_view attributes {iree.abi.stub} {
    %0 = hal.tensor.import %arg0 "input 0" : !hal.buffer_view -> tensor<10xi32>
    %1 = hal.tensor.import %arg1 "input 1" : !hal.buffer_view -> tensor<10xi32>
    %2 = call @_main(%0, %1) : (tensor<10xi32>, tensor<10xi32>) -> tensor<10xi32>
    %3 = hal.tensor.export %2 "output 0" : tensor<10xi32> -> !hal.buffer_view
    return %3 : !hal.buffer_view
  }
  func.func private @_main(%arg0: tensor<10xi32>, %arg1: tensor<10xi32>) -> tensor<10xi32> {
    %0 = tensor.empty() : tensor<10xi32>
    %1 = linalg.generic {indexing_maps = [#map, #map, #map], iterator_types = ["parallel"]} ins(%arg0, %arg1 : tensor<10xi32>, tensor<10xi32>) outs(%0 : tensor<10xi32>) {
    ^bb0(%in: i32, %in_0: i32, %out: i32):
      %4 = arith.addi %in, %in_0 : i32
      linalg.yield %4 : i32
    } -> tensor<10xi32>
    %2 = tensor.empty() : tensor<10xi32>
    %3 = linalg.generic {indexing_maps = [#map, #map, #map], iterator_types = ["parallel"]} ins(%1, %arg1 : tensor<10xi32>, tensor<10xi32>) outs(%2 : tensor<10xi32>) {
    ^bb0(%in: i32, %in_0: i32, %out: i32):
      %4 = arith.muli %in, %in_0 : i32
      linalg.yield %4 : i32
    } -> tensor<10xi32>
    return %3 : tensor<10xi32>
  }
}


// -----// IR Dump After Canonicalizer (canonicalize) //----- //
func.func private @_main(%arg0: tensor<10xi32>, %arg1: tensor<10xi32>) -> tensor<10xi32> {
  %0 = tensor.empty() : tensor<10xi32>
  %1 = linalg.generic {indexing_maps = [affine_map<(d0) -> (d0)>, affine_map<(d0) -> (d0)>, affine_map<(d0) -> (d0)>], iterator_types = ["parallel"]} ins(%arg0, %arg1 : tensor<10xi32>, tensor<10xi32>) outs(%0 : tensor<10xi32>) {
  ^bb0(%in: i32, %in_0: i32, %out: i32):
    %4 = arith.addi %in, %in_0 : i32
    linalg.yield %4 : i32
  } -> tensor<10xi32>
  %2 = tensor.empty() : tensor<10xi32>
  %3 = linalg.generic {indexing_maps = [affine_map<(d0) -> (d0)>, affine_map<(d0) -> (d0)>, affine_map<(d0) -> (d0)>], iterator_types = ["parallel"]} ins(%1, %arg1 : tensor<10xi32>, tensor<10xi32>) outs(%2 : tensor<10xi32>) {
  ^bb0(%in: i32, %in_0: i32, %out: i32):
    %4 = arith.muli %in, %in_0 : i32
    linalg.yield %4 : i32
  } -> tensor<10xi32>
  return %3 : tensor<10xi32>
}

// -----// IR Dump After Canonicalizer (canonicalize) //----- //
func.func @main(%arg0: !hal.buffer_view, %arg1: !hal.buffer_view) -> !hal.buffer_view attributes {iree.abi.stub} {
  %0 = hal.tensor.import %arg0 "input 0" : !hal.buffer_view -> tensor<10xi32>
  %1 = hal.tensor.import %arg1 "input 1" : !hal.buffer_view -> tensor<10xi32>
  %2 = call @_main(%0, %1) : (tensor<10xi32>, tensor<10xi32>) -> tensor<10xi32>
  %3 = hal.tensor.export %2 "output 0" : tensor<10xi32> -> !hal.buffer_view
  return %3 : !hal.buffer_view
}

// -----// IR Dump After Canonicalizer (canonicalize) //----- //
func.func @main(%arg0: !hal.buffer_view, %arg1: !hal.buffer_view) -> !hal.buffer_view attributes {iree.abi.stub} {
  %0 = hal.tensor.import %arg0 "input 0" : !hal.buffer_view -> tensor<10xi32>
  %1 = hal.tensor.import %arg1 "input 1" : !hal.buffer_view -> tensor<10xi32>
  %2 = tensor.empty() : tensor<10xi32>
  %3 = linalg.generic {indexing_maps = [affine_map<(d0) -> (d0)>, affine_map<(d0) -> (d0)>, affine_map<(d0) -> (d0)>], iterator_types = ["parallel"]} ins(%0, %1 : tensor<10xi32>, tensor<10xi32>) outs(%2 : tensor<10xi32>) {
  ^bb0(%in: i32, %in_0: i32, %out: i32):
    %7 = arith.addi %in, %in_0 : i32
    linalg.yield %7 : i32
  } -> tensor<10xi32>
  %4 = tensor.empty() : tensor<10xi32>
  %5 = linalg.generic {indexing_maps = [affine_map<(d0) -> (d0)>, affine_map<(d0) -> (d0)>, affine_map<(d0) -> (d0)>], iterator_types = ["parallel"]} ins(%3, %1 : tensor<10xi32>, tensor<10xi32>) outs(%4 : tensor<10xi32>) {
  ^bb0(%in: i32, %in_0: i32, %out: i32):
    %7 = arith.muli %in, %in_0 : i32
    linalg.yield %7 : i32
  } -> tensor<10xi32>
  %6 = hal.tensor.export %5 "output 0" : tensor<10xi32> -> !hal.buffer_view
  return %6 : !hal.buffer_view
}

// -----// IR Dump After Inliner (inline) //----- //
#executable_target_embedded_elf_x86_64_ = #hal.executable.target<"llvm-cpu", "embedded-elf-x86_64", {cpu = "generic", cpu_features = "", data_layout = "e-m:e-p270:32:32-p271:32:32-p272:64:64-i64:64-i128:128-f80:128-n8:16:32:64-S128", native_vector_size = 16 : index, target_triple = "x86_64-unknown-unknown-eabi-elf", ukernels = false}>
#map = affine_map<(d0) -> (d0)>
#device_target_llvm_cpu = #hal.device.target<"llvm-cpu", {executable_targets = [#executable_target_embedded_elf_x86_64_]}>
module attributes {hal.device.targets = [#device_target_llvm_cpu]} {
  func.func @main(%arg0: !hal.buffer_view, %arg1: !hal.buffer_view) -> !hal.buffer_view attributes {iree.abi.stub} {
    %0 = hal.tensor.import %arg0 "input 0" : !hal.buffer_view -> tensor<10xi32>
    %1 = hal.tensor.import %arg1 "input 1" : !hal.buffer_view -> tensor<10xi32>
    %2 = tensor.empty() : tensor<10xi32>
    %3 = linalg.generic {indexing_maps = [#map, #map, #map], iterator_types = ["parallel"]} ins(%0, %1 : tensor<10xi32>, tensor<10xi32>) outs(%2 : tensor<10xi32>) {
    ^bb0(%in: i32, %in_0: i32, %out: i32):
      %7 = arith.addi %in, %in_0 : i32
      linalg.yield %7 : i32
    } -> tensor<10xi32>
    %4 = tensor.empty() : tensor<10xi32>
    %5 = linalg.generic {indexing_maps = [#map, #map, #map], iterator_types = ["parallel"]} ins(%3, %1 : tensor<10xi32>, tensor<10xi32>) outs(%4 : tensor<10xi32>) {
    ^bb0(%in: i32, %in_0: i32, %out: i32):
      %7 = arith.muli %in, %in_0 : i32
      linalg.yield %7 : i32
    } -> tensor<10xi32>
    %6 = hal.tensor.export %5 "output 0" : tensor<10xi32> -> !hal.buffer_view
    return %6 : !hal.buffer_view
  }
}


// -----// IR Dump After Canonicalizer (canonicalize) //----- //
func.func @main(%arg0: !hal.buffer_view, %arg1: !hal.buffer_view) -> !hal.buffer_view attributes {iree.abi.stub} {
  %0 = hal.tensor.import %arg0 "input 0" : !hal.buffer_view -> tensor<10xi32>
  %1 = hal.tensor.import %arg1 "input 1" : !hal.buffer_view -> tensor<10xi32>
  %2 = tensor.empty() : tensor<10xi32>
  %3 = linalg.generic {indexing_maps = [affine_map<(d0) -> (d0)>, affine_map<(d0) -> (d0)>, affine_map<(d0) -> (d0)>], iterator_types = ["parallel"]} ins(%0, %1 : tensor<10xi32>, tensor<10xi32>) outs(%2 : tensor<10xi32>) {
  ^bb0(%in: i32, %in_0: i32, %out: i32):
    %7 = arith.addi %in, %in_0 : i32
    linalg.yield %7 : i32
  } -> tensor<10xi32>
  %4 = tensor.empty() : tensor<10xi32>
  %5 = linalg.generic {indexing_maps = [affine_map<(d0) -> (d0)>, affine_map<(d0) -> (d0)>, affine_map<(d0) -> (d0)>], iterator_types = ["parallel"]} ins(%3, %1 : tensor<10xi32>, tensor<10xi32>) outs(%4 : tensor<10xi32>) {
  ^bb0(%in: i32, %in_0: i32, %out: i32):
    %7 = arith.muli %in, %in_0 : i32
    linalg.yield %7 : i32
  } -> tensor<10xi32>
  %6 = hal.tensor.export %5 "output 0" : tensor<10xi32> -> !hal.buffer_view
  return %6 : !hal.buffer_view
}

// -----// IR Dump After CSE (cse) //----- //
func.func @main(%arg0: !hal.buffer_view, %arg1: !hal.buffer_view) -> !hal.buffer_view attributes {iree.abi.stub} {
  %0 = hal.tensor.import %arg0 "input 0" : !hal.buffer_view -> tensor<10xi32>
  %1 = hal.tensor.import %arg1 "input 1" : !hal.buffer_view -> tensor<10xi32>
  %2 = tensor.empty() : tensor<10xi32>
  %3 = linalg.generic {indexing_maps = [affine_map<(d0) -> (d0)>, affine_map<(d0) -> (d0)>, affine_map<(d0) -> (d0)>], iterator_types = ["parallel"]} ins(%0, %1 : tensor<10xi32>, tensor<10xi32>) outs(%2 : tensor<10xi32>) {
  ^bb0(%in: i32, %in_0: i32, %out: i32):
    %6 = arith.addi %in, %in_0 : i32
    linalg.yield %6 : i32
  } -> tensor<10xi32>
  %4 = linalg.generic {indexing_maps = [affine_map<(d0) -> (d0)>, affine_map<(d0) -> (d0)>, affine_map<(d0) -> (d0)>], iterator_types = ["parallel"]} ins(%3, %1 : tensor<10xi32>, tensor<10xi32>) outs(%2 : tensor<10xi32>) {
  ^bb0(%in: i32, %in_0: i32, %out: i32):
    %6 = arith.muli %in, %in_0 : i32
    linalg.yield %6 : i32
  } -> tensor<10xi32>
  %5 = hal.tensor.export %4 "output 0" : tensor<10xi32> -> !hal.buffer_view
  return %5 : !hal.buffer_view
}

// -----// IR Dump After SymbolDCE (symbol-dce) //----- //
#executable_target_embedded_elf_x86_64_ = #hal.executable.target<"llvm-cpu", "embedded-elf-x86_64", {cpu = "generic", cpu_features = "", data_layout = "e-m:e-p270:32:32-p271:32:32-p272:64:64-i64:64-i128:128-f80:128-n8:16:32:64-S128", native_vector_size = 16 : index, target_triple = "x86_64-unknown-unknown-eabi-elf", ukernels = false}>
#map = affine_map<(d0) -> (d0)>
#device_target_llvm_cpu = #hal.device.target<"llvm-cpu", {executable_targets = [#executable_target_embedded_elf_x86_64_]}>
module attributes {hal.device.targets = [#device_target_llvm_cpu]} {
  func.func @main(%arg0: !hal.buffer_view, %arg1: !hal.buffer_view) -> !hal.buffer_view attributes {iree.abi.stub} {
    %0 = hal.tensor.import %arg0 "input 0" : !hal.buffer_view -> tensor<10xi32>
    %1 = hal.tensor.import %arg1 "input 1" : !hal.buffer_view -> tensor<10xi32>
    %2 = tensor.empty() : tensor<10xi32>
    %3 = linalg.generic {indexing_maps = [#map, #map, #map], iterator_types = ["parallel"]} ins(%0, %1 : tensor<10xi32>, tensor<10xi32>) outs(%2 : tensor<10xi32>) {
    ^bb0(%in: i32, %in_0: i32, %out: i32):
      %6 = arith.addi %in, %in_0 : i32
      linalg.yield %6 : i32
    } -> tensor<10xi32>
    %4 = linalg.generic {indexing_maps = [#map, #map, #map], iterator_types = ["parallel"]} ins(%3, %1 : tensor<10xi32>, tensor<10xi32>) outs(%2 : tensor<10xi32>) {
    ^bb0(%in: i32, %in_0: i32, %out: i32):
      %6 = arith.muli %in, %in_0 : i32
      linalg.yield %6 : i32
    } -> tensor<10xi32>
    %5 = hal.tensor.export %4 "output 0" : tensor<10xi32> -> !hal.buffer_view
    return %5 : !hal.buffer_view
  }
}


// -----// IR Dump After DemoteF64ToF32 (iree-util-demote-f64-to-f32) //----- //
#executable_target_embedded_elf_x86_64_ = #hal.executable.target<"llvm-cpu", "embedded-elf-x86_64", {cpu = "generic", cpu_features = "", data_layout = "e-m:e-p270:32:32-p271:32:32-p272:64:64-i64:64-i128:128-f80:128-n8:16:32:64-S128", native_vector_size = 16 : index, target_triple = "x86_64-unknown-unknown-eabi-elf", ukernels = false}>
#map = affine_map<(d0) -> (d0)>
#device_target_llvm_cpu = #hal.device.target<"llvm-cpu", {executable_targets = [#executable_target_embedded_elf_x86_64_]}>
module attributes {hal.device.targets = [#device_target_llvm_cpu]} {
  func.func @main(%arg0: !hal.buffer_view, %arg1: !hal.buffer_view) -> !hal.buffer_view attributes {iree.abi.stub} {
    %0 = hal.tensor.import %arg0 "input 0" : !hal.buffer_view -> tensor<10xi32>
    %1 = hal.tensor.import %arg1 "input 1" : !hal.buffer_view -> tensor<10xi32>
    %2 = tensor.empty() : tensor<10xi32>
    %3 = linalg.generic {indexing_maps = [#map, #map, #map], iterator_types = ["parallel"]} ins(%0, %1 : tensor<10xi32>, tensor<10xi32>) outs(%2 : tensor<10xi32>) {
    ^bb0(%in: i32, %in_0: i32, %out: i32):
      %6 = arith.addi %in, %in_0 : i32
      linalg.yield %6 : i32
    } -> tensor<10xi32>
    %4 = linalg.generic {indexing_maps = [#map, #map, #map], iterator_types = ["parallel"]} ins(%3, %1 : tensor<10xi32>, tensor<10xi32>) outs(%2 : tensor<10xi32>) {
    ^bb0(%in: i32, %in_0: i32, %out: i32):
      %6 = arith.muli %in, %in_0 : i32
      linalg.yield %6 : i32
    } -> tensor<10xi32>
    %5 = hal.tensor.export %4 "output 0" : tensor<10xi32> -> !hal.buffer_view
    return %5 : !hal.buffer_view
  }
}


// -----// IR Dump After RemoveZeroExtentTensors (iree-global-opt-remove-zero-extent-tensors) //----- //
func.func @main(%arg0: !hal.buffer_view, %arg1: !hal.buffer_view) -> !hal.buffer_view attributes {iree.abi.stub} {
  %0 = hal.tensor.import %arg0 "input 0" : !hal.buffer_view -> tensor<10xi32>
  %1 = hal.tensor.import %arg1 "input 1" : !hal.buffer_view -> tensor<10xi32>
  %2 = tensor.empty() : tensor<10xi32>
  %3 = linalg.generic {indexing_maps = [affine_map<(d0) -> (d0)>, affine_map<(d0) -> (d0)>, affine_map<(d0) -> (d0)>], iterator_types = ["parallel"]} ins(%0, %1 : tensor<10xi32>, tensor<10xi32>) outs(%2 : tensor<10xi32>) {
  ^bb0(%in: i32, %in_0: i32, %out: i32):
    %6 = arith.addi %in, %in_0 : i32
    linalg.yield %6 : i32
  } -> tensor<10xi32>
  %4 = linalg.generic {indexing_maps = [affine_map<(d0) -> (d0)>, affine_map<(d0) -> (d0)>, affine_map<(d0) -> (d0)>], iterator_types = ["parallel"]} ins(%3, %1 : tensor<10xi32>, tensor<10xi32>) outs(%2 : tensor<10xi32>) {
  ^bb0(%in: i32, %in_0: i32, %out: i32):
    %6 = arith.muli %in, %in_0 : i32
    linalg.yield %6 : i32
  } -> tensor<10xi32>
  %5 = hal.tensor.export %4 "output 0" : tensor<10xi32> -> !hal.buffer_view
  return %5 : !hal.buffer_view
}

// -----// IR Dump After DetachElementwiseFromNamedOps (iree-global-opt-detach-elementwise-from-named-ops) //----- //
func.func @main(%arg0: !hal.buffer_view, %arg1: !hal.buffer_view) -> !hal.buffer_view attributes {iree.abi.stub} {
  %0 = hal.tensor.import %arg0 "input 0" : !hal.buffer_view -> tensor<10xi32>
  %1 = hal.tensor.import %arg1 "input 1" : !hal.buffer_view -> tensor<10xi32>
  %2 = tensor.empty() : tensor<10xi32>
  %3 = linalg.generic {indexing_maps = [affine_map<(d0) -> (d0)>, affine_map<(d0) -> (d0)>, affine_map<(d0) -> (d0)>], iterator_types = ["parallel"]} ins(%0, %1 : tensor<10xi32>, tensor<10xi32>) outs(%2 : tensor<10xi32>) {
  ^bb0(%in: i32, %in_0: i32, %out: i32):
    %6 = arith.addi %in, %in_0 : i32
    linalg.yield %6 : i32
  } -> tensor<10xi32>
  %4 = linalg.generic {indexing_maps = [affine_map<(d0) -> (d0)>, affine_map<(d0) -> (d0)>, affine_map<(d0) -> (d0)>], iterator_types = ["parallel"]} ins(%3, %1 : tensor<10xi32>, tensor<10xi32>) outs(%2 : tensor<10xi32>) {
  ^bb0(%in: i32, %in_0: i32, %out: i32):
    %6 = arith.muli %in, %in_0 : i32
    linalg.yield %6 : i32
  } -> tensor<10xi32>
  %5 = hal.tensor.export %4 "output 0" : tensor<10xi32> -> !hal.buffer_view
  return %5 : !hal.buffer_view
}

// -----// IR Dump After LinalgNamedOpConversion (linalg-named-op-conversion) //----- //
func.func @main(%arg0: !hal.buffer_view, %arg1: !hal.buffer_view) -> !hal.buffer_view attributes {iree.abi.stub} {
  %0 = hal.tensor.import %arg0 "input 0" : !hal.buffer_view -> tensor<10xi32>
  %1 = hal.tensor.import %arg1 "input 1" : !hal.buffer_view -> tensor<10xi32>
  %2 = tensor.empty() : tensor<10xi32>
  %3 = linalg.generic {indexing_maps = [affine_map<(d0) -> (d0)>, affine_map<(d0) -> (d0)>, affine_map<(d0) -> (d0)>], iterator_types = ["parallel"]} ins(%0, %1 : tensor<10xi32>, tensor<10xi32>) outs(%2 : tensor<10xi32>) {
  ^bb0(%in: i32, %in_0: i32, %out: i32):
    %6 = arith.addi %in, %in_0 : i32
    linalg.yield %6 : i32
  } -> tensor<10xi32>
  %4 = linalg.generic {indexing_maps = [affine_map<(d0) -> (d0)>, affine_map<(d0) -> (d0)>, affine_map<(d0) -> (d0)>], iterator_types = ["parallel"]} ins(%3, %1 : tensor<10xi32>, tensor<10xi32>) outs(%2 : tensor<10xi32>) {
  ^bb0(%in: i32, %in_0: i32, %out: i32):
    %6 = arith.muli %in, %in_0 : i32
    linalg.yield %6 : i32
  } -> tensor<10xi32>
  %5 = hal.tensor.export %4 "output 0" : tensor<10xi32> -> !hal.buffer_view
  return %5 : !hal.buffer_view
}

// -----// IR Dump After Convert1X1FilterConv2DToMatmul (iree-global-opt-convert-1x1-filter-conv2d-to-matmul) //----- //
func.func @main(%arg0: !hal.buffer_view, %arg1: !hal.buffer_view) -> !hal.buffer_view attributes {iree.abi.stub} {
  %0 = hal.tensor.import %arg0 "input 0" : !hal.buffer_view -> tensor<10xi32>
  %1 = hal.tensor.import %arg1 "input 1" : !hal.buffer_view -> tensor<10xi32>
  %2 = tensor.empty() : tensor<10xi32>
  %3 = linalg.generic {indexing_maps = [affine_map<(d0) -> (d0)>, affine_map<(d0) -> (d0)>, affine_map<(d0) -> (d0)>], iterator_types = ["parallel"]} ins(%0, %1 : tensor<10xi32>, tensor<10xi32>) outs(%2 : tensor<10xi32>) {
  ^bb0(%in: i32, %in_0: i32, %out: i32):
    %6 = arith.addi %in, %in_0 : i32
    linalg.yield %6 : i32
  } -> tensor<10xi32>
  %4 = linalg.generic {indexing_maps = [affine_map<(d0) -> (d0)>, affine_map<(d0) -> (d0)>, affine_map<(d0) -> (d0)>], iterator_types = ["parallel"]} ins(%3, %1 : tensor<10xi32>, tensor<10xi32>) outs(%2 : tensor<10xi32>) {
  ^bb0(%in: i32, %in_0: i32, %out: i32):
    %6 = arith.muli %in, %in_0 : i32
    linalg.yield %6 : i32
  } -> tensor<10xi32>
  %5 = hal.tensor.export %4 "output 0" : tensor<10xi32> -> !hal.buffer_view
  return %5 : !hal.buffer_view
}

// -----// IR Dump After EraseUnusedLinalgOperands (iree-global-opt-erase-unused-linalg-operands) //----- //
#executable_target_embedded_elf_x86_64_ = #hal.executable.target<"llvm-cpu", "embedded-elf-x86_64", {cpu = "generic", cpu_features = "", data_layout = "e-m:e-p270:32:32-p271:32:32-p272:64:64-i64:64-i128:128-f80:128-n8:16:32:64-S128", native_vector_size = 16 : index, target_triple = "x86_64-unknown-unknown-eabi-elf", ukernels = false}>
#map = affine_map<(d0) -> (d0)>
#device_target_llvm_cpu = #hal.device.target<"llvm-cpu", {executable_targets = [#executable_target_embedded_elf_x86_64_]}>
module attributes {hal.device.targets = [#device_target_llvm_cpu]} {
  func.func @main(%arg0: !hal.buffer_view, %arg1: !hal.buffer_view) -> !hal.buffer_view attributes {iree.abi.stub} {
    %0 = hal.tensor.import %arg0 "input 0" : !hal.buffer_view -> tensor<10xi32>
    %1 = hal.tensor.import %arg1 "input 1" : !hal.buffer_view -> tensor<10xi32>
    %2 = tensor.empty() : tensor<10xi32>
    %3 = linalg.generic {indexing_maps = [#map, #map, #map], iterator_types = ["parallel"]} ins(%0, %1 : tensor<10xi32>, tensor<10xi32>) outs(%2 : tensor<10xi32>) {
    ^bb0(%in: i32, %in_0: i32, %out: i32):
      %6 = arith.addi %in, %in_0 : i32
      linalg.yield %6 : i32
    } -> tensor<10xi32>
    %4 = linalg.generic {indexing_maps = [#map, #map, #map], iterator_types = ["parallel"]} ins(%3, %1 : tensor<10xi32>, tensor<10xi32>) outs(%2 : tensor<10xi32>) {
    ^bb0(%in: i32, %in_0: i32, %out: i32):
      %6 = arith.muli %in, %in_0 : i32
      linalg.yield %6 : i32
    } -> tensor<10xi32>
    %5 = hal.tensor.export %4 "output 0" : tensor<10xi32> -> !hal.buffer_view
    return %5 : !hal.buffer_view
  }
}


// -----// IR Dump After ExpandTensorShapes (iree-flow-expand-tensor-shapes) //----- //
#executable_target_embedded_elf_x86_64_ = #hal.executable.target<"llvm-cpu", "embedded-elf-x86_64", {cpu = "generic", cpu_features = "", data_layout = "e-m:e-p270:32:32-p271:32:32-p272:64:64-i64:64-i128:128-f80:128-n8:16:32:64-S128", native_vector_size = 16 : index, target_triple = "x86_64-unknown-unknown-eabi-elf", ukernels = false}>
#map = affine_map<(d0) -> (d0)>
#device_target_llvm_cpu = #hal.device.target<"llvm-cpu", {executable_targets = [#executable_target_embedded_elf_x86_64_]}>
module attributes {hal.device.targets = [#device_target_llvm_cpu]} {
  func.func @main(%arg0: !hal.buffer_view, %arg1: !hal.buffer_view) -> !hal.buffer_view attributes {iree.abi.stub} {
    %0 = hal.tensor.import %arg0 "input 0" : !hal.buffer_view -> tensor<10xi32>
    %1 = hal.tensor.import %arg1 "input 1" : !hal.buffer_view -> tensor<10xi32>
    %2 = tensor.empty() : tensor<10xi32>
    %3 = linalg.generic {indexing_maps = [#map, #map, #map], iterator_types = ["parallel"]} ins(%0, %1 : tensor<10xi32>, tensor<10xi32>) outs(%2 : tensor<10xi32>) {
    ^bb0(%in: i32, %in_0: i32, %out: i32):
      %6 = arith.addi %in, %in_0 : i32
      linalg.yield %6 : i32
    } -> tensor<10xi32>
    %4 = linalg.generic {indexing_maps = [#map, #map, #map], iterator_types = ["parallel"]} ins(%3, %1 : tensor<10xi32>, tensor<10xi32>) outs(%2 : tensor<10xi32>) {
    ^bb0(%in: i32, %in_0: i32, %out: i32):
      %6 = arith.muli %in, %in_0 : i32
      linalg.yield %6 : i32
    } -> tensor<10xi32>
    %5 = hal.tensor.export %4 "output 0" : tensor<10xi32> -> !hal.buffer_view
    return %5 : !hal.buffer_view
  }
}


// -----// IR Dump After ConvertElementwiseToLinalg (convert-elementwise-to-linalg) //----- //
func.func @main(%arg0: !hal.buffer_view, %arg1: !hal.buffer_view) -> !hal.buffer_view attributes {iree.abi.stub} {
  %0 = hal.tensor.import %arg0 "input 0" : !hal.buffer_view -> tensor<10xi32>
  %1 = hal.tensor.import %arg1 "input 1" : !hal.buffer_view -> tensor<10xi32>
  %2 = tensor.empty() : tensor<10xi32>
  %3 = linalg.generic {indexing_maps = [affine_map<(d0) -> (d0)>, affine_map<(d0) -> (d0)>, affine_map<(d0) -> (d0)>], iterator_types = ["parallel"]} ins(%0, %1 : tensor<10xi32>, tensor<10xi32>) outs(%2 : tensor<10xi32>) {
  ^bb0(%in: i32, %in_0: i32, %out: i32):
    %6 = arith.addi %in, %in_0 : i32
    linalg.yield %6 : i32
  } -> tensor<10xi32>
  %4 = linalg.generic {indexing_maps = [affine_map<(d0) -> (d0)>, affine_map<(d0) -> (d0)>, affine_map<(d0) -> (d0)>], iterator_types = ["parallel"]} ins(%3, %1 : tensor<10xi32>, tensor<10xi32>) outs(%2 : tensor<10xi32>) {
  ^bb0(%in: i32, %in_0: i32, %out: i32):
    %6 = arith.muli %in, %in_0 : i32
    linalg.yield %6 : i32
  } -> tensor<10xi32>
  %5 = hal.tensor.export %4 "output 0" : tensor<10xi32> -> !hal.buffer_view
  return %5 : !hal.buffer_view
}

// -----// IR Dump After GeneralizeLinalgNamedOps (iree-flow-generalize-linalg-named-ops) //----- //
func.func @main(%arg0: !hal.buffer_view, %arg1: !hal.buffer_view) -> !hal.buffer_view attributes {iree.abi.stub} {
  %0 = hal.tensor.import %arg0 "input 0" : !hal.buffer_view -> tensor<10xi32>
  %1 = hal.tensor.import %arg1 "input 1" : !hal.buffer_view -> tensor<10xi32>
  %2 = tensor.empty() : tensor<10xi32>
  %3 = linalg.generic {indexing_maps = [affine_map<(d0) -> (d0)>, affine_map<(d0) -> (d0)>, affine_map<(d0) -> (d0)>], iterator_types = ["parallel"]} ins(%0, %1 : tensor<10xi32>, tensor<10xi32>) outs(%2 : tensor<10xi32>) {
  ^bb0(%in: i32, %in_0: i32, %out: i32):
    %6 = arith.addi %in, %in_0 : i32
    linalg.yield %6 : i32
  } -> tensor<10xi32>
  %4 = linalg.generic {indexing_maps = [affine_map<(d0) -> (d0)>, affine_map<(d0) -> (d0)>, affine_map<(d0) -> (d0)>], iterator_types = ["parallel"]} ins(%3, %1 : tensor<10xi32>, tensor<10xi32>) outs(%2 : tensor<10xi32>) {
  ^bb0(%in: i32, %in_0: i32, %out: i32):
    %6 = arith.muli %in, %in_0 : i32
    linalg.yield %6 : i32
  } -> tensor<10xi32>
  %5 = hal.tensor.export %4 "output 0" : tensor<10xi32> -> !hal.buffer_view
  return %5 : !hal.buffer_view
}

// -----// IR Dump After RaiseSpecialOps (iree-flow-raise-special-ops) //----- //
func.func @main(%arg0: !hal.buffer_view, %arg1: !hal.buffer_view) -> !hal.buffer_view attributes {iree.abi.stub} {
  %0 = hal.tensor.import %arg0 "input 0" : !hal.buffer_view -> tensor<10xi32>
  %1 = hal.tensor.import %arg1 "input 1" : !hal.buffer_view -> tensor<10xi32>
  %2 = tensor.empty() : tensor<10xi32>
  %3 = linalg.generic {indexing_maps = [affine_map<(d0) -> (d0)>, affine_map<(d0) -> (d0)>, affine_map<(d0) -> (d0)>], iterator_types = ["parallel"]} ins(%0, %1 : tensor<10xi32>, tensor<10xi32>) outs(%2 : tensor<10xi32>) {
  ^bb0(%in: i32, %in_0: i32, %out: i32):
    %6 = arith.addi %in, %in_0 : i32
    linalg.yield %6 : i32
  } -> tensor<10xi32>
  %4 = linalg.generic {indexing_maps = [affine_map<(d0) -> (d0)>, affine_map<(d0) -> (d0)>, affine_map<(d0) -> (d0)>], iterator_types = ["parallel"]} ins(%3, %1 : tensor<10xi32>, tensor<10xi32>) outs(%2 : tensor<10xi32>) {
  ^bb0(%in: i32, %in_0: i32, %out: i32):
    %6 = arith.muli %in, %in_0 : i32
    linalg.yield %6 : i32
  } -> tensor<10xi32>
  %5 = hal.tensor.export %4 "output 0" : tensor<10xi32> -> !hal.buffer_view
  return %5 : !hal.buffer_view
}

// -----// IR Dump After FoldUnitExtentDims (iree-flow-fold-unit-extent-dims) //----- //
func.func @main(%arg0: !hal.buffer_view, %arg1: !hal.buffer_view) -> !hal.buffer_view attributes {iree.abi.stub} {
  %0 = hal.tensor.import %arg0 "input 0" : !hal.buffer_view -> tensor<10xi32>
  %1 = hal.tensor.import %arg1 "input 1" : !hal.buffer_view -> tensor<10xi32>
  %2 = tensor.empty() : tensor<10xi32>
  %3 = linalg.generic {indexing_maps = [affine_map<(d0) -> (d0)>, affine_map<(d0) -> (d0)>, affine_map<(d0) -> (d0)>], iterator_types = ["parallel"]} ins(%0, %1 : tensor<10xi32>, tensor<10xi32>) outs(%2 : tensor<10xi32>) {
  ^bb0(%in: i32, %in_0: i32, %out: i32):
    %6 = arith.addi %in, %in_0 : i32
    linalg.yield %6 : i32
  } -> tensor<10xi32>
  %4 = linalg.generic {indexing_maps = [affine_map<(d0) -> (d0)>, affine_map<(d0) -> (d0)>, affine_map<(d0) -> (d0)>], iterator_types = ["parallel"]} ins(%3, %1 : tensor<10xi32>, tensor<10xi32>) outs(%2 : tensor<10xi32>) {
  ^bb0(%in: i32, %in_0: i32, %out: i32):
    %6 = arith.muli %in, %in_0 : i32
    linalg.yield %6 : i32
  } -> tensor<10xi32>
  %5 = hal.tensor.export %4 "output 0" : tensor<10xi32> -> !hal.buffer_view
  return %5 : !hal.buffer_view
}

// -----// IR Dump After FuseDequantizationMatmul (iree-flow-fuse-dequantization-matmul) //----- //
func.func @main(%arg0: !hal.buffer_view, %arg1: !hal.buffer_view) -> !hal.buffer_view attributes {iree.abi.stub} {
  %0 = hal.tensor.import %arg0 "input 0" : !hal.buffer_view -> tensor<10xi32>
  %1 = hal.tensor.import %arg1 "input 1" : !hal.buffer_view -> tensor<10xi32>
  %2 = tensor.empty() : tensor<10xi32>
  %3 = linalg.generic {indexing_maps = [affine_map<(d0) -> (d0)>, affine_map<(d0) -> (d0)>, affine_map<(d0) -> (d0)>], iterator_types = ["parallel"]} ins(%0, %1 : tensor<10xi32>, tensor<10xi32>) outs(%2 : tensor<10xi32>) {
  ^bb0(%in: i32, %in_0: i32, %out: i32):
    %6 = arith.addi %in, %in_0 : i32
    linalg.yield %6 : i32
  } -> tensor<10xi32>
  %4 = linalg.generic {indexing_maps = [affine_map<(d0) -> (d0)>, affine_map<(d0) -> (d0)>, affine_map<(d0) -> (d0)>], iterator_types = ["parallel"]} ins(%3, %1 : tensor<10xi32>, tensor<10xi32>) outs(%2 : tensor<10xi32>) {
  ^bb0(%in: i32, %in_0: i32, %out: i32):
    %6 = arith.muli %in, %in_0 : i32
    linalg.yield %6 : i32
  } -> tensor<10xi32>
  %5 = hal.tensor.export %4 "output 0" : tensor<10xi32> -> !hal.buffer_view
  return %5 : !hal.buffer_view
}

// -----// IR Dump After Canonicalizer (canonicalize) //----- //
func.func @main(%arg0: !hal.buffer_view, %arg1: !hal.buffer_view) -> !hal.buffer_view attributes {iree.abi.stub} {
  %0 = hal.tensor.import %arg0 "input 0" : !hal.buffer_view -> tensor<10xi32>
  %1 = hal.tensor.import %arg1 "input 1" : !hal.buffer_view -> tensor<10xi32>
  %2 = tensor.empty() : tensor<10xi32>
  %3 = linalg.generic {indexing_maps = [affine_map<(d0) -> (d0)>, affine_map<(d0) -> (d0)>, affine_map<(d0) -> (d0)>], iterator_types = ["parallel"]} ins(%0, %1 : tensor<10xi32>, tensor<10xi32>) outs(%2 : tensor<10xi32>) {
  ^bb0(%in: i32, %in_0: i32, %out: i32):
    %6 = arith.addi %in, %in_0 : i32
    linalg.yield %6 : i32
  } -> tensor<10xi32>
  %4 = linalg.generic {indexing_maps = [affine_map<(d0) -> (d0)>, affine_map<(d0) -> (d0)>, affine_map<(d0) -> (d0)>], iterator_types = ["parallel"]} ins(%3, %1 : tensor<10xi32>, tensor<10xi32>) outs(%2 : tensor<10xi32>) {
  ^bb0(%in: i32, %in_0: i32, %out: i32):
    %6 = arith.muli %in, %in_0 : i32
    linalg.yield %6 : i32
  } -> tensor<10xi32>
  %5 = hal.tensor.export %4 "output 0" : tensor<10xi32> -> !hal.buffer_view
  return %5 : !hal.buffer_view
}

// -----// IR Dump After CSE (cse) //----- //
func.func @main(%arg0: !hal.buffer_view, %arg1: !hal.buffer_view) -> !hal.buffer_view attributes {iree.abi.stub} {
  %0 = hal.tensor.import %arg0 "input 0" : !hal.buffer_view -> tensor<10xi32>
  %1 = hal.tensor.import %arg1 "input 1" : !hal.buffer_view -> tensor<10xi32>
  %2 = tensor.empty() : tensor<10xi32>
  %3 = linalg.generic {indexing_maps = [affine_map<(d0) -> (d0)>, affine_map<(d0) -> (d0)>, affine_map<(d0) -> (d0)>], iterator_types = ["parallel"]} ins(%0, %1 : tensor<10xi32>, tensor<10xi32>) outs(%2 : tensor<10xi32>) {
  ^bb0(%in: i32, %in_0: i32, %out: i32):
    %6 = arith.addi %in, %in_0 : i32
    linalg.yield %6 : i32
  } -> tensor<10xi32>
  %4 = linalg.generic {indexing_maps = [affine_map<(d0) -> (d0)>, affine_map<(d0) -> (d0)>, affine_map<(d0) -> (d0)>], iterator_types = ["parallel"]} ins(%3, %1 : tensor<10xi32>, tensor<10xi32>) outs(%2 : tensor<10xi32>) {
  ^bb0(%in: i32, %in_0: i32, %out: i32):
    %6 = arith.muli %in, %in_0 : i32
    linalg.yield %6 : i32
  } -> tensor<10xi32>
  %5 = hal.tensor.export %4 "output 0" : tensor<10xi32> -> !hal.buffer_view
  return %5 : !hal.buffer_view
}

// -----// IR Dump After CPUMaterializeUpperBoundTileSize (iree-codegen-cpu-materialize-upper-bound-tile-size) //----- //
func.func @main(%arg0: !hal.buffer_view, %arg1: !hal.buffer_view) -> !hal.buffer_view attributes {iree.abi.stub} {
  %0 = hal.tensor.import %arg0 "input 0" : !hal.buffer_view -> tensor<10xi32>
  %1 = hal.tensor.import %arg1 "input 1" : !hal.buffer_view -> tensor<10xi32>
  %2 = tensor.empty() : tensor<10xi32>
  %3 = linalg.generic {indexing_maps = [affine_map<(d0) -> (d0)>, affine_map<(d0) -> (d0)>, affine_map<(d0) -> (d0)>], iterator_types = ["parallel"]} ins(%0, %1 : tensor<10xi32>, tensor<10xi32>) outs(%2 : tensor<10xi32>) {
  ^bb0(%in: i32, %in_0: i32, %out: i32):
    %6 = arith.addi %in, %in_0 : i32
    linalg.yield %6 : i32
  } -> tensor<10xi32>
  %4 = linalg.generic {indexing_maps = [affine_map<(d0) -> (d0)>, affine_map<(d0) -> (d0)>, affine_map<(d0) -> (d0)>], iterator_types = ["parallel"]} ins(%3, %1 : tensor<10xi32>, tensor<10xi32>) outs(%2 : tensor<10xi32>) {
  ^bb0(%in: i32, %in_0: i32, %out: i32):
    %6 = arith.muli %in, %in_0 : i32
    linalg.yield %6 : i32
  } -> tensor<10xi32>
  %5 = hal.tensor.export %4 "output 0" : tensor<10xi32> -> !hal.buffer_view
  return %5 : !hal.buffer_view
}

// -----// IR Dump After CPUMaterializeEncoding (iree-codegen-cpu-materialize-encoding) //----- //
func.func @main(%arg0: !hal.buffer_view, %arg1: !hal.buffer_view) -> !hal.buffer_view attributes {iree.abi.stub} {
  %0 = hal.tensor.import %arg0 "input 0" : !hal.buffer_view -> tensor<10xi32>
  %1 = hal.tensor.import %arg1 "input 1" : !hal.buffer_view -> tensor<10xi32>
  %2 = tensor.empty() : tensor<10xi32>
  %3 = linalg.generic {indexing_maps = [affine_map<(d0) -> (d0)>, affine_map<(d0) -> (d0)>, affine_map<(d0) -> (d0)>], iterator_types = ["parallel"]} ins(%0, %1 : tensor<10xi32>, tensor<10xi32>) outs(%2 : tensor<10xi32>) {
  ^bb0(%in: i32, %in_0: i32, %out: i32):
    %6 = arith.addi %in, %in_0 : i32
    linalg.yield %6 : i32
  } -> tensor<10xi32>
  %4 = linalg.generic {indexing_maps = [affine_map<(d0) -> (d0)>, affine_map<(d0) -> (d0)>, affine_map<(d0) -> (d0)>], iterator_types = ["parallel"]} ins(%3, %1 : tensor<10xi32>, tensor<10xi32>) outs(%2 : tensor<10xi32>) {
  ^bb0(%in: i32, %in_0: i32, %out: i32):
    %6 = arith.muli %in, %in_0 : i32
    linalg.yield %6 : i32
  } -> tensor<10xi32>
  %5 = hal.tensor.export %4 "output 0" : tensor<10xi32> -> !hal.buffer_view
  return %5 : !hal.buffer_view
}

// -----// IR Dump After MaterializeHomogeneousEncodings (iree-global-opt-materialize-homogeneous-encodings) //----- //
#executable_target_embedded_elf_x86_64_ = #hal.executable.target<"llvm-cpu", "embedded-elf-x86_64", {cpu = "generic", cpu_features = "", data_layout = "e-m:e-p270:32:32-p271:32:32-p272:64:64-i64:64-i128:128-f80:128-n8:16:32:64-S128", native_vector_size = 16 : index, target_triple = "x86_64-unknown-unknown-eabi-elf", ukernels = false}>
#map = affine_map<(d0) -> (d0)>
#device_target_llvm_cpu = #hal.device.target<"llvm-cpu", {executable_targets = [#executable_target_embedded_elf_x86_64_]}>
module attributes {hal.device.targets = [#device_target_llvm_cpu]} {
  func.func @main(%arg0: !hal.buffer_view, %arg1: !hal.buffer_view) -> !hal.buffer_view attributes {iree.abi.stub} {
    %0 = hal.tensor.import %arg0 "input 0" : !hal.buffer_view -> tensor<10xi32>
    %1 = hal.tensor.import %arg1 "input 1" : !hal.buffer_view -> tensor<10xi32>
    %2 = tensor.empty() : tensor<10xi32>
    %3 = linalg.generic {indexing_maps = [#map, #map, #map], iterator_types = ["parallel"]} ins(%0, %1 : tensor<10xi32>, tensor<10xi32>) outs(%2 : tensor<10xi32>) {
    ^bb0(%in: i32, %in_0: i32, %out: i32):
      %6 = arith.addi %in, %in_0 : i32
      linalg.yield %6 : i32
    } -> tensor<10xi32>
    %4 = linalg.generic {indexing_maps = [#map, #map, #map], iterator_types = ["parallel"]} ins(%3, %1 : tensor<10xi32>, tensor<10xi32>) outs(%2 : tensor<10xi32>) {
    ^bb0(%in: i32, %in_0: i32, %out: i32):
      %6 = arith.muli %in, %in_0 : i32
      linalg.yield %6 : i32
    } -> tensor<10xi32>
    %5 = hal.tensor.export %4 "output 0" : tensor<10xi32> -> !hal.buffer_view
    return %5 : !hal.buffer_view
  }
}


// -----// IR Dump After SimplifyGlobalAccesses (iree-util-simplify-global-accesses) //----- //
func.func @main(%arg0: !hal.buffer_view, %arg1: !hal.buffer_view) -> !hal.buffer_view attributes {iree.abi.stub} {
  %0 = hal.tensor.import %arg0 "input 0" : !hal.buffer_view -> tensor<10xi32>
  %1 = hal.tensor.import %arg1 "input 1" : !hal.buffer_view -> tensor<10xi32>
  %2 = tensor.empty() : tensor<10xi32>
  %3 = linalg.generic {indexing_maps = [affine_map<(d0) -> (d0)>, affine_map<(d0) -> (d0)>, affine_map<(d0) -> (d0)>], iterator_types = ["parallel"]} ins(%0, %1 : tensor<10xi32>, tensor<10xi32>) outs(%2 : tensor<10xi32>) {
  ^bb0(%in: i32, %in_0: i32, %out: i32):
    %6 = arith.addi %in, %in_0 : i32
    linalg.yield %6 : i32
  } -> tensor<10xi32>
  %4 = linalg.generic {indexing_maps = [affine_map<(d0) -> (d0)>, affine_map<(d0) -> (d0)>, affine_map<(d0) -> (d0)>], iterator_types = ["parallel"]} ins(%3, %1 : tensor<10xi32>, tensor<10xi32>) outs(%2 : tensor<10xi32>) {
  ^bb0(%in: i32, %in_0: i32, %out: i32):
    %6 = arith.muli %in, %in_0 : i32
    linalg.yield %6 : i32
  } -> tensor<10xi32>
  %5 = hal.tensor.export %4 "output 0" : tensor<10xi32> -> !hal.buffer_view
  return %5 : !hal.buffer_view
}

// -----// IR Dump After ApplyPatterns (iree-util-apply-patterns) //----- //
#executable_target_embedded_elf_x86_64_ = #hal.executable.target<"llvm-cpu", "embedded-elf-x86_64", {cpu = "generic", cpu_features = "", data_layout = "e-m:e-p270:32:32-p271:32:32-p272:64:64-i64:64-i128:128-f80:128-n8:16:32:64-S128", native_vector_size = 16 : index, target_triple = "x86_64-unknown-unknown-eabi-elf", ukernels = false}>
#map = affine_map<(d0) -> (d0)>
#device_target_llvm_cpu = #hal.device.target<"llvm-cpu", {executable_targets = [#executable_target_embedded_elf_x86_64_]}>
module attributes {hal.device.targets = [#device_target_llvm_cpu], iree.fixedpoint.iteration = 0 : index} {
  func.func @main(%arg0: !hal.buffer_view, %arg1: !hal.buffer_view) -> !hal.buffer_view attributes {iree.abi.stub} {
    %0 = hal.tensor.import %arg0 "input 0" : !hal.buffer_view -> tensor<10xi32>
    %1 = hal.tensor.import %arg1 "input 1" : !hal.buffer_view -> tensor<10xi32>
    %2 = tensor.empty() : tensor<10xi32>
    %3 = linalg.generic {indexing_maps = [#map, #map, #map], iterator_types = ["parallel"]} ins(%0, %1 : tensor<10xi32>, tensor<10xi32>) outs(%2 : tensor<10xi32>) {
    ^bb0(%in: i32, %in_0: i32, %out: i32):
      %6 = arith.addi %in, %in_0 : i32
      linalg.yield %6 : i32
    } -> tensor<10xi32>
    %4 = linalg.generic {indexing_maps = [#map, #map, #map], iterator_types = ["parallel"]} ins(%3, %1 : tensor<10xi32>, tensor<10xi32>) outs(%2 : tensor<10xi32>) {
    ^bb0(%in: i32, %in_0: i32, %out: i32):
      %6 = arith.muli %in, %in_0 : i32
      linalg.yield %6 : i32
    } -> tensor<10xi32>
    %5 = hal.tensor.export %4 "output 0" : tensor<10xi32> -> !hal.buffer_view
    return %5 : !hal.buffer_view
  }
}


// -----// IR Dump After FoldGlobals (iree-util-fold-globals) //----- //
#executable_target_embedded_elf_x86_64_ = #hal.executable.target<"llvm-cpu", "embedded-elf-x86_64", {cpu = "generic", cpu_features = "", data_layout = "e-m:e-p270:32:32-p271:32:32-p272:64:64-i64:64-i128:128-f80:128-n8:16:32:64-S128", native_vector_size = 16 : index, target_triple = "x86_64-unknown-unknown-eabi-elf", ukernels = false}>
#map = affine_map<(d0) -> (d0)>
#device_target_llvm_cpu = #hal.device.target<"llvm-cpu", {executable_targets = [#executable_target_embedded_elf_x86_64_]}>
module attributes {hal.device.targets = [#device_target_llvm_cpu], iree.fixedpoint.iteration = 0 : index} {
  func.func @main(%arg0: !hal.buffer_view, %arg1: !hal.buffer_view) -> !hal.buffer_view attributes {iree.abi.stub} {
    %0 = hal.tensor.import %arg0 "input 0" : !hal.buffer_view -> tensor<10xi32>
    %1 = hal.tensor.import %arg1 "input 1" : !hal.buffer_view -> tensor<10xi32>
    %2 = tensor.empty() : tensor<10xi32>
    %3 = linalg.generic {indexing_maps = [#map, #map, #map], iterator_types = ["parallel"]} ins(%0, %1 : tensor<10xi32>, tensor<10xi32>) outs(%2 : tensor<10xi32>) {
    ^bb0(%in: i32, %in_0: i32, %out: i32):
      %6 = arith.addi %in, %in_0 : i32
      linalg.yield %6 : i32
    } -> tensor<10xi32>
    %4 = linalg.generic {indexing_maps = [#map, #map, #map], iterator_types = ["parallel"]} ins(%3, %1 : tensor<10xi32>, tensor<10xi32>) outs(%2 : tensor<10xi32>) {
    ^bb0(%in: i32, %in_0: i32, %out: i32):
      %6 = arith.muli %in, %in_0 : i32
      linalg.yield %6 : i32
    } -> tensor<10xi32>
    %5 = hal.tensor.export %4 "output 0" : tensor<10xi32> -> !hal.buffer_view
    return %5 : !hal.buffer_view
  }
}


// -----// IR Dump After IPO (iree-util-ipo) //----- //
#executable_target_embedded_elf_x86_64_ = #hal.executable.target<"llvm-cpu", "embedded-elf-x86_64", {cpu = "generic", cpu_features = "", data_layout = "e-m:e-p270:32:32-p271:32:32-p272:64:64-i64:64-i128:128-f80:128-n8:16:32:64-S128", native_vector_size = 16 : index, target_triple = "x86_64-unknown-unknown-eabi-elf", ukernels = false}>
#map = affine_map<(d0) -> (d0)>
#device_target_llvm_cpu = #hal.device.target<"llvm-cpu", {executable_targets = [#executable_target_embedded_elf_x86_64_]}>
module attributes {hal.device.targets = [#device_target_llvm_cpu], iree.fixedpoint.iteration = 0 : index} {
  func.func @main(%arg0: !hal.buffer_view, %arg1: !hal.buffer_view) -> !hal.buffer_view attributes {iree.abi.stub} {
    %0 = hal.tensor.import %arg0 "input 0" : !hal.buffer_view -> tensor<10xi32>
    %1 = hal.tensor.import %arg1 "input 1" : !hal.buffer_view -> tensor<10xi32>
    %2 = tensor.empty() : tensor<10xi32>
    %3 = linalg.generic {indexing_maps = [#map, #map, #map], iterator_types = ["parallel"]} ins(%0, %1 : tensor<10xi32>, tensor<10xi32>) outs(%2 : tensor<10xi32>) {
    ^bb0(%in: i32, %in_0: i32, %out: i32):
      %6 = arith.addi %in, %in_0 : i32
      linalg.yield %6 : i32
    } -> tensor<10xi32>
    %4 = linalg.generic {indexing_maps = [#map, #map, #map], iterator_types = ["parallel"]} ins(%3, %1 : tensor<10xi32>, tensor<10xi32>) outs(%2 : tensor<10xi32>) {
    ^bb0(%in: i32, %in_0: i32, %out: i32):
      %6 = arith.muli %in, %in_0 : i32
      linalg.yield %6 : i32
    } -> tensor<10xi32>
    %5 = hal.tensor.export %4 "output 0" : tensor<10xi32> -> !hal.buffer_view
    return %5 : !hal.buffer_view
  }
}


// -----// IR Dump After HoistIntoGlobals (iree-util-hoist-into-globals) //----- //
#executable_target_embedded_elf_x86_64_ = #hal.executable.target<"llvm-cpu", "embedded-elf-x86_64", {cpu = "generic", cpu_features = "", data_layout = "e-m:e-p270:32:32-p271:32:32-p272:64:64-i64:64-i128:128-f80:128-n8:16:32:64-S128", native_vector_size = 16 : index, target_triple = "x86_64-unknown-unknown-eabi-elf", ukernels = false}>
#map = affine_map<(d0) -> (d0)>
#device_target_llvm_cpu = #hal.device.target<"llvm-cpu", {executable_targets = [#executable_target_embedded_elf_x86_64_]}>
module attributes {hal.device.targets = [#device_target_llvm_cpu], iree.fixedpoint.iteration = 0 : index} {
  func.func @main(%arg0: !hal.buffer_view, %arg1: !hal.buffer_view) -> !hal.buffer_view attributes {iree.abi.stub} {
    %0 = hal.tensor.import %arg0 "input 0" : !hal.buffer_view -> tensor<10xi32>
    %1 = hal.tensor.import %arg1 "input 1" : !hal.buffer_view -> tensor<10xi32>
    %2 = tensor.empty() : tensor<10xi32>
    %3 = linalg.generic {indexing_maps = [#map, #map, #map], iterator_types = ["parallel"]} ins(%0, %1 : tensor<10xi32>, tensor<10xi32>) outs(%2 : tensor<10xi32>) {
    ^bb0(%in: i32, %in_0: i32, %out: i32):
      %6 = arith.addi %in, %in_0 : i32
      linalg.yield %6 : i32
    } -> tensor<10xi32>
    %4 = linalg.generic {indexing_maps = [#map, #map, #map], iterator_types = ["parallel"]} ins(%3, %1 : tensor<10xi32>, tensor<10xi32>) outs(%2 : tensor<10xi32>) {
    ^bb0(%in: i32, %in_0: i32, %out: i32):
      %6 = arith.muli %in, %in_0 : i32
      linalg.yield %6 : i32
    } -> tensor<10xi32>
    %5 = hal.tensor.export %4 "output 0" : tensor<10xi32> -> !hal.buffer_view
    return %5 : !hal.buffer_view
  }
}


// -----// IR Dump After JitGlobals (iree-consteval-jit-globals) //----- //
#executable_target_embedded_elf_x86_64_ = #hal.executable.target<"llvm-cpu", "embedded-elf-x86_64", {cpu = "generic", cpu_features = "", data_layout = "e-m:e-p270:32:32-p271:32:32-p272:64:64-i64:64-i128:128-f80:128-n8:16:32:64-S128", native_vector_size = 16 : index, target_triple = "x86_64-unknown-unknown-eabi-elf", ukernels = false}>
#map = affine_map<(d0) -> (d0)>
#device_target_llvm_cpu = #hal.device.target<"llvm-cpu", {executable_targets = [#executable_target_embedded_elf_x86_64_]}>
module attributes {hal.device.targets = [#device_target_llvm_cpu], iree.fixedpoint.iteration = 0 : index} {
  func.func @main(%arg0: !hal.buffer_view, %arg1: !hal.buffer_view) -> !hal.buffer_view attributes {iree.abi.stub} {
    %0 = hal.tensor.import %arg0 "input 0" : !hal.buffer_view -> tensor<10xi32>
    %1 = hal.tensor.import %arg1 "input 1" : !hal.buffer_view -> tensor<10xi32>
    %2 = tensor.empty() : tensor<10xi32>
    %3 = linalg.generic {indexing_maps = [#map, #map, #map], iterator_types = ["parallel"]} ins(%0, %1 : tensor<10xi32>, tensor<10xi32>) outs(%2 : tensor<10xi32>) {
    ^bb0(%in: i32, %in_0: i32, %out: i32):
      %6 = arith.addi %in, %in_0 : i32
      linalg.yield %6 : i32
    } -> tensor<10xi32>
    %4 = linalg.generic {indexing_maps = [#map, #map, #map], iterator_types = ["parallel"]} ins(%3, %1 : tensor<10xi32>, tensor<10xi32>) outs(%2 : tensor<10xi32>) {
    ^bb0(%in: i32, %in_0: i32, %out: i32):
      %6 = arith.muli %in, %in_0 : i32
      linalg.yield %6 : i32
    } -> tensor<10xi32>
    %5 = hal.tensor.export %4 "output 0" : tensor<10xi32> -> !hal.buffer_view
    return %5 : !hal.buffer_view
  }
}


// -----// IR Dump After Canonicalizer (canonicalize) //----- //
func.func @main(%arg0: !hal.buffer_view, %arg1: !hal.buffer_view) -> !hal.buffer_view attributes {iree.abi.stub} {
  %0 = hal.tensor.import %arg0 "input 0" : !hal.buffer_view -> tensor<10xi32>
  %1 = hal.tensor.import %arg1 "input 1" : !hal.buffer_view -> tensor<10xi32>
  %2 = tensor.empty() : tensor<10xi32>
  %3 = linalg.generic {indexing_maps = [affine_map<(d0) -> (d0)>, affine_map<(d0) -> (d0)>, affine_map<(d0) -> (d0)>], iterator_types = ["parallel"]} ins(%0, %1 : tensor<10xi32>, tensor<10xi32>) outs(%2 : tensor<10xi32>) {
  ^bb0(%in: i32, %in_0: i32, %out: i32):
    %6 = arith.addi %in, %in_0 : i32
    linalg.yield %6 : i32
  } -> tensor<10xi32>
  %4 = linalg.generic {indexing_maps = [affine_map<(d0) -> (d0)>, affine_map<(d0) -> (d0)>, affine_map<(d0) -> (d0)>], iterator_types = ["parallel"]} ins(%3, %1 : tensor<10xi32>, tensor<10xi32>) outs(%2 : tensor<10xi32>) {
  ^bb0(%in: i32, %in_0: i32, %out: i32):
    %6 = arith.muli %in, %in_0 : i32
    linalg.yield %6 : i32
  } -> tensor<10xi32>
  %5 = hal.tensor.export %4 "output 0" : tensor<10xi32> -> !hal.buffer_view
  return %5 : !hal.buffer_view
}

// -----// IR Dump After CSE (cse) //----- //
func.func @main(%arg0: !hal.buffer_view, %arg1: !hal.buffer_view) -> !hal.buffer_view attributes {iree.abi.stub} {
  %0 = hal.tensor.import %arg0 "input 0" : !hal.buffer_view -> tensor<10xi32>
  %1 = hal.tensor.import %arg1 "input 1" : !hal.buffer_view -> tensor<10xi32>
  %2 = tensor.empty() : tensor<10xi32>
  %3 = linalg.generic {indexing_maps = [affine_map<(d0) -> (d0)>, affine_map<(d0) -> (d0)>, affine_map<(d0) -> (d0)>], iterator_types = ["parallel"]} ins(%0, %1 : tensor<10xi32>, tensor<10xi32>) outs(%2 : tensor<10xi32>) {
  ^bb0(%in: i32, %in_0: i32, %out: i32):
    %6 = arith.addi %in, %in_0 : i32
    linalg.yield %6 : i32
  } -> tensor<10xi32>
  %4 = linalg.generic {indexing_maps = [affine_map<(d0) -> (d0)>, affine_map<(d0) -> (d0)>, affine_map<(d0) -> (d0)>], iterator_types = ["parallel"]} ins(%3, %1 : tensor<10xi32>, tensor<10xi32>) outs(%2 : tensor<10xi32>) {
  ^bb0(%in: i32, %in_0: i32, %out: i32):
    %6 = arith.muli %in, %in_0 : i32
    linalg.yield %6 : i32
  } -> tensor<10xi32>
  %5 = hal.tensor.export %4 "output 0" : tensor<10xi32> -> !hal.buffer_view
  return %5 : !hal.buffer_view
}

// -----// IR Dump After FixedPointIterator (iree-util-fixed-point-iterator) //----- //
#executable_target_embedded_elf_x86_64_ = #hal.executable.target<"llvm-cpu", "embedded-elf-x86_64", {cpu = "generic", cpu_features = "", data_layout = "e-m:e-p270:32:32-p271:32:32-p272:64:64-i64:64-i128:128-f80:128-n8:16:32:64-S128", native_vector_size = 16 : index, target_triple = "x86_64-unknown-unknown-eabi-elf", ukernels = false}>
#map = affine_map<(d0) -> (d0)>
#device_target_llvm_cpu = #hal.device.target<"llvm-cpu", {executable_targets = [#executable_target_embedded_elf_x86_64_]}>
module attributes {hal.device.targets = [#device_target_llvm_cpu]} {
  func.func @main(%arg0: !hal.buffer_view, %arg1: !hal.buffer_view) -> !hal.buffer_view attributes {iree.abi.stub} {
    %0 = hal.tensor.import %arg0 "input 0" : !hal.buffer_view -> tensor<10xi32>
    %1 = hal.tensor.import %arg1 "input 1" : !hal.buffer_view -> tensor<10xi32>
    %2 = tensor.empty() : tensor<10xi32>
    %3 = linalg.generic {indexing_maps = [#map, #map, #map], iterator_types = ["parallel"]} ins(%0, %1 : tensor<10xi32>, tensor<10xi32>) outs(%2 : tensor<10xi32>) {
    ^bb0(%in: i32, %in_0: i32, %out: i32):
      %6 = arith.addi %in, %in_0 : i32
      linalg.yield %6 : i32
    } -> tensor<10xi32>
    %4 = linalg.generic {indexing_maps = [#map, #map, #map], iterator_types = ["parallel"]} ins(%3, %1 : tensor<10xi32>, tensor<10xi32>) outs(%2 : tensor<10xi32>) {
    ^bb0(%in: i32, %in_0: i32, %out: i32):
      %6 = arith.muli %in, %in_0 : i32
      linalg.yield %6 : i32
    } -> tensor<10xi32>
    %5 = hal.tensor.export %4 "output 0" : tensor<10xi32> -> !hal.buffer_view
    return %5 : !hal.buffer_view
  }
}


// -----// IR Dump After VerifyInputLegality (iree-verify-input-legality) //----- //
#executable_target_embedded_elf_x86_64_ = #hal.executable.target<"llvm-cpu", "embedded-elf-x86_64", {cpu = "generic", cpu_features = "", data_layout = "e-m:e-p270:32:32-p271:32:32-p272:64:64-i64:64-i128:128-f80:128-n8:16:32:64-S128", native_vector_size = 16 : index, target_triple = "x86_64-unknown-unknown-eabi-elf", ukernels = false}>
#map = affine_map<(d0) -> (d0)>
#device_target_llvm_cpu = #hal.device.target<"llvm-cpu", {executable_targets = [#executable_target_embedded_elf_x86_64_]}>
module attributes {hal.device.targets = [#device_target_llvm_cpu]} {
  func.func @main(%arg0: !hal.buffer_view, %arg1: !hal.buffer_view) -> !hal.buffer_view attributes {iree.abi.stub} {
    %0 = hal.tensor.import %arg0 "input 0" : !hal.buffer_view -> tensor<10xi32>
    %1 = hal.tensor.import %arg1 "input 1" : !hal.buffer_view -> tensor<10xi32>
    %2 = tensor.empty() : tensor<10xi32>
    %3 = linalg.generic {indexing_maps = [#map, #map, #map], iterator_types = ["parallel"]} ins(%0, %1 : tensor<10xi32>, tensor<10xi32>) outs(%2 : tensor<10xi32>) {
    ^bb0(%in: i32, %in_0: i32, %out: i32):
      %6 = arith.addi %in, %in_0 : i32
      linalg.yield %6 : i32
    } -> tensor<10xi32>
    %4 = linalg.generic {indexing_maps = [#map, #map, #map], iterator_types = ["parallel"]} ins(%3, %1 : tensor<10xi32>, tensor<10xi32>) outs(%2 : tensor<10xi32>) {
    ^bb0(%in: i32, %in_0: i32, %out: i32):
      %6 = arith.muli %in, %in_0 : i32
      linalg.yield %6 : i32
    } -> tensor<10xi32>
    %5 = hal.tensor.export %4 "output 0" : tensor<10xi32> -> !hal.buffer_view
    return %5 : !hal.buffer_view
  }
}


// -----// IR Dump After TensorPadToTensorInsertSlice (iree-flow-tensor-pad-to-tensor-insert-slice) //----- //
#executable_target_embedded_elf_x86_64_ = #hal.executable.target<"llvm-cpu", "embedded-elf-x86_64", {cpu = "generic", cpu_features = "", data_layout = "e-m:e-p270:32:32-p271:32:32-p272:64:64-i64:64-i128:128-f80:128-n8:16:32:64-S128", native_vector_size = 16 : index, target_triple = "x86_64-unknown-unknown-eabi-elf", ukernels = false}>
#map = affine_map<(d0) -> (d0)>
#device_target_llvm_cpu = #hal.device.target<"llvm-cpu", {executable_targets = [#executable_target_embedded_elf_x86_64_]}>
module attributes {hal.device.targets = [#device_target_llvm_cpu]} {
  func.func @main(%arg0: !hal.buffer_view, %arg1: !hal.buffer_view) -> !hal.buffer_view attributes {iree.abi.stub} {
    %0 = hal.tensor.import %arg0 "input 0" : !hal.buffer_view -> tensor<10xi32>
    %1 = hal.tensor.import %arg1 "input 1" : !hal.buffer_view -> tensor<10xi32>
    %2 = tensor.empty() : tensor<10xi32>
    %3 = linalg.generic {indexing_maps = [#map, #map, #map], iterator_types = ["parallel"]} ins(%0, %1 : tensor<10xi32>, tensor<10xi32>) outs(%2 : tensor<10xi32>) {
    ^bb0(%in: i32, %in_0: i32, %out: i32):
      %6 = arith.addi %in, %in_0 : i32
      linalg.yield %6 : i32
    } -> tensor<10xi32>
    %4 = linalg.generic {indexing_maps = [#map, #map, #map], iterator_types = ["parallel"]} ins(%3, %1 : tensor<10xi32>, tensor<10xi32>) outs(%2 : tensor<10xi32>) {
    ^bb0(%in: i32, %in_0: i32, %out: i32):
      %6 = arith.muli %in, %in_0 : i32
      linalg.yield %6 : i32
    } -> tensor<10xi32>
    %5 = hal.tensor.export %4 "output 0" : tensor<10xi32> -> !hal.buffer_view
    return %5 : !hal.buffer_view
  }
}


// -----// IR Dump After RaiseSpecialOps (iree-flow-raise-special-ops) //----- //
func.func @main(%arg0: !hal.buffer_view, %arg1: !hal.buffer_view) -> !hal.buffer_view attributes {iree.abi.stub} {
  %0 = hal.tensor.import %arg0 "input 0" : !hal.buffer_view -> tensor<10xi32>
  %1 = hal.tensor.import %arg1 "input 1" : !hal.buffer_view -> tensor<10xi32>
  %2 = tensor.empty() : tensor<10xi32>
  %3 = linalg.generic {indexing_maps = [affine_map<(d0) -> (d0)>, affine_map<(d0) -> (d0)>, affine_map<(d0) -> (d0)>], iterator_types = ["parallel"]} ins(%0, %1 : tensor<10xi32>, tensor<10xi32>) outs(%2 : tensor<10xi32>) {
  ^bb0(%in: i32, %in_0: i32, %out: i32):
    %6 = arith.addi %in, %in_0 : i32
    linalg.yield %6 : i32
  } -> tensor<10xi32>
  %4 = linalg.generic {indexing_maps = [affine_map<(d0) -> (d0)>, affine_map<(d0) -> (d0)>, affine_map<(d0) -> (d0)>], iterator_types = ["parallel"]} ins(%3, %1 : tensor<10xi32>, tensor<10xi32>) outs(%2 : tensor<10xi32>) {
  ^bb0(%in: i32, %in_0: i32, %out: i32):
    %6 = arith.muli %in, %in_0 : i32
    linalg.yield %6 : i32
  } -> tensor<10xi32>
  %5 = hal.tensor.export %4 "output 0" : tensor<10xi32> -> !hal.buffer_view
  return %5 : !hal.buffer_view
}

// -----// IR Dump After InterchangeGenericOps (iree-flow-interchange-generic-ops) //----- //
func.func @main(%arg0: !hal.buffer_view, %arg1: !hal.buffer_view) -> !hal.buffer_view attributes {iree.abi.stub} {
  %0 = hal.tensor.import %arg0 "input 0" : !hal.buffer_view -> tensor<10xi32>
  %1 = hal.tensor.import %arg1 "input 1" : !hal.buffer_view -> tensor<10xi32>
  %2 = tensor.empty() : tensor<10xi32>
  %3 = linalg.generic {indexing_maps = [affine_map<(d0) -> (d0)>, affine_map<(d0) -> (d0)>, affine_map<(d0) -> (d0)>], iterator_types = ["parallel"]} ins(%0, %1 : tensor<10xi32>, tensor<10xi32>) outs(%2 : tensor<10xi32>) {
  ^bb0(%in: i32, %in_0: i32, %out: i32):
    %6 = arith.addi %in, %in_0 : i32
    linalg.yield %6 : i32
  } -> tensor<10xi32>
  %4 = linalg.generic {indexing_maps = [affine_map<(d0) -> (d0)>, affine_map<(d0) -> (d0)>, affine_map<(d0) -> (d0)>], iterator_types = ["parallel"]} ins(%3, %1 : tensor<10xi32>, tensor<10xi32>) outs(%2 : tensor<10xi32>) {
  ^bb0(%in: i32, %in_0: i32, %out: i32):
    %6 = arith.muli %in, %in_0 : i32
    linalg.yield %6 : i32
  } -> tensor<10xi32>
  %5 = hal.tensor.export %4 "output 0" : tensor<10xi32> -> !hal.buffer_view
  return %5 : !hal.buffer_view
}

// -----// IR Dump After CollapseDims (iree-flow-collapse-dims) //----- //
func.func @main(%arg0: !hal.buffer_view, %arg1: !hal.buffer_view) -> !hal.buffer_view attributes {iree.abi.stub} {
  %0 = hal.tensor.import %arg0 "input 0" : !hal.buffer_view -> tensor<10xi32>
  %1 = hal.tensor.import %arg1 "input 1" : !hal.buffer_view -> tensor<10xi32>
  %2 = tensor.empty() : tensor<10xi32>
  %3 = linalg.generic {indexing_maps = [affine_map<(d0) -> (d0)>, affine_map<(d0) -> (d0)>, affine_map<(d0) -> (d0)>], iterator_types = ["parallel"]} ins(%0, %1 : tensor<10xi32>, tensor<10xi32>) outs(%2 : tensor<10xi32>) {
  ^bb0(%in: i32, %in_0: i32, %out: i32):
    %6 = arith.addi %in, %in_0 : i32
    linalg.yield %6 : i32
  } -> tensor<10xi32>
  %4 = linalg.generic {indexing_maps = [affine_map<(d0) -> (d0)>, affine_map<(d0) -> (d0)>, affine_map<(d0) -> (d0)>], iterator_types = ["parallel"]} ins(%3, %1 : tensor<10xi32>, tensor<10xi32>) outs(%2 : tensor<10xi32>) {
  ^bb0(%in: i32, %in_0: i32, %out: i32):
    %6 = arith.muli %in, %in_0 : i32
    linalg.yield %6 : i32
  } -> tensor<10xi32>
  %5 = hal.tensor.export %4 "output 0" : tensor<10xi32> -> !hal.buffer_view
  return %5 : !hal.buffer_view
}

// -----// IR Dump After ResolveShapedTypeResultDims (resolve-shaped-type-result-dims) //----- //
func.func @main(%arg0: !hal.buffer_view, %arg1: !hal.buffer_view) -> !hal.buffer_view attributes {iree.abi.stub} {
  %0 = hal.tensor.import %arg0 "input 0" : !hal.buffer_view -> tensor<10xi32>
  %1 = hal.tensor.import %arg1 "input 1" : !hal.buffer_view -> tensor<10xi32>
  %2 = tensor.empty() : tensor<10xi32>
  %3 = linalg.generic {indexing_maps = [affine_map<(d0) -> (d0)>, affine_map<(d0) -> (d0)>, affine_map<(d0) -> (d0)>], iterator_types = ["parallel"]} ins(%0, %1 : tensor<10xi32>, tensor<10xi32>) outs(%2 : tensor<10xi32>) {
  ^bb0(%in: i32, %in_0: i32, %out: i32):
    %6 = arith.addi %in, %in_0 : i32
    linalg.yield %6 : i32
  } -> tensor<10xi32>
  %4 = linalg.generic {indexing_maps = [affine_map<(d0) -> (d0)>, affine_map<(d0) -> (d0)>, affine_map<(d0) -> (d0)>], iterator_types = ["parallel"]} ins(%3, %1 : tensor<10xi32>, tensor<10xi32>) outs(%2 : tensor<10xi32>) {
  ^bb0(%in: i32, %in_0: i32, %out: i32):
    %6 = arith.muli %in, %in_0 : i32
    linalg.yield %6 : i32
  } -> tensor<10xi32>
  %5 = hal.tensor.export %4 "output 0" : tensor<10xi32> -> !hal.buffer_view
  return %5 : !hal.buffer_view
}

// -----// IR Dump After Canonicalizer (canonicalize) //----- //
func.func @main(%arg0: !hal.buffer_view, %arg1: !hal.buffer_view) -> !hal.buffer_view attributes {iree.abi.stub} {
  %0 = hal.tensor.import %arg0 "input 0" : !hal.buffer_view -> tensor<10xi32>
  %1 = hal.tensor.import %arg1 "input 1" : !hal.buffer_view -> tensor<10xi32>
  %2 = tensor.empty() : tensor<10xi32>
  %3 = linalg.generic {indexing_maps = [affine_map<(d0) -> (d0)>, affine_map<(d0) -> (d0)>, affine_map<(d0) -> (d0)>], iterator_types = ["parallel"]} ins(%0, %1 : tensor<10xi32>, tensor<10xi32>) outs(%2 : tensor<10xi32>) {
  ^bb0(%in: i32, %in_0: i32, %out: i32):
    %6 = arith.addi %in, %in_0 : i32
    linalg.yield %6 : i32
  } -> tensor<10xi32>
  %4 = linalg.generic {indexing_maps = [affine_map<(d0) -> (d0)>, affine_map<(d0) -> (d0)>, affine_map<(d0) -> (d0)>], iterator_types = ["parallel"]} ins(%3, %1 : tensor<10xi32>, tensor<10xi32>) outs(%2 : tensor<10xi32>) {
  ^bb0(%in: i32, %in_0: i32, %out: i32):
    %6 = arith.muli %in, %in_0 : i32
    linalg.yield %6 : i32
  } -> tensor<10xi32>
  %5 = hal.tensor.export %4 "output 0" : tensor<10xi32> -> !hal.buffer_view
  return %5 : !hal.buffer_view
}

// -----// IR Dump After CSE (cse) //----- //
func.func @main(%arg0: !hal.buffer_view, %arg1: !hal.buffer_view) -> !hal.buffer_view attributes {iree.abi.stub} {
  %0 = hal.tensor.import %arg0 "input 0" : !hal.buffer_view -> tensor<10xi32>
  %1 = hal.tensor.import %arg1 "input 1" : !hal.buffer_view -> tensor<10xi32>
  %2 = tensor.empty() : tensor<10xi32>
  %3 = linalg.generic {indexing_maps = [affine_map<(d0) -> (d0)>, affine_map<(d0) -> (d0)>, affine_map<(d0) -> (d0)>], iterator_types = ["parallel"]} ins(%0, %1 : tensor<10xi32>, tensor<10xi32>) outs(%2 : tensor<10xi32>) {
  ^bb0(%in: i32, %in_0: i32, %out: i32):
    %6 = arith.addi %in, %in_0 : i32
    linalg.yield %6 : i32
  } -> tensor<10xi32>
  %4 = linalg.generic {indexing_maps = [affine_map<(d0) -> (d0)>, affine_map<(d0) -> (d0)>, affine_map<(d0) -> (d0)>], iterator_types = ["parallel"]} ins(%3, %1 : tensor<10xi32>, tensor<10xi32>) outs(%2 : tensor<10xi32>) {
  ^bb0(%in: i32, %in_0: i32, %out: i32):
    %6 = arith.muli %in, %in_0 : i32
    linalg.yield %6 : i32
  } -> tensor<10xi32>
  %5 = hal.tensor.export %4 "output 0" : tensor<10xi32> -> !hal.buffer_view
  return %5 : !hal.buffer_view
}

// -----// IR Dump After FusionOfTensorOps (iree-flow-fusion-of-tensor-ops) //----- //
func.func @main(%arg0: !hal.buffer_view, %arg1: !hal.buffer_view) -> !hal.buffer_view attributes {iree.abi.stub} {
  %0 = hal.tensor.import %arg0 "input 0" : !hal.buffer_view -> tensor<10xi32>
  %1 = hal.tensor.import %arg1 "input 1" : !hal.buffer_view -> tensor<10xi32>
  %2 = tensor.empty() : tensor<10xi32>
  %3 = linalg.generic {indexing_maps = [affine_map<(d0) -> (d0)>, affine_map<(d0) -> (d0)>, affine_map<(d0) -> (d0)>], iterator_types = ["parallel"]} ins(%0, %1 : tensor<10xi32>, tensor<10xi32>) outs(%2 : tensor<10xi32>) {
  ^bb0(%in: i32, %in_0: i32, %out: i32):
    %5 = arith.addi %in, %in_0 : i32
    %6 = arith.muli %5, %in_0 : i32
    linalg.yield %6 : i32
  } -> tensor<10xi32>
  %4 = hal.tensor.export %3 "output 0" : tensor<10xi32> -> !hal.buffer_view
  return %4 : !hal.buffer_view
}

// -----// IR Dump After Canonicalizer (canonicalize) //----- //
func.func @main(%arg0: !hal.buffer_view, %arg1: !hal.buffer_view) -> !hal.buffer_view attributes {iree.abi.stub} {
  %0 = hal.tensor.import %arg0 "input 0" : !hal.buffer_view -> tensor<10xi32>
  %1 = hal.tensor.import %arg1 "input 1" : !hal.buffer_view -> tensor<10xi32>
  %2 = tensor.empty() : tensor<10xi32>
  %3 = linalg.generic {indexing_maps = [affine_map<(d0) -> (d0)>, affine_map<(d0) -> (d0)>, affine_map<(d0) -> (d0)>], iterator_types = ["parallel"]} ins(%0, %1 : tensor<10xi32>, tensor<10xi32>) outs(%2 : tensor<10xi32>) {
  ^bb0(%in: i32, %in_0: i32, %out: i32):
    %5 = arith.addi %in, %in_0 : i32
    %6 = arith.muli %5, %in_0 : i32
    linalg.yield %6 : i32
  } -> tensor<10xi32>
  %4 = hal.tensor.export %3 "output 0" : tensor<10xi32> -> !hal.buffer_view
  return %4 : !hal.buffer_view
}

// -----// IR Dump After CSE (cse) //----- //
func.func @main(%arg0: !hal.buffer_view, %arg1: !hal.buffer_view) -> !hal.buffer_view attributes {iree.abi.stub} {
  %0 = hal.tensor.import %arg0 "input 0" : !hal.buffer_view -> tensor<10xi32>
  %1 = hal.tensor.import %arg1 "input 1" : !hal.buffer_view -> tensor<10xi32>
  %2 = tensor.empty() : tensor<10xi32>
  %3 = linalg.generic {indexing_maps = [affine_map<(d0) -> (d0)>, affine_map<(d0) -> (d0)>, affine_map<(d0) -> (d0)>], iterator_types = ["parallel"]} ins(%0, %1 : tensor<10xi32>, tensor<10xi32>) outs(%2 : tensor<10xi32>) {
  ^bb0(%in: i32, %in_0: i32, %out: i32):
    %5 = arith.addi %in, %in_0 : i32
    %6 = arith.muli %5, %in_0 : i32
    linalg.yield %6 : i32
  } -> tensor<10xi32>
  %4 = hal.tensor.export %3 "output 0" : tensor<10xi32> -> !hal.buffer_view
  return %4 : !hal.buffer_view
}

// -----// IR Dump After SplitReduction (iree-flow-split-reduction-ops) //----- //
func.func @main(%arg0: !hal.buffer_view, %arg1: !hal.buffer_view) -> !hal.buffer_view attributes {iree.abi.stub} {
  %0 = hal.tensor.import %arg0 "input 0" : !hal.buffer_view -> tensor<10xi32>
  %1 = hal.tensor.import %arg1 "input 1" : !hal.buffer_view -> tensor<10xi32>
  %2 = tensor.empty() : tensor<10xi32>
  %3 = linalg.generic {indexing_maps = [affine_map<(d0) -> (d0)>, affine_map<(d0) -> (d0)>, affine_map<(d0) -> (d0)>], iterator_types = ["parallel"]} ins(%0, %1 : tensor<10xi32>, tensor<10xi32>) outs(%2 : tensor<10xi32>) {
  ^bb0(%in: i32, %in_0: i32, %out: i32):
    %5 = arith.addi %in, %in_0 : i32
    %6 = arith.muli %5, %in_0 : i32
    linalg.yield %6 : i32
  } -> tensor<10xi32>
  %4 = hal.tensor.export %3 "output 0" : tensor<10xi32> -> !hal.buffer_view
  return %4 : !hal.buffer_view
}

// -----// IR Dump After InterchangeGenericOps (iree-flow-interchange-generic-ops) //----- //
func.func @main(%arg0: !hal.buffer_view, %arg1: !hal.buffer_view) -> !hal.buffer_view attributes {iree.abi.stub} {
  %0 = hal.tensor.import %arg0 "input 0" : !hal.buffer_view -> tensor<10xi32>
  %1 = hal.tensor.import %arg1 "input 1" : !hal.buffer_view -> tensor<10xi32>
  %2 = tensor.empty() : tensor<10xi32>
  %3 = linalg.generic {indexing_maps = [affine_map<(d0) -> (d0)>, affine_map<(d0) -> (d0)>, affine_map<(d0) -> (d0)>], iterator_types = ["parallel"]} ins(%0, %1 : tensor<10xi32>, tensor<10xi32>) outs(%2 : tensor<10xi32>) {
  ^bb0(%in: i32, %in_0: i32, %out: i32):
    %5 = arith.addi %in, %in_0 : i32
    %6 = arith.muli %5, %in_0 : i32
    linalg.yield %6 : i32
  } -> tensor<10xi32>
  %4 = hal.tensor.export %3 "output 0" : tensor<10xi32> -> !hal.buffer_view
  return %4 : !hal.buffer_view
}

// -----// IR Dump After FormScalarDispatches (iree-flow-form-scalar-dispatches) //----- //
func.func @main(%arg0: !hal.buffer_view, %arg1: !hal.buffer_view) -> !hal.buffer_view attributes {iree.abi.stub} {
  %0 = hal.tensor.import %arg0 "input 0" : !hal.buffer_view -> tensor<10xi32>
  %1 = hal.tensor.import %arg1 "input 1" : !hal.buffer_view -> tensor<10xi32>
  %2 = tensor.empty() : tensor<10xi32>
  %3 = linalg.generic {indexing_maps = [affine_map<(d0) -> (d0)>, affine_map<(d0) -> (d0)>, affine_map<(d0) -> (d0)>], iterator_types = ["parallel"]} ins(%0, %1 : tensor<10xi32>, tensor<10xi32>) outs(%2 : tensor<10xi32>) {
  ^bb0(%in: i32, %in_0: i32, %out: i32):
    %5 = arith.addi %in, %in_0 : i32
    %6 = arith.muli %5, %in_0 : i32
    linalg.yield %6 : i32
  } -> tensor<10xi32>
  %4 = hal.tensor.export %3 "output 0" : tensor<10xi32> -> !hal.buffer_view
  return %4 : !hal.buffer_view
}

// -----// IR Dump After FormDispatchRegions (iree-flow-form-dispatch-regions) //----- //
func.func @main(%arg0: !hal.buffer_view, %arg1: !hal.buffer_view) -> !hal.buffer_view attributes {iree.abi.stub} {
  %0 = hal.tensor.import %arg0 "input 0" : !hal.buffer_view -> tensor<10xi32>
  %1 = hal.tensor.import %arg1 "input 1" : !hal.buffer_view -> tensor<10xi32>
  %2 = tensor.empty() : tensor<10xi32>
  %3 = flow.dispatch.region -> (tensor<10xi32>) {
    %5 = linalg.generic {indexing_maps = [affine_map<(d0) -> (d0)>, affine_map<(d0) -> (d0)>, affine_map<(d0) -> (d0)>], iterator_types = ["parallel"]} ins(%0, %1 : tensor<10xi32>, tensor<10xi32>) outs(%2 : tensor<10xi32>) {
    ^bb0(%in: i32, %in_0: i32, %out: i32):
      %6 = arith.addi %in, %in_0 : i32
      %7 = arith.muli %6, %in_0 : i32
      linalg.yield %7 : i32
    } -> tensor<10xi32>
    flow.return %5 : tensor<10xi32>
  }
  %4 = hal.tensor.export %3 "output 0" : tensor<10xi32> -> !hal.buffer_view
  return %4 : !hal.buffer_view
}

// -----// IR Dump After CollapseDimensions (iree-flow-collapse-dimensions) //----- //
func.func @main(%arg0: !hal.buffer_view, %arg1: !hal.buffer_view) -> !hal.buffer_view attributes {iree.abi.stub} {
  %0 = hal.tensor.import %arg0 "input 0" : !hal.buffer_view -> tensor<10xi32>
  %1 = hal.tensor.import %arg1 "input 1" : !hal.buffer_view -> tensor<10xi32>
  %2 = tensor.empty() : tensor<10xi32>
  %3 = flow.dispatch.region -> (tensor<10xi32>) {
    %5 = linalg.generic {indexing_maps = [affine_map<(d0) -> (d0)>, affine_map<(d0) -> (d0)>, affine_map<(d0) -> (d0)>], iterator_types = ["parallel"]} ins(%0, %1 : tensor<10xi32>, tensor<10xi32>) outs(%2 : tensor<10xi32>) {
    ^bb0(%in: i32, %in_0: i32, %out: i32):
      %6 = arith.addi %in, %in_0 : i32
      %7 = arith.muli %6, %in_0 : i32
      linalg.yield %7 : i32
    } -> tensor<10xi32>
    flow.return %5 : tensor<10xi32>
  }
  %4 = hal.tensor.export %3 "output 0" : tensor<10xi32> -> !hal.buffer_view
  return %4 : !hal.buffer_view
}

// -----// IR Dump After CloneProducersIntoDispatchRegions (iree-flow-clone-producers-into-dispatch-regions) //----- //
func.func @main(%arg0: !hal.buffer_view, %arg1: !hal.buffer_view) -> !hal.buffer_view attributes {iree.abi.stub} {
  %0 = hal.tensor.import %arg0 "input 0" : !hal.buffer_view -> tensor<10xi32>
  %1 = hal.tensor.import %arg1 "input 1" : !hal.buffer_view -> tensor<10xi32>
  %2 = tensor.empty() : tensor<10xi32>
  %3 = flow.dispatch.region -> (tensor<10xi32>) {
    %5 = tensor.empty() : tensor<10xi32>
    %6 = linalg.generic {indexing_maps = [affine_map<(d0) -> (d0)>, affine_map<(d0) -> (d0)>, affine_map<(d0) -> (d0)>], iterator_types = ["parallel"]} ins(%0, %1 : tensor<10xi32>, tensor<10xi32>) outs(%5 : tensor<10xi32>) {
    ^bb0(%in: i32, %in_0: i32, %out: i32):
      %7 = arith.addi %in, %in_0 : i32
      %8 = arith.muli %7, %in_0 : i32
      linalg.yield %8 : i32
    } -> tensor<10xi32>
    flow.return %6 : tensor<10xi32>
  }
  %4 = hal.tensor.export %3 "output 0" : tensor<10xi32> -> !hal.buffer_view
  return %4 : !hal.buffer_view
}

// -----// IR Dump After FormDispatchWorkgroups (iree-flow-form-dispatch-workgroups) //----- //
func.func @main(%arg0: !hal.buffer_view, %arg1: !hal.buffer_view) -> !hal.buffer_view attributes {iree.abi.stub} {
  %0 = hal.tensor.import %arg0 "input 0" : !hal.buffer_view -> tensor<10xi32>
  %1 = hal.tensor.import %arg1 "input 1" : !hal.buffer_view -> tensor<10xi32>
  %2 = flow.dispatch.workgroups(%0, %1) : (tensor<10xi32>, tensor<10xi32>) -> tensor<10xi32> =
      (%arg2: !flow.dispatch.tensor<readonly:tensor<10xi32>>, %arg3: !flow.dispatch.tensor<readonly:tensor<10xi32>>, %arg4: !flow.dispatch.tensor<writeonly:tensor<10xi32>>) {
    %4 = flow.dispatch.tensor.load %arg2, offsets = [0], sizes = [10], strides = [1] : !flow.dispatch.tensor<readonly:tensor<10xi32>> -> tensor<10xi32>
    %5 = flow.dispatch.tensor.load %arg3, offsets = [0], sizes = [10], strides = [1] : !flow.dispatch.tensor<readonly:tensor<10xi32>> -> tensor<10xi32>
    %6 = tensor.empty() : tensor<10xi32>
    %7 = linalg.generic {indexing_maps = [affine_map<(d0) -> (d0)>, affine_map<(d0) -> (d0)>, affine_map<(d0) -> (d0)>], iterator_types = ["parallel"]} ins(%4, %5 : tensor<10xi32>, tensor<10xi32>) outs(%6 : tensor<10xi32>) {
    ^bb0(%in: i32, %in_0: i32, %out: i32):
      %8 = arith.addi %in, %in_0 : i32
      %9 = arith.muli %8, %in_0 : i32
      linalg.yield %9 : i32
    } -> tensor<10xi32>
    flow.dispatch.tensor.store %7, %arg4, offsets = [0], sizes = [10], strides = [1] : tensor<10xi32> -> !flow.dispatch.tensor<writeonly:tensor<10xi32>>
    flow.return
  } count() -> (index, index, index) {
    %x, %y, %z = flow.dispatch.workgroup_count_from_slice 
    flow.return %x, %y, %z : index, index, index
  }
  %3 = hal.tensor.export %2 "output 0" : tensor<10xi32> -> !hal.buffer_view
  return %3 : !hal.buffer_view
}

// -----// IR Dump After CaptureDispatchDynamicDims (iree-flow-capture-dispatch-dynamic-dims) //----- //
func.func @main(%arg0: !hal.buffer_view, %arg1: !hal.buffer_view) -> !hal.buffer_view attributes {iree.abi.stub} {
  %0 = hal.tensor.import %arg0 "input 0" : !hal.buffer_view -> tensor<10xi32>
  %1 = hal.tensor.import %arg1 "input 1" : !hal.buffer_view -> tensor<10xi32>
  %2 = flow.dispatch.workgroups(%0, %1) : (tensor<10xi32>, tensor<10xi32>) -> tensor<10xi32> =
      (%arg2: !flow.dispatch.tensor<readonly:tensor<10xi32>>, %arg3: !flow.dispatch.tensor<readonly:tensor<10xi32>>, %arg4: !flow.dispatch.tensor<writeonly:tensor<10xi32>>) {
    %4 = flow.dispatch.tensor.load %arg2, offsets = [0], sizes = [10], strides = [1] : !flow.dispatch.tensor<readonly:tensor<10xi32>> -> tensor<10xi32>
    %5 = flow.dispatch.tensor.load %arg3, offsets = [0], sizes = [10], strides = [1] : !flow.dispatch.tensor<readonly:tensor<10xi32>> -> tensor<10xi32>
    %6 = tensor.empty() : tensor<10xi32>
    %7 = linalg.generic {indexing_maps = [affine_map<(d0) -> (d0)>, affine_map<(d0) -> (d0)>, affine_map<(d0) -> (d0)>], iterator_types = ["parallel"]} ins(%4, %5 : tensor<10xi32>, tensor<10xi32>) outs(%6 : tensor<10xi32>) {
    ^bb0(%in: i32, %in_0: i32, %out: i32):
      %8 = arith.addi %in, %in_0 : i32
      %9 = arith.muli %8, %in_0 : i32
      linalg.yield %9 : i32
    } -> tensor<10xi32>
    flow.dispatch.tensor.store %7, %arg4, offsets = [0], sizes = [10], strides = [1] : tensor<10xi32> -> !flow.dispatch.tensor<writeonly:tensor<10xi32>>
    flow.return
  } count() -> (index, index, index) {
    %x, %y, %z = flow.dispatch.workgroup_count_from_slice 
    flow.return %x, %y, %z : index, index, index
  }
  %3 = hal.tensor.export %2 "output 0" : tensor<10xi32> -> !hal.buffer_view
  return %3 : !hal.buffer_view
}

// -----// IR Dump After Canonicalizer (canonicalize) //----- //
func.func @main(%arg0: !hal.buffer_view, %arg1: !hal.buffer_view) -> !hal.buffer_view attributes {iree.abi.stub} {
  %0 = hal.tensor.import %arg0 "input 0" : !hal.buffer_view -> tensor<10xi32>
  %1 = hal.tensor.import %arg1 "input 1" : !hal.buffer_view -> tensor<10xi32>
  %2 = flow.dispatch.workgroups(%0, %1) : (tensor<10xi32>, tensor<10xi32>) -> tensor<10xi32> =
      (%arg2: !flow.dispatch.tensor<readonly:tensor<10xi32>>, %arg3: !flow.dispatch.tensor<readonly:tensor<10xi32>>, %arg4: !flow.dispatch.tensor<writeonly:tensor<10xi32>>) {
    %4 = flow.dispatch.tensor.load %arg2, offsets = [0], sizes = [10], strides = [1] : !flow.dispatch.tensor<readonly:tensor<10xi32>> -> tensor<10xi32>
    %5 = flow.dispatch.tensor.load %arg3, offsets = [0], sizes = [10], strides = [1] : !flow.dispatch.tensor<readonly:tensor<10xi32>> -> tensor<10xi32>
    %6 = tensor.empty() : tensor<10xi32>
    %7 = linalg.generic {indexing_maps = [affine_map<(d0) -> (d0)>, affine_map<(d0) -> (d0)>, affine_map<(d0) -> (d0)>], iterator_types = ["parallel"]} ins(%4, %5 : tensor<10xi32>, tensor<10xi32>) outs(%6 : tensor<10xi32>) {
    ^bb0(%in: i32, %in_0: i32, %out: i32):
      %8 = arith.addi %in, %in_0 : i32
      %9 = arith.muli %8, %in_0 : i32
      linalg.yield %9 : i32
    } -> tensor<10xi32>
    flow.dispatch.tensor.store %7, %arg4, offsets = [0], sizes = [10], strides = [1] : tensor<10xi32> -> !flow.dispatch.tensor<writeonly:tensor<10xi32>>
    flow.return
  } count() -> (index, index, index) {
    %x, %y, %z = flow.dispatch.workgroup_count_from_slice 
    flow.return %x, %y, %z : index, index, index
  }
  %3 = hal.tensor.export %2 "output 0" : tensor<10xi32> -> !hal.buffer_view
  return %3 : !hal.buffer_view
}

// -----// IR Dump After CSE (cse) //----- //
func.func @main(%arg0: !hal.buffer_view, %arg1: !hal.buffer_view) -> !hal.buffer_view attributes {iree.abi.stub} {
  %0 = hal.tensor.import %arg0 "input 0" : !hal.buffer_view -> tensor<10xi32>
  %1 = hal.tensor.import %arg1 "input 1" : !hal.buffer_view -> tensor<10xi32>
  %2 = flow.dispatch.workgroups(%0, %1) : (tensor<10xi32>, tensor<10xi32>) -> tensor<10xi32> =
      (%arg2: !flow.dispatch.tensor<readonly:tensor<10xi32>>, %arg3: !flow.dispatch.tensor<readonly:tensor<10xi32>>, %arg4: !flow.dispatch.tensor<writeonly:tensor<10xi32>>) {
    %4 = flow.dispatch.tensor.load %arg2, offsets = [0], sizes = [10], strides = [1] : !flow.dispatch.tensor<readonly:tensor<10xi32>> -> tensor<10xi32>
    %5 = flow.dispatch.tensor.load %arg3, offsets = [0], sizes = [10], strides = [1] : !flow.dispatch.tensor<readonly:tensor<10xi32>> -> tensor<10xi32>
    %6 = tensor.empty() : tensor<10xi32>
    %7 = linalg.generic {indexing_maps = [affine_map<(d0) -> (d0)>, affine_map<(d0) -> (d0)>, affine_map<(d0) -> (d0)>], iterator_types = ["parallel"]} ins(%4, %5 : tensor<10xi32>, tensor<10xi32>) outs(%6 : tensor<10xi32>) {
    ^bb0(%in: i32, %in_0: i32, %out: i32):
      %8 = arith.addi %in, %in_0 : i32
      %9 = arith.muli %8, %in_0 : i32
      linalg.yield %9 : i32
    } -> tensor<10xi32>
    flow.dispatch.tensor.store %7, %arg4, offsets = [0], sizes = [10], strides = [1] : tensor<10xi32> -> !flow.dispatch.tensor<writeonly:tensor<10xi32>>
    flow.return
  } count() -> (index, index, index) {
    %x, %y, %z = flow.dispatch.workgroup_count_from_slice 
    flow.return %x, %y, %z : index, index, index
  }
  %3 = hal.tensor.export %2 "output 0" : tensor<10xi32> -> !hal.buffer_view
  return %3 : !hal.buffer_view
}

// -----// IR Dump After InitializeEmptyTensors (iree-flow-initialize-empty-tensors) //----- //
func.func @main(%arg0: !hal.buffer_view, %arg1: !hal.buffer_view) -> !hal.buffer_view attributes {iree.abi.stub} {
  %0 = hal.tensor.import %arg0 "input 0" : !hal.buffer_view -> tensor<10xi32>
  %1 = hal.tensor.import %arg1 "input 1" : !hal.buffer_view -> tensor<10xi32>
  %2 = flow.dispatch.workgroups(%0, %1) : (tensor<10xi32>, tensor<10xi32>) -> tensor<10xi32> =
      (%arg2: !flow.dispatch.tensor<readonly:tensor<10xi32>>, %arg3: !flow.dispatch.tensor<readonly:tensor<10xi32>>, %arg4: !flow.dispatch.tensor<writeonly:tensor<10xi32>>) {
    %4 = flow.dispatch.tensor.load %arg2, offsets = [0], sizes = [10], strides = [1] : !flow.dispatch.tensor<readonly:tensor<10xi32>> -> tensor<10xi32>
    %5 = flow.dispatch.tensor.load %arg3, offsets = [0], sizes = [10], strides = [1] : !flow.dispatch.tensor<readonly:tensor<10xi32>> -> tensor<10xi32>
    %6 = tensor.empty() : tensor<10xi32>
    %7 = linalg.generic {indexing_maps = [affine_map<(d0) -> (d0)>, affine_map<(d0) -> (d0)>, affine_map<(d0) -> (d0)>], iterator_types = ["parallel"]} ins(%4, %5 : tensor<10xi32>, tensor<10xi32>) outs(%6 : tensor<10xi32>) {
    ^bb0(%in: i32, %in_0: i32, %out: i32):
      %8 = arith.addi %in, %in_0 : i32
      %9 = arith.muli %8, %in_0 : i32
      linalg.yield %9 : i32
    } -> tensor<10xi32>
    flow.dispatch.tensor.store %7, %arg4, offsets = [0], sizes = [10], strides = [1] : tensor<10xi32> -> !flow.dispatch.tensor<writeonly:tensor<10xi32>>
    flow.return
  } count() -> (index, index, index) {
    %x, %y, %z = flow.dispatch.workgroup_count_from_slice 
    flow.return %x, %y, %z : index, index, index
  }
  %3 = hal.tensor.export %2 "output 0" : tensor<10xi32> -> !hal.buffer_view
  return %3 : !hal.buffer_view
}

// -----// IR Dump After OutlineDispatchRegions (iree-flow-outline-dispatch-regions) //----- //
#executable_target_embedded_elf_x86_64_ = #hal.executable.target<"llvm-cpu", "embedded-elf-x86_64", {cpu = "generic", cpu_features = "", data_layout = "e-m:e-p270:32:32-p271:32:32-p272:64:64-i64:64-i128:128-f80:128-n8:16:32:64-S128", native_vector_size = 16 : index, target_triple = "x86_64-unknown-unknown-eabi-elf", ukernels = false}>
#map = affine_map<(d0) -> (d0)>
#device_target_llvm_cpu = #hal.device.target<"llvm-cpu", {executable_targets = [#executable_target_embedded_elf_x86_64_]}>
module attributes {hal.device.targets = [#device_target_llvm_cpu]} {
  flow.executable private @main_dispatch_0 {
    flow.executable.export public @main_dispatch_0 workgroups() -> (index, index, index) {
      %x, %y, %z = flow.dispatch.workgroup_count_from_slice 
      flow.return %x, %y, %z : index, index, index
    }
    builtin.module {
      func.func @main_dispatch_0(%arg0: !flow.dispatch.tensor<readonly:tensor<10xi32>>, %arg1: !flow.dispatch.tensor<readonly:tensor<10xi32>>, %arg2: !flow.dispatch.tensor<writeonly:tensor<10xi32>>) {
        %0 = flow.dispatch.tensor.load %arg0, offsets = [0], sizes = [10], strides = [1] : !flow.dispatch.tensor<readonly:tensor<10xi32>> -> tensor<10xi32>
        %1 = flow.dispatch.tensor.load %arg1, offsets = [0], sizes = [10], strides = [1] : !flow.dispatch.tensor<readonly:tensor<10xi32>> -> tensor<10xi32>
        %2 = tensor.empty() : tensor<10xi32>
        %3 = linalg.generic {indexing_maps = [#map, #map, #map], iterator_types = ["parallel"]} ins(%0, %1 : tensor<10xi32>, tensor<10xi32>) outs(%2 : tensor<10xi32>) {
        ^bb0(%in: i32, %in_0: i32, %out: i32):
          %4 = arith.addi %in, %in_0 : i32
          %5 = arith.muli %4, %in_0 : i32
          linalg.yield %5 : i32
        } -> tensor<10xi32>
        flow.dispatch.tensor.store %3, %arg2, offsets = [0], sizes = [10], strides = [1] : tensor<10xi32> -> !flow.dispatch.tensor<writeonly:tensor<10xi32>>
        return
      }
    }
  }
  func.func @main(%arg0: !hal.buffer_view, %arg1: !hal.buffer_view) -> !hal.buffer_view attributes {iree.abi.stub} {
    %0 = hal.tensor.import %arg0 "input 0" : !hal.buffer_view -> tensor<10xi32>
    %1 = hal.tensor.import %arg1 "input 1" : !hal.buffer_view -> tensor<10xi32>
    %2 = flow.dispatch @main_dispatch_0::@main_dispatch_0(%0, %1) : (tensor<10xi32>, tensor<10xi32>) -> tensor<10xi32>
    %3 = hal.tensor.export %2 "output 0" : tensor<10xi32> -> !hal.buffer_view
    return %3 : !hal.buffer_view
  }
}


// -----// IR Dump After AnnotateDispatches (iree-flow-annotate-dispatches) //----- //
#executable_target_embedded_elf_x86_64_ = #hal.executable.target<"llvm-cpu", "embedded-elf-x86_64", {cpu = "generic", cpu_features = "", data_layout = "e-m:e-p270:32:32-p271:32:32-p272:64:64-i64:64-i128:128-f80:128-n8:16:32:64-S128", native_vector_size = 16 : index, target_triple = "x86_64-unknown-unknown-eabi-elf", ukernels = false}>
#map = affine_map<(d0) -> (d0)>
#device_target_llvm_cpu = #hal.device.target<"llvm-cpu", {executable_targets = [#executable_target_embedded_elf_x86_64_]}>
module attributes {hal.device.targets = [#device_target_llvm_cpu]} {
  flow.executable private @main_dispatch_0 {
    flow.executable.export public @main_dispatch_0_generic_10_i32 workgroups() -> (index, index, index) {
      %x, %y, %z = flow.dispatch.workgroup_count_from_slice 
      flow.return %x, %y, %z : index, index, index
    }
    builtin.module {
      func.func @main_dispatch_0_generic_10_i32(%arg0: !flow.dispatch.tensor<readonly:tensor<10xi32>>, %arg1: !flow.dispatch.tensor<readonly:tensor<10xi32>>, %arg2: !flow.dispatch.tensor<writeonly:tensor<10xi32>>) {
        %0 = flow.dispatch.tensor.load %arg0, offsets = [0], sizes = [10], strides = [1] : !flow.dispatch.tensor<readonly:tensor<10xi32>> -> tensor<10xi32>
        %1 = flow.dispatch.tensor.load %arg1, offsets = [0], sizes = [10], strides = [1] : !flow.dispatch.tensor<readonly:tensor<10xi32>> -> tensor<10xi32>
        %2 = tensor.empty() : tensor<10xi32>
        %3 = linalg.generic {indexing_maps = [#map, #map, #map], iterator_types = ["parallel"]} ins(%0, %1 : tensor<10xi32>, tensor<10xi32>) outs(%2 : tensor<10xi32>) {
        ^bb0(%in: i32, %in_0: i32, %out: i32):
          %4 = arith.addi %in, %in_0 : i32
          %5 = arith.muli %4, %in_0 : i32
          linalg.yield %5 : i32
        } -> tensor<10xi32>
        flow.dispatch.tensor.store %3, %arg2, offsets = [0], sizes = [10], strides = [1] : tensor<10xi32> -> !flow.dispatch.tensor<writeonly:tensor<10xi32>>
        return
      }
    }
  }
  func.func @main(%arg0: !hal.buffer_view, %arg1: !hal.buffer_view) -> !hal.buffer_view attributes {iree.abi.stub} {
    %0 = hal.tensor.import %arg0 "input 0" : !hal.buffer_view -> tensor<10xi32>
    %1 = hal.tensor.import %arg1 "input 1" : !hal.buffer_view -> tensor<10xi32>
    %2 = flow.dispatch @main_dispatch_0::@main_dispatch_0_generic_10_i32(%0, %1) : (tensor<10xi32>, tensor<10xi32>) -> tensor<10xi32>
    %3 = hal.tensor.export %2 "output 0" : tensor<10xi32> -> !hal.buffer_view
    return %3 : !hal.buffer_view
  }
}


// -----// IR Dump After StripDebugOps (iree-util-strip-debug-ops) //----- //
flow.executable private @main_dispatch_0 {
  flow.executable.export public @main_dispatch_0_generic_10_i32 workgroups() -> (index, index, index) {
    %x, %y, %z = flow.dispatch.workgroup_count_from_slice 
    flow.return %x, %y, %z : index, index, index
  }
  builtin.module {
    func.func @main_dispatch_0_generic_10_i32(%arg0: !flow.dispatch.tensor<readonly:tensor<10xi32>>, %arg1: !flow.dispatch.tensor<readonly:tensor<10xi32>>, %arg2: !flow.dispatch.tensor<writeonly:tensor<10xi32>>) {
      %0 = flow.dispatch.tensor.load %arg0, offsets = [0], sizes = [10], strides = [1] : !flow.dispatch.tensor<readonly:tensor<10xi32>> -> tensor<10xi32>
      %1 = flow.dispatch.tensor.load %arg1, offsets = [0], sizes = [10], strides = [1] : !flow.dispatch.tensor<readonly:tensor<10xi32>> -> tensor<10xi32>
      %2 = tensor.empty() : tensor<10xi32>
      %3 = linalg.generic {indexing_maps = [affine_map<(d0) -> (d0)>, affine_map<(d0) -> (d0)>, affine_map<(d0) -> (d0)>], iterator_types = ["parallel"]} ins(%0, %1 : tensor<10xi32>, tensor<10xi32>) outs(%2 : tensor<10xi32>) {
      ^bb0(%in: i32, %in_0: i32, %out: i32):
        %4 = arith.addi %in, %in_0 : i32
        %5 = arith.muli %4, %in_0 : i32
        linalg.yield %5 : i32
      } -> tensor<10xi32>
      flow.dispatch.tensor.store %3, %arg2, offsets = [0], sizes = [10], strides = [1] : tensor<10xi32> -> !flow.dispatch.tensor<writeonly:tensor<10xi32>>
      return
    }
  }
}

// -----// IR Dump After Canonicalizer (canonicalize) //----- //
func.func @main(%arg0: !hal.buffer_view, %arg1: !hal.buffer_view) -> !hal.buffer_view attributes {iree.abi.stub} {
  %0 = hal.tensor.import %arg0 "input 0" : !hal.buffer_view -> tensor<10xi32>
  %1 = hal.tensor.import %arg1 "input 1" : !hal.buffer_view -> tensor<10xi32>
  %2 = flow.dispatch @main_dispatch_0::@main_dispatch_0_generic_10_i32(%0, %1) : (tensor<10xi32>, tensor<10xi32>) -> tensor<10xi32>
  %3 = hal.tensor.export %2 "output 0" : tensor<10xi32> -> !hal.buffer_view
  return %3 : !hal.buffer_view
}

// -----// IR Dump After DeduplicateExecutables (iree-flow-deduplicate-executables) //----- //
#executable_target_embedded_elf_x86_64_ = #hal.executable.target<"llvm-cpu", "embedded-elf-x86_64", {cpu = "generic", cpu_features = "", data_layout = "e-m:e-p270:32:32-p271:32:32-p272:64:64-i64:64-i128:128-f80:128-n8:16:32:64-S128", native_vector_size = 16 : index, target_triple = "x86_64-unknown-unknown-eabi-elf", ukernels = false}>
#map = affine_map<(d0) -> (d0)>
#device_target_llvm_cpu = #hal.device.target<"llvm-cpu", {executable_targets = [#executable_target_embedded_elf_x86_64_]}>
module attributes {hal.device.targets = [#device_target_llvm_cpu]} {
  flow.executable private @main_dispatch_0 {
    flow.executable.export public @main_dispatch_0_generic_10_i32 workgroups() -> (index, index, index) {
      %x, %y, %z = flow.dispatch.workgroup_count_from_slice 
      flow.return %x, %y, %z : index, index, index
    }
    builtin.module {
      func.func @main_dispatch_0_generic_10_i32(%arg0: !flow.dispatch.tensor<readonly:tensor<10xi32>>, %arg1: !flow.dispatch.tensor<readonly:tensor<10xi32>>, %arg2: !flow.dispatch.tensor<writeonly:tensor<10xi32>>) {
        %0 = flow.dispatch.tensor.load %arg0, offsets = [0], sizes = [10], strides = [1] : !flow.dispatch.tensor<readonly:tensor<10xi32>> -> tensor<10xi32>
        %1 = flow.dispatch.tensor.load %arg1, offsets = [0], sizes = [10], strides = [1] : !flow.dispatch.tensor<readonly:tensor<10xi32>> -> tensor<10xi32>
        %2 = tensor.empty() : tensor<10xi32>
        %3 = linalg.generic {indexing_maps = [#map, #map, #map], iterator_types = ["parallel"]} ins(%0, %1 : tensor<10xi32>, tensor<10xi32>) outs(%2 : tensor<10xi32>) {
        ^bb0(%in: i32, %in_0: i32, %out: i32):
          %4 = arith.addi %in, %in_0 : i32
          %5 = arith.muli %4, %in_0 : i32
          linalg.yield %5 : i32
        } -> tensor<10xi32>
        flow.dispatch.tensor.store %3, %arg2, offsets = [0], sizes = [10], strides = [1] : tensor<10xi32> -> !flow.dispatch.tensor<writeonly:tensor<10xi32>>
        return
      }
    }
  }
  func.func @main(%arg0: !hal.buffer_view, %arg1: !hal.buffer_view) -> !hal.buffer_view attributes {iree.abi.stub} {
    %0 = hal.tensor.import %arg0 "input 0" : !hal.buffer_view -> tensor<10xi32>
    %1 = hal.tensor.import %arg1 "input 1" : !hal.buffer_view -> tensor<10xi32>
    %2 = flow.dispatch @main_dispatch_0::@main_dispatch_0_generic_10_i32(%0, %1) : (tensor<10xi32>, tensor<10xi32>) -> tensor<10xi32>
    %3 = hal.tensor.export %2 "output 0" : tensor<10xi32> -> !hal.buffer_view
    return %3 : !hal.buffer_view
  }
}


// -----// IR Dump After CleanupTensorShapes (iree-flow-cleanup-tensor-shapes) //----- //
func.func @main(%arg0: !hal.buffer_view, %arg1: !hal.buffer_view) -> !hal.buffer_view attributes {iree.abi.stub} {
  %0 = hal.tensor.import %arg0 "input 0" : !hal.buffer_view -> tensor<10xi32>
  %1 = hal.tensor.import %arg1 "input 1" : !hal.buffer_view -> tensor<10xi32>
  %2 = flow.dispatch @main_dispatch_0::@main_dispatch_0_generic_10_i32(%0, %1) : (tensor<10xi32>, tensor<10xi32>) -> tensor<10xi32>
  %3 = hal.tensor.export %2 "output 0" : tensor<10xi32> -> !hal.buffer_view
  return %3 : !hal.buffer_view
}

// -----// IR Dump After Canonicalizer (canonicalize) //----- //
flow.executable private @main_dispatch_0 {
  flow.executable.export public @main_dispatch_0_generic_10_i32 workgroups() -> (index, index, index) {
    %x, %y, %z = flow.dispatch.workgroup_count_from_slice 
    flow.return %x, %y, %z : index, index, index
  }
  builtin.module {
    func.func @main_dispatch_0_generic_10_i32(%arg0: !flow.dispatch.tensor<readonly:tensor<10xi32>>, %arg1: !flow.dispatch.tensor<readonly:tensor<10xi32>>, %arg2: !flow.dispatch.tensor<writeonly:tensor<10xi32>>) {
      %0 = flow.dispatch.tensor.load %arg0, offsets = [0], sizes = [10], strides = [1] : !flow.dispatch.tensor<readonly:tensor<10xi32>> -> tensor<10xi32>
      %1 = flow.dispatch.tensor.load %arg1, offsets = [0], sizes = [10], strides = [1] : !flow.dispatch.tensor<readonly:tensor<10xi32>> -> tensor<10xi32>
      %2 = tensor.empty() : tensor<10xi32>
      %3 = linalg.generic {indexing_maps = [affine_map<(d0) -> (d0)>, affine_map<(d0) -> (d0)>, affine_map<(d0) -> (d0)>], iterator_types = ["parallel"]} ins(%0, %1 : tensor<10xi32>, tensor<10xi32>) outs(%2 : tensor<10xi32>) {
      ^bb0(%in: i32, %in_0: i32, %out: i32):
        %4 = arith.addi %in, %in_0 : i32
        %5 = arith.muli %4, %in_0 : i32
        linalg.yield %5 : i32
      } -> tensor<10xi32>
      flow.dispatch.tensor.store %3, %arg2, offsets = [0], sizes = [10], strides = [1] : tensor<10xi32> -> !flow.dispatch.tensor<writeonly:tensor<10xi32>>
      return
    }
  }
}

// -----// IR Dump After Canonicalizer (canonicalize) //----- //
func.func @main(%arg0: !hal.buffer_view, %arg1: !hal.buffer_view) -> !hal.buffer_view attributes {iree.abi.stub} {
  %0 = hal.tensor.import %arg0 "input 0" : !hal.buffer_view -> tensor<10xi32>
  %1 = hal.tensor.import %arg1 "input 1" : !hal.buffer_view -> tensor<10xi32>
  %2 = flow.dispatch @main_dispatch_0::@main_dispatch_0_generic_10_i32(%0, %1) : (tensor<10xi32>, tensor<10xi32>) -> tensor<10xi32>
  %3 = hal.tensor.export %2 "output 0" : tensor<10xi32> -> !hal.buffer_view
  return %3 : !hal.buffer_view
}

// -----// IR Dump After CSE (cse) //----- //
flow.executable private @main_dispatch_0 {
  flow.executable.export public @main_dispatch_0_generic_10_i32 workgroups() -> (index, index, index) {
    %x, %y, %z = flow.dispatch.workgroup_count_from_slice 
    flow.return %x, %y, %z : index, index, index
  }
  builtin.module {
    func.func @main_dispatch_0_generic_10_i32(%arg0: !flow.dispatch.tensor<readonly:tensor<10xi32>>, %arg1: !flow.dispatch.tensor<readonly:tensor<10xi32>>, %arg2: !flow.dispatch.tensor<writeonly:tensor<10xi32>>) {
      %0 = flow.dispatch.tensor.load %arg0, offsets = [0], sizes = [10], strides = [1] : !flow.dispatch.tensor<readonly:tensor<10xi32>> -> tensor<10xi32>
      %1 = flow.dispatch.tensor.load %arg1, offsets = [0], sizes = [10], strides = [1] : !flow.dispatch.tensor<readonly:tensor<10xi32>> -> tensor<10xi32>
      %2 = tensor.empty() : tensor<10xi32>
      %3 = linalg.generic {indexing_maps = [affine_map<(d0) -> (d0)>, affine_map<(d0) -> (d0)>, affine_map<(d0) -> (d0)>], iterator_types = ["parallel"]} ins(%0, %1 : tensor<10xi32>, tensor<10xi32>) outs(%2 : tensor<10xi32>) {
      ^bb0(%in: i32, %in_0: i32, %out: i32):
        %4 = arith.addi %in, %in_0 : i32
        %5 = arith.muli %4, %in_0 : i32
        linalg.yield %5 : i32
      } -> tensor<10xi32>
      flow.dispatch.tensor.store %3, %arg2, offsets = [0], sizes = [10], strides = [1] : tensor<10xi32> -> !flow.dispatch.tensor<writeonly:tensor<10xi32>>
      return
    }
  }
}

// -----// IR Dump After CSE (cse) //----- //
func.func @main(%arg0: !hal.buffer_view, %arg1: !hal.buffer_view) -> !hal.buffer_view attributes {iree.abi.stub} {
  %0 = hal.tensor.import %arg0 "input 0" : !hal.buffer_view -> tensor<10xi32>
  %1 = hal.tensor.import %arg1 "input 1" : !hal.buffer_view -> tensor<10xi32>
  %2 = flow.dispatch @main_dispatch_0::@main_dispatch_0_generic_10_i32(%0, %1) : (tensor<10xi32>, tensor<10xi32>) -> tensor<10xi32>
  %3 = hal.tensor.export %2 "output 0" : tensor<10xi32> -> !hal.buffer_view
  return %3 : !hal.buffer_view
}

// -----// IR Dump After SymbolDCE (symbol-dce) //----- //
#executable_target_embedded_elf_x86_64_ = #hal.executable.target<"llvm-cpu", "embedded-elf-x86_64", {cpu = "generic", cpu_features = "", data_layout = "e-m:e-p270:32:32-p271:32:32-p272:64:64-i64:64-i128:128-f80:128-n8:16:32:64-S128", native_vector_size = 16 : index, target_triple = "x86_64-unknown-unknown-eabi-elf", ukernels = false}>
#map = affine_map<(d0) -> (d0)>
#device_target_llvm_cpu = #hal.device.target<"llvm-cpu", {executable_targets = [#executable_target_embedded_elf_x86_64_]}>
module attributes {hal.device.targets = [#device_target_llvm_cpu]} {
  flow.executable private @main_dispatch_0 {
    flow.executable.export public @main_dispatch_0_generic_10_i32 workgroups() -> (index, index, index) {
      %x, %y, %z = flow.dispatch.workgroup_count_from_slice 
      flow.return %x, %y, %z : index, index, index
    }
    builtin.module {
      func.func @main_dispatch_0_generic_10_i32(%arg0: !flow.dispatch.tensor<readonly:tensor<10xi32>>, %arg1: !flow.dispatch.tensor<readonly:tensor<10xi32>>, %arg2: !flow.dispatch.tensor<writeonly:tensor<10xi32>>) {
        %0 = flow.dispatch.tensor.load %arg0, offsets = [0], sizes = [10], strides = [1] : !flow.dispatch.tensor<readonly:tensor<10xi32>> -> tensor<10xi32>
        %1 = flow.dispatch.tensor.load %arg1, offsets = [0], sizes = [10], strides = [1] : !flow.dispatch.tensor<readonly:tensor<10xi32>> -> tensor<10xi32>
        %2 = tensor.empty() : tensor<10xi32>
        %3 = linalg.generic {indexing_maps = [#map, #map, #map], iterator_types = ["parallel"]} ins(%0, %1 : tensor<10xi32>, tensor<10xi32>) outs(%2 : tensor<10xi32>) {
        ^bb0(%in: i32, %in_0: i32, %out: i32):
          %4 = arith.addi %in, %in_0 : i32
          %5 = arith.muli %4, %in_0 : i32
          linalg.yield %5 : i32
        } -> tensor<10xi32>
        flow.dispatch.tensor.store %3, %arg2, offsets = [0], sizes = [10], strides = [1] : tensor<10xi32> -> !flow.dispatch.tensor<writeonly:tensor<10xi32>>
        return
      }
    }
  }
  func.func @main(%arg0: !hal.buffer_view, %arg1: !hal.buffer_view) -> !hal.buffer_view attributes {iree.abi.stub} {
    %0 = hal.tensor.import %arg0 "input 0" : !hal.buffer_view -> tensor<10xi32>
    %1 = hal.tensor.import %arg1 "input 1" : !hal.buffer_view -> tensor<10xi32>
    %2 = flow.dispatch @main_dispatch_0::@main_dispatch_0_generic_10_i32(%0, %1) : (tensor<10xi32>, tensor<10xi32>) -> tensor<10xi32>
    %3 = hal.tensor.export %2 "output 0" : tensor<10xi32> -> !hal.buffer_view
    return %3 : !hal.buffer_view
  }
}


// -----// IR Dump After VerifyInput (iree-stream-verify-input) //----- //
#executable_target_embedded_elf_x86_64_ = #hal.executable.target<"llvm-cpu", "embedded-elf-x86_64", {cpu = "generic", cpu_features = "", data_layout = "e-m:e-p270:32:32-p271:32:32-p272:64:64-i64:64-i128:128-f80:128-n8:16:32:64-S128", native_vector_size = 16 : index, target_triple = "x86_64-unknown-unknown-eabi-elf", ukernels = false}>
#map = affine_map<(d0) -> (d0)>
#device_target_llvm_cpu = #hal.device.target<"llvm-cpu", {executable_targets = [#executable_target_embedded_elf_x86_64_]}>
module attributes {hal.device.targets = [#device_target_llvm_cpu]} {
  flow.executable private @main_dispatch_0 {
    flow.executable.export public @main_dispatch_0_generic_10_i32 workgroups() -> (index, index, index) {
      %x, %y, %z = flow.dispatch.workgroup_count_from_slice 
      flow.return %x, %y, %z : index, index, index
    }
    builtin.module {
      func.func @main_dispatch_0_generic_10_i32(%arg0: !flow.dispatch.tensor<readonly:tensor<10xi32>>, %arg1: !flow.dispatch.tensor<readonly:tensor<10xi32>>, %arg2: !flow.dispatch.tensor<writeonly:tensor<10xi32>>) {
        %0 = flow.dispatch.tensor.load %arg0, offsets = [0], sizes = [10], strides = [1] : !flow.dispatch.tensor<readonly:tensor<10xi32>> -> tensor<10xi32>
        %1 = flow.dispatch.tensor.load %arg1, offsets = [0], sizes = [10], strides = [1] : !flow.dispatch.tensor<readonly:tensor<10xi32>> -> tensor<10xi32>
        %2 = tensor.empty() : tensor<10xi32>
        %3 = linalg.generic {indexing_maps = [#map, #map, #map], iterator_types = ["parallel"]} ins(%0, %1 : tensor<10xi32>, tensor<10xi32>) outs(%2 : tensor<10xi32>) {
        ^bb0(%in: i32, %in_0: i32, %out: i32):
          %4 = arith.addi %in, %in_0 : i32
          %5 = arith.muli %4, %in_0 : i32
          linalg.yield %5 : i32
        } -> tensor<10xi32>
        flow.dispatch.tensor.store %3, %arg2, offsets = [0], sizes = [10], strides = [1] : tensor<10xi32> -> !flow.dispatch.tensor<writeonly:tensor<10xi32>>
        return
      }
    }
  }
  func.func @main(%arg0: !hal.buffer_view, %arg1: !hal.buffer_view) -> !hal.buffer_view attributes {iree.abi.stub} {
    %0 = hal.tensor.import %arg0 "input 0" : !hal.buffer_view -> tensor<10xi32>
    %1 = hal.tensor.import %arg1 "input 1" : !hal.buffer_view -> tensor<10xi32>
    %2 = flow.dispatch @main_dispatch_0::@main_dispatch_0_generic_10_i32(%0, %1) : (tensor<10xi32>, tensor<10xi32>) -> tensor<10xi32>
    %3 = hal.tensor.export %2 "output 0" : tensor<10xi32> -> !hal.buffer_view
    return %3 : !hal.buffer_view
  }
}


// -----// IR Dump After Canonicalizer (canonicalize) //----- //
func.func @main(%arg0: !hal.buffer_view, %arg1: !hal.buffer_view) -> !hal.buffer_view attributes {iree.abi.stub} {
  %0 = hal.tensor.import %arg0 "input 0" : !hal.buffer_view -> tensor<10xi32>
  %1 = hal.tensor.import %arg1 "input 1" : !hal.buffer_view -> tensor<10xi32>
  %2 = flow.dispatch @main_dispatch_0::@main_dispatch_0_generic_10_i32(%0, %1) : (tensor<10xi32>, tensor<10xi32>) -> tensor<10xi32>
  %3 = hal.tensor.export %2 "output 0" : tensor<10xi32> -> !hal.buffer_view
  return %3 : !hal.buffer_view
}

// -----// IR Dump After CSE (cse) //----- //
func.func @main(%arg0: !hal.buffer_view, %arg1: !hal.buffer_view) -> !hal.buffer_view attributes {iree.abi.stub} {
  %0 = hal.tensor.import %arg0 "input 0" : !hal.buffer_view -> tensor<10xi32>
  %1 = hal.tensor.import %arg1 "input 1" : !hal.buffer_view -> tensor<10xi32>
  %2 = flow.dispatch @main_dispatch_0::@main_dispatch_0_generic_10_i32(%0, %1) : (tensor<10xi32>, tensor<10xi32>) -> tensor<10xi32>
  %3 = hal.tensor.export %2 "output 0" : tensor<10xi32> -> !hal.buffer_view
  return %3 : !hal.buffer_view
}

// -----// IR Dump After SimplifyGlobalAccesses (iree-util-simplify-global-accesses) //----- //
func.func @main(%arg0: !hal.buffer_view, %arg1: !hal.buffer_view) -> !hal.buffer_view attributes {iree.abi.stub} {
  %0 = hal.tensor.import %arg0 "input 0" : !hal.buffer_view -> tensor<10xi32>
  %1 = hal.tensor.import %arg1 "input 1" : !hal.buffer_view -> tensor<10xi32>
  %2 = flow.dispatch @main_dispatch_0::@main_dispatch_0_generic_10_i32(%0, %1) : (tensor<10xi32>, tensor<10xi32>) -> tensor<10xi32>
  %3 = hal.tensor.export %2 "output 0" : tensor<10xi32> -> !hal.buffer_view
  return %3 : !hal.buffer_view
}

// -----// IR Dump After ApplyPatterns (iree-util-apply-patterns) //----- //
#executable_target_embedded_elf_x86_64_ = #hal.executable.target<"llvm-cpu", "embedded-elf-x86_64", {cpu = "generic", cpu_features = "", data_layout = "e-m:e-p270:32:32-p271:32:32-p272:64:64-i64:64-i128:128-f80:128-n8:16:32:64-S128", native_vector_size = 16 : index, target_triple = "x86_64-unknown-unknown-eabi-elf", ukernels = false}>
#map = affine_map<(d0) -> (d0)>
#device_target_llvm_cpu = #hal.device.target<"llvm-cpu", {executable_targets = [#executable_target_embedded_elf_x86_64_]}>
module attributes {hal.device.targets = [#device_target_llvm_cpu]} {
  flow.executable private @main_dispatch_0 {
    flow.executable.export public @main_dispatch_0_generic_10_i32 workgroups() -> (index, index, index) {
      %x, %y, %z = flow.dispatch.workgroup_count_from_slice 
      flow.return %x, %y, %z : index, index, index
    }
    builtin.module {
      func.func @main_dispatch_0_generic_10_i32(%arg0: !flow.dispatch.tensor<readonly:tensor<10xi32>>, %arg1: !flow.dispatch.tensor<readonly:tensor<10xi32>>, %arg2: !flow.dispatch.tensor<writeonly:tensor<10xi32>>) {
        %0 = flow.dispatch.tensor.load %arg0, offsets = [0], sizes = [10], strides = [1] : !flow.dispatch.tensor<readonly:tensor<10xi32>> -> tensor<10xi32>
        %1 = flow.dispatch.tensor.load %arg1, offsets = [0], sizes = [10], strides = [1] : !flow.dispatch.tensor<readonly:tensor<10xi32>> -> tensor<10xi32>
        %2 = tensor.empty() : tensor<10xi32>
        %3 = linalg.generic {indexing_maps = [#map, #map, #map], iterator_types = ["parallel"]} ins(%0, %1 : tensor<10xi32>, tensor<10xi32>) outs(%2 : tensor<10xi32>) {
        ^bb0(%in: i32, %in_0: i32, %out: i32):
          %4 = arith.addi %in, %in_0 : i32
          %5 = arith.muli %4, %in_0 : i32
          linalg.yield %5 : i32
        } -> tensor<10xi32>
        flow.dispatch.tensor.store %3, %arg2, offsets = [0], sizes = [10], strides = [1] : tensor<10xi32> -> !flow.dispatch.tensor<writeonly:tensor<10xi32>>
        return
      }
    }
  }
  func.func @main(%arg0: !hal.buffer_view, %arg1: !hal.buffer_view) -> !hal.buffer_view attributes {iree.abi.stub} {
    %0 = hal.tensor.import %arg0 "input 0" : !hal.buffer_view -> tensor<10xi32>
    %1 = hal.tensor.import %arg1 "input 1" : !hal.buffer_view -> tensor<10xi32>
    %2 = flow.dispatch @main_dispatch_0::@main_dispatch_0_generic_10_i32(%0, %1) : (tensor<10xi32>, tensor<10xi32>) -> tensor<10xi32>
    %3 = hal.tensor.export %2 "output 0" : tensor<10xi32> -> !hal.buffer_view
    return %3 : !hal.buffer_view
  }
}


// -----// IR Dump After FoldGlobals (iree-util-fold-globals) //----- //
#executable_target_embedded_elf_x86_64_ = #hal.executable.target<"llvm-cpu", "embedded-elf-x86_64", {cpu = "generic", cpu_features = "", data_layout = "e-m:e-p270:32:32-p271:32:32-p272:64:64-i64:64-i128:128-f80:128-n8:16:32:64-S128", native_vector_size = 16 : index, target_triple = "x86_64-unknown-unknown-eabi-elf", ukernels = false}>
#map = affine_map<(d0) -> (d0)>
#device_target_llvm_cpu = #hal.device.target<"llvm-cpu", {executable_targets = [#executable_target_embedded_elf_x86_64_]}>
module attributes {hal.device.targets = [#device_target_llvm_cpu]} {
  flow.executable private @main_dispatch_0 {
    flow.executable.export public @main_dispatch_0_generic_10_i32 workgroups() -> (index, index, index) {
      %x, %y, %z = flow.dispatch.workgroup_count_from_slice 
      flow.return %x, %y, %z : index, index, index
    }
    builtin.module {
      func.func @main_dispatch_0_generic_10_i32(%arg0: !flow.dispatch.tensor<readonly:tensor<10xi32>>, %arg1: !flow.dispatch.tensor<readonly:tensor<10xi32>>, %arg2: !flow.dispatch.tensor<writeonly:tensor<10xi32>>) {
        %0 = flow.dispatch.tensor.load %arg0, offsets = [0], sizes = [10], strides = [1] : !flow.dispatch.tensor<readonly:tensor<10xi32>> -> tensor<10xi32>
        %1 = flow.dispatch.tensor.load %arg1, offsets = [0], sizes = [10], strides = [1] : !flow.dispatch.tensor<readonly:tensor<10xi32>> -> tensor<10xi32>
        %2 = tensor.empty() : tensor<10xi32>
        %3 = linalg.generic {indexing_maps = [#map, #map, #map], iterator_types = ["parallel"]} ins(%0, %1 : tensor<10xi32>, tensor<10xi32>) outs(%2 : tensor<10xi32>) {
        ^bb0(%in: i32, %in_0: i32, %out: i32):
          %4 = arith.addi %in, %in_0 : i32
          %5 = arith.muli %4, %in_0 : i32
          linalg.yield %5 : i32
        } -> tensor<10xi32>
        flow.dispatch.tensor.store %3, %arg2, offsets = [0], sizes = [10], strides = [1] : tensor<10xi32> -> !flow.dispatch.tensor<writeonly:tensor<10xi32>>
        return
      }
    }
  }
  func.func @main(%arg0: !hal.buffer_view, %arg1: !hal.buffer_view) -> !hal.buffer_view attributes {iree.abi.stub} {
    %0 = hal.tensor.import %arg0 "input 0" : !hal.buffer_view -> tensor<10xi32>
    %1 = hal.tensor.import %arg1 "input 1" : !hal.buffer_view -> tensor<10xi32>
    %2 = flow.dispatch @main_dispatch_0::@main_dispatch_0_generic_10_i32(%0, %1) : (tensor<10xi32>, tensor<10xi32>) -> tensor<10xi32>
    %3 = hal.tensor.export %2 "output 0" : tensor<10xi32> -> !hal.buffer_view
    return %3 : !hal.buffer_view
  }
}


// -----// IR Dump After FuseGlobals (iree-util-fuse-globals) //----- //
#executable_target_embedded_elf_x86_64_ = #hal.executable.target<"llvm-cpu", "embedded-elf-x86_64", {cpu = "generic", cpu_features = "", data_layout = "e-m:e-p270:32:32-p271:32:32-p272:64:64-i64:64-i128:128-f80:128-n8:16:32:64-S128", native_vector_size = 16 : index, target_triple = "x86_64-unknown-unknown-eabi-elf", ukernels = false}>
#map = affine_map<(d0) -> (d0)>
#device_target_llvm_cpu = #hal.device.target<"llvm-cpu", {executable_targets = [#executable_target_embedded_elf_x86_64_]}>
module attributes {hal.device.targets = [#device_target_llvm_cpu]} {
  flow.executable private @main_dispatch_0 {
    flow.executable.export public @main_dispatch_0_generic_10_i32 workgroups() -> (index, index, index) {
      %x, %y, %z = flow.dispatch.workgroup_count_from_slice 
      flow.return %x, %y, %z : index, index, index
    }
    builtin.module {
      func.func @main_dispatch_0_generic_10_i32(%arg0: !flow.dispatch.tensor<readonly:tensor<10xi32>>, %arg1: !flow.dispatch.tensor<readonly:tensor<10xi32>>, %arg2: !flow.dispatch.tensor<writeonly:tensor<10xi32>>) {
        %0 = flow.dispatch.tensor.load %arg0, offsets = [0], sizes = [10], strides = [1] : !flow.dispatch.tensor<readonly:tensor<10xi32>> -> tensor<10xi32>
        %1 = flow.dispatch.tensor.load %arg1, offsets = [0], sizes = [10], strides = [1] : !flow.dispatch.tensor<readonly:tensor<10xi32>> -> tensor<10xi32>
        %2 = tensor.empty() : tensor<10xi32>
        %3 = linalg.generic {indexing_maps = [#map, #map, #map], iterator_types = ["parallel"]} ins(%0, %1 : tensor<10xi32>, tensor<10xi32>) outs(%2 : tensor<10xi32>) {
        ^bb0(%in: i32, %in_0: i32, %out: i32):
          %4 = arith.addi %in, %in_0 : i32
          %5 = arith.muli %4, %in_0 : i32
          linalg.yield %5 : i32
        } -> tensor<10xi32>
        flow.dispatch.tensor.store %3, %arg2, offsets = [0], sizes = [10], strides = [1] : tensor<10xi32> -> !flow.dispatch.tensor<writeonly:tensor<10xi32>>
        return
      }
    }
  }
  func.func @main(%arg0: !hal.buffer_view, %arg1: !hal.buffer_view) -> !hal.buffer_view attributes {iree.abi.stub} {
    %0 = hal.tensor.import %arg0 "input 0" : !hal.buffer_view -> tensor<10xi32>
    %1 = hal.tensor.import %arg1 "input 1" : !hal.buffer_view -> tensor<10xi32>
    %2 = flow.dispatch @main_dispatch_0::@main_dispatch_0_generic_10_i32(%0, %1) : (tensor<10xi32>, tensor<10xi32>) -> tensor<10xi32>
    %3 = hal.tensor.export %2 "output 0" : tensor<10xi32> -> !hal.buffer_view
    return %3 : !hal.buffer_view
  }
}


// -----// IR Dump After IPO (iree-util-ipo) //----- //
#executable_target_embedded_elf_x86_64_ = #hal.executable.target<"llvm-cpu", "embedded-elf-x86_64", {cpu = "generic", cpu_features = "", data_layout = "e-m:e-p270:32:32-p271:32:32-p272:64:64-i64:64-i128:128-f80:128-n8:16:32:64-S128", native_vector_size = 16 : index, target_triple = "x86_64-unknown-unknown-eabi-elf", ukernels = false}>
#map = affine_map<(d0) -> (d0)>
#device_target_llvm_cpu = #hal.device.target<"llvm-cpu", {executable_targets = [#executable_target_embedded_elf_x86_64_]}>
module attributes {hal.device.targets = [#device_target_llvm_cpu]} {
  flow.executable private @main_dispatch_0 {
    flow.executable.export public @main_dispatch_0_generic_10_i32 workgroups() -> (index, index, index) {
      %x, %y, %z = flow.dispatch.workgroup_count_from_slice 
      flow.return %x, %y, %z : index, index, index
    }
    builtin.module {
      func.func @main_dispatch_0_generic_10_i32(%arg0: !flow.dispatch.tensor<readonly:tensor<10xi32>>, %arg1: !flow.dispatch.tensor<readonly:tensor<10xi32>>, %arg2: !flow.dispatch.tensor<writeonly:tensor<10xi32>>) {
        %0 = flow.dispatch.tensor.load %arg0, offsets = [0], sizes = [10], strides = [1] : !flow.dispatch.tensor<readonly:tensor<10xi32>> -> tensor<10xi32>
        %1 = flow.dispatch.tensor.load %arg1, offsets = [0], sizes = [10], strides = [1] : !flow.dispatch.tensor<readonly:tensor<10xi32>> -> tensor<10xi32>
        %2 = tensor.empty() : tensor<10xi32>
        %3 = linalg.generic {indexing_maps = [#map, #map, #map], iterator_types = ["parallel"]} ins(%0, %1 : tensor<10xi32>, tensor<10xi32>) outs(%2 : tensor<10xi32>) {
        ^bb0(%in: i32, %in_0: i32, %out: i32):
          %4 = arith.addi %in, %in_0 : i32
          %5 = arith.muli %4, %in_0 : i32
          linalg.yield %5 : i32
        } -> tensor<10xi32>
        flow.dispatch.tensor.store %3, %arg2, offsets = [0], sizes = [10], strides = [1] : tensor<10xi32> -> !flow.dispatch.tensor<writeonly:tensor<10xi32>>
        return
      }
    }
  }
  func.func @main(%arg0: !hal.buffer_view, %arg1: !hal.buffer_view) -> !hal.buffer_view attributes {iree.abi.stub} {
    %0 = hal.tensor.import %arg0 "input 0" : !hal.buffer_view -> tensor<10xi32>
    %1 = hal.tensor.import %arg1 "input 1" : !hal.buffer_view -> tensor<10xi32>
    %2 = flow.dispatch @main_dispatch_0::@main_dispatch_0_generic_10_i32(%0, %1) : (tensor<10xi32>, tensor<10xi32>) -> tensor<10xi32>
    %3 = hal.tensor.export %2 "output 0" : tensor<10xi32> -> !hal.buffer_view
    return %3 : !hal.buffer_view
  }
}


// -----// IR Dump After OutlineConstants (iree-util-outline-constants) //----- //
#executable_target_embedded_elf_x86_64_ = #hal.executable.target<"llvm-cpu", "embedded-elf-x86_64", {cpu = "generic", cpu_features = "", data_layout = "e-m:e-p270:32:32-p271:32:32-p272:64:64-i64:64-i128:128-f80:128-n8:16:32:64-S128", native_vector_size = 16 : index, target_triple = "x86_64-unknown-unknown-eabi-elf", ukernels = false}>
#map = affine_map<(d0) -> (d0)>
#device_target_llvm_cpu = #hal.device.target<"llvm-cpu", {executable_targets = [#executable_target_embedded_elf_x86_64_]}>
module attributes {hal.device.targets = [#device_target_llvm_cpu]} {
  flow.executable private @main_dispatch_0 {
    flow.executable.export public @main_dispatch_0_generic_10_i32 workgroups() -> (index, index, index) {
      %x, %y, %z = flow.dispatch.workgroup_count_from_slice 
      flow.return %x, %y, %z : index, index, index
    }
    builtin.module {
      func.func @main_dispatch_0_generic_10_i32(%arg0: !flow.dispatch.tensor<readonly:tensor<10xi32>>, %arg1: !flow.dispatch.tensor<readonly:tensor<10xi32>>, %arg2: !flow.dispatch.tensor<writeonly:tensor<10xi32>>) {
        %0 = flow.dispatch.tensor.load %arg0, offsets = [0], sizes = [10], strides = [1] : !flow.dispatch.tensor<readonly:tensor<10xi32>> -> tensor<10xi32>
        %1 = flow.dispatch.tensor.load %arg1, offsets = [0], sizes = [10], strides = [1] : !flow.dispatch.tensor<readonly:tensor<10xi32>> -> tensor<10xi32>
        %2 = tensor.empty() : tensor<10xi32>
        %3 = linalg.generic {indexing_maps = [#map, #map, #map], iterator_types = ["parallel"]} ins(%0, %1 : tensor<10xi32>, tensor<10xi32>) outs(%2 : tensor<10xi32>) {
        ^bb0(%in: i32, %in_0: i32, %out: i32):
          %4 = arith.addi %in, %in_0 : i32
          %5 = arith.muli %4, %in_0 : i32
          linalg.yield %5 : i32
        } -> tensor<10xi32>
        flow.dispatch.tensor.store %3, %arg2, offsets = [0], sizes = [10], strides = [1] : tensor<10xi32> -> !flow.dispatch.tensor<writeonly:tensor<10xi32>>
        return
      }
    }
  }
  func.func @main(%arg0: !hal.buffer_view, %arg1: !hal.buffer_view) -> !hal.buffer_view attributes {iree.abi.stub} {
    %0 = hal.tensor.import %arg0 "input 0" : !hal.buffer_view -> tensor<10xi32>
    %1 = hal.tensor.import %arg1 "input 1" : !hal.buffer_view -> tensor<10xi32>
    %2 = flow.dispatch @main_dispatch_0::@main_dispatch_0_generic_10_i32(%0, %1) : (tensor<10xi32>, tensor<10xi32>) -> tensor<10xi32>
    %3 = hal.tensor.export %2 "output 0" : tensor<10xi32> -> !hal.buffer_view
    return %3 : !hal.buffer_view
  }
}


// -----// IR Dump After Canonicalizer (canonicalize) //----- //
func.func @main(%arg0: !hal.buffer_view, %arg1: !hal.buffer_view) -> !hal.buffer_view attributes {iree.abi.stub} {
  %0 = hal.tensor.import %arg0 "input 0" : !hal.buffer_view -> tensor<10xi32>
  %1 = hal.tensor.import %arg1 "input 1" : !hal.buffer_view -> tensor<10xi32>
  %2 = flow.dispatch @main_dispatch_0::@main_dispatch_0_generic_10_i32(%0, %1) : (tensor<10xi32>, tensor<10xi32>) -> tensor<10xi32>
  %3 = hal.tensor.export %2 "output 0" : tensor<10xi32> -> !hal.buffer_view
  return %3 : !hal.buffer_view
}

// -----// IR Dump After CSE (cse) //----- //
func.func @main(%arg0: !hal.buffer_view, %arg1: !hal.buffer_view) -> !hal.buffer_view attributes {iree.abi.stub} {
  %0 = hal.tensor.import %arg0 "input 0" : !hal.buffer_view -> tensor<10xi32>
  %1 = hal.tensor.import %arg1 "input 1" : !hal.buffer_view -> tensor<10xi32>
  %2 = flow.dispatch @main_dispatch_0::@main_dispatch_0_generic_10_i32(%0, %1) : (tensor<10xi32>, tensor<10xi32>) -> tensor<10xi32>
  %3 = hal.tensor.export %2 "output 0" : tensor<10xi32> -> !hal.buffer_view
  return %3 : !hal.buffer_view
}

// -----// IR Dump After SimplifyGlobalAccesses (iree-util-simplify-global-accesses) //----- //
func.func @main(%arg0: !hal.buffer_view, %arg1: !hal.buffer_view) -> !hal.buffer_view attributes {iree.abi.stub} {
  %0 = hal.tensor.import %arg0 "input 0" : !hal.buffer_view -> tensor<10xi32>
  %1 = hal.tensor.import %arg1 "input 1" : !hal.buffer_view -> tensor<10xi32>
  %2 = flow.dispatch @main_dispatch_0::@main_dispatch_0_generic_10_i32(%0, %1) : (tensor<10xi32>, tensor<10xi32>) -> tensor<10xi32>
  %3 = hal.tensor.export %2 "output 0" : tensor<10xi32> -> !hal.buffer_view
  return %3 : !hal.buffer_view
}

// -----// IR Dump After ApplyPatterns (iree-util-apply-patterns) //----- //
#executable_target_embedded_elf_x86_64_ = #hal.executable.target<"llvm-cpu", "embedded-elf-x86_64", {cpu = "generic", cpu_features = "", data_layout = "e-m:e-p270:32:32-p271:32:32-p272:64:64-i64:64-i128:128-f80:128-n8:16:32:64-S128", native_vector_size = 16 : index, target_triple = "x86_64-unknown-unknown-eabi-elf", ukernels = false}>
#map = affine_map<(d0) -> (d0)>
#device_target_llvm_cpu = #hal.device.target<"llvm-cpu", {executable_targets = [#executable_target_embedded_elf_x86_64_]}>
module attributes {hal.device.targets = [#device_target_llvm_cpu]} {
  flow.executable private @main_dispatch_0 {
    flow.executable.export public @main_dispatch_0_generic_10_i32 workgroups() -> (index, index, index) {
      %x, %y, %z = flow.dispatch.workgroup_count_from_slice 
      flow.return %x, %y, %z : index, index, index
    }
    builtin.module {
      func.func @main_dispatch_0_generic_10_i32(%arg0: !flow.dispatch.tensor<readonly:tensor<10xi32>>, %arg1: !flow.dispatch.tensor<readonly:tensor<10xi32>>, %arg2: !flow.dispatch.tensor<writeonly:tensor<10xi32>>) {
        %0 = flow.dispatch.tensor.load %arg0, offsets = [0], sizes = [10], strides = [1] : !flow.dispatch.tensor<readonly:tensor<10xi32>> -> tensor<10xi32>
        %1 = flow.dispatch.tensor.load %arg1, offsets = [0], sizes = [10], strides = [1] : !flow.dispatch.tensor<readonly:tensor<10xi32>> -> tensor<10xi32>
        %2 = tensor.empty() : tensor<10xi32>
        %3 = linalg.generic {indexing_maps = [#map, #map, #map], iterator_types = ["parallel"]} ins(%0, %1 : tensor<10xi32>, tensor<10xi32>) outs(%2 : tensor<10xi32>) {
        ^bb0(%in: i32, %in_0: i32, %out: i32):
          %4 = arith.addi %in, %in_0 : i32
          %5 = arith.muli %4, %in_0 : i32
          linalg.yield %5 : i32
        } -> tensor<10xi32>
        flow.dispatch.tensor.store %3, %arg2, offsets = [0], sizes = [10], strides = [1] : tensor<10xi32> -> !flow.dispatch.tensor<writeonly:tensor<10xi32>>
        return
      }
    }
  }
  func.func @main(%arg0: !hal.buffer_view, %arg1: !hal.buffer_view) -> !hal.buffer_view attributes {iree.abi.stub} {
    %0 = hal.tensor.import %arg0 "input 0" : !hal.buffer_view -> tensor<10xi32>
    %1 = hal.tensor.import %arg1 "input 1" : !hal.buffer_view -> tensor<10xi32>
    %2 = flow.dispatch @main_dispatch_0::@main_dispatch_0_generic_10_i32(%0, %1) : (tensor<10xi32>, tensor<10xi32>) -> tensor<10xi32>
    %3 = hal.tensor.export %2 "output 0" : tensor<10xi32> -> !hal.buffer_view
    return %3 : !hal.buffer_view
  }
}


// -----// IR Dump After FoldGlobals (iree-util-fold-globals) //----- //
#executable_target_embedded_elf_x86_64_ = #hal.executable.target<"llvm-cpu", "embedded-elf-x86_64", {cpu = "generic", cpu_features = "", data_layout = "e-m:e-p270:32:32-p271:32:32-p272:64:64-i64:64-i128:128-f80:128-n8:16:32:64-S128", native_vector_size = 16 : index, target_triple = "x86_64-unknown-unknown-eabi-elf", ukernels = false}>
#map = affine_map<(d0) -> (d0)>
#device_target_llvm_cpu = #hal.device.target<"llvm-cpu", {executable_targets = [#executable_target_embedded_elf_x86_64_]}>
module attributes {hal.device.targets = [#device_target_llvm_cpu]} {
  flow.executable private @main_dispatch_0 {
    flow.executable.export public @main_dispatch_0_generic_10_i32 workgroups() -> (index, index, index) {
      %x, %y, %z = flow.dispatch.workgroup_count_from_slice 
      flow.return %x, %y, %z : index, index, index
    }
    builtin.module {
      func.func @main_dispatch_0_generic_10_i32(%arg0: !flow.dispatch.tensor<readonly:tensor<10xi32>>, %arg1: !flow.dispatch.tensor<readonly:tensor<10xi32>>, %arg2: !flow.dispatch.tensor<writeonly:tensor<10xi32>>) {
        %0 = flow.dispatch.tensor.load %arg0, offsets = [0], sizes = [10], strides = [1] : !flow.dispatch.tensor<readonly:tensor<10xi32>> -> tensor<10xi32>
        %1 = flow.dispatch.tensor.load %arg1, offsets = [0], sizes = [10], strides = [1] : !flow.dispatch.tensor<readonly:tensor<10xi32>> -> tensor<10xi32>
        %2 = tensor.empty() : tensor<10xi32>
        %3 = linalg.generic {indexing_maps = [#map, #map, #map], iterator_types = ["parallel"]} ins(%0, %1 : tensor<10xi32>, tensor<10xi32>) outs(%2 : tensor<10xi32>) {
        ^bb0(%in: i32, %in_0: i32, %out: i32):
          %4 = arith.addi %in, %in_0 : i32
          %5 = arith.muli %4, %in_0 : i32
          linalg.yield %5 : i32
        } -> tensor<10xi32>
        flow.dispatch.tensor.store %3, %arg2, offsets = [0], sizes = [10], strides = [1] : tensor<10xi32> -> !flow.dispatch.tensor<writeonly:tensor<10xi32>>
        return
      }
    }
  }
  func.func @main(%arg0: !hal.buffer_view, %arg1: !hal.buffer_view) -> !hal.buffer_view attributes {iree.abi.stub} {
    %0 = hal.tensor.import %arg0 "input 0" : !hal.buffer_view -> tensor<10xi32>
    %1 = hal.tensor.import %arg1 "input 1" : !hal.buffer_view -> tensor<10xi32>
    %2 = flow.dispatch @main_dispatch_0::@main_dispatch_0_generic_10_i32(%0, %1) : (tensor<10xi32>, tensor<10xi32>) -> tensor<10xi32>
    %3 = hal.tensor.export %2 "output 0" : tensor<10xi32> -> !hal.buffer_view
    return %3 : !hal.buffer_view
  }
}


// -----// IR Dump After FuseGlobals (iree-util-fuse-globals) //----- //
#executable_target_embedded_elf_x86_64_ = #hal.executable.target<"llvm-cpu", "embedded-elf-x86_64", {cpu = "generic", cpu_features = "", data_layout = "e-m:e-p270:32:32-p271:32:32-p272:64:64-i64:64-i128:128-f80:128-n8:16:32:64-S128", native_vector_size = 16 : index, target_triple = "x86_64-unknown-unknown-eabi-elf", ukernels = false}>
#map = affine_map<(d0) -> (d0)>
#device_target_llvm_cpu = #hal.device.target<"llvm-cpu", {executable_targets = [#executable_target_embedded_elf_x86_64_]}>
module attributes {hal.device.targets = [#device_target_llvm_cpu]} {
  flow.executable private @main_dispatch_0 {
    flow.executable.export public @main_dispatch_0_generic_10_i32 workgroups() -> (index, index, index) {
      %x, %y, %z = flow.dispatch.workgroup_count_from_slice 
      flow.return %x, %y, %z : index, index, index
    }
    builtin.module {
      func.func @main_dispatch_0_generic_10_i32(%arg0: !flow.dispatch.tensor<readonly:tensor<10xi32>>, %arg1: !flow.dispatch.tensor<readonly:tensor<10xi32>>, %arg2: !flow.dispatch.tensor<writeonly:tensor<10xi32>>) {
        %0 = flow.dispatch.tensor.load %arg0, offsets = [0], sizes = [10], strides = [1] : !flow.dispatch.tensor<readonly:tensor<10xi32>> -> tensor<10xi32>
        %1 = flow.dispatch.tensor.load %arg1, offsets = [0], sizes = [10], strides = [1] : !flow.dispatch.tensor<readonly:tensor<10xi32>> -> tensor<10xi32>
        %2 = tensor.empty() : tensor<10xi32>
        %3 = linalg.generic {indexing_maps = [#map, #map, #map], iterator_types = ["parallel"]} ins(%0, %1 : tensor<10xi32>, tensor<10xi32>) outs(%2 : tensor<10xi32>) {
        ^bb0(%in: i32, %in_0: i32, %out: i32):
          %4 = arith.addi %in, %in_0 : i32
          %5 = arith.muli %4, %in_0 : i32
          linalg.yield %5 : i32
        } -> tensor<10xi32>
        flow.dispatch.tensor.store %3, %arg2, offsets = [0], sizes = [10], strides = [1] : tensor<10xi32> -> !flow.dispatch.tensor<writeonly:tensor<10xi32>>
        return
      }
    }
  }
  func.func @main(%arg0: !hal.buffer_view, %arg1: !hal.buffer_view) -> !hal.buffer_view attributes {iree.abi.stub} {
    %0 = hal.tensor.import %arg0 "input 0" : !hal.buffer_view -> tensor<10xi32>
    %1 = hal.tensor.import %arg1 "input 1" : !hal.buffer_view -> tensor<10xi32>
    %2 = flow.dispatch @main_dispatch_0::@main_dispatch_0_generic_10_i32(%0, %1) : (tensor<10xi32>, tensor<10xi32>) -> tensor<10xi32>
    %3 = hal.tensor.export %2 "output 0" : tensor<10xi32> -> !hal.buffer_view
    return %3 : !hal.buffer_view
  }
}


// -----// IR Dump After IPO (iree-util-ipo) //----- //
#executable_target_embedded_elf_x86_64_ = #hal.executable.target<"llvm-cpu", "embedded-elf-x86_64", {cpu = "generic", cpu_features = "", data_layout = "e-m:e-p270:32:32-p271:32:32-p272:64:64-i64:64-i128:128-f80:128-n8:16:32:64-S128", native_vector_size = 16 : index, target_triple = "x86_64-unknown-unknown-eabi-elf", ukernels = false}>
#map = affine_map<(d0) -> (d0)>
#device_target_llvm_cpu = #hal.device.target<"llvm-cpu", {executable_targets = [#executable_target_embedded_elf_x86_64_]}>
module attributes {hal.device.targets = [#device_target_llvm_cpu]} {
  flow.executable private @main_dispatch_0 {
    flow.executable.export public @main_dispatch_0_generic_10_i32 workgroups() -> (index, index, index) {
      %x, %y, %z = flow.dispatch.workgroup_count_from_slice 
      flow.return %x, %y, %z : index, index, index
    }
    builtin.module {
      func.func @main_dispatch_0_generic_10_i32(%arg0: !flow.dispatch.tensor<readonly:tensor<10xi32>>, %arg1: !flow.dispatch.tensor<readonly:tensor<10xi32>>, %arg2: !flow.dispatch.tensor<writeonly:tensor<10xi32>>) {
        %0 = flow.dispatch.tensor.load %arg0, offsets = [0], sizes = [10], strides = [1] : !flow.dispatch.tensor<readonly:tensor<10xi32>> -> tensor<10xi32>
        %1 = flow.dispatch.tensor.load %arg1, offsets = [0], sizes = [10], strides = [1] : !flow.dispatch.tensor<readonly:tensor<10xi32>> -> tensor<10xi32>
        %2 = tensor.empty() : tensor<10xi32>
        %3 = linalg.generic {indexing_maps = [#map, #map, #map], iterator_types = ["parallel"]} ins(%0, %1 : tensor<10xi32>, tensor<10xi32>) outs(%2 : tensor<10xi32>) {
        ^bb0(%in: i32, %in_0: i32, %out: i32):
          %4 = arith.addi %in, %in_0 : i32
          %5 = arith.muli %4, %in_0 : i32
          linalg.yield %5 : i32
        } -> tensor<10xi32>
        flow.dispatch.tensor.store %3, %arg2, offsets = [0], sizes = [10], strides = [1] : tensor<10xi32> -> !flow.dispatch.tensor<writeonly:tensor<10xi32>>
        return
      }
    }
  }
  func.func @main(%arg0: !hal.buffer_view, %arg1: !hal.buffer_view) -> !hal.buffer_view attributes {iree.abi.stub} {
    %0 = hal.tensor.import %arg0 "input 0" : !hal.buffer_view -> tensor<10xi32>
    %1 = hal.tensor.import %arg1 "input 1" : !hal.buffer_view -> tensor<10xi32>
    %2 = flow.dispatch @main_dispatch_0::@main_dispatch_0_generic_10_i32(%0, %1) : (tensor<10xi32>, tensor<10xi32>) -> tensor<10xi32>
    %3 = hal.tensor.export %2 "output 0" : tensor<10xi32> -> !hal.buffer_view
    return %3 : !hal.buffer_view
  }
}


// -----// IR Dump After ConvertToStream (iree-stream-conversion) //----- //
#executable_target_embedded_elf_x86_64_ = #hal.executable.target<"llvm-cpu", "embedded-elf-x86_64", {cpu = "generic", cpu_features = "", data_layout = "e-m:e-p270:32:32-p271:32:32-p272:64:64-i64:64-i128:128-f80:128-n8:16:32:64-S128", native_vector_size = 16 : index, target_triple = "x86_64-unknown-unknown-eabi-elf", ukernels = false}>
#map = affine_map<(d0) -> (d0)>
#device_target_llvm_cpu = #hal.device.target<"llvm-cpu", {executable_targets = [#executable_target_embedded_elf_x86_64_]}>
module attributes {hal.device.targets = [#device_target_llvm_cpu]} {
  stream.executable private @main_dispatch_0 {
    stream.executable.export public @main_dispatch_0_generic_10_i32 workgroups() -> (index, index, index) {
      %x, %y, %z = flow.dispatch.workgroup_count_from_slice 
      stream.return %x, %y, %z : index, index, index
    }
    builtin.module {
      func.func @main_dispatch_0_generic_10_i32(%arg0: !stream.binding, %arg1: !stream.binding, %arg2: !stream.binding) {
        %c0 = arith.constant 0 : index
        %0 = stream.binding.subspan %arg0[%c0] : !stream.binding -> !flow.dispatch.tensor<readonly:tensor<10xi32>>
        %1 = stream.binding.subspan %arg1[%c0] : !stream.binding -> !flow.dispatch.tensor<readonly:tensor<10xi32>>
        %2 = stream.binding.subspan %arg2[%c0] : !stream.binding -> !flow.dispatch.tensor<writeonly:tensor<10xi32>>
        %3 = flow.dispatch.tensor.load %0, offsets = [0], sizes = [10], strides = [1] : !flow.dispatch.tensor<readonly:tensor<10xi32>> -> tensor<10xi32>
…
    %ref_9 = vm.call.variadic @hal.buffer_view.create(%ref_6, %zero_0, %c40, %c268435488, %c1, [%c10]) {nosideeffects} : (!vm.ref<!hal.buffer>, i64, i64, i32, i32, i64 ...) -> !vm.ref<!hal.buffer_view>
    vm.return %ref_9 : !vm.ref<!hal.buffer_view>
  ^bb4:  // pred: ^bb2
    vm.fail %2, "failed to wait on timepoint"
  }
  vm.export @main attributes {iree.abi.stub}
  vm.export @__init
  vm.func private @__init() {
    %null = vm.const.ref.zero : !vm.ref<!hal.executable>
    %null_0 = vm.const.ref.zero : !vm.buffer
    %c2 = vm.const.i32 2
    %c7 = vm.const.i32 7
    %zero = vm.const.i32.zero
    %c1 = vm.const.i32 1
    %zero_1 = vm.const.i64.zero
    %c-1 = vm.const.i64 -1
    %ref = vm.call @hal.ex.shared_device() {nosideeffects} : () -> !vm.ref<!hal.device>
    %_utf8_hal_executable_format_EAB228F999C2D3A1 = vm.const.ref.rodata @_utf8_hal_executable_format_EAB228F999C2D3A1 : !vm.buffer
    %_utf8_embedded_elf_x86_64_9FD8733DA4A6F228 = vm.const.ref.rodata @_utf8_embedded_elf_x86_64_9FD8733DA4A6F228 : !vm.buffer
    %0:2 = vm.call @hal.device.query.i64(%ref, %_utf8_hal_executable_format_EAB228F999C2D3A1, %_utf8_embedded_elf_x86_64_9FD8733DA4A6F228) {nosideeffects} : (!vm.ref<!hal.device>, !vm.buffer, !vm.buffer) -> (i32, i64)
    %1 = vm.trunc.i64.i32 %0#1 : i64 -> i32
    %2 = vm.and.i32 %1, %c1 : i32
    %3 = vm.select.i32 %0#0, %2, %zero : i32
    %ref_2 = vm.call.variadic @hal.descriptor_set_layout.create(%ref, %zero, [(%zero, %c7, %c1), (%c1, %c7, %c1), (%c2, %c7, %zero)]) {nosideeffects} : (!vm.ref<!hal.device>, i32, tuple<i32, i32, i32> ...) -> !vm.ref<!hal.descriptor_set_layout>
    %ref_3 = vm.call.variadic @hal.pipeline_layout.create(%ref, %zero, [%ref_2]) {nosideeffects} : (!vm.ref<!hal.device>, i32, !vm.ref<!hal.descriptor_set_layout> ...) -> !vm.ref<!hal.pipeline_layout>
    %4 = vm.select.i64 %3, %zero_1, %c-1 : i64
    %5 = vm.trunc.i64.i32 %4 : i64 -> i32
    vm.global.store.i32 %3, @_device_query_0 : i32
    vm.global.store.ref %ref_3, @_pipeline_layout_0 : !vm.ref<!hal.pipeline_layout>
    vm.br_table %5 {
      default: ^bb2,
      0: ^bb1
    }
  ^bb1:  // pred: ^bb0
    %_pipeline_layout_0 = vm.global.load.ref @_pipeline_layout_0 : !vm.ref<!hal.pipeline_layout>
    %main_dispatch_0_embedded_elf_x86_64 = vm.const.ref.rodata @main_dispatch_0_embedded_elf_x86_64 : !vm.buffer
    %ref_4 = vm.call.variadic @hal.executable.create(%ref, %_utf8_embedded_elf_x86_64_9FD8733DA4A6F228, %main_dispatch_0_embedded_elf_x86_64, %null_0, [%_pipeline_layout_0]) {nosideeffects} : (!vm.ref<!hal.device>, !vm.buffer, !vm.buffer, !vm.buffer, !vm.ref<!hal.pipeline_layout> ...) -> !vm.ref<!hal.executable>
    vm.br ^bb3(%ref_4 : !vm.ref<!hal.executable>)
  ^bb2:  // pred: ^bb0
    vm.br ^bb3(%null : !vm.ref<!hal.executable>)
  ^bb3(%6: !vm.ref<!hal.executable>):  // 2 preds: ^bb1, ^bb2
    vm.global.store.ref %6, @_executable_main_dispatch_0 : !vm.ref<!hal.executable>
    vm.return
  }
}

// -----// IR Dump After CSE (cse) //----- //
vm.module public @module {
  vm.global.i32 private mutable @_device_query_0 : i32
  vm.global.ref private mutable @_pipeline_layout_0 : !vm.ref<!hal.pipeline_layout>
  vm.global.ref private mutable @_executable_main_dispatch_0 : !vm.ref<!hal.executable>
  vm.rodata private @main_dispatch_0_embedded_elf_x86_64 {alignment = 16 : i64, mime_type = "application/x-elf"} dense<"…"> : vector<4112xi8>
  vm.rodata private @_utf8_hal_executable_format_EAB228F999C2D3A1 {alignment = 1 : i64} "hal.executable.format"
  vm.rodata private @_utf8_embedded_elf_x86_64_9FD8733DA4A6F228 {alignment = 1 : i64} "embedded-elf-x86_64"
  vm.import private @hal.ex.shared_device() -> !vm.ref<!hal.device> attributes {nosideeffects}
  vm.import private @hal.buffer.assert(%buffer : !vm.ref<!hal.buffer>, %message : !vm.buffer, %allocator : !vm.ref<!hal.allocator>, %minimum_length : i64, %memory_types : i32, %buffer_usage : i32)
  vm.import private @hal.buffer_view.create(%buffer : !vm.ref<!hal.buffer>, %source_offset : i64, %source_length : i64, %element_type : i32, %encoding_type : i32, %shape : i64 ...) -> !vm.ref<!hal.buffer_view> attributes {nosideeffects}
  vm.import private @hal.buffer_view.assert(%buffer_view : !vm.ref<!hal.buffer_view>, %message : !vm.buffer, %element_type : i32, %encoding_type : i32, %shape : i64 ...)
  vm.import private @hal.buffer_view.buffer(%buffer_view : !vm.ref<!hal.buffer_view>) -> !vm.ref<!hal.buffer> attributes {nosideeffects}
  vm.import private @hal.command_buffer.create(%device : !vm.ref<!hal.device>, %modes : i32, %command_categories : i32, %binding_capacity : i32) -> !vm.ref<!hal.command_buffer>
  vm.import private @hal.command_buffer.finalize(%command_buffer : !vm.ref<!hal.command_buffer>)
  vm.import private @hal.command_buffer.execution_barrier(%command_buffer : !vm.ref<!hal.command_buffer>, %source_stage_mask : i32, %target_stage_mask : i32, %flags : i32)
  vm.import private @hal.command_buffer.push_descriptor_set(%command_buffer : !vm.ref<!hal.command_buffer>, %pipeline_layout : !vm.ref<!hal.pipeline_layout>, %set : i32, %bindings : tuple<i32, i32, !vm.ref<!hal.buffer>, i64, i64> ...)
  vm.import private @hal.command_buffer.dispatch(%command_buffer : !vm.ref<!hal.command_buffer>, %executable : !vm.ref<!hal.executable>, %entry_point : i32, %workgroup_x : i32, %workgroup_y : i32, %workgroup_z : i32)
  vm.import private @hal.descriptor_set_layout.create(%device : !vm.ref<!hal.device>, %flags : i32, %bindings : tuple<i32, i32, i32> ...) -> !vm.ref<!hal.descriptor_set_layout> attributes {nosideeffects}
  vm.import private @hal.device.allocator(%device : !vm.ref<!hal.device>) -> !vm.ref<!hal.allocator> attributes {nosideeffects}
  vm.import private @hal.device.query.i64(%device : !vm.ref<!hal.device>, %category : !vm.buffer, %key : !vm.buffer) -> (i32, i64) attributes {nosideeffects}
  vm.import private @hal.device.queue.alloca(%device : !vm.ref<!hal.device>, %queue_affinity : i64, %wait_fence : !vm.ref<!hal.fence>, %signal_fence : !vm.ref<!hal.fence>, %pool : i32, %memory_types : i32, %buffer_usage : i32, %allocation_size : i64) -> !vm.ref<!hal.buffer>
  vm.import private @hal.device.queue.execute(%device : !vm.ref<!hal.device>, %queue_affinity : i64, %wait_fence : !vm.ref<!hal.fence>, %signal_fence : !vm.ref<!hal.fence>, %command_buffers : !vm.ref<!hal.command_buffer> ...)
  vm.import private @hal.executable.create(%device : !vm.ref<!hal.device>, %executable_format : !vm.buffer, %executable_data : !vm.buffer, %constants : !vm.buffer, %pipeline_layouts : !vm.ref<!hal.pipeline_layout> ...) -> !vm.ref<!hal.executable> attributes {nosideeffects}
  vm.import private @hal.fence.create(%device : !vm.ref<!hal.device>, %flags : i32) -> !vm.ref<!hal.fence>
  vm.import private @hal.fence.await(%timeout_millis : i32, %fences : !vm.ref<!hal.fence> ...) -> i32 attributes {vm.yield}
  vm.import private @hal.pipeline_layout.create(%device : !vm.ref<!hal.device>, %push_constants : i32, %set_layouts : !vm.ref<!hal.descriptor_set_layout> ...) -> !vm.ref<!hal.pipeline_layout> attributes {nosideeffects}
  vm.rodata private @_utf8_input_0_5FD512E67BEFDEEC {alignment = 1 : i64} "input 0"
  vm.rodata private @_utf8_tensor_3C6209B4FD120BDC {alignment = 1 : i64} "tensor"
  vm.rodata private @_utf8_input_1_1DAF04E823826B1B {alignment = 1 : i64} "input 1"
  vm.func private @main(%arg0: !vm.ref<!hal.buffer_view>, %arg1: !vm.ref<!hal.buffer_view>) -> !vm.ref<!hal.buffer_view> {
    %c13 = vm.const.i32 13
    %c28 = vm.const.i32 28
    %c2 = vm.const.i32 2
    %c3 = vm.const.i32 3
    %c48 = vm.const.i32 48
    %zero = vm.const.i32.zero
    %null = vm.const.ref.zero : !vm.ref<!hal.fence>
    %c3075 = vm.const.i32 3075
    %c16 = vm.const.i32 16
    %c10 = vm.const.i64 10
    %c1 = vm.const.i32 1
    %c268435488 = vm.const.i32 268435488
    %zero_0 = vm.const.i64.zero
    %c40 = vm.const.i64 40
    %c-1 = vm.const.i64 -1
    %c-1_1 = vm.const.i32 -1
    %_device_query_0 = vm.global.load.i32 @_device_query_0 : i32
    %_pipeline_layout_0 = vm.global.load.ref @_pipeline_layout_0 : !vm.ref<!hal.pipeline_layout>
    %_executable_main_dispatch_0 = vm.global.load.ref @_executable_main_dispatch_0 : !vm.ref<!hal.executable>
    %_utf8_input_0_5FD512E67BEFDEEC = vm.const.ref.rodata @_utf8_input_0_5FD512E67BEFDEEC : !vm.buffer
    vm.call.variadic @hal.buffer_view.assert(%arg0, %_utf8_input_0_5FD512E67BEFDEEC, %c268435488, %c1, [%c10]) : (!vm.ref<!hal.buffer_view>, !vm.buffer, i32, i32, i64 ...)
    %ref = vm.call @hal.buffer_view.buffer(%arg0) {nosideeffects} : (!vm.ref<!hal.buffer_view>) -> !vm.ref<!hal.buffer>
    %ref_2 = vm.call @hal.ex.shared_device() {nosideeffects} : () -> !vm.ref<!hal.device>
    %ref_3 = vm.call @hal.device.allocator(%ref_2) {nosideeffects} : (!vm.ref<!hal.device>) -> !vm.ref<!hal.allocator>
    %_utf8_tensor_3C6209B4FD120BDC = vm.const.ref.rodata @_utf8_tensor_3C6209B4FD120BDC : !vm.buffer
    vm.call @hal.buffer.assert(%ref, %_utf8_tensor_3C6209B4FD120BDC, %ref_3, %c40, %c16, %c3075) : (!vm.ref<!hal.buffer>, !vm.buffer, !vm.ref<!hal.allocator>, i64, i32, i32) -> ()
    %_utf8_input_1_1DAF04E823826B1B = vm.const.ref.rodata @_utf8_input_1_1DAF04E823826B1B : !vm.buffer
    vm.call.variadic @hal.buffer_view.assert(%arg1, %_utf8_input_1_1DAF04E823826B1B, %c268435488, %c1, [%c10]) : (!vm.ref<!hal.buffer_view>, !vm.buffer, i32, i32, i64 ...)
    %ref_4 = vm.call @hal.buffer_view.buffer(%arg1) {nosideeffects} : (!vm.ref<!hal.buffer_view>) -> !vm.ref<!hal.buffer>
    vm.call @hal.buffer.assert(%ref_4, %_utf8_tensor_3C6209B4FD120BDC, %ref_3, %c40, %c16, %c3075) : (!vm.ref<!hal.buffer>, !vm.buffer, !vm.ref<!hal.allocator>, i64, i32, i32) -> ()
    %ref_5 = vm.call @hal.fence.create(%ref_2, %zero) : (!vm.ref<!hal.device>, i32) -> !vm.ref<!hal.fence>
    %ref_6 = vm.call @hal.device.queue.alloca(%ref_2, %c-1, %null, %ref_5, %zero, %c48, %c3075, %c40) : (!vm.ref<!hal.device>, i64, !vm.ref<!hal.fence>, !vm.ref<!hal.fence>, i32, i32, i32, i64) -> !vm.ref<!hal.buffer>
    %ref_7 = vm.call @hal.command_buffer.create(%ref_2, %c1, %c3, %zero) : (!vm.ref<!hal.device>, i32, i32, i32) -> !vm.ref<!hal.command_buffer>
    %0 = vm.select.i64 %_device_query_0, %zero_0, %c-1 : i64
    %1 = vm.trunc.i64.i32 %0 : i64 -> i32
    vm.br_table %1 {
      default: ^bb2,
      0: ^bb1
    }
  ^bb1:  // pred: ^bb0
    vm.call.variadic @hal.command_buffer.push_descriptor_set(%ref_7, %_pipeline_layout_0, %zero, [(%zero, %zero, %ref, %zero_0, %c40), (%c1, %zero, %ref_4, %zero_0, %c40), (%c2, %zero, %ref_6, %zero_0, %c40)]) : (!vm.ref<!hal.command_buffer>, !vm.ref<!hal.pipeline_layout>, i32, tuple<i32, i32, !vm.ref<!hal.buffer>, i64, i64> ...)
    vm.call @hal.command_buffer.dispatch(%ref_7, %_executable_main_dispatch_0, %zero, %c1, %c1, %c1) : (!vm.ref<!hal.command_buffer>, !vm.ref<!hal.executable>, i32, i32, i32, i32) -> ()
    vm.br ^bb2
  ^bb2:  // 2 preds: ^bb0, ^bb1
    vm.call @hal.command_buffer.execution_barrier(%ref_7, %c28, %c13, %zero) : (!vm.ref<!hal.command_buffer>, i32, i32, i32) -> ()
    vm.call @hal.command_buffer.finalize(%ref_7) : (!vm.ref<!hal.command_buffer>) -> ()
    %ref_8 = vm.call @hal.fence.create(%ref_2, %zero) : (!vm.ref<!hal.device>, i32) -> !vm.ref<!hal.fence>
    vm.call.variadic @hal.device.queue.execute(%ref_2, %c-1, %ref_5, %ref_8, [%ref_7]) : (!vm.ref<!hal.device>, i64, !vm.ref<!hal.fence>, !vm.ref<!hal.fence>, !vm.ref<!hal.command_buffer> ...)
    %2 = vm.call.variadic @hal.fence.await(%c-1_1, [%ref_8]) : (i32, !vm.ref<!hal.fence> ...) -> i32
    vm.cond_br %2, ^bb4, ^bb3
  ^bb3:  // pred: ^bb2
    %ref_9 = vm.call.variadic @hal.buffer_view.create(%ref_6, %zero_0, %c40, %c268435488, %c1, [%c10]) {nosideeffects} : (!vm.ref<!hal.buffer>, i64, i64, i32, i32, i64 ...) -> !vm.ref<!hal.buffer_view>
    vm.return %ref_9 : !vm.ref<!hal.buffer_view>
  ^bb4:  // pred: ^bb2
    vm.fail %2, "failed to wait on timepoint"
  }
  vm.export @main attributes {iree.abi.stub}
  vm.export @__init
  vm.func private @__init() {
    %null = vm.const.ref.zero : !vm.ref<!hal.executable>
    %null_0 = vm.const.ref.zero : !vm.buffer
    %c2 = vm.const.i32 2
    %c7 = vm.const.i32 7
    %zero = vm.const.i32.zero
    %c1 = vm.const.i32 1
    %zero_1 = vm.const.i64.zero
    %c-1 = vm.const.i64 -1
    %ref = vm.call @hal.ex.shared_device() {nosideeffects} : () -> !vm.ref<!hal.device>
    %_utf8_hal_executable_format_EAB228F999C2D3A1 = vm.const.ref.rodata @_utf8_hal_executable_format_EAB228F999C2D3A1 : !vm.buffer
    %_utf8_embedded_elf_x86_64_9FD8733DA4A6F228 = vm.const.ref.rodata @_utf8_embedded_elf_x86_64_9FD8733DA4A6F228 : !vm.buffer
    %0:2 = vm.call @hal.device.query.i64(%ref, %_utf8_hal_executable_format_EAB228F999C2D3A1, %_utf8_embedded_elf_x86_64_9FD8733DA4A6F228) {nosideeffects} : (!vm.ref<!hal.device>, !vm.buffer, !vm.buffer) -> (i32, i64)
    %1 = vm.trunc.i64.i32 %0#1 : i64 -> i32
    %2 = vm.and.i32 %1, %c1 : i32
    %3 = vm.select.i32 %0#0, %2, %zero : i32
    %ref_2 = vm.call.variadic @hal.descriptor_set_layout.create(%ref, %zero, [(%zero, %c7, %c1), (%c1, %c7, %c1), (%c2, %c7, %zero)]) {nosideeffects} : (!vm.ref<!hal.device>, i32, tuple<i32, i32, i32> ...) -> !vm.ref<!hal.descriptor_set_layout>
    %ref_3 = vm.call.variadic @hal.pipeline_layout.create(%ref, %zero, [%ref_2]) {nosideeffects} : (!vm.ref<!hal.device>, i32, !vm.ref<!hal.descriptor_set_layout> ...) -> !vm.ref<!hal.pipeline_layout>
    %4 = vm.select.i64 %3, %zero_1, %c-1 : i64
    %5 = vm.trunc.i64.i32 %4 : i64 -> i32
    vm.global.store.i32 %3, @_device_query_0 : i32
    vm.global.store.ref %ref_3, @_pipeline_layout_0 : !vm.ref<!hal.pipeline_layout>
    vm.br_table %5 {
      default: ^bb2,
      0: ^bb1
    }
  ^bb1:  // pred: ^bb0
    %_pipeline_layout_0 = vm.global.load.ref @_pipeline_layout_0 : !vm.ref<!hal.pipeline_layout>
    %main_dispatch_0_embedded_elf_x86_64 = vm.const.ref.rodata @main_dispatch_0_embedded_elf_x86_64 : !vm.buffer
    %ref_4 = vm.call.variadic @hal.executable.create(%ref, %_utf8_embedded_elf_x86_64_9FD8733DA4A6F228, %main_dispatch_0_embedded_elf_x86_64, %null_0, [%_pipeline_layout_0]) {nosideeffects} : (!vm.ref<!hal.device>, !vm.buffer, !vm.buffer, !vm.buffer, !vm.ref<!hal.pipeline_layout> ...) -> !vm.ref<!hal.executable>
    vm.br ^bb3(%ref_4 : !vm.ref<!hal.executable>)
  ^bb2:  // pred: ^bb0
    vm.br ^bb3(%null : !vm.ref<!hal.executable>)
  ^bb3(%6: !vm.ref<!hal.executable>):  // 2 preds: ^bb1, ^bb2
    vm.global.store.ref %6, @_executable_main_dispatch_0 : !vm.ref<!hal.executable>
    vm.return
  }
}

// -----// IR Dump After Canonicalizer (canonicalize) //----- //
vm.module public @module {
  vm.global.i32 private mutable @_device_query_0 : i32
  vm.global.ref private mutable @_pipeline_layout_0 : !vm.ref<!hal.pipeline_layout>
  vm.global.ref private mutable @_executable_main_dispatch_0 : !vm.ref<!hal.executable>
  vm.rodata private @main_dispatch_0_embedded_elf_x86_64 {alignment = 16 : i64, mime_type = "application/x-elf"} dense<"…"> : vector<4112xi8>
  vm.rodata private @_utf8_hal_executable_format_EAB228F999C2D3A1 {alignment = 1 : i64} "hal.executable.format"
  vm.rodata private @_utf8_embedded_elf_x86_64_9FD8733DA4A6F228 {alignment = 1 : i64} "embedded-elf-x86_64"
  vm.import private @hal.ex.shared_device() -> !vm.ref<!hal.device> attributes {nosideeffects}
  vm.import private @hal.buffer.assert(%buffer : !vm.ref<!hal.buffer>, %message : !vm.buffer, %allocator : !vm.ref<!hal.allocator>, %minimum_length : i64, %memory_types : i32, %buffer_usage : i32)
  vm.import private @hal.buffer_view.create(%buffer : !vm.ref<!hal.buffer>, %source_offset : i64, %source_length : i64, %element_type : i32, %encoding_type : i32, %shape : i64 ...) -> !vm.ref<!hal.buffer_view> attributes {nosideeffects}
  vm.import private @hal.buffer_view.assert(%buffer_view : !vm.ref<!hal.buffer_view>, %message : !vm.buffer, %element_type : i32, %encoding_type : i32, %shape : i64 ...)
  vm.import private @hal.buffer_view.buffer(%buffer_view : !vm.ref<!hal.buffer_view>) -> !vm.ref<!hal.buffer> attributes {nosideeffects}
  vm.import private @hal.command_buffer.create(%device : !vm.ref<!hal.device>, %modes : i32, %command_categories : i32, %binding_capacity : i32) -> !vm.ref<!hal.command_buffer>
  vm.import private @hal.command_buffer.finalize(%command_buffer : !vm.ref<!hal.command_buffer>)
  vm.import private @hal.command_buffer.execution_barrier(%command_buffer : !vm.ref<!hal.command_buffer>, %source_stage_mask : i32, %target_stage_mask : i32, %flags : i32)
  vm.import private @hal.command_buffer.push_descriptor_set(%command_buffer : !vm.ref<!hal.command_buffer>, %pipeline_layout : !vm.ref<!hal.pipeline_layout>, %set : i32, %bindings : tuple<i32, i32, !vm.ref<!hal.buffer>, i64, i64> ...)
  vm.import private @hal.command_buffer.dispatch(%command_buffer : !vm.ref<!hal.command_buffer>, %executable : !vm.ref<!hal.executable>, %entry_point : i32, %workgroup_x : i32, %workgroup_y : i32, %workgroup_z : i32)
  vm.import private @hal.descriptor_set_layout.create(%device : !vm.ref<!hal.device>, %flags : i32, %bindings : tuple<i32, i32, i32> ...) -> !vm.ref<!hal.descriptor_set_layout> attributes {nosideeffects}
  vm.import private @hal.device.allocator(%device : !vm.ref<!hal.device>) -> !vm.ref<!hal.allocator> attributes {nosideeffects}
  vm.import private @hal.device.query.i64(%device : !vm.ref<!hal.device>, %category : !vm.buffer, %key : !vm.buffer) -> (i32, i64) attributes {nosideeffects}
  vm.import private @hal.device.queue.alloca(%device : !vm.ref<!hal.device>, %queue_affinity : i64, %wait_fence : !vm.ref<!hal.fence>, %signal_fence : !vm.ref<!hal.fence>, %pool : i32, %memory_types : i32, %buffer_usage : i32, %allocation_size : i64) -> !vm.ref<!hal.buffer>
  vm.import private @hal.device.queue.execute(%device : !vm.ref<!hal.device>, %queue_affinity : i64, %wait_fence : !vm.ref<!hal.fence>, %signal_fence : !vm.ref<!hal.fence>, %command_buffers : !vm.ref<!hal.command_buffer> ...)
  vm.import private @hal.executable.create(%device : !vm.ref<!hal.device>, %executable_format : !vm.buffer, %executable_data : !vm.buffer, %constants : !vm.buffer, %pipeline_layouts : !vm.ref<!hal.pipeline_layout> ...) -> !vm.ref<!hal.executable> attributes {nosideeffects}
  vm.import private @hal.fence.create(%device : !vm.ref<!hal.device>, %flags : i32) -> !vm.ref<!hal.fence>
  vm.import private @hal.fence.await(%timeout_millis : i32, %fences : !vm.ref<!hal.fence> ...) -> i32 attributes {vm.yield}
  vm.import private @hal.pipeline_layout.create(%device : !vm.ref<!hal.device>, %push_constants : i32, %set_layouts : !vm.ref<!hal.descriptor_set_layout> ...) -> !vm.ref<!hal.pipeline_layout> attributes {nosideeffects}
  vm.rodata private @_utf8_input_0_5FD512E67BEFDEEC {alignment = 1 : i64} "input 0"
  vm.rodata private @_utf8_tensor_3C6209B4FD120BDC {alignment = 1 : i64} "tensor"
  vm.rodata private @_utf8_input_1_1DAF04E823826B1B {alignment = 1 : i64} "input 1"
  vm.func private @main(%arg0: !vm.ref<!hal.buffer_view>, %arg1: !vm.ref<!hal.buffer_view>) -> !vm.ref<!hal.buffer_view> {
    %c13 = vm.const.i32 13
    %c28 = vm.const.i32 28
    %c2 = vm.const.i32 2
    %c3 = vm.const.i32 3
    %c48 = vm.const.i32 48
    %zero = vm.const.i32.zero
    %null = vm.const.ref.zero : !vm.ref<!hal.fence>
    %c3075 = vm.const.i32 3075
    %c16 = vm.const.i32 16
    %c10 = vm.const.i64 10
    %c1 = vm.const.i32 1
    %c268435488 = vm.const.i32 268435488
    %zero_0 = vm.const.i64.zero
    %c40 = vm.const.i64 40
    %c-1 = vm.const.i64 -1
    %c-1_1 = vm.const.i32 -1
    %_device_query_0 = vm.global.load.i32 @_device_query_0 : i32
    %_pipeline_layout_0 = vm.global.load.ref @_pipeline_layout_0 : !vm.ref<!hal.pipeline_layout>
    %_executable_main_dispatch_0 = vm.global.load.ref @_executable_main_dispatch_0 : !vm.ref<!hal.executable>
    %_utf8_input_0_5FD512E67BEFDEEC = vm.const.ref.rodata @_utf8_input_0_5FD512E67BEFDEEC : !vm.buffer
    vm.call.variadic @hal.buffer_view.assert(%arg0, %_utf8_input_0_5FD512E67BEFDEEC, %c268435488, %c1, [%c10]) : (!vm.ref<!hal.buffer_view>, !vm.buffer, i32, i32, i64 ...)
    %ref = vm.call @hal.buffer_view.buffer(%arg0) {nosideeffects} : (!vm.ref<!hal.buffer_view>) -> !vm.ref<!hal.buffer>
    %ref_2 = vm.call @hal.ex.shared_device() {nosideeffects} : () -> !vm.ref<!hal.device>
    %ref_3 = vm.call @hal.device.allocator(%ref_2) {nosideeffects} : (!vm.ref<!hal.device>) -> !vm.ref<!hal.allocator>
    %_utf8_tensor_3C6209B4FD120BDC = vm.const.ref.rodata @_utf8_tensor_3C6209B4FD120BDC : !vm.buffer
    vm.call @hal.buffer.assert(%ref, %_utf8_tensor_3C6209B4FD120BDC, %ref_3, %c40, %c16, %c3075) : (!vm.ref<!hal.buffer>, !vm.buffer, !vm.ref<!hal.allocator>, i64, i32, i32) -> ()
    %_utf8_input_1_1DAF04E823826B1B = vm.const.ref.rodata @_utf8_input_1_1DAF04E823826B1B : !vm.buffer
    vm.call.variadic @hal.buffer_view.assert(%arg1, %_utf8_input_1_1DAF04E823826B1B, %c268435488, %c1, [%c10]) : (!vm.ref<!hal.buffer_view>, !vm.buffer, i32, i32, i64 ...)
    %ref_4 = vm.call @hal.buffer_view.buffer(%arg1) {nosideeffects} : (!vm.ref<!hal.buffer_view>) -> !vm.ref<!hal.buffer>
    vm.call @hal.buffer.assert(%ref_4, %_utf8_tensor_3C6209B4FD120BDC, %ref_3, %c40, %c16, %c3075) : (!vm.ref<!hal.buffer>, !vm.buffer, !vm.ref<!hal.allocator>, i64, i32, i32) -> ()
    %ref_5 = vm.call @hal.fence.create(%ref_2, %zero) : (!vm.ref<!hal.device>, i32) -> !vm.ref<!hal.fence>
    %ref_6 = vm.call @hal.device.queue.alloca(%ref_2, %c-1, %null, %ref_5, %zero, %c48, %c3075, %c40) : (!vm.ref<!hal.device>, i64, !vm.ref<!hal.fence>, !vm.ref<!hal.fence>, i32, i32, i32, i64) -> !vm.ref<!hal.buffer>
    %ref_7 = vm.call @hal.command_buffer.create(%ref_2, %c1, %c3, %zero) : (!vm.ref<!hal.device>, i32, i32, i32) -> !vm.ref<!hal.command_buffer>
    %0 = vm.select.i64 %_device_query_0, %zero_0, %c-1 : i64
    %1 = vm.trunc.i64.i32 %0 : i64 -> i32
    vm.br_table %1 {
      default: ^bb2,
      0: ^bb1
    }
  ^bb1:  // pred: ^bb0
    vm.call.variadic @hal.command_buffer.push_descriptor_set(%ref_7, %_pipeline_layout_0, %zero, [(%zero, %zero, %ref, %zero_0, %c40), (%c1, %zero, %ref_4, %zero_0, %c40), (%c2, %zero, %ref_6, %zero_0, %c40)]) : (!vm.ref<!hal.command_buffer>, !vm.ref<!hal.pipeline_layout>, i32, tuple<i32, i32, !vm.ref<!hal.buffer>, i64, i64> ...)
    vm.call @hal.command_buffer.dispatch(%ref_7, %_executable_main_dispatch_0, %zero, %c1, %c1, %c1) : (!vm.ref<!hal.command_buffer>, !vm.ref<!hal.executable>, i32, i32, i32, i32) -> ()
    vm.br ^bb2
  ^bb2:  // 2 preds: ^bb0, ^bb1
    vm.call @hal.command_buffer.execution_barrier(%ref_7, %c28, %c13, %zero) : (!vm.ref<!hal.command_buffer>, i32, i32, i32) -> ()
    vm.call @hal.command_buffer.finalize(%ref_7) : (!vm.ref<!hal.command_buffer>) -> ()
    %ref_8 = vm.call @hal.fence.create(%ref_2, %zero) : (!vm.ref<!hal.device>, i32) -> !vm.ref<!hal.fence>
    vm.call.variadic @hal.device.queue.execute(%ref_2, %c-1, %ref_5, %ref_8, [%ref_7]) : (!vm.ref<!hal.device>, i64, !vm.ref<!hal.fence>, !vm.ref<!hal.fence>, !vm.ref<!hal.command_buffer> ...)
    %2 = vm.call.variadic @hal.fence.await(%c-1_1, [%ref_8]) : (i32, !vm.ref<!hal.fence> ...) -> i32
    vm.cond_br %2, ^bb4, ^bb3
  ^bb3:  // pred: ^bb2
    %ref_9 = vm.call.variadic @hal.buffer_view.create(%ref_6, %zero_0, %c40, %c268435488, %c1, [%c10]) {nosideeffects} : (!vm.ref<!hal.buffer>, i64, i64, i32, i32, i64 ...) -> !vm.ref<!hal.buffer_view>
    vm.return %ref_9 : !vm.ref<!hal.buffer_view>
  ^bb4:  // pred: ^bb2
    vm.fail %2, "failed to wait on timepoint"
  }
  vm.export @main attributes {iree.abi.stub}
  vm.export @__init
  vm.func private @__init() {
    %null = vm.const.ref.zero : !vm.ref<!hal.executable>
    %null_0 = vm.const.ref.zero : !vm.buffer
    %c2 = vm.const.i32 2
    %c7 = vm.const.i32 7
    %zero = vm.const.i32.zero
    %c1 = vm.const.i32 1
    %zero_1 = vm.const.i64.zero
    %c-1 = vm.const.i64 -1
    %ref = vm.call @hal.ex.shared_device() {nosideeffects} : () -> !vm.ref<!hal.device>
    %_utf8_hal_executable_format_EAB228F999C2D3A1 = vm.const.ref.rodata @_utf8_hal_executable_format_EAB228F999C2D3A1 : !vm.buffer
    %_utf8_embedded_elf_x86_64_9FD8733DA4A6F228 = vm.const.ref.rodata @_utf8_embedded_elf_x86_64_9FD8733DA4A6F228 : !vm.buffer
    %0:2 = vm.call @hal.device.query.i64(%ref, %_utf8_hal_executable_format_EAB228F999C2D3A1, %_utf8_embedded_elf_x86_64_9FD8733DA4A6F228) {nosideeffects} : (!vm.ref<!hal.device>, !vm.buffer, !vm.buffer) -> (i32, i64)
    %1 = vm.trunc.i64.i32 %0#1 : i64 -> i32
    %2 = vm.and.i32 %1, %c1 : i32
    %3 = vm.select.i32 %0#0, %2, %zero : i32
    %ref_2 = vm.call.variadic @hal.descriptor_set_layout.create(%ref, %zero, [(%zero, %c7, %c1), (%c1, %c7, %c1), (%c2, %c7, %zero)]) {nosideeffects} : (!vm.ref<!hal.device>, i32, tuple<i32, i32, i32> ...) -> !vm.ref<!hal.descriptor_set_layout>
    %ref_3 = vm.call.variadic @hal.pipeline_layout.create(%ref, %zero, [%ref_2]) {nosideeffects} : (!vm.ref<!hal.device>, i32, !vm.ref<!hal.descriptor_set_layout> ...) -> !vm.ref<!hal.pipeline_layout>
    %4 = vm.select.i64 %3, %zero_1, %c-1 : i64
    %5 = vm.trunc.i64.i32 %4 : i64 -> i32
    vm.global.store.i32 %3, @_device_query_0 : i32
    vm.global.store.ref %ref_3, @_pipeline_layout_0 : !vm.ref<!hal.pipeline_layout>
    vm.br_table %5 {
      default: ^bb2,
      0: ^bb1
    }
  ^bb1:  // pred: ^bb0
    %_pipeline_layout_0 = vm.global.load.ref @_pipeline_layout_0 : !vm.ref<!hal.pipeline_layout>
    %main_dispatch_0_embedded_elf_x86_64 = vm.const.ref.rodata @main_dispatch_0_embedded_elf_x86_64 : !vm.buffer
    %ref_4 = vm.call.variadic @hal.executable.create(%ref, %_utf8_embedded_elf_x86_64_9FD8733DA4A6F228, %main_dispatch_0_embedded_elf_x86_64, %null_0, [%_pipeline_layout_0]) {nosideeffects} : (!vm.ref<!hal.device>, !vm.buffer, !vm.buffer, !vm.buffer, !vm.ref<!hal.pipeline_layout> ...) -> !vm.ref<!hal.executable>
    vm.br ^bb3(%ref_4 : !vm.ref<!hal.executable>)
  ^bb2:  // pred: ^bb0
    vm.br ^bb3(%null : !vm.ref<!hal.executable>)
  ^bb3(%6: !vm.ref<!hal.executable>):  // 2 preds: ^bb1, ^bb2
    vm.global.store.ref %6, @_executable_main_dispatch_0 : !vm.ref<!hal.executable>
    vm.return
  }
}

// -----// IR Dump After DropCompilerHints (iree-util-drop-compiler-hints) //----- //
vm.module public @module {
  vm.global.i32 private mutable @_device_query_0 : i32
  vm.global.ref private mutable @_pipeline_layout_0 : !vm.ref<!hal.pipeline_layout>
  vm.global.ref private mutable @_executable_main_dispatch_0 : !vm.ref<!hal.executable>
  vm.rodata private @main_dispatch_0_embedded_elf_x86_64 {alignment = 16 : i64, mime_type = "application/x-elf"} dense<"…"> : vector<4112xi8>
  vm.rodata private @_utf8_hal_executable_format_EAB228F999C2D3A1 {alignment = 1 : i64} "hal.executable.format"
  vm.rodata private @_utf8_embedded_elf_x86_64_9FD8733DA4A6F228 {alignment = 1 : i64} "embedded-elf-x86_64"
  vm.import private @hal.ex.shared_device() -> !vm.ref<!hal.device> attributes {nosideeffects}
  vm.import private @hal.buffer.assert(%buffer : !vm.ref<!hal.buffer>, %message : !vm.buffer, %allocator : !vm.ref<!hal.allocator>, %minimum_length : i64, %memory_types : i32, %buffer_usage : i32)
  vm.import private @hal.buffer_view.create(%buffer : !vm.ref<!hal.buffer>, %source_offset : i64, %source_length : i64, %element_type : i32, %encoding_type : i32, %shape : i64 ...) -> !vm.ref<!hal.buffer_view> attributes {nosideeffects}
  vm.import private @hal.buffer_view.assert(%buffer_view : !vm.ref<!hal.buffer_view>, %message : !vm.buffer, %element_type : i32, %encoding_type : i32, %shape : i64 ...)
  vm.import private @hal.buffer_view.buffer(%buffer_view : !vm.ref<!hal.buffer_view>) -> !vm.ref<!hal.buffer> attributes {nosideeffects}
  vm.import private @hal.command_buffer.create(%device : !vm.ref<!hal.device>, %modes : i32, %command_categories : i32, %binding_capacity : i32) -> !vm.ref<!hal.command_buffer>
  vm.import private @hal.command_buffer.finalize(%command_buffer : !vm.ref<!hal.command_buffer>)
  vm.import private @hal.command_buffer.execution_barrier(%command_buffer : !vm.ref<!hal.command_buffer>, %source_stage_mask : i32, %target_stage_mask : i32, %flags : i32)
  vm.import private @hal.command_buffer.push_descriptor_set(%command_buffer : !vm.ref<!hal.command_buffer>, %pipeline_layout : !vm.ref<!hal.pipeline_layout>, %set : i32, %bindings : tuple<i32, i32, !vm.ref<!hal.buffer>, i64, i64> ...)
  vm.import private @hal.command_buffer.dispatch(%command_buffer : !vm.ref<!hal.command_buffer>, %executable : !vm.ref<!hal.executable>, %entry_point : i32, %workgroup_x : i32, %workgroup_y : i32, %workgroup_z : i32)
  vm.import private @hal.descriptor_set_layout.create(%device : !vm.ref<!hal.device>, %flags : i32, %bindings : tuple<i32, i32, i32> ...) -> !vm.ref<!hal.descriptor_set_layout> attributes {nosideeffects}
  vm.import private @hal.device.allocator(%device : !vm.ref<!hal.device>) -> !vm.ref<!hal.allocator> attributes {nosideeffects}
  vm.import private @hal.device.query.i64(%device : !vm.ref<!hal.device>, %category : !vm.buffer, %key : !vm.buffer) -> (i32, i64) attributes {nosideeffects}
  vm.import private @hal.device.queue.alloca(%device : !vm.ref<!hal.device>, %queue_affinity : i64, %wait_fence : !vm.ref<!hal.fence>, %signal_fence : !vm.ref<!hal.fence>, %pool : i32, %memory_types : i32, %buffer_usage : i32, %allocation_size : i64) -> !vm.ref<!hal.buffer>
  vm.import private @hal.device.queue.execute(%device : !vm.ref<!hal.device>, %queue_affinity : i64, %wait_fence : !vm.ref<!hal.fence>, %signal_fence : !vm.ref<!hal.fence>, %command_buffers : !vm.ref<!hal.command_buffer> ...)
  vm.import private @hal.executable.create(%device : !vm.ref<!hal.device>, %executable_format : !vm.buffer, %executable_data : !vm.buffer, %constants : !vm.buffer, %pipeline_layouts : !vm.ref<!hal.pipeline_layout> ...) -> !vm.ref<!hal.executable> attributes {nosideeffects}
  vm.import private @hal.fence.create(%device : !vm.ref<!hal.device>, %flags : i32) -> !vm.ref<!hal.fence>
  vm.import private @hal.fence.await(%timeout_millis : i32, %fences : !vm.ref<!hal.fence> ...) -> i32 attributes {vm.yield}
  vm.import private @hal.pipeline_layout.create(%device : !vm.ref<!hal.device>, %push_constants : i32, %set_layouts : !vm.ref<!hal.descriptor_set_layout> ...) -> !vm.ref<!hal.pipeline_layout> attributes {nosideeffects}
  vm.rodata private @_utf8_input_0_5FD512E67BEFDEEC {alignment = 1 : i64} "input 0"
  vm.rodata private @_utf8_tensor_3C6209B4FD120BDC {alignment = 1 : i64} "tensor"
  vm.rodata private @_utf8_input_1_1DAF04E823826B1B {alignment = 1 : i64} "input 1"
  vm.func private @main(%arg0: !vm.ref<!hal.buffer_view>, %arg1: !vm.ref<!hal.buffer_view>) -> !vm.ref<!hal.buffer_view> {
    %c13 = vm.const.i32 13
    %c28 = vm.const.i32 28
    %c2 = vm.const.i32 2
    %c3 = vm.const.i32 3
    %c48 = vm.const.i32 48
    %zero = vm.const.i32.zero
    %null = vm.const.ref.zero : !vm.ref<!hal.fence>
    %c3075 = vm.const.i32 3075
    %c16 = vm.const.i32 16
    %c10 = vm.const.i64 10
    %c1 = vm.const.i32 1
    %c268435488 = vm.const.i32 268435488
    %zero_0 = vm.const.i64.zero
    %c40 = vm.const.i64 40
    %c-1 = vm.const.i64 -1
    %c-1_1 = vm.const.i32 -1
    %_device_query_0 = vm.global.load.i32 @_device_query_0 : i32
    %_pipeline_layout_0 = vm.global.load.ref @_pipeline_layout_0 : !vm.ref<!hal.pipeline_layout>
    %_executable_main_dispatch_0 = vm.global.load.ref @_executable_main_dispatch_0 : !vm.ref<!hal.executable>
    %_utf8_input_0_5FD512E67BEFDEEC = vm.const.ref.rodata @_utf8_input_0_5FD512E67BEFDEEC : !vm.buffer
    vm.call.variadic @hal.buffer_view.assert(%arg0, %_utf8_input_0_5FD512E67BEFDEEC, %c268435488, %c1, [%c10]) : (!vm.ref<!hal.buffer_view>, !vm.buffer, i32, i32, i64 ...)
    %ref = vm.call @hal.buffer_view.buffer(%arg0) {nosideeffects} : (!vm.ref<!hal.buffer_view>) -> !vm.ref<!hal.buffer>
    %ref_2 = vm.call @hal.ex.shared_device() {nosideeffects} : () -> !vm.ref<!hal.device>
    %ref_3 = vm.call @hal.device.allocator(%ref_2) {nosideeffects} : (!vm.ref<!hal.device>) -> !vm.ref<!hal.allocator>
    %_utf8_tensor_3C6209B4FD120BDC = vm.const.ref.rodata @_utf8_tensor_3C6209B4FD120BDC : !vm.buffer
    vm.call @hal.buffer.assert(%ref, %_utf8_tensor_3C6209B4FD120BDC, %ref_3, %c40, %c16, %c3075) : (!vm.ref<!hal.buffer>, !vm.buffer, !vm.ref<!hal.allocator>, i64, i32, i32) -> ()
    %_utf8_input_1_1DAF04E823826B1B = vm.const.ref.rodata @_utf8_input_1_1DAF04E823826B1B : !vm.buffer
    vm.call.variadic @hal.buffer_view.assert(%arg1, %_utf8_input_1_1DAF04E823826B1B, %c268435488, %c1, [%c10]) : (!vm.ref<!hal.buffer_view>, !vm.buffer, i32, i32, i64 ...)
    %ref_4 = vm.call @hal.buffer_view.buffer(%arg1) {nosideeffects} : (!vm.ref<!hal.buffer_view>) -> !vm.ref<!hal.buffer>
    vm.call @hal.buffer.assert(%ref_4, %_utf8_tensor_3C6209B4FD120BDC, %ref_3, %c40, %c16, %c3075) : (!vm.ref<!hal.buffer>, !vm.buffer, !vm.ref<!hal.allocator>, i64, i32, i32) -> ()
    %ref_5 = vm.call @hal.fence.create(%ref_2, %zero) : (!vm.ref<!hal.device>, i32) -> !vm.ref<!hal.fence>
    %ref_6 = vm.call @hal.device.queue.alloca(%ref_2, %c-1, %null, %ref_5, %zero, %c48, %c3075, %c40) : (!vm.ref<!hal.device>, i64, !vm.ref<!hal.fence>, !vm.ref<!hal.fence>, i32, i32, i32, i64) -> !vm.ref<!hal.buffer>
    %ref_7 = vm.call @hal.command_buffer.create(%ref_2, %c1, %c3, %zero) : (!vm.ref<!hal.device>, i32, i32, i32) -> !vm.ref<!hal.command_buffer>
    %0 = vm.select.i64 %_device_query_0, %zero_0, %c-1 : i64
    %1 = vm.trunc.i64.i32 %0 : i64 -> i32
    vm.br_table %1 {
      default: ^bb2,
      0: ^bb1
    }
  ^bb1:  // pred: ^bb0
    vm.call.variadic @hal.command_buffer.push_descriptor_set(%ref_7, %_pipeline_layout_0, %zero, [(%zero, %zero, %ref, %zero_0, %c40), (%c1, %zero, %ref_4, %zero_0, %c40), (%c2, %zero, %ref_6, %zero_0, %c40)]) : (!vm.ref<!hal.command_buffer>, !vm.ref<!hal.pipeline_layout>, i32, tuple<i32, i32, !vm.ref<!hal.buffer>, i64, i64> ...)
    vm.call @hal.command_buffer.dispatch(%ref_7, %_executable_main_dispatch_0, %zero, %c1, %c1, %c1) : (!vm.ref<!hal.command_buffer>, !vm.ref<!hal.executable>, i32, i32, i32, i32) -> ()
    vm.br ^bb2
  ^bb2:  // 2 preds: ^bb0, ^bb1
    vm.call @hal.command_buffer.execution_barrier(%ref_7, %c28, %c13, %zero) : (!vm.ref<!hal.command_buffer>, i32, i32, i32) -> ()
    vm.call @hal.command_buffer.finalize(%ref_7) : (!vm.ref<!hal.command_buffer>) -> ()
    %ref_8 = vm.call @hal.fence.create(%ref_2, %zero) : (!vm.ref<!hal.device>, i32) -> !vm.ref<!hal.fence>
    vm.call.variadic @hal.device.queue.execute(%ref_2, %c-1, %ref_5, %ref_8, [%ref_7]) : (!vm.ref<!hal.device>, i64, !vm.ref<!hal.fence>, !vm.ref<!hal.fence>, !vm.ref<!hal.command_buffer> ...)
    %2 = vm.call.variadic @hal.fence.await(%c-1_1, [%ref_8]) : (i32, !vm.ref<!hal.fence> ...) -> i32
    vm.cond_br %2, ^bb4, ^bb3
  ^bb3:  // pred: ^bb2
    %ref_9 = vm.call.variadic @hal.buffer_view.create(%ref_6, %zero_0, %c40, %c268435488, %c1, [%c10]) {nosideeffects} : (!vm.ref<!hal.buffer>, i64, i64, i32, i32, i64 ...) -> !vm.ref<!hal.buffer_view>
    vm.return %ref_9 : !vm.ref<!hal.buffer_view>
  ^bb4:  // pred: ^bb2
    vm.fail %2, "failed to wait on timepoint"
  }
  vm.export @main attributes {iree.abi.stub}
  vm.export @__init
  vm.func private @__init() {
    %null = vm.const.ref.zero : !vm.ref<!hal.executable>
    %null_0 = vm.const.ref.zero : !vm.buffer
    %c2 = vm.const.i32 2
    %c7 = vm.const.i32 7
    %zero = vm.const.i32.zero
    %c1 = vm.const.i32 1
    %zero_1 = vm.const.i64.zero
    %c-1 = vm.const.i64 -1
    %ref = vm.call @hal.ex.shared_device() {nosideeffects} : () -> !vm.ref<!hal.device>
    %_utf8_hal_executable_format_EAB228F999C2D3A1 = vm.const.ref.rodata @_utf8_hal_executable_format_EAB228F999C2D3A1 : !vm.buffer
    %_utf8_embedded_elf_x86_64_9FD8733DA4A6F228 = vm.const.ref.rodata @_utf8_embedded_elf_x86_64_9FD8733DA4A6F228 : !vm.buffer
    %0:2 = vm.call @hal.device.query.i64(%ref, %_utf8_hal_executable_format_EAB228F999C2D3A1, %_utf8_embedded_elf_x86_64_9FD8733DA4A6F228) {nosideeffects} : (!vm.ref<!hal.device>, !vm.buffer, !vm.buffer) -> (i32, i64)
    %1 = vm.trunc.i64.i32 %0#1 : i64 -> i32
    %2 = vm.and.i32 %1, %c1 : i32
    %3 = vm.select.i32 %0#0, %2, %zero : i32
    %ref_2 = vm.call.variadic @hal.descriptor_set_layout.create(%ref, %zero, [(%zero, %c7, %c1), (%c1, %c7, %c1), (%c2, %c7, %zero)]) {nosideeffects} : (!vm.ref<!hal.device>, i32, tuple<i32, i32, i32> ...) -> !vm.ref<!hal.descriptor_set_layout>
    %ref_3 = vm.call.variadic @hal.pipeline_layout.create(%ref, %zero, [%ref_2]) {nosideeffects} : (!vm.ref<!hal.device>, i32, !vm.ref<!hal.descriptor_set_layout> ...) -> !vm.ref<!hal.pipeline_layout>
    %4 = vm.select.i64 %3, %zero_1, %c-1 : i64
    %5 = vm.trunc.i64.i32 %4 : i64 -> i32
    vm.global.store.i32 %3, @_device_query_0 : i32
    vm.global.store.ref %ref_3, @_pipeline_layout_0 : !vm.ref<!hal.pipeline_layout>
    vm.br_table %5 {
      default: ^bb2,
      0: ^bb1
    }
  ^bb1:  // pred: ^bb0
    %_pipeline_layout_0 = vm.global.load.ref @_pipeline_layout_0 : !vm.ref<!hal.pipeline_layout>
    %main_dispatch_0_embedded_elf_x86_64 = vm.const.ref.rodata @main_dispatch_0_embedded_elf_x86_64 : !vm.buffer
    %ref_4 = vm.call.variadic @hal.executable.create(%ref, %_utf8_embedded_elf_x86_64_9FD8733DA4A6F228, %main_dispatch_0_embedded_elf_x86_64, %null_0, [%_pipeline_layout_0]) {nosideeffects} : (!vm.ref<!hal.device>, !vm.buffer, !vm.buffer, !vm.buffer, !vm.ref<!hal.pipeline_layout> ...) -> !vm.ref<!hal.executable>
    vm.br ^bb3(%ref_4 : !vm.ref<!hal.executable>)
  ^bb2:  // pred: ^bb0
    vm.br ^bb3(%null : !vm.ref<!hal.executable>)
  ^bb3(%6: !vm.ref<!hal.executable>):  // 2 preds: ^bb1, ^bb2
    vm.global.store.ref %6, @_executable_main_dispatch_0 : !vm.ref<!hal.executable>
    vm.return
  }
}

// -----// IR Dump After mlir::iree_compiler::IREE::VM::OrdinalAllocationPass (iree-vm-ordinal-allocation) //----- //
vm.module public @module attributes {ordinal_counts = #vm.ordinal_counts<import_funcs = 19, export_funcs = 2, internal_funcs = 2, global_bytes = 4, global_refs = 2, rodatas = 6, rwdatas = 0>} {
  vm.global.i32 private mutable @_device_query_0 {ordinal = 0 : i32} : i32
  vm.global.ref private mutable @_pipeline_layout_0 {ordinal = 0 : i32} : !vm.ref<!hal.pipeline_layout>
  vm.global.ref private mutable @_executable_main_dispatch_0 {ordinal = 1 : i32} : !vm.ref<!hal.executable>
  vm.rodata private @main_dispatch_0_embedded_elf_x86_64 {alignment = 16 : i64, mime_type = "application/x-elf", ordinal = 0 : i32} dense<"…"> : vector<4112xi8>
  vm.rodata private @_utf8_hal_executable_format_EAB228F999C2D3A1 {alignment = 1 : i64, ordinal = 1 : i32} "hal.executable.format"
  vm.rodata private @_utf8_embedded_elf_x86_64_9FD8733DA4A6F228 {alignment = 1 : i64, ordinal = 2 : i32} "embedded-elf-x86_64"
  vm.import private @hal.ex.shared_device() -> !vm.ref<!hal.device> attributes {nosideeffects, ordinal = 0 : i32}
  vm.import private @hal.buffer.assert(%buffer : !vm.ref<!hal.buffer>, %message : !vm.buffer, %allocator : !vm.ref<!hal.allocator>, %minimum_length : i64, %memory_types : i32, %buffer_usage : i32) attributes {ordinal = 1 : i32}
  vm.import private @hal.buffer_view.create(%buffer : !vm.ref<!hal.buffer>, %source_offset : i64, %source_length : i64, %element_type : i32, %encoding_type : i32, %shape : i64 ...) -> !vm.ref<!hal.buffer_view> attributes {nosideeffects, ordinal = 2 : i32}
  vm.import private @hal.buffer_view.assert(%buffer_view : !vm.ref<!hal.buffer_view>, %message : !vm.buffer, %element_type : i32, %encoding_type : i32, %shape : i64 ...) attributes {ordinal = 3 : i32}
  vm.import private @hal.buffer_view.buffer(%buffer_view : !vm.ref<!hal.buffer_view>) -> !vm.ref<!hal.buffer> attributes {nosideeffects, ordinal = 4 : i32}
  vm.import private @hal.command_buffer.create(%device : !vm.ref<!hal.device>, %modes : i32, %command_categories : i32, %binding_capacity : i32) -> !vm.ref<!hal.command_buffer> attributes {ordinal = 5 : i32}
  vm.import private @hal.command_buffer.finalize(%command_buffer : !vm.ref<!hal.command_buffer>) attributes {ordinal = 6 : i32}
  vm.import private @hal.command_buffer.execution_barrier(%command_buffer : !vm.ref<!hal.command_buffer>, %source_stage_mask : i32, %target_stage_mask : i32, %flags : i32) attributes {ordinal = 7 : i32}
  vm.import private @hal.command_buffer.push_descriptor_set(%command_buffer : !vm.ref<!hal.command_buffer>, %pipeline_layout : !vm.ref<!hal.pipeline_layout>, %set : i32, %bindings : tuple<i32, i32, !vm.ref<!hal.buffer>, i64, i64> ...) attributes {ordinal = 8 : i32}
  vm.import private @hal.command_buffer.dispatch(%command_buffer : !vm.ref<!hal.command_buffer>, %executable : !vm.ref<!hal.executable>, %entry_point : i32, %workgroup_x : i32, %workgroup_y : i32, %workgroup_z : i32) attributes {ordinal = 9 : i32}
  vm.import private @hal.descriptor_set_layout.create(%device : !vm.ref<!hal.device>, %flags : i32, %bindings : tuple<i32, i32, i32> ...) -> !vm.ref<!hal.descriptor_set_layout> attributes {nosideeffects, ordinal = 10 : i32}
  vm.import private @hal.device.allocator(%device : !vm.ref<!hal.device>) -> !vm.ref<!hal.allocator> attributes {nosideeffects, ordinal = 11 : i32}
  vm.import private @hal.device.query.i64(%device : !vm.ref<!hal.device>, %category : !vm.buffer, %key : !vm.buffer) -> (i32, i64) attributes {nosideeffects, ordinal = 12 : i32}
  vm.import private @hal.device.queue.alloca(%device : !vm.ref<!hal.device>, %queue_affinity : i64, %wait_fence : !vm.ref<!hal.fence>, %signal_fence : !vm.ref<!hal.fence>, %pool : i32, %memory_types : i32, %buffer_usage : i32, %allocation_size : i64) -> !vm.ref<!hal.buffer> attributes {ordinal = 13 : i32}
  vm.import private @hal.device.queue.execute(%device : !vm.ref<!hal.device>, %queue_affinity : i64, %wait_fence : !vm.ref<!hal.fence>, %signal_fence : !vm.ref<!hal.fence>, %command_buffers : !vm.ref<!hal.command_buffer> ...) attributes {ordinal = 14 : i32}
  vm.import private @hal.executable.create(%device : !vm.ref<!hal.device>, %executable_format : !vm.buffer, %executable_data : !vm.buffer, %constants : !vm.buffer, %pipeline_layouts : !vm.ref<!hal.pipeline_layout> ...) -> !vm.ref<!hal.executable> attributes {nosideeffects, ordinal = 15 : i32}
  vm.import private @hal.fence.create(%device : !vm.ref<!hal.device>, %flags : i32) -> !vm.ref<!hal.fence> attributes {ordinal = 16 : i32}
  vm.import private @hal.fence.await(%timeout_millis : i32, %fences : !vm.ref<!hal.fence> ...) -> i32 attributes {ordinal = 17 : i32, vm.yield}
  vm.import private @hal.pipeline_layout.create(%device : !vm.ref<!hal.device>, %push_constants : i32, %set_layouts : !vm.ref<!hal.descriptor_set_layout> ...) -> !vm.ref<!hal.pipeline_layout> attributes {nosideeffects, ordinal = 18 : i32}
  vm.rodata private @_utf8_input_0_5FD512E67BEFDEEC {alignment = 1 : i64, ordinal = 3 : i32} "input 0"
  vm.rodata private @_utf8_tensor_3C6209B4FD120BDC {alignment = 1 : i64, ordinal = 4 : i32} "tensor"
  vm.rodata private @_utf8_input_1_1DAF04E823826B1B {alignment = 1 : i64, ordinal = 5 : i32} "input 1"
  vm.func private @main(%arg0: !vm.ref<!hal.buffer_view>, %arg1: !vm.ref<!hal.buffer_view>) -> !vm.ref<!hal.buffer_view> attributes {ordinal = 0 : i32} {
    %c13 = vm.const.i32 13
    %c28 = vm.const.i32 28
    %c2 = vm.const.i32 2
    %c3 = vm.const.i32 3
    %c48 = vm.const.i32 48
    %zero = vm.const.i32.zero
    %null = vm.const.ref.zero : !vm.ref<!hal.fence>
    %c3075 = vm.const.i32 3075
    %c16 = vm.const.i32 16
    %c10 = vm.const.i64 10
    %c1 = vm.const.i32 1
    %c268435488 = vm.const.i32 268435488
    %zero_0 = vm.const.i64.zero
    %c40 = vm.const.i64 40
    %c-1 = vm.const.i64 -1
    %c-1_1 = vm.const.i32 -1
    %_device_query_0 = vm.global.load.i32 @_device_query_0 : i32
    %_pipeline_layout_0 = vm.global.load.ref @_pipeline_layout_0 : !vm.ref<!hal.pipeline_layout>
    %_executable_main_dispatch_0 = vm.global.load.ref @_executable_main_dispatch_0 : !vm.ref<!hal.executable>
    %_utf8_input_0_5FD512E67BEFDEEC = vm.const.ref.rodata @_utf8_input_0_5FD512E67BEFDEEC : !vm.buffer
    vm.call.variadic @hal.buffer_view.assert(%arg0, %_utf8_input_0_5FD512E67BEFDEEC, %c268435488, %c1, [%c10]) : (!vm.ref<!hal.buffer_view>, !vm.buffer, i32, i32, i64 ...)
    %ref = vm.call @hal.buffer_view.buffer(%arg0) {nosideeffects} : (!vm.ref<!hal.buffer_view>) -> !vm.ref<!hal.buffer>
    %ref_2 = vm.call @hal.ex.shared_device() {nosideeffects} : () -> !vm.ref<!hal.device>
    %ref_3 = vm.call @hal.device.allocator(%ref_2) {nosideeffects} : (!vm.ref<!hal.device>) -> !vm.ref<!hal.allocator>
    %_utf8_tensor_3C6209B4FD120BDC = vm.const.ref.rodata @_utf8_tensor_3C6209B4FD120BDC : !vm.buffer
    vm.call @hal.buffer.assert(%ref, %_utf8_tensor_3C6209B4FD120BDC, %ref_3, %c40, %c16, %c3075) : (!vm.ref<!hal.buffer>, !vm.buffer, !vm.ref<!hal.allocator>, i64, i32, i32) -> ()
    %_utf8_input_1_1DAF04E823826B1B = vm.const.ref.rodata @_utf8_input_1_1DAF04E823826B1B : !vm.buffer
    vm.call.variadic @hal.buffer_view.assert(%arg1, %_utf8_input_1_1DAF04E823826B1B, %c268435488, %c1, [%c10]) : (!vm.ref<!hal.buffer_view>, !vm.buffer, i32, i32, i64 ...)
    %ref_4 = vm.call @hal.buffer_view.buffer(%arg1) {nosideeffects} : (!vm.ref<!hal.buffer_view>) -> !vm.ref<!hal.buffer>
    vm.call @hal.buffer.assert(%ref_4, %_utf8_tensor_3C6209B4FD120BDC, %ref_3, %c40, %c16, %c3075) : (!vm.ref<!hal.buffer>, !vm.buffer, !vm.ref<!hal.allocator>, i64, i32, i32) -> ()
    %ref_5 = vm.call @hal.fence.create(%ref_2, %zero) : (!vm.ref<!hal.device>, i32) -> !vm.ref<!hal.fence>
    %ref_6 = vm.call @hal.device.queue.alloca(%ref_2, %c-1, %null, %ref_5, %zero, %c48, %c3075, %c40) : (!vm.ref<!hal.device>, i64, !vm.ref<!hal.fence>, !vm.ref<!hal.fence>, i32, i32, i32, i64) -> !vm.ref<!hal.buffer>
    %ref_7 = vm.call @hal.command_buffer.create(%ref_2, %c1, %c3, %zero) : (!vm.ref<!hal.device>, i32, i32, i32) -> !vm.ref<!hal.command_buffer>
    %0 = vm.select.i64 %_device_query_0, %zero_0, %c-1 : i64
    %1 = vm.trunc.i64.i32 %0 : i64 -> i32
    vm.br_table %1 {
      default: ^bb2,
      0: ^bb1
    }
  ^bb1:  // pred: ^bb0
    vm.call.variadic @hal.command_buffer.push_descriptor_set(%ref_7, %_pipeline_layout_0, %zero, [(%zero, %zero, %ref, %zero_0, %c40), (%c1, %zero, %ref_4, %zero_0, %c40), (%c2, %zero, %ref_6, %zero_0, %c40)]) : (!vm.ref<!hal.command_buffer>, !vm.ref<!hal.pipeline_layout>, i32, tuple<i32, i32, !vm.ref<!hal.buffer>, i64, i64> ...)
    vm.call @hal.command_buffer.dispatch(%ref_7, %_executable_main_dispatch_0, %zero, %c1, %c1, %c1) : (!vm.ref<!hal.command_buffer>, !vm.ref<!hal.executable>, i32, i32, i32, i32) -> ()
    vm.br ^bb2
  ^bb2:  // 2 preds: ^bb0, ^bb1
    vm.call @hal.command_buffer.execution_barrier(%ref_7, %c28, %c13, %zero) : (!vm.ref<!hal.command_buffer>, i32, i32, i32) -> ()
    vm.call @hal.command_buffer.finalize(%ref_7) : (!vm.ref<!hal.command_buffer>) -> ()
    %ref_8 = vm.call @hal.fence.create(%ref_2, %zero) : (!vm.ref<!hal.device>, i32) -> !vm.ref<!hal.fence>
    vm.call.variadic @hal.device.queue.execute(%ref_2, %c-1, %ref_5, %ref_8, [%ref_7]) : (!vm.ref<!hal.device>, i64, !vm.ref<!hal.fence>, !vm.ref<!hal.fence>, !vm.ref<!hal.command_buffer> ...)
    %2 = vm.call.variadic @hal.fence.await(%c-1_1, [%ref_8]) : (i32, !vm.ref<!hal.fence> ...) -> i32
    vm.cond_br %2, ^bb4, ^bb3
  ^bb3:  // pred: ^bb2
    %ref_9 = vm.call.variadic @hal.buffer_view.create(%ref_6, %zero_0, %c40, %c268435488, %c1, [%c10]) {nosideeffects} : (!vm.ref<!hal.buffer>, i64, i64, i32, i32, i64 ...) -> !vm.ref<!hal.buffer_view>
    vm.return %ref_9 : !vm.ref<!hal.buffer_view>
  ^bb4:  // pred: ^bb2
    vm.fail %2, "failed to wait on timepoint"
  }
  vm.export @main attributes {iree.abi.stub, ordinal = 0 : i32}
  vm.export @__init attributes {ordinal = 1 : i32}
  vm.func private @__init() attributes {ordinal = 1 : i32} {
    %null = vm.const.ref.zero : !vm.ref<!hal.executable>
    %null_0 = vm.const.ref.zero : !vm.buffer
    %c2 = vm.const.i32 2
    %c7 = vm.const.i32 7
    %zero = vm.const.i32.zero
    %c1 = vm.const.i32 1
    %zero_1 = vm.const.i64.zero
    %c-1 = vm.const.i64 -1
    %ref = vm.call @hal.ex.shared_device() {nosideeffects} : () -> !vm.ref<!hal.device>
    %_utf8_hal_executable_format_EAB228F999C2D3A1 = vm.const.ref.rodata @_utf8_hal_executable_format_EAB228F999C2D3A1 : !vm.buffer
    %_utf8_embedded_elf_x86_64_9FD8733DA4A6F228 = vm.const.ref.rodata @_utf8_embedded_elf_x86_64_9FD8733DA4A6F228 : !vm.buffer
    %0:2 = vm.call @hal.device.query.i64(%ref, %_utf8_hal_executable_format_EAB228F999C2D3A1, %_utf8_embedded_elf_x86_64_9FD8733DA4A6F228) {nosideeffects} : (!vm.ref<!hal.device>, !vm.buffer, !vm.buffer) -> (i32, i64)
    %1 = vm.trunc.i64.i32 %0#1 : i64 -> i32
    %2 = vm.and.i32 %1, %c1 : i32
    %3 = vm.select.i32 %0#0, %2, %zero : i32
    %ref_2 = vm.call.variadic @hal.descriptor_set_layout.create(%ref, %zero, [(%zero, %c7, %c1), (%c1, %c7, %c1), (%c2, %c7, %zero)]) {nosideeffects} : (!vm.ref<!hal.device>, i32, tuple<i32, i32, i32> ...) -> !vm.ref<!hal.descriptor_set_layout>
    %ref_3 = vm.call.variadic @hal.pipeline_layout.create(%ref, %zero, [%ref_2]) {nosideeffects} : (!vm.ref<!hal.device>, i32, !vm.ref<!hal.descriptor_set_layout> ...) -> !vm.ref<!hal.pipeline_layout>
    %4 = vm.select.i64 %3, %zero_1, %c-1 : i64
    %5 = vm.trunc.i64.i32 %4 : i64 -> i32
    vm.global.store.i32 %3, @_device_query_0 : i32
    vm.global.store.ref %ref_3, @_pipeline_layout_0 : !vm.ref<!hal.pipeline_layout>
    vm.br_table %5 {
      default: ^bb2,
      0: ^bb1
    }
  ^bb1:  // pred: ^bb0
    %_pipeline_layout_0 = vm.global.load.ref @_pipeline_layout_0 : !vm.ref<!hal.pipeline_layout>
    %main_dispatch_0_embedded_elf_x86_64 = vm.const.ref.rodata @main_dispatch_0_embedded_elf_x86_64 : !vm.buffer
    %ref_4 = vm.call.variadic @hal.executable.create(%ref, %_utf8_embedded_elf_x86_64_9FD8733DA4A6F228, %main_dispatch_0_embedded_elf_x86_64, %null_0, [%_pipeline_layout_0]) {nosideeffects} : (!vm.ref<!hal.device>, !vm.buffer, !vm.buffer, !vm.buffer, !vm.ref<!hal.pipeline_layout> ...) -> !vm.ref<!hal.executable>
    vm.br ^bb3(%ref_4 : !vm.ref<!hal.executable>)
  ^bb2:  // pred: ^bb0
    vm.br ^bb3(%null : !vm.ref<!hal.executable>)
  ^bb3(%6: !vm.ref<!hal.executable>):  // 2 preds: ^bb1, ^bb2
    vm.global.store.ref %6, @_executable_main_dispatch_0 : !vm.ref<!hal.executable>
    vm.return
  }
}

